…
  top: "data"
  top: "label"
  include {
    phase: TRAIN
  }
  transform_param {
    mirror: true
    crop_size: 321
    mean_value: 104.008
    mean_value: 116.669
    mean_value: 122.675
    scale_factors: 0.5
    scale_factors: 0.75
    scale_factors: 1
    scale_factors: 1.25
    scale_factors: 1.5
  }
  image_data_param {
    source: "/mnt/disk/0/hzxiahouzuoxin/advertisements/gen_textonimg/train.deeplablist"
    batch_size: 1
    shuffle: true
    root_folder: "/mnt/disk/0/hzxiahouzuoxin/advertisements/gen_textonimg/"
    label_type: PIXEL
  }
}
layer {
  name: "data_res05"
  type: "Interp"
  bottom: "data"
  top: "data_res05"
  interp_param {
    shrink_factor: 2
    pad_beg: 0
    pad_end: 0
  }
}
layer {
  name: "data_res075"
  type: "Interp"
  bottom: "data"
  top: "data_res075"
  interp_param {
    zoom_factor: 3
    shrink_factor: 4
    pad_beg: 0
    pad_end: 0
  }
}
layer {
  name: "conv1"
  type: "Convolution"
  bottom: "data"
  top: "conv1"
  param {
    name: "conv1_0"
    lr_mult: 1
    decay_mult: 1
  }
  convolution_param {
    num_output: 64
    bias_term: false
    pad: 3
    kernel_size: 7
    stride: 2
  }
}
layer {
  name: "bn_conv1"
  type: "BatchNorm"
  bottom: "conv1"
  top: "conv1"
  param {
    name: "bn_conv1_0"
    lr_mult: 0
  }
  param {
    name: "bn_conv1_1"
    lr_mult: 0
  }
  param {
    name: "bn_conv1_2"
    lr_mult: 0
  }
  batch_norm_param {
    use_global_stats: true
  }
}
layer {
  name: "scale_conv1"
  type: "Scale"
  bottom: "conv1"
  top: "conv1"
  param {
    name: "scale_conv1_0"
    lr_mult: 0
  }
  param {
    name: "scale_conv1_1"
    lr_mult: 0
  }
  scale_param {
    bias_term: true
  }
}
layer {
  name: "conv1_relu"
  type: "ReLU"
  bottom: "conv1"
  top: "conv1"
}
layer {
  name: "pool1"
  type: "Pooling"
  bottom: "conv1"
  top: "pool1"
  pooling_param {
    pool: MAX
    kernel_size: 3
    stride: 2
    pad: 1
  }
}
layer {
  name: "res2a_branch1"
  type: "Convolution"
  bottom: "pool1"
  top: "res2a_branch1"
  param {
    name: "res2a_branch1_0"
    lr_mult: 1
    decay_mult: 1
  }
  convolution_param {
    num_output: 256
    bias_term: false
    pad: 0
    kernel_size: 1
    stride: 1
  }
}
layer {
  name: "bn2a_branch1"
  type: "BatchNorm"
  bottom: "res2a_branch1"
  top: "res2a_branch1"
  param {
    name: "bn2a_branch1_0"
    lr_mult: 0
  }
  param {
    name: "bn2a_branch1_1"
    lr_mult: 0
  }
  param {
    name: "bn2a_branch1_2"
    lr_mult: 0
  }
  batch_norm_param {
    use_global_stats: true
  }
}
layer {
  name: "scale2a_branch1"
  type: "Scale"
  bottom: "res2a_branch1"
  top: "res2a_branch1"
  param {
    name: "scale2a_branch1_0"
    lr_mult: 0
  }
  param {
    name: "scale2a_branch1_1"
    lr_mult: 0
  }
  scale_param {
    bias_term: true
  }
}
layer {
  name: "res2a_branch2a"
  type: "Convolution"
  bottom: "pool1"
  top: "res2a_branch2a"
  param {
    name: "res2a_branch2a_0"
    lr_mult: 1
    decay_mult: 1
  }
  convolution_param {
    num_output: 64
    bias_term: false
    pad: 0
    kernel_size: 1
    stride: 1
  }
}
layer {
  name: "bn2a_branch2a"
  type: "BatchNorm"
  bottom: "res2a_branch2a"
  top: "res2a_branch2a"
  param {
    name: "bn2a_branch2a_0"
    lr_mult: 0
  }
  param {
    name: "bn2a_branch2a_1"
    lr_mult: 0
  }
  param {
    name: "bn2a_branch2a_2"
    lr_mult: 0
  }
  batch_norm_param {
    use_global_stats: true
  }
}
layer {
  name: "scale2a_branch2a"
  type: "Scale"
  bottom: "res2a_branch2a"
  top: "res2a_branch2a"
  param {
    name: "scale2a_branch2a_0"
    lr_mult: 0
  }
  param {
    name: "scale2a_branch2a_1"
    lr_mult: 0
  }
  scale_param {
    bias_term: true
  }
}
layer {
  name: "res2a_branch2a_relu"
  type: "ReLU"
  bottom: "res2a_branch2a"
  top: "res2a_branch2a"
}
layer {
  name: "res2a_branch2b"
  type: "Convolution"
  bottom: "res2a_branch2a"
  top: "res2a_branch2b"
  param {
    name: "res2a_branch2b_0"
    lr_mult: 1
    decay_mult: 1
  }
  convolution_param {
    num_output: 64
    bias_term: false
    pad: 1
    kernel_size: 3
    stride: 1
  }
}
layer {
  name: "bn2a_branch2b"
  type: "BatchNorm"
  bottom: "res2a_branch2b"
  top: "res2a_branch2b"
  param {
    name: "bn2a_branch2b_0"
    lr_mult: 0
  }
  param {
    name: "bn2a_branch2b_1"
    lr_mult: 0
  }
  param {
    name: "bn2a_branch2b_2"
    lr_mult: 0
  }
  batch_norm_param {
    use_global_stats: true
  }
}
layer {
  name: "scale2a_branch2b"
  type: "Scale"
  bottom: "res2a_branch2b"
  top: "res2a_branch2b"
  param {
    name: "scale2a_branch2b_0"
    lr_mult: 0
  }
  param {
    name: "scale2a_branch2b_1"
    lr_mult: 0
  }
  scale_param {
    bias_term: true
  }
}
layer {
  name: "res2a_branch2b_relu"
  type: "ReLU"
  bottom: "res2a_branch2b"
  top: "res2a_branch2b"
}
layer {
  name: "res2a_branch2c"
  type: "Convolution"
  bottom: "res2a_branch2b"
  top: "res2a_branch2c"
  param {
    name: "res2a_branch2c_0"
    lr_mult: 1
    decay_mult: 1
  }
  convolution_param {
    num_output: 256
    bias_term: false
    pad: 0
    kernel_size: 1
    stride: 1
  }
}
layer {
  name: "bn2a_branch2c"
  type: "BatchNorm"
  bottom: "res2a_branch2c"
  top: "res2a_branch2c"
  param {
    name: "bn2a_branch2c_0"
    lr_mult: 0
  }
  param {
    name: "bn2a_branch2c_1"
    lr_mult: 0
  }
  param {
    name: "bn2a_branch2c_2"
    lr_mult: 0
  }
  batch_norm_param {
    use_global_stats: true
  }
}
layer {
  name: "scale2a_branch2c"
  type: "Scale"
  bottom: "res2a_branch2c"
  top: "res2a_branch2c"
  param {
    name: "scale2a_branch2c_0"
    lr_mult: 0
  }
  param {
    name: "scale2a_branch2c_1"
    lr_mult: 0
  }
  scale_param {
    bias_term: true
  }
}
layer {
  name: "res2a"
  type: "Eltwise"
  bottom: "res2a_branch1"
  bottom: "res2a_branch2c"
  top: "res2a"
}
layer {
  name: "res2a_relu"
  type: "ReLU"
  bottom: "res2a"
  top: "res2a"
}
layer {
  name: "res2b_branch2a"
  type: "Convolution"
  bottom: "res2a"
  top: "res2b_branch2a"
  param {
    name: "res2b_branch2a_0"
    lr_mult: 1
    decay_mult: 1
  }
  convolution_param {
    num_output: 64
    bias_term: false
    pad: 0
    kernel_size: 1
    stride: 1
  }
}
layer {
  name: "bn2b_branch2a"
  type: "BatchNorm"
  bottom: "res2b_branch2a"
  top: "res2b_branch2a"
  param {
    name: "bn2b_branch2a_0"
    lr_mult: 0
  }
  param {
    name: "bn2b_branch2a_1"
    lr_mult: 0
  }
  param {
    name: "bn2b_branch2a_2"
    lr_mult: 0
  }
  batch_norm_param {
    use_global_stats: true
  }
}
layer {
  name: "scale2b_branch2a"
  type: "Scale"
  bottom: "res2b_branch2a"
  top: "res2b_branch2a"
  param {
    name: "scale2b_branch2a_0"
    lr_mult: 0
  }
  param {
    name: "scale2b_branch2a_1"
    lr_mult: 0
  }
  scale_param {
    bias_term: true
  }
}
layer {
  name: "res2b_branch2a_relu"
  type: "ReLU"
  bottom: "res2b_branch2a"
  top: "res2b_branch2a"
}
layer {
  name: "res2b_branch2b"
  type: "Convolution"
  bottom: "res2b_branch2a"
  top: "res2b_branch2b"
  param {
    name: "res2b_branch2b_0"
    lr_mult: 1
    decay_mult: 1
  }
  convolution_param {
    num_output: 64
    bias_term: false
    pad: 1
    kernel_size: 3
    stride: 1
  }
}
layer {
  name: "bn2b_branch2b"
  type: "BatchNorm"
  bottom: "res2b_branch2b"
  top: "res2b_branch2b"
  param {
    name: "bn2b_branch2b_0"
    lr_mult: 0
  }
  param {
    name: "bn2b_branch2b_1"
    lr_mult: 0
  }
  param {
    name: "bn2b_branch2b_2"
    lr_mult: 0
  }
  batch_norm_param {
    use_global_stats: true
  }
}
layer {
  name: "scale2b_branch2b"
  type: "Scale"
  bottom: "res2b_branch2b"
  top: "res2b_branch2b"
  param {
    name: "scale2b_branch2b_0"
    lr_mult: 0
  }
  param {
    name: "scale2b_branch2b_1"
    lr_mult: 0
  }
  scale_param {
    bias_term: true
  }
}
layer {
  name: "res2b_branch2b_relu"
  type: "ReLU"
  bottom: "res2b_branch2b"
  top: "res2b_branch2b"
}
layer {
  name: "res2b_branch2c"
  type: "Convolution"
  bottom: "res2b_branch2b"
  top: "res2b_branch2c"
  param {
    name: "res2b_branch2c_0"
    lr_mult: 1
    decay_mult: 1
  }
  convolution_param {
    num_output: 256
    bias_term: false
    pad: 0
    kernel_size: 1
    stride: 1
  }
}
layer {
  name: "bn2b_branch2c"
  type: "BatchNorm"
  bottom: "res2b_branch2c"
  top: "res2b_branch2c"
  param {
    name: "bn2b_branch2c_0"
    lr_mult: 0
  }
  param {
    name: "bn2b_branch2c_1"
    lr_mult: 0
  }
  param {
    name: "bn2b_branch2c_2"
    lr_mult: 0
  }
  batch_norm_param {
    use_global_stats: true
  }
}
layer {
  name: "scale2b_branch2c"
  type: "Scale"
  bottom: "res2b_branch2c"
  top: "res2b_branch2c"
  param {
    name: "scale2b_branch2c_0"
    lr_mult: 0
  }
  param {
    name: "scale2b_branch2c_1"
    lr_mult: 0
  }
  scale_param {
    bias_term: true
  }
}
layer {
  name: "res2b"
  type: "Eltwise"
  bottom: "res2a"
  bottom: "res2b_branch2c"
  top: "res2b"
}
layer {
  name: "res2b_relu"
  type: "ReLU"
  bottom: "res2b"
  top: "res2b"
}
layer {
  name: "res2c_branch2a"
  type: "Convolution"
  bottom: "res2b"
  top: "res2c_branch2a"
  param {
    name: "res2c_branch2a_0"
    lr_mult: 1
    decay_mult: 1
  }
  convolution_param {
    num_output: 64
    bias_term: false
    pad: 0
    kernel_size: 1
    stride: 1
  }
}
layer {
  name: "bn2c_branch2a"
  type: "BatchNorm"
  bottom: "res2c_branch2a"
  top: "res2c_branch2a"
  param {
    name: "bn2c_branch2a_0"
    lr_mult: 0
  }
  param {
    name: "bn2c_branch2a_1"
    lr_mult: 0
  }
  param {
    name: "bn2c_branch2a_2"
    lr_mult: 0
  }
  batch_norm_param {
    use_global_stats: true
  }
}
layer {
  name: "scale2c_branch2a"
  type: "Scale"
  bottom: "res2c_branch2a"
  top: "res2c_branch2a"
  param {
    name: "scale2c_branch2a_0"
    lr_mult: 0
  }
  param {
    name: "scale2c_branch2a_1"
    lr_mult: 0
  }
  scale_param {
    bias_term: true
  }
}
layer {
  name: "res2c_branch2a_relu"
  type: "ReLU"
  bottom: "res2c_branch2a"
  top: "res2c_branch2a"
}
layer {
  name: "res2c_branch2b"
  type: "Convolution"
  bottom: "res2c_branch2a"
  top: "res2c_branch2b"
  param {
    name: "res2c_branch2b_0"
    lr_mult: 1
    decay_mult: 1
  }
  convolution_param {
    num_output: 64
    bias_term: false
    pad: 1
    kernel_size: 3
    stride: 1
  }
}
layer {
  name: "bn2c_branch2b"
  type: "BatchNorm"
  bottom: "res2c_branch2b"
  top: "res2c_branch2b"
  param {
    name: "bn2c_branch2b_0"
    lr_mult: 0
  }
  param {
    name: "bn2c_branch2b_1"
    lr_mult: 0
  }
  param {
    name: "bn2c_branch2b_2"
    lr_mult: 0
  }
  batch_norm_param {
    use_global_stats: true
  }
}
layer {
  name: "scale2c_branch2b"
  type: "Scale"
  bottom: "res2c_branch2b"
  top: "res2c_branch2b"
  param {
    name: "scale2c_branch2b_0"
    lr_mult: 0
  }
  param {
    name: "scale2c_branch2b_1"
    lr_mult: 0
  }
  scale_param {
    bias_term: true
  }
}
layer {
  name: "res2c_branch2b_relu"
  type: "ReLU"
  bottom: "res2c_branch2b"
  top: "res2c_branch2b"
}
layer {
  name: "res2c_branch2c"
  type: "Convolution"
  bottom: "res2c_branch2b"
  top: "res2c_branch2c"
  param {
    name: "res2c_branch2c_0"
    lr_mult: 1
    decay_mult: 1
  }
  convolution_param {
    num_output: 256
    bias_term: false
    pad: 0
    kernel_size: 1
    stride: 1
  }
}
layer {
  name: "bn2c_branch2c"
  type: "BatchNorm"
  bottom: "res2c_branch2c"
  top: "res2c_branch2c"
  param {
    name: "bn2c_branch2c_0"
    lr_mult: 0
  }
  param {
    name: "bn2c_branch2c_1"
    lr_mult: 0
  }
  param {
    name: "bn2c_branch2c_2"
    lr_mult: 0
  }
  batch_norm_param {
    use_global_stats: true
  }
}
layer {
  name: "scale2c_branch2c"
  type: "Scale"
  bottom: "res2c_branch2c"
  top: "res2c_branch2c"
  param {
    name: "scale2c_branch2c_0"
    lr_mult: 0
  }
  param {
    name: "scale2c_branch2c_1"
    lr_mult: 0
  }
  scale_param {
    bias_term: true
  }
}
layer {
  name: "res2c"
  type: "Eltwise"
  bottom: "res2b"
  bottom: "res2c_branch2c"
  top: "res2c"
}
layer {
  name: "res2c_relu"
  type: "ReLU"
  bottom: "res2c"
  top: "res2c"
}
layer {
  name: "res3a_branch1"
  type: "Convolution"
  bottom: "res2c"
  top: "res3a_branch1"
  param {
    name: "res3a_branch1_0"
    lr_mult: 1
    decay_mult: 1
  }
  convolution_param {
    num_output: 512
    bias_term: false
    pad: 0
    kernel_size: 1
    stride: 2
  }
}
layer {
  name: "bn3a_branch1"
  type: "BatchNorm"
  bottom: "res3a_branch1"
  top: "res3a_branch1"
  param {
    name: "bn3a_branch1_0"
    lr_mult: 0
  }
  param {
    name: "bn3a_branch1_1"
    lr_mult: 0
  }
  param {
    name: "bn3a_branch1_2"
    lr_mult: 0
  }
  batch_norm_param {
    use_global_stats: true
  }
}
layer {
  name: "scale3a_branch1"
  type: "Scale"
  bottom: "res3a_branch1"
  top: "res3a_branch1"
  param {
    name: "scale3a_branch1_0"
    lr_mult: 0
  }
  param {
    name: "scale3a_branch1_1"
    lr_mult: 0
  }
  scale_param {
    bias_term: true
  }
}
layer {
  name: "res3a_branch2a"
  type: "Convolution"
  bottom: "res2c"
  top: "res3a_branch2a"
  param {
    name: "res3a_branch2a_0"
    lr_mult: 1
    decay_mult: 1
  }
  convolution_param {
    num_output: 128
    bias_term: false
    pad: 0
    kernel_size: 1
    stride: 2
  }
}
layer {
  name: "bn3a_branch2a"
  type: "BatchNorm"
  bottom: "res3a_branch2a"
  top: "res3a_branch2a"
  param {
    name: "bn3a_branch2a_0"
    lr_mult: 0
  }
  param {
    name: "bn3a_branch2a_1"
    lr_mult: 0
  }
  param {
    name: "bn3a_branch2a_2"
    lr_mult: 0
  }
  batch_norm_param {
    use_global_stats: true
  }
}
layer {
  name: "scale3a_branch2a"
  type: "Scale"
  bottom: "res3a_branch2a"
  top: "res3a_branch2a"
  param {
    name: "scale3a_branch2a_0"
    lr_mult: 0
  }
  param {
    name: "scale3a_branch2a_1"
    lr_mult: 0
  }
  scale_param {
    bias_term: true
  }
}
layer {
  name: "res3a_branch2a_relu"
  type: "ReLU"
  bottom: "res3a_branch2a"
  top: "res3a_branch2a"
}
layer {
  name: "res3a_branch2b"
  type: "Convolution"
  bottom: "res3a_branch2a"
  top: "res3a_branch2b"
  param {
    name: "res3a_branch2b_0"
    lr_mult: 1
    decay_mult: 1
  }
  convolution_param {
    num_output: 128
    bias_term: false
    pad: 1
    kernel_size: 3
    stride: 1
  }
}
layer {
  name: "bn3a_branch2b"
  type: "BatchNorm"
  bottom: "res3a_branch2b"
  top: "res3a_branch2b"
  param {
    name: "bn3a_branch2b_0"
    lr_mult: 0
  }
  param {
    name: "bn3a_branch2b_1"
    lr_mult: 0
  }
  param {
    name: "bn3a_branch2b_2"
    lr_mult: 0
  }
  batch_norm_param {
    use_global_stats: true
  }
}
layer {
  name: "scale3a_branch2b"
  type: "Scale"
  bottom: "res3a_branch2b"
  top: "res3a_branch2b"
  param {
    name: "scale3a_branch2b_0"
    lr_mult: 0
  }
  param {
    name: "scale3a_branch2b_1"
    lr_mult: 0
  }
  scale_param {
    bias_term: true
  }
}
layer {
  name: "res3a_branch2b_relu"
  type: "ReLU"
  bottom: "res3a_branch2b"
  top: "res3a_branch2b"
}
layer {
  name: "res3a_branch2c"
  type: "Convolution"
  bottom: "res3a_branch2b"
  top: "res3a_branch2c"
  param {
    name: "res3a_branch2c_0"
    lr_mult: 1
    decay_mult: 1
  }
  convolution_param {
    num_output: 512
    bias_term: false
    pad: 0
    kernel_size: 1
    stride: 1
  }
}
layer {
  name: "bn3a_branch2c"
  type: "BatchNorm"
  bottom: "res3a_branch2c"
  top: "res3a_branch2c"
  param {
    name: "bn3a_branch2c_0"
    lr_mult: 0
  }
  param {
    name: "bn3a_branch2c_1"
    lr_mult: 0
  }
  param {
    name: "bn3a_branch2c_2"
    lr_mult: 0
  }
  batch_norm_param {
    use_global_stats: true
  }
}
layer {
  name: "scale3a_branch2c"
  type: "Scale"
  bottom: "res3a_branch2c"
  top: "res3a_branch2c"
  param {
    name: "scale3a_branch2c_0"
    lr_mult: 0
  }
  param {
    name: "scale3a_branch2c_1"
    lr_mult: 0
  }
  scale_param {
    bias_term: true
  }
}
layer {
  name: "res3a"
  type: "Eltwise"
  bottom: "res3a_branch1"
  bottom: "res3a_branch2c"
  top: "res3a"
}
layer {
  name: "res3a_relu"
  type: "ReLU"
  bottom: "res3a"
  top: "res3a"
}
layer {
  name: "res3b1_branch2a"
  type: "Convolution"
  bottom: "res3a"
  top: "res3b1_branch2a"
  param {
    name: "res3b1_branch2a_0"
    lr_mult: 1
    decay_mult: 1
  }
  convolution_param {
    num_output: 128
    bias_term: false
    pad: 0
    kernel_size: 1
    stride: 1
  }
}
layer {
  name: "bn3b1_branch2a"
  type: "BatchNorm"
  bottom: "res3b1_branch2a"
  top: "res3b1_branch2a"
  param {
    name: "bn3b1_branch2a_0"
    lr_mult: 0
  }
  param {
    name: "bn3b1_branch2a_1"
    lr_mult: 0
  }
  param {
    name: "bn3b1_branch2a_2"
    lr_mult: 0
  }
  batch_norm_param {
    use_global_stats: true
  }
}
layer {
  name: "scale3b1_branch2a"
  type: "Scale"
  bottom: "res3b1_branch2a"
  top: "res3b1_branch2a"
  param {
    name: "scale3b1_branch2a_0"
    lr_mult: 0
  }
  param {
    name: "scale3b1_branch2a_1"
    lr_mult: 0
  }
  scale_param {
    bias_term: true
  }
}
layer {
  name: "res3b1_branch2a_relu"
  type: "ReLU"
  bottom: "res3b1_branch2a"
  top: "res3b1_branch2a"
}
layer {
  name: "res3b1_branch2b"
  type: "Convolution"
  bottom: "res3b1_branch2a"
  top: "res3b1_branch2b"
  param {
    name: "res3b1_branch2b_0"
    lr_mult: 1
    decay_mult: 1
  }
  convolution_param {
    num_output: 128
    bias_term: false
    pad: 1
    kernel_size: 3
    stride: 1
  }
}
layer {
  name: "bn3b1_branch2b"
  type: "BatchNorm"
  bottom: "res3b1_branch2b"
  top: "res3b1_branch2b"
  param {
    name: "bn3b1_branch2b_0"
    lr_mult: 0
  }
  param {
    name: "bn3b1_branch2b_1"
    lr_mult: 0
  }
  param {
    name: "bn3b1_branch2b_2"
    lr_mult: 0
  }
  batch_norm_param {
    use_global_stats: true
  }
}
layer {
  name: "scale3b1_branch2b"
  type: "Scale"
  bottom: "res3b1_branch2b"
  top: "res3b1_branch2b"
  param {
    name: "scale3b1_branch2b_0"
    lr_mult: 0
  }
  param {
    name: "scale3b1_branch2b_1"
    lr_mult: 0
  }
  scale_param {
    bias_term: true
  }
}
layer {
  name: "res3b1_branch2b_relu"
  type: "ReLU"
  bottom: "res3b1_branch2b"
  top: "res3b1_branch2b"
}
layer {
  name: "res3b1_branch2c"
  type: "Convolution"
  bottom: "res3b1_branch2b"
  top: "res3b1_branch2c"
  param {
    name: "res3b1_branch2c_0"
    lr_mult: 1
    decay_mult: 1
  }
  convolution_param {
    num_output: 512
    bias_term: false
    pad: 0
    kernel_size: 1
    stride: 1
  }
}
layer {
  name: "bn3b1_branch2c"
  type: "BatchNorm"
  bottom: "res3b1_branch2c"
  top: "res3b1_branch2c"
  param {
    name: "bn3b1_branch2c_0"
    lr_mult: 0
  }
  param {
    name: "bn3b1_branch2c_1"
    lr_mult: 0
  }
  param {
    name: "bn3b1_branch2c_2"
    lr_mult: 0
  }
  batch_norm_param {
    use_global_stats: true
  }
}
layer {
  name: "scale3b1_branch2c"
  type: "Scale"
  bottom: "res3b1_branch2c"
  top: "res3b1_branch2c"
  param {
    name: "scale3b1_branch2c_0"
    lr_mult: 0
  }
  param {
    name: "scale3b1_branch2c_1"
    lr_mult: 0
  }
  scale_param {
    bias_term: true
  }
}
layer {
  name: "res3b1"
  type: "Eltwise"
  bottom: "res3a"
  bottom: "res3b1_branch2c"
  top: "res3b1"
}
layer {
  name: "res3b1_relu"
  type: "ReLU"
  bottom: "res3b1"
  top: "res3b1"
}
layer {
  name: "res3b2_branch2a"
  type: "Convolution"
  bottom: "res3b1"
  top: "res3b2_branch2a"
  param {
    name: "res3b2_branch2a_0"
    lr_mult: 1
    decay_mult: 1
  }
  convolution_param {
    num_output: 128
    bias_term: false
    pad: 0
    kernel_size: 1
    stride: 1
  }
}
layer {
  name: "bn3b2_branch2a"
  type: "BatchNorm"
  bottom: "res3b2_branch2a"
  top: "res3b2_branch2a"
  param {
    name: "bn3b2_branch2a_0"
    lr_mult: 0
  }
  param {
    name: "bn3b2_branch2a_1"
    lr_mult: 0
  }
  param {
    name: "bn3b2_branch2a_2"
    lr_mult: 0
  }
  batch_norm_param {
    use_global_stats: true
  }
}
layer {
  name: "scale3b2_branch2a"
  type: "Scale"
  bottom: "res3b2_branch2a"
  top: "res3b2_branch2a"
  param {
    name: "scale3b2_branch2a_0"
    lr_mult: 0
  }
  param {
    name: "scale3b2_branch2a_1"
    lr_mult: 0
  }
  scale_param {
    bias_term: true
  }
}
layer {
  name: "res3b2_branch2a_relu"
  type: "ReLU"
  bottom: "res3b2_branch2a"
  top: "res3b2_branch2a"
}
layer {
  name: "res3b2_branch2b"
  type: "Convolution"
  bottom: "res3b2_branch2a"
  top: "res3b2_branch2b"
  param {
    name: "res3b2_branch2b_0"
    lr_mult: 1
    decay_mult: 1
  }
  convolution_param {
    num_output: 128
    bias_term: false
    pad: 1
    kernel_size: 3
    stride: 1
  }
}
layer {
  name: "bn3b2_branch2b"
  type: "BatchNorm"
  bottom: "res3b2_branch2b"
  top: "res3b2_branch2b"
  param {
    name: "bn3b2_branch2b_0"
    lr_mult: 0
  }
  param {
    name: "bn3b2_branch2b_1"
    lr_mult: 0
  }
  param {
    name: "bn3b2_branch2b_2"
    lr_mult: 0
  }
  batch_norm_param {
    use_global_stats: true
  }
}
layer {
  name: "scale3b2_branch2b"
  type: "Scale"
  bottom: "res3b2_branch2b"
  top: "res3b2_branch2b"
  param {
    name: "scale3b2_branch2b_0"
    lr_mult: 0
  }
  param {
    name: "scale3b2_branch2b_1"
    lr_mult: 0
  }
  scale_param {
    bias_term: true
  }
}
layer {
  name: "res3b2_branch2b_relu"
  type: "ReLU"
  bottom: "res3b2_branch2b"
  top: "res3b2_branch2b"
}
layer {
  name: "res3b2_branch2c"
  type: "Convolution"
  bottom: "res3b2_branch2b"
  top: "res3b2_branch2c"
  param {
    name: "res3b2_branch2c_0"
    lr_mult: 1
    decay_mult: 1
  }
  convolution_param {
    num_output: 512
    bias_term: false
    pad: 0
    kernel_size: 1
    stride: 1
  }
}
layer {
  name: "bn3b2_branch2c"
  type: "BatchNorm"
  bottom: "res3b2_branch2c"
  top: "res3b2_branch2c"
  param {
    name: "bn3b2_branch2c_0"
    lr_mult: 0
  }
  param {
    name: "bn3b2_branch2c_1"
    lr_mult: 0
  }
  param {
    name: "bn3b2_branch2c_2"
    lr_mult: 0
  }
  batch_norm_param {
    use_global_stats: true
  }
}
layer {
  name: "scale3b2_branch2c"
  type: "Scale"
  bottom: "res3b2_branch2c"
  top: "res3b2_branch2c"
  param {
    name: "scale3b2_branch2c_0"
    lr_mult: 0
  }
  param {
    name: "scale3b2_branch2c_1"
    lr_mult: 0
  }
  scale_param {
    bias_term: true
  }
}
layer {
  name: "res3b2"
  type: "Eltwise"
  bottom: "res3b1"
  bottom: "res3b2_branch2c"
  top: "res3b2"
}
layer {
  name: "res3b2_relu"
  type: "ReLU"
  bottom: "res3b2"
  top: "res3b2"
}
layer {
  name: "res3b3_branch2a"
  type: "Convolution"
  bottom: "res3b2"
  top: "res3b3_branch2a"
  param {
    name: "res3b3_branch2a_0"
    lr_mult: 1
    decay_mult: 1
  }
  convolution_param {
    num_output: 128
    bias_term: false
    pad: 0
    kernel_size: 1
    stride: 1
  }
}
layer {
  name: "bn3b3_branch2a"
  type: "BatchNorm"
  bottom: "res3b3_branch2a"
  top: "res3b3_branch2a"
  param {
    name: "bn3b3_branch2a_0"
    lr_mult: 0
  }
  param {
    name: "bn3b3_branch2a_1"
    lr_mult: 0
  }
  param {
    name: "bn3b3_branch2a_2"
    lr_mult: 0
  }
  batch_norm_param {
    use_global_stats: true
  }
}
layer {
  name: "scale3b3_branch2a"
  type: "Scale"
  bottom: "res3b3_branch2a"
  top: "res3b3_branch2a"
  param {
    name: "scale3b3_branch2a_0"
    lr_mult: 0
  }
  param {
    name: "scale3b3_branch2a_1"
    lr_mult: 0
  }
  scale_param {
    bias_term: true
  }
}
layer {
  name: "res3b3_branch2a_relu"
  type: "ReLU"
  bottom: "res3b3_branch2a"
  top: "res3b3_branch2a"
}
layer {
  name: "res3b3_branch2b"
  type: "Convolution"
  bottom: "res3b3_branch2a"
  top: "res3b3_branch2b"
  param {
    name: "res3b3_branch2b_0"
    lr_mult: 1
    decay_mult: 1
  }
  convolution_param {
    num_output: 128
    bias_term: false
    pad: 1
    kernel_size: 3
    stride: 1
  }
}
layer {
  name: "bn3b3_branch2b"
  type: "BatchNorm"
  bottom: "res3b3_branch2b"
  top: "res3b3_branch2b"
  param {
    name: "bn3b3_branch2b_0"
    lr_mult: 0
  }
  param {
    name: "bn3b3_branch2b_1"
    lr_mult: 0
  }
  param {
    name: "bn3b3_branch2b_2"
    lr_mult: 0
  }
  batch_norm_param {
    use_global_stats: true
  }
}
layer {
  name: "scale3b3_branch2b"
  type: "Scale"
  bottom: "res3b3_branch2b"
  top: "res3b3_branch2b"
  param {
    name: "scale3b3_branch2b_0"
    lr_mult: 0
  }
  param {
    name: "scale3b3_branch2b_1"
    lr_mult: 0
  }
  scale_param {
    bias_term: true
  }
}
layer {
  name: "res3b3_branch2b_relu"
  type: "ReLU"
  bottom: "res3b3_branch2b"
  top: "res3b3_branch2b"
}
layer {
  name: "res3b3_branch2c"
  type: "Convolution"
  bottom: "res3b3_branch2b"
  top: "res3b3_branch2c"
  param {
    name: "res3b3_branch2c_0"
    lr_mult: 1
    decay_mult: 1
  }
  convolution_param {
    num_output: 512
    bias_term: false
    pad: 0
    kernel_size: 1
    stride: 1
  }
}
layer {
  name: "bn3b3_branch2c"
  type: "BatchNorm"
  bottom: "res3b3_branch2c"
  top: "res3b3_branch2c"
  param {
    name: "bn3b3_branch2c_0"
    lr_mult: 0
  }
  param {
    name: "bn3b3_branch2c_1"
    lr_mult: 0
  }
  param {
    name: "bn3b3_branch2c_2"
    lr_mult: 0
  }
  batch_norm_param {
    use_global_stats: true
  }
}
layer {
  name: "scale3b3_branch2c"
  type: "Scale"
  bottom: "res3b3_branch2c"
  top: "res3b3_branch2c"
  param {
    name: "scale3b3_branch2c_0"
    lr_mult: 0
  }
  param {
    name: "scale3b3_branch2c_1"
    lr_mult: 0
  }
  scale_param {
    bias_term: true
  }
}
layer {
  name: "res3b3"
  type: "Eltwise"
  bottom: "res3b2"
  bottom: "res3b3_branch2c"
  top: "res3b3"
}
layer {
  name: "res3b3_relu"
  type: "ReLU"
  bottom: "res3b3"
  top: "res3b3"
}
layer {
  name: "res4a_branch1"
  type: "Convolution"
  bottom: "res3b3"
  top: "res4a_branch1"
  param {
    name: "res4a_branch1_0"
    lr_mult: 1
    decay_mult: 1
  }
  convolution_param {
    num_output: 1024
    bias_term: false
    pad: 0
    kernel_size: 1
    stride: 1
  }
}
layer {
  name: "bn4a_branch1"
  type: "BatchNorm"
  bottom: "res4a_branch1"
  top: "res4a_branch1"
  param {
    name: "bn4a_branch1_0"
    lr_mult: 0
  }
  param {
    name: "bn4a_branch1_1"
    lr_mult: 0
  }
  param {
    name: "bn4a_branch1_2"
    lr_mult: 0
  }
  batch_norm_param {
    use_global_stats: true
  }
}
layer {
  name: "scale4a_branch1"
  type: "Scale"
  bottom: "res4a_branch1"
  top: "res4a_branch1"
  param {
    name: "scale4a_branch1_0"
    lr_mult: 0
  }
  param {
    name: "scale4a_branch1_1"
    lr_mult: 0
  }
  scale_param {
    bias_term: true
  }
}
layer {
  name: "res4a_branch2a"
  type: "Convolution"
  bottom: "res3b3"
  top: "res4a_branch2a"
  param {
    name: "res4a_branch2a_0"
    lr_mult: 1
    decay_mult: 1
  }
  convolution_param {
    num_output: 256
    bias_term: false
    pad: 0
    kernel_size: 1
    stride: 1
  }
}
layer {
  name: "bn4a_branch2a"
  type: "BatchNorm"
  bottom: "res4a_branch2a"
  top: "res4a_branch2a"
  param {
    name: "bn4a_branch2a_0"
    lr_mult: 0
  }
  param {
    name: "bn4a_branch2a_1"
    lr_mult: 0
  }
  param {
    name: "bn4a_branch2a_2"
    lr_mult: 0
  }
  batch_norm_param {
    use_global_stats: true
  }
}
layer {
  name: "scale4a_branch2a"
  type: "Scale"
  bottom: "res4a_branch2a"
  top: "res4a_branch2a"
  param {
    name: "scale4a_branch2a_0"
    lr_mult: 0
  }
  param {
    name: "scale4a_branch2a_1"
    lr_mult: 0
  }
  scale_param {
    bias_term: true
  }
}
layer {
  name: "res4a_branch2a_relu"
  type: "ReLU"
  bottom: "res4a_branch2a"
  top: "res4a_branch2a"
}
layer {
  name: "res4a_branch2b"
  type: "Convolution"
  bottom: "res4a_branch2a"
  top: "res4a_branch2b"
  param {
    name: "res4a_branch2b_0"
    lr_mult: 1
    decay_mult: 1
  }
  convolution_param {
    num_output: 256
    bias_term: false
    pad: 2
    kernel_size: 3
    stride: 1
    dilation: 2
  }
}
layer {
  name: "bn4a_branch2b"
  type: "BatchNorm"
  bottom: "res4a_branch2b"
  top: "res4a_branch2b"
  param {
    name: "bn4a_branch2b_0"
    lr_mult: 0
  }
  param {
    name: "bn4a_branch2b_1"
    lr_mult: 0
  }
  param {
    name: "bn4a_branch2b_2"
    lr_mult: 0
  }
  batch_norm_param {
    use_global_stats: true
  }
}
layer {
  name: "scale4a_branch2b"
  type: "Scale"
  bottom: "res4a_branch2b"
  top: "res4a_branch2b"
  param {
    name: "scale4a_branch2b_0"
    lr_mult: 0
  }
  param {
    name: "scale4a_branch2b_1"
    lr_mult: 0
  }
  scale_param {
    bias_term: true
  }
}
layer {
  name: "res4a_branch2b_relu"
  type: "ReLU"
  bottom: "res4a_branch2b"
  top: "res4a_branch2b"
}
layer {
  name: "res4a_branch2c"
  type: "Convolution"
  bottom: "res4a_branch2b"
  top: "res4a_branch2c"
  param {
    name: "res4a_branch2c_0"
    lr_mult: 1
    decay_mult: 1
  }
  convolution_param {
    num_output: 1024
    bias_term: false
    pad: 0
    kernel_size: 1
    stride: 1
  }
}
layer {
  name: "bn4a_branch2c"
  type: "BatchNorm"
  bottom: "res4a_branch2c"
  top: "res4a_branch2c"
  param {
    name: "bn4a_branch2c_0"
    lr_mult: 0
  }
  param {
    name: "bn4a_branch2c_1"
    lr_mult: 0
  }
  param {
    name: "bn4a_branch2c_2"
    lr_mult: 0
  }
  batch_norm_param {
    use_global_stats: true
  }
}
layer {
  name: "scale4a_branch2c"
  type: "Scale"
  bottom: "res4a_branch2c"
  top: "res4a_branch2c"
  param {
    name: "scale4a_branch2c_0"
    lr_mult: 0
  }
  param {
    name: "scale4a_branch2c_1"
    lr_mult: 0
  }
  scale_param {
    bias_term: true
  }
}
layer {
  name: "res4a"
  type: "Eltwise"
  bottom: "res4a_branch1"
  bottom: "res4a_branch2c"
  top: "res4a"
}
layer {
  name: "res4a_relu"
  type: "ReLU"
  bottom: "res4a"
  top: "res4a"
}
layer {
  name: "res4b1_branch2a"
  type: "Convolution"
  bottom: "res4a"
  top: "res4b1_branch2a"
  param {
    name: "res4b1_branch2a_0"
    lr_mult: 1
    decay_mult: 1
  }
  convolution_param {
    num_output: 256
    bias_term: false
    pad: 0
    kernel_size: 1
    stride: 1
  }
}
layer {
  name: "bn4b1_branch2a"
  type: "BatchNorm"
  bottom: "res4b1_branch2a"
  top: "res4b1_branch2a"
  param {
    name: "bn4b1_branch2a_0"
    lr_mult: 0
  }
  param {
    name: "bn4b1_branch2a_1"
    lr_mult: 0
  }
  param {
    name: "bn4b1_branch2a_2"
    lr_mult: 0
  }
  batch_norm_param {
    use_global_stats: true
  }
}
layer {
  name: "scale4b1_branch2a"
  type: "Scale"
  bottom: "res4b1_branch2a"
  top: "res4b1_branch2a"
  param {
    name:
I1207 20:04:39.011070  8737 layer_factory.hpp:77] Creating layer data
I1207 20:04:39.011142  8737 net.cpp:106] Creating Layer data
I1207 20:04:39.011163  8737 net.cpp:411] data -> data
I1207 20:04:39.011214  8737 net.cpp:411] data -> label
I1207 20:04:39.011240  8737 net.cpp:411] data -> (automatic)
I1207 20:04:39.011806  8737 image_seg_data_layer.cpp:46] Opening file /mnt/disk/0/hzxiahouzuoxin/advertisements/gen_textonimg/train.deeplablist
I1207 20:04:39.050443  8737 image_seg_data_layer.cpp:63] Shuffling data
I1207 20:04:39.053937  8737 image_seg_data_layer.cpp:68] A total of 22500 images.
I1207 20:04:39.093600  8737 image_seg_data_layer.cpp:137] output data size: 1,3,321,321
I1207 20:04:39.093623  8737 image_seg_data_layer.cpp:141] output label size: 1,1,321,321
I1207 20:04:39.093633  8737 image_seg_data_layer.cpp:145] output data_dim size: 1,1,1,2
I1207 20:04:39.102124  8737 net.cpp:150] Setting up data
I1207 20:04:39.102169  8737 net.cpp:157] Top shape: 1 3 321 321 (309123)
I1207 20:04:39.102185  8737 net.cpp:157] Top shape: 1 1 321 321 (103041)
I1207 20:04:39.102200  8737 net.cpp:157] Top shape: 1 1 1 2 (2)
I1207 20:04:39.102208  8737 net.cpp:165] Memory required for data: 1648664
I1207 20:04:39.102226  8737 layer_factory.hpp:77] Creating layer data_data_0_split
I1207 20:04:39.102252  8737 net.cpp:106] Creating Layer data_data_0_split
I1207 20:04:39.102264  8737 net.cpp:454] data_data_0_split <- data
I1207 20:04:39.102295  8737 net.cpp:411] data_data_0_split -> data_data_0_split_0
I1207 20:04:39.102316  8737 net.cpp:411] data_data_0_split -> data_data_0_split_1
I1207 20:04:39.102332  8737 net.cpp:411] data_data_0_split -> data_data_0_split_2
I1207 20:04:39.102427  8737 net.cpp:150] Setting up data_data_0_split
I1207 20:04:39.102443  8737 net.cpp:157] Top shape: 1 3 321 321 (309123)
I1207 20:04:39.102455  8737 net.cpp:157] Top shape: 1 3 321 321 (309123)
I1207 20:04:39.102466  8737 net.cpp:157] Top shape: 1 3 321 321 (309123)
I1207 20:04:39.102475  8737 net.cpp:165] Memory required for data: 5358140
I1207 20:04:39.102485  8737 layer_factory.hpp:77] Creating layer label_data_1_split
I1207 20:04:39.102509  8737 net.cpp:106] Creating Layer label_data_1_split
I1207 20:04:39.102533  8737 net.cpp:454] label_data_1_split <- label
I1207 20:04:39.102547  8737 net.cpp:411] label_data_1_split -> label_data_1_split_0
I1207 20:04:39.102562  8737 net.cpp:411] label_data_1_split -> label_data_1_split_1
I1207 20:04:39.102608  8737 net.cpp:150] Setting up label_data_1_split
I1207 20:04:39.102623  8737 net.cpp:157] Top shape: 1 1 321 321 (103041)
I1207 20:04:39.102634  8737 net.cpp:157] Top shape: 1 1 321 321 (103041)
I1207 20:04:39.102643  8737 net.cpp:165] Memory required for data: 6182468
I1207 20:04:39.102653  8737 layer_factory.hpp:77] Creating layer data_res05
I1207 20:04:39.102670  8737 net.cpp:106] Creating Layer data_res05
I1207 20:04:39.102680  8737 net.cpp:454] data_res05 <- data_data_0_split_0
I1207 20:04:39.102694  8737 net.cpp:411] data_res05 -> data_res05
I1207 20:04:39.102735  8737 net.cpp:150] Setting up data_res05
I1207 20:04:39.102751  8737 net.cpp:157] Top shape: 1 3 161 161 (77763)
I1207 20:04:39.102761  8737 net.cpp:165] Memory required for data: 6493520
I1207 20:04:39.102769  8737 layer_factory.hpp:77] Creating layer data_res075
I1207 20:04:39.102784  8737 net.cpp:106] Creating Layer data_res075
I1207 20:04:39.102794  8737 net.cpp:454] data_res075 <- data_data_0_split_1
I1207 20:04:39.102807  8737 net.cpp:411] data_res075 -> data_res075
I1207 20:04:39.102840  8737 net.cpp:150] Setting up data_res075
I1207 20:04:39.102854  8737 net.cpp:157] Top shape: 1 3 241 241 (174243)
I1207 20:04:39.102864  8737 net.cpp:165] Memory required for data: 7190492
I1207 20:04:39.102872  8737 layer_factory.hpp:77] Creating layer conv1
I1207 20:04:39.102896  8737 net.cpp:106] Creating Layer conv1
I1207 20:04:39.102907  8737 net.cpp:454] conv1 <- data_data_0_split_2
I1207 20:04:39.102921  8737 net.cpp:411] conv1 -> conv1
I1207 20:04:39.103873  8737 net.cpp:150] Setting up conv1
I1207 20:04:39.103893  8737 net.cpp:157] Top shape: 1 64 161 161 (1658944)
I1207 20:04:39.103904  8737 net.cpp:165] Memory required for data: 13826268
I1207 20:04:39.103926  8737 layer_factory.hpp:77] Creating layer bn_conv1
I1207 20:04:39.103945  8737 net.cpp:106] Creating Layer bn_conv1
I1207 20:04:39.103956  8737 net.cpp:454] bn_conv1 <- conv1
I1207 20:04:39.103971  8737 net.cpp:397] bn_conv1 -> conv1 (in-place)
I1207 20:04:39.104959  8737 net.cpp:150] Setting up bn_conv1
I1207 20:04:39.104979  8737 net.cpp:157] Top shape: 1 64 161 161 (1658944)
I1207 20:04:39.104990  8737 net.cpp:165] Memory required for data: 20462044
I1207 20:04:39.105008  8737 layer_factory.hpp:77] Creating layer scale_conv1
I1207 20:04:39.105028  8737 net.cpp:106] Creating Layer scale_conv1
I1207 20:04:39.105039  8737 net.cpp:454] scale_conv1 <- conv1
I1207 20:04:39.105053  8737 net.cpp:397] scale_conv1 -> conv1 (in-place)
I1207 20:04:39.105134  8737 layer_factory.hpp:77] Creating layer scale_conv1
I1207 20:04:39.105332  8737 net.cpp:150] Setting up scale_conv1
I1207 20:04:39.105350  8737 net.cpp:157] Top shape: 1 64 161 161 (1658944)
I1207 20:04:39.105360  8737 net.cpp:165] Memory required for data: 27097820
I1207 20:04:39.105376  8737 layer_factory.hpp:77] Creating layer conv1_relu
I1207 20:04:39.105391  8737 net.cpp:106] Creating Layer conv1_relu
I1207 20:04:39.105401  8737 net.cpp:454] conv1_relu <- conv1
I1207 20:04:39.105413  8737 net.cpp:397] conv1_relu -> conv1 (in-place)
I1207 20:04:39.105430  8737 net.cpp:150] Setting up conv1_relu
I1207 20:04:39.105443  8737 net.cpp:157] Top shape: 1 64 161 161 (1658944)
I1207 20:04:39.105451  8737 net.cpp:165] Memory required for data: 33733596
I1207 20:04:39.105460  8737 layer_factory.hpp:77] Creating layer pool1
I1207 20:04:39.105474  8737 net.cpp:106] Creating Layer pool1
I1207 20:04:39.105484  8737 net.cpp:454] pool1 <- conv1
I1207 20:04:39.105496  8737 net.cpp:411] pool1 -> pool1
I1207 20:04:39.105559  8737 net.cpp:150] Setting up pool1
I1207 20:04:39.105576  8737 net.cpp:157] Top shape: 1 64 81 81 (419904)
I1207 20:04:39.105584  8737 net.cpp:165] Memory required for data: 35413212
I1207 20:04:39.105599  8737 layer_factory.hpp:77] Creating layer pool1_pool1_0_split
I1207 20:04:39.105620  8737 net.cpp:106] Creating Layer pool1_pool1_0_split
I1207 20:04:39.105630  8737 net.cpp:454] pool1_pool1_0_split <- pool1
I1207 20:04:39.105643  8737 net.cpp:411] pool1_pool1_0_split -> pool1_pool1_0_split_0
I1207 20:04:39.105657  8737 net.cpp:411] pool1_pool1_0_split -> pool1_pool1_0_split_1
I1207 20:04:39.105702  8737 net.cpp:150] Setting up pool1_pool1_0_split
I1207 20:04:39.105716  8737 net.cpp:157] Top shape: 1 64 81 81 (419904)
I1207 20:04:39.105728  8737 net.cpp:157] Top shape: 1 64 81 81 (419904)
I1207 20:04:39.105736  8737 net.cpp:165] Memory required for data: 38772444
I1207 20:04:39.105746  8737 layer_factory.hpp:77] Creating layer res2a_branch1
I1207 20:04:39.105761  8737 net.cpp:106] Creating Layer res2a_branch1
I1207 20:04:39.105772  8737 net.cpp:454] res2a_branch1 <- pool1_pool1_0_split_0
I1207 20:04:39.105784  8737 net.cpp:411] res2a_branch1 -> res2a_branch1
I1207 20:04:39.106014  8737 net.cpp:150] Setting up res2a_branch1
I1207 20:04:39.106030  8737 net.cpp:157] Top shape: 1 256 81 81 (1679616)
I1207 20:04:39.106040  8737 net.cpp:165] Memory required for data: 45490908
I1207 20:04:39.106051  8737 layer_factory.hpp:77] Creating layer bn2a_branch1
I1207 20:04:39.106066  8737 net.cpp:106] Creating Layer bn2a_branch1
I1207 20:04:39.106076  8737 net.cpp:454] bn2a_branch1 <- res2a_branch1
I1207 20:04:39.106089  8737 net.cpp:397] bn2a_branch1 -> res2a_branch1 (in-place)
I1207 20:04:39.106284  8737 net.cpp:150] Setting up bn2a_branch1
I1207 20:04:39.106300  8737 net.cpp:157] Top shape: 1 256 81 81 (1679616)
I1207 20:04:39.106309  8737 net.cpp:165] Memory required for data: 52209372
I1207 20:04:39.106328  8737 layer_factory.hpp:77] Creating layer scale2a_branch1
I1207 20:04:39.106343  8737 net.cpp:106] Creating Layer scale2a_branch1
I1207 20:04:39.106353  8737 net.cpp:454] scale2a_branch1 <- res2a_branch1
I1207 20:04:39.106365  8737 net.cpp:397] scale2a_branch1 -> res2a_branch1 (in-place)
I1207 20:04:39.106417  8737 layer_factory.hpp:77] Creating layer scale2a_branch1
I1207 20:04:39.106560  8737 net.cpp:150] Setting up scale2a_branch1
I1207 20:04:39.106577  8737 net.cpp:157] Top shape: 1 256 81 81 (1679616)
I1207 20:04:39.106586  8737 net.cpp:165] Memory required for data: 58927836
I1207 20:04:39.106600  8737 layer_factory.hpp:77] Creating layer res2a_branch2a
I1207 20:04:39.106614  8737 net.cpp:106] Creating Layer res2a_branch2a
I1207 20:04:39.106624  8737 net.cpp:454] res2a_branch2a <- pool1_pool1_0_split_1
I1207 20:04:39.106638  8737 net.cpp:411] res2a_branch2a -> res2a_branch2a
I1207 20:04:39.107475  8737 net.cpp:150] Setting up res2a_branch2a
I1207 20:04:39.107494  8737 net.cpp:157] Top shape: 1 64 81 81 (419904)
I1207 20:04:39.107503  8737 net.cpp:165] Memory required for data: 60607452
I1207 20:04:39.107517  8737 layer_factory.hpp:77] Creating layer bn2a_branch2a
I1207 20:04:39.107532  8737 net.cpp:106] Creating Layer bn2a_branch2a
I1207 20:04:39.107542  8737 net.cpp:454] bn2a_branch2a <- res2a_branch2a
I1207 20:04:39.107555  8737 net.cpp:397] bn2a_branch2a -> res2a_branch2a (in-place)
I1207 20:04:39.107761  8737 net.cpp:150] Setting up bn2a_branch2a
I1207 20:04:39.107779  8737 net.cpp:157] Top shape: 1 64 81 81 (419904)
I1207 20:04:39.107787  8737 net.cpp:165] Memory required for data: 62287068
I1207 20:04:39.107802  8737 layer_factory.hpp:77] Creating layer scale2a_branch2a
I1207 20:04:39.107820  8737 net.cpp:106] Creating Layer scale2a_branch2a
I1207 20:04:39.107830  8737 net.cpp:454] scale2a_branch2a <- res2a_branch2a
I1207 20:04:39.107843  8737 net.cpp:397] scale2a_branch2a -> res2a_branch2a (in-place)
I1207 20:04:39.107898  8737 layer_factory.hpp:77] Creating layer scale2a_branch2a
I1207 20:04:39.108054  8737 net.cpp:150] Setting up scale2a_branch2a
I1207 20:04:39.108072  8737 net.cpp:157] Top shape: 1 64 81 81 (419904)
I1207 20:04:39.108080  8737 net.cpp:165] Memory required for data: 63966684
I1207 20:04:39.108098  8737 layer_factory.hpp:77] Creating layer res2a_branch2a_relu
I1207 20:04:39.108116  8737 net.cpp:106] Creating Layer res2a_branch2a_relu
I1207 20:04:39.108134  8737 net.cpp:454] res2a_branch2a_relu <- res2a_branch2a
I1207 20:04:39.108155  8737 net.cpp:397] res2a_branch2a_relu -> res2a_branch2a (in-place)
I1207 20:04:39.108171  8737 net.cpp:150] Setting up res2a_branch2a_relu
I1207 20:04:39.108183  8737 net.cpp:157] Top shape: 1 64 81 81 (419904)
I1207 20:04:39.108192  8737 net.cpp:165] Memory required for data: 65646300
I1207 20:04:39.108201  8737 layer_factory.hpp:77] Creating layer res2a_branch2b
I1207 20:04:39.108216  8737 net.cpp:106] Creating Layer res2a_branch2b
I1207 20:04:39.108225  8737 net.cpp:454] res2a_branch2b <- res2a_branch2a
I1207 20:04:39.108238  8737 net.cpp:411] res2a_branch2b -> res2a_branch2b
I1207 20:04:39.108486  8737 net.cpp:150] Setting up res2a_branch2b
I1207 20:04:39.108505  8737 net.cpp:157] Top shape: 1 64 81 81 (419904)
I1207 20:04:39.108515  8737 net.cpp:165] Memory required for data: 67325916
I1207 20:04:39.108525  8737 layer_factory.hpp:77] Creating layer bn2a_branch2b
I1207 20:04:39.108541  8737 net.cpp:106] Creating Layer bn2a_branch2b
I1207 20:04:39.108551  8737 net.cpp:454] bn2a_branch2b <- res2a_branch2b
I1207 20:04:39.108563  8737 net.cpp:397] bn2a_branch2b -> res2a_branch2b (in-place)
I1207 20:04:39.108769  8737 net.cpp:150] Setting up bn2a_branch2b
I1207 20:04:39.108785  8737 net.cpp:157] Top shape: 1 64 81 81 (419904)
I1207 20:04:39.108794  8737 net.cpp:165] Memory required for data: 69005532
I1207 20:04:39.108808  8737 layer_factory.hpp:77] Creating layer scale2a_branch2b
I1207 20:04:39.108822  8737 net.cpp:106] Creating Layer scale2a_branch2b
I1207 20:04:39.108832  8737 net.cpp:454] scale2a_branch2b <- res2a_branch2b
I1207 20:04:39.108844  8737 net.cpp:397] scale2a_branch2b -> res2a_branch2b (in-place)
I1207 20:04:39.108897  8737 layer_factory.hpp:77] Creating layer scale2a_branch2b
I1207 20:04:39.109050  8737 net.cpp:150] Setting up scale2a_branch2b
I1207 20:04:39.109066  8737 net.cpp:157] Top shape: 1 64 81 81 (419904)
I1207 20:04:39.109076  8737 net.cpp:165] Memory required for data: 70685148
I1207 20:04:39.109087  8737 layer_factory.hpp:77] Creating layer res2a_branch2b_relu
I1207 20:04:39.109100  8737 net.cpp:106] Creating Layer res2a_branch2b_relu
I1207 20:04:39.109110  8737 net.cpp:454] res2a_branch2b_relu <- res2a_branch2b
I1207 20:04:39.109122  8737 net.cpp:397] res2a_branch2b_relu -> res2a_branch2b (in-place)
I1207 20:04:39.109136  8737 net.cpp:150] Setting up res2a_branch2b_relu
I1207 20:04:39.109148  8737 net.cpp:157] Top shape: 1 64 81 81 (419904)
I1207 20:04:39.109158  8737 net.cpp:165] Memory required for data: 72364764
I1207 20:04:39.109166  8737 layer_factory.hpp:77] Creating layer res2a_branch2c
I1207 20:04:39.109180  8737 net.cpp:106] Creating Layer res2a_branch2c
I1207 20:04:39.109190  8737 net.cpp:454] res2a_branch2c <- res2a_branch2b
I1207 20:04:39.109203  8737 net.cpp:411] res2a_branch2c -> res2a_branch2c
I1207 20:04:39.109423  8737 net.cpp:150] Setting up res2a_branch2c
I1207 20:04:39.109441  8737 net.cpp:157] Top shape: 1 256 81 81 (1679616)
I1207 20:04:39.109449  8737 net.cpp:165] Memory required for data: 79083228
I1207 20:04:39.109460  8737 layer_factory.hpp:77] Creating layer bn2a_branch2c
I1207 20:04:39.109475  8737 net.cpp:106] Creating Layer bn2a_branch2c
I1207 20:04:39.109484  8737 net.cpp:454] bn2a_branch2c <- res2a_branch2c
I1207 20:04:39.109498  8737 net.cpp:397] bn2a_branch2c -> res2a_branch2c (in-place)
I1207 20:04:39.109690  8737 net.cpp:150] Setting up bn2a_branch2c
I1207 20:04:39.109706  8737 net.cpp:157] Top shape: 1 256 81 81 (1679616)
I1207 20:04:39.109715  8737 net.cpp:165] Memory required for data: 85801692
I1207 20:04:39.109730  8737 layer_factory.hpp:77] Creating layer scale2a_branch2c
I1207 20:04:39.109745  8737 net.cpp:106] Creating Layer scale2a_branch2c
I1207 20:04:39.109755  8737 net.cpp:454] scale2a_branch2c <- res2a_branch2c
I1207 20:04:39.109767  8737 net.cpp:397] scale2a_branch2c -> res2a_branch2c (in-place)
I1207 20:04:39.109820  8737 layer_factory.hpp:77] Creating layer scale2a_branch2c
I1207 20:04:39.109966  8737 net.cpp:150] Setting up scale2a_branch2c
I1207 20:04:39.109990  8737 net.cpp:157] Top shape: 1 256 81 81 (1679616)
I1207 20:04:39.110000  8737 net.cpp:165] Memory required for data: 92520156
I1207 20:04:39.110013  8737 layer_factory.hpp:77] Creating layer res2a
I1207 20:04:39.110030  8737 net.cpp:106] Creating Layer res2a
I1207 20:04:39.110041  8737 net.cpp:454] res2a <- res2a_branch1
I1207 20:04:39.110052  8737 net.cpp:454] res2a <- res2a_branch2c
I1207 20:04:39.110065  8737 net.cpp:411] res2a -> res2a
I1207 20:04:39.110102  8737 net.cpp:150] Setting up res2a
I1207 20:04:39.110117  8737 net.cpp:157] Top shape: 1 256 81 81 (1679616)
I1207 20:04:39.110127  8737 net.cpp:165] Memory required for data: 99238620
I1207 20:04:39.110136  8737 layer_factory.hpp:77] Creating layer res2a_relu
I1207 20:04:39.110148  8737 net.cpp:106] Creating Layer res2a_relu
I1207 20:04:39.110158  8737 net.cpp:454] res2a_relu <- res2a
I1207 20:04:39.110172  8737 net.cpp:397] res2a_relu -> res2a (in-place)
I1207 20:04:39.110185  8737 net.cpp:150] Setting up res2a_relu
I1207 20:04:39.110196  8737 net.cpp:157] Top shape: 1 256 81 81 (1679616)
I1207 20:04:39.110205  8737 net.cpp:165] Memory required for data: 105957084
I1207 20:04:39.110214  8737 layer_factory.hpp:77] Creating layer res2a_res2a_relu_0_split
I1207 20:04:39.110226  8737 net.cpp:106] Creating Layer res2a_res2a_relu_0_split
I1207 20:04:39.110235  8737 net.cpp:454] res2a_res2a_relu_0_split <- res2a
I1207 20:04:39.110247  8737 net.cpp:411] res2a_res2a_relu_0_split -> res2a_res2a_relu_0_split_0
I1207 20:04:39.110261  8737 net.cpp:411] res2a_res2a_relu_0_split -> res2a_res2a_relu_0_split_1
I1207 20:04:39.110306  8737 net.cpp:150] Setting up res2a_res2a_relu_0_split
I1207 20:04:39.110321  8737 net.cpp:157] Top shape: 1 256 81 81 (1679616)
I1207 20:04:39.110332  8737 net.cpp:157] Top shape: 1 256 81 81 (1679616)
I1207 20:04:39.110340  8737 net.cpp:165] Memory required for data: 119394012
I1207 20:04:39.110349  8737 layer_factory.hpp:77] Creating layer res2b_branch2a
I1207 20:04:39.110363  8737 net.cpp:106] Creating Layer res2b_branch2a
I1207 20:04:39.110373  8737 net.cpp:454] res2b_branch2a <- res2a_res2a_relu_0_split_0
I1207 20:04:39.110388  8737 net.cpp:411] res2b_branch2a -> res2b_branch2a
I1207 20:04:39.110611  8737 net.cpp:150] Setting up res2b_branch2a
I1207 20:04:39.110628  8737 net.cpp:157] Top shape: 1 64 81 81 (419904)
I1207 20:04:39.110637  8737 net.cpp:165] Memory required for data: 121073628
I1207 20:04:39.110649  8737 layer_factory.hpp:77] Creating layer bn2b_branch2a
I1207 20:04:39.110663  8737 net.cpp:106] Creating Layer bn2b_branch2a
I1207 20:04:39.110673  8737 net.cpp:454] bn2b_branch2a <- res2b_branch2a
I1207 20:04:39.110687  8737 net.cpp:397] bn2b_branch2a -> res2b_branch2a (in-place)
I1207 20:04:39.110887  8737 net.cpp:150] Setting up bn2b_branch2a
I1207 20:04:39.110903  8737 net.cpp:157] Top shape: 1 64 81 81 (419904)
I1207 20:04:39.110911  8737 net.cpp:165] Memory required for data: 122753244
I1207 20:04:39.110932  8737 layer_factory.hpp:77] Creating layer scale2b_branch2a
I1207 20:04:39.110947  8737 net.cpp:106] Creating Layer scale2b_branch2a
I1207 20:04:39.110957  8737 net.cpp:454] scale2b_branch2a <- res2b_branch2a
I1207 20:04:39.110970  8737 net.cpp:397] scale2b_branch2a -> res2b_branch2a (in-place)
I1207 20:04:39.111023  8737 layer_factory.hpp:77] Creating layer scale2b_branch2a
I1207 20:04:39.111167  8737 net.cpp:150] Setting up scale2b_branch2a
I1207 20:04:39.111183  8737 net.cpp:157] Top shape: 1 64 81 81 (419904)
I1207 20:04:39.111193  8737 net.cpp:165] Memory required for data: 124432860
I1207 20:04:39.111207  8737 layer_factory.hpp:77] Creating layer res2b_branch2a_relu
I1207 20:04:39.111218  8737 net.cpp:106] Creating Layer res2b_branch2a_relu
I1207 20:04:39.111228  8737 net.cpp:454] res2b_branch2a_relu <- res2b_branch2a
I1207 20:04:39.111241  8737 net.cpp:397] res2b_branch2a_relu -> res2b_branch2a (in-place)
I1207 20:04:39.111254  8737 net.cpp:150] Setting up res2b_branch2a_relu
I1207 20:04:39.111266  8737 net.cpp:157] Top shape: 1 64 81 81 (419904)
I1207 20:04:39.111280  8737 net.cpp:165] Memory required for data: 126112476
I1207 20:04:39.111296  8737 layer_factory.hpp:77] Creating layer res2b_branch2b
I1207 20:04:39.111315  8737 net.cpp:106] Creating Layer res2b_branch2b
I1207 20:04:39.111325  8737 net.cpp:454] res2b_branch2b <- res2b_branch2a
I1207 20:04:39.111338  8737 net.cpp:411] res2b_branch2b -> res2b_branch2b
I1207 20:04:39.111577  8737 net.cpp:150] Setting up res2b_branch2b
I1207 20:04:39.111594  8737 net.cpp:157] Top shape: 1 64 81 81 (419904)
I1207 20:04:39.111603  8737 net.cpp:165] Memory required for data: 127792092
I1207 20:04:39.111615  8737 layer_factory.hpp:77] Creating layer bn2b_branch2b
I1207 20:04:39.111630  8737 net.cpp:106] Creating Layer bn2b_branch2b
I1207 20:04:39.111640  8737 net.cpp:454] bn2b_branch2b <- res2b_branch2b
I1207 20:04:39.111654  8737 net.cpp:397] bn2b_branch2b -> res2b_branch2b (in-place)
I1207 20:04:39.111863  8737 net.cpp:150] Setting up bn2b_branch2b
I1207 20:04:39.111879  8737 net.cpp:157] Top shape: 1 64 81 81 (419904)
I1207 20:04:39.111888  8737 net.cpp:165] Memory required for data: 129471708
I1207 20:04:39.111903  8737 layer_factory.hpp:77] Creating layer scale2b_branch2b
I1207 20:04:39.111917  8737 net.cpp:106] Creating Layer scale2b_branch2b
I1207 20:04:39.111927  8737 net.cpp:454] scale2b_branch2b <- res2b_branch2b
I1207 20:04:39.111939  8737 net.cpp:397] scale2b_branch2b -> res2b_branch2b (in-place)
I1207 20:04:39.111992  8737 layer_factory.hpp:77] Creating layer scale2b_branch2b
I1207 20:04:39.112141  8737 net.cpp:150] Setting up scale2b_branch2b
I1207 20:04:39.112166  8737 net.cpp:157] Top shape: 1 64 81 81 (419904)
I1207 20:04:39.112175  8737 net.cpp:165] Memory required for data: 131151324
I1207 20:04:39.112188  8737 layer_factory.hpp:77] Creating layer res2b_branch2b_relu
I1207 20:04:39.112201  8737 net.cpp:106] Creating Layer res2b_branch2b_relu
I1207 20:04:39.112211  8737 net.cpp:454] res2b_branch2b_relu <- res2b_branch2b
I1207 20:04:39.112223  8737 net.cpp:397] res2b_branch2b_relu -> res2b_branch2b (in-place)
I1207 20:04:39.112237  8737 net.cpp:150] Setting up res2b_branch2b_relu
I1207 20:04:39.112249  8737 net.cpp:157] Top shape: 1 64 81 81 (419904)
I1207 20:04:39.112257  8737 net.cpp:165] Memory required for data: 132830940
I1207 20:04:39.112267  8737 layer_factory.hpp:77] Creating layer res2b_branch2c
I1207 20:04:39.112280  8737 net.cpp:106] Creating Layer res2b_branch2c
I1207 20:04:39.112290  8737 net.cpp:454] res2b_branch2c <- res2b_branch2b
I1207 20:04:39.112303  8737 net.cpp:411] res2b_branch2c -> res2b_branch2c
I1207 20:04:39.112532  8737 net.cpp:150] Setting up res2b_branch2c
I1207 20:04:39.112550  8737 net.cpp:157] Top shape: 1 256 81 81 (1679616)
I1207 20:04:39.112558  8737 net.cpp:165] Memory required for data: 139549404
I1207 20:04:39.112570  8737 layer_factory.hpp:77] Creating layer bn2b_branch2c
I1207 20:04:39.112584  8737 net.cpp:106] Creating Layer bn2b_branch2c
I1207 20:04:39.112594  8737 net.cpp:454] bn2b_branch2c <- res2b_branch2c
I1207 20:04:39.112607  8737 net.cpp:397] bn2b_branch2c -> res2b_branch2c (in-place)
I1207 20:04:39.112805  8737 net.cpp:150] Setting up bn2b_branch2c
I1207 20:04:39.112821  8737 net.cpp:157] Top shape: 1 256 81 81 (1679616)
I1207 20:04:39.112830  8737 net.cpp:165] Memory required for data: 146267868
I1207 20:04:39.112844  8737 layer_factory.hpp:77] Creating layer scale2b_branch2c
I1207 20:04:39.112859  8737 net.cpp:106] Creating Layer scale2b_branch2c
I1207 20:04:39.112869  8737 net.cpp:454] scale2b_branch2c <- res2b_branch2c
I1207 20:04:39.112881  8737 net.cpp:397] scale2b_branch2c -> res2b_branch2c (in-place)
I1207 20:04:39.112936  8737 layer_factory.hpp:77] Creating layer scale2b_branch2c
I1207 20:04:39.113087  8737 net.cpp:150] Setting up scale2b_branch2c
I1207 20:04:39.113104  8737 net.cpp:157] Top shape: 1 256 81 81 (1679616)
I1207 20:04:39.113112  8737 net.cpp:165] Memory required for data: 152986332
I1207 20:04:39.113126  8737 layer_factory.hpp:77] Creating layer res2b
I1207 20:04:39.113139  8737 net.cpp:106] Creating Layer res2b
I1207 20:04:39.113154  8737 net.cpp:454] res2b <- res2a_res2a_relu_0_split_1
I1207 20:04:39.113174  8737 net.cpp:454] res2b <- res2b_branch2c
I1207 20:04:39.113188  8737 net.cpp:411] res2b -> res2b
I1207 20:04:39.113221  8737 net.cpp:150] Setting up res2b
I1207 20:04:39.113236  8737 net.cpp:157] Top shape: 1 256 81 81 (1679616)
I1207 20:04:39.113245  8737 net.cpp:165] Memory required for data: 159704796
I1207 20:04:39.113255  8737 layer_factory.hpp:77] Creating layer res2b_relu
I1207 20:04:39.113266  8737 net.cpp:106] Creating Layer res2b_relu
I1207 20:04:39.113276  8737 net.cpp:454] res2b_relu <- res2b
I1207 20:04:39.113288  8737 net.cpp:397] res2b_relu -> res2b (in-place)
I1207 20:04:39.113301  8737 net.cpp:150] Setting up res2b_relu
I1207 20:04:39.113312  8737 net.cpp:157] Top shape: 1 256 81 81 (1679616)
I1207 20:04:39.113320  8737 net.cpp:165] Memory required for data: 166423260
I1207 20:04:39.113329  8737 layer_factory.hpp:77] Creating layer res2b_res2b_relu_0_split
I1207 20:04:39.113342  8737 net.cpp:106] Creating Layer res2b_res2b_relu_0_split
I1207 20:04:39.113350  8737 net.cpp:454] res2b_res2b_relu_0_split <- res2b
I1207 20:04:39.113361  8737 net.cpp:411] res2b_res2b_relu_0_split -> res2b_res2b_relu_0_split_0
I1207 20:04:39.113375  8737 net.cpp:411] res2b_res2b_relu_0_split -> res2b_res2b_relu_0_split_1
I1207 20:04:39.113420  8737 net.cpp:150] Setting up res2b_res2b_relu_0_split
I1207 20:04:39.113433  8737 net.cpp:157] Top shape: 1 256 81 81 (1679616)
I1207 20:04:39.113445  8737 net.cpp:157] Top shape: 1 256 81 81 (1679616)
I1207 20:04:39.113453  8737 net.cpp:165] Memory required for data: 179860188
I1207 20:04:39.113462  8737 layer_factory.hpp:77] Creating layer res2c_branch2a
I1207 20:04:39.113476  8737 net.cpp:106] Creating Layer res2c_branch2a
I1207 20:04:39.113487  8737 net.cpp:454] res2c_branch2a <- res2b_res2b_relu_0_split_0
I1207 20:04:39.113499  8737 net.cpp:411] res2c_branch2a -> res2c_branch2a
I1207 20:04:39.113731  8737 net.cpp:150] Setting up res2c_branch2a
I1207 20:04:39.113749  8737 net.cpp:157] Top shape: 1 64 81 81 (419904)
I1207 20:04:39.113757  8737 net.cpp:165] Memory required for data: 181539804
I1207 20:04:39.113770  8737 layer_factory.hpp:77] Creating layer bn2c_branch2a
I1207 20:04:39.113785  8737 net.cpp:106] Creating Layer bn2c_branch2a
I1207 20:04:39.113796  8737 net.cpp:454] bn2c_branch2a <- res2c_branch2a
I1207 20:04:39.113811  8737 net.cpp:397] bn2c_branch2a -> res2c_branch2a (in-place)
I1207 20:04:39.114028  8737 net.cpp:150] Setting up bn2c_branch2a
I1207 20:04:39.114043  8737 net.cpp:157] Top shape: 1 64 81 81 (419904)
I1207 20:04:39.114053  8737 net.cpp:165] Memory required for data: 183219420
I1207 20:04:39.114068  8737 layer_factory.hpp:77] Creating layer scale2c_branch2a
I1207 20:04:39.114083  8737 net.cpp:106] Creating Layer scale2c_branch2a
I1207 20:04:39.114092  8737 net.cpp:454] scale2c_branch2a <- res2c_branch2a
I1207 20:04:39.114105  8737 net.cpp:397] scale2c_branch2a -> res2c_branch2a (in-place)
I1207 20:04:39.114161  8737 layer_factory.hpp:77] Creating layer scale2c_branch2a
I1207 20:04:39.114318  8737 net.cpp:150] Setting up scale2c_branch2a
I1207 20:04:39.114336  8737 net.cpp:157] Top shape: 1 64 81 81 (419904)
I1207 20:04:39.114343  8737 net.cpp:165] Memory required for data: 184899036
I1207 20:04:39.114356  8737 layer_factory.hpp:77] Creating layer res2c_branch2a_relu
I1207 20:04:39.114372  8737 net.cpp:106] Creating Layer res2c_branch2a_relu
I1207 20:04:39.114382  8737 net.cpp:454] res2c_branch2a_relu <- res2c_branch2a
I1207 20:04:39.114393  8737 net.cpp:397] res2c_branch2a_relu -> res2c_branch2a (in-place)
I1207 20:04:39.114406  8737 net.cpp:150] Setting up res2c_branch2a_relu
I1207 20:04:39.114418  8737 net.cpp:157] Top shape: 1 64 81 81 (419904)
I1207 20:04:39.114428  8737 net.cpp:165] Memory required for data: 186578652
I1207 20:04:39.114436  8737 layer_factory.hpp:77] Creating layer res2c_branch2b
I1207 20:04:39.114452  8737 net.cpp:106] Creating Layer res2c_branch2b
I1207 20:04:39.114462  8737 net.cpp:454] res2c_branch2b <- res2c_branch2a
I1207 20:04:39.114480  8737 net.cpp:411] res2c_branch2b -> res2c_branch2b
I1207 20:04:39.114732  8737 net.cpp:150] Setting up res2c_branch2b
I1207 20:04:39.114758  8737 net.cpp:157] Top shape: 1 64 81 81 (419904)
I1207 20:04:39.114766  8737 net.cpp:165] Memory required for data: 188258268
I1207 20:04:39.114778  8737 layer_factory.hpp:77] Creating layer bn2c_branch2b
I1207 20:04:39.114791  8737 net.cpp:106] Creating Layer bn2c_branch2b
I1207 20:04:39.114801  8737 net.cpp:454] bn2c_branch2b <- res2c_branch2b
I1207 20:04:39.114814  8737 net.cpp:397] bn2c_branch2b -> res2c_branch2b (in-place)
I1207 20:04:39.115026  8737 net.cpp:150] Setting up bn2c_branch2b
I1207 20:04:39.115042  8737 net.cpp:157] Top shape: 1 64 81 81 (419904)
I1207 20:04:39.115051  8737 net.cpp:165] Memory required for data: 189937884
I1207 20:04:39.115067  8737 layer_factory.hpp:77] Creating layer scale2c_branch2b
I1207 20:04:39.115082  8737 net.cpp:106] Creating Layer scale2c_branch2b
I1207 20:04:39.115092  8737 net.cpp:454] scale2c_branch2b <- res2c_branch2b
I1207 20:04:39.115104  8737 net.cpp:397] scale2c_branch2b -> res2c_branch2b (in-place)
I1207 20:04:39.115162  8737 layer_factory.hpp:77] Creating layer scale2c_branch2b
I1207 20:04:39.115954  8737 net.cpp:150] Setting up scale2c_branch2b
I1207 20:04:39.115974  8737 net.cpp:157] Top shape: 1 64 81 81 (419904)
I1207 20:04:39.115983  8737 net.cpp:165] Memory required for data: 191617500
I1207 20:04:39.115998  8737 layer_factory.hpp:77] Creating layer res2c_branch2b_relu
I1207 20:04:39.116010  8737 net.cpp:106] Creating Layer res2c_branch2b_relu
I1207 20:04:39.116020  8737 net.cpp:454] res2c_branch2b_relu <- res2c_branch2b
I1207 20:04:39.116032  8737 net.cpp:397] res2c_branch2b_relu -> res2c_branch2b (in-place)
I1207 20:04:39.116046  8737 net.cpp:150] Setting up res2c_branch2b_relu
I1207 20:04:39.116058  8737 net.cpp:157] Top shape: 1 64 81 81 (419904)
I1207 20:04:39.116066  8737 net.cpp:165] Memory required for data: 193297116
I1207 20:04:39.116076  8737 layer_factory.hpp:77] Creating layer res2c_branch2c
I1207 20:04:39.116091  8737 net.cpp:106] Creating Layer res2c_branch2c
I1207 20:04:39.116102  8737 net.cpp:454] res2c_branch2c <- res2c_branch2b
I1207 20:04:39.116116  8737 net.cpp:411] res2c_branch2c -> res2c_branch2c
I1207 20:04:39.116359  8737 net.cpp:150] Setting up res2c_branch2c
I1207 20:04:39.116379  8737 net.cpp:157] Top shape: 1 256 81 81 (1679616)
I1207 20:04:39.116387  8737 net.cpp:165] Memory required for data: 200015580
I1207 20:04:39.116400  8737 layer_factory.hpp:77] Creating layer bn2c_branch2c
I1207 20:04:39.116413  8737 net.cpp:106] Creating Layer bn2c_branch2c
I1207 20:04:39.116423  8737 net.cpp:454] bn2c_branch2c <- res2c_branch2c
I1207 20:04:39.116438  8737 net.cpp:397] bn2c_branch2c -> res2c_branch2c (in-place)
I1207 20:04:39.116643  8737 net.cpp:150] Setting up bn2c_branch2c
I1207 20:04:39.116659  8737 net.cpp:157] Top shape: 1 256 81 81 (1679616)
I1207 20:04:39.116668  8737 net.cpp:165] Memory required for data: 206734044
I1207 20:04:39.116683  8737 layer_factory.hpp:77] Creating layer scale2c_branch2c
I1207 20:04:39.116699  8737 net.cpp:106] Creating Layer scale2c_branch2c
I1207 20:04:39.116709  8737 net.cpp:454] scale2c_branch2c <- res2c_branch2c
I1207 20:04:39.116722  8737 net.cpp:397] scale2c_branch2c -> res2c_branch2c (in-place)
I1207 20:04:39.116777  8737 layer_factory.hpp:77] Creating layer scale2c_branch2c
I1207 20:04:39.116922  8737 net.cpp:150] Setting up scale2c_branch2c
I1207 20:04:39.116940  8737 net.cpp:157] Top shape: 1 256 81 81 (1679616)
I1207 20:04:39.116948  8737 net.cpp:165] Memory required for data: 213452508
I1207 20:04:39.116973  8737 layer_factory.hpp:77] Creating layer res2c
I1207 20:04:39.116991  8737 net.cpp:106] Creating Layer res2c
I1207 20:04:39.117002  8737 net.cpp:454] res2c <- res2b_res2b_relu_0_split_1
I1207 20:04:39.117014  8737 net.cpp:454] res2c <- res2c_branch2c
I1207 20:04:39.117027  8737 net.cpp:411] res2c -> res2c
I1207 20:04:39.117059  8737 net.cpp:150] Setting up res2c
I1207 20:04:39.117074  8737 net.cpp:157] Top shape: 1 256 81 81 (1679616)
I1207 20:04:39.117089  8737 net.cpp:165] Memory required for data: 220170972
I1207 20:04:39.117106  8737 layer_factory.hpp:77] Creating layer res2c_relu
I1207 20:04:39.117118  8737 net.cpp:106] Creating Layer res2c_relu
I1207 20:04:39.117127  8737 net.cpp:454] res2c_relu <- res2c
I1207 20:04:39.117141  8737 net.cpp:397] res2c_relu -> res2c (in-place)
I1207 20:04:39.117156  8737 net.cpp:150] Setting up res2c_relu
I1207 20:04:39.117167  8737 net.cpp:157] Top shape: 1 256 81 81 (1679616)
I1207 20:04:39.117175  8737 net.cpp:165] Memory required for data: 226889436
I1207 20:04:39.117185  8737 layer_factory.hpp:77] Creating layer res2c_res2c_relu_0_split
I1207 20:04:39.117197  8737 net.cpp:106] Creating Layer res2c_res2c_relu_0_split
I1207 20:04:39.117205  8737 net.cpp:454] res2c_res2c_relu_0_split <- res2c
I1207 20:04:39.117218  8737 net.cpp:411] res2c_res2c_relu_0_split -> res2c_res2c_relu_0_split_0
I1207 20:04:39.117230  8737 net.cpp:411] res2c_res2c_relu_0_split -> res2c_res2c_relu_0_split_1
I1207 20:04:39.117280  8737 net.cpp:150] Setting up res2c_res2c_relu_0_split
I1207 20:04:39.117295  8737 net.cpp:157] Top shape: 1 256 81 81 (1679616)
I1207 20:04:39.117306  8737 net.cpp:157] Top shape: 1 256 81 81 (1679616)
I1207 20:04:39.117316  8737 net.cpp:165] Memory required for data: 240326364
I1207 20:04:39.117324  8737 layer_factory.hpp:77] Creating layer res3a_branch1
I1207 20:04:39.117341  8737 net.cpp:106] Creating Layer res3a_branch1
I1207 20:04:39.117352  8737 net.cpp:454] res3a_branch1 <- res2c_res2c_relu_0_split_0
I1207 20:04:39.117364  8737 net.cpp:411] res3a_branch1 -> res3a_branch1
I1207 20:04:39.117686  8737 net.cpp:150] Setting up res3a_branch1
I1207 20:04:39.117702  8737 net.cpp:157] Top shape: 1 512 41 41 (860672)
I1207 20:04:39.117712  8737 net.cpp:165] Memory required for data: 243769052
I1207 20:04:39.117723  8737 layer_factory.hpp:77] Creating layer bn3a_branch1
I1207 20:04:39.117738  8737 net.cpp:106] Creating Layer bn3a_branch1
I1207 20:04:39.117746  8737 net.cpp:454] bn3a_branch1 <- res3a_branch1
I1207 20:04:39.117758  8737 net.cpp:397] bn3a_branch1 -> res3a_branch1 (in-place)
I1207 20:04:39.118587  8737 net.cpp:150] Setting up bn3a_branch1
I1207 20:04:39.118607  8737 net.cpp:157] Top shape: 1 512 41 41 (860672)
I1207 20:04:39.118615  8737 net.cpp:165] Memory required for data: 247211740
I1207 20:04:39.118631  8737 layer_factory.hpp:77] Creating layer scale3a_branch1
I1207 20:04:39.118647  8737 net.cpp:106] Creating Layer scale3a_branch1
I1207 20:04:39.118659  8737 net.cpp:454] scale3a_branch1 <- res3a_branch1
I1207 20:04:39.118671  8737 net.cpp:397] scale3a_branch1 -> res3a_branch1 (in-place)
I1207 20:04:39.118724  8737 layer_factory.hpp:77] Creating layer scale3a_branch1
I1207 20:04:39.118875  8737 net.cpp:150] Setting up scale3a_branch1
I1207 20:04:39.118891  8737 net.cpp:157] Top shape: 1 512 41 41 (860672)
I1207 20:04:39.118899  8737 net.cpp:165] Memory required for data: 250654428
I1207 20:04:39.118912  8737 layer_factory.hpp:77] Creating layer res3a_branch2a
I1207 20:04:39.118929  8737 net.cpp:106] Creating Layer res3a_branch2a
I1207 20:04:39.118940  8737 net.cpp:454] res3a_branch2a <- res2c_res2c_relu_0_split_1
I1207 20:04:39.118953  8737 net.cpp:411] res3a_branch2a -> res3a_branch2a
I1207 20:04:39.119194  8737 net.cpp:150] Setting up res3a_branch2a
I1207 20:04:39.119211  8737 net.cpp:157] Top shape: 1 128 41 41 (215168)
I1207 20:04:39.119220  8737 net.cpp:165] Memory required for data: 251515100
I1207 20:04:39.119232  8737 layer_factory.hpp:77] Creating layer bn3a_branch2a
I1207 20:04:39.119248  8737 net.cpp:106] Creating Layer bn3a_branch2a
I1207 20:04:39.119259  8737 net.cpp:454] bn3a_branch2a <- res3a_branch2a
I1207 20:04:39.119271  8737 net.cpp:397] bn3a_branch2a -> res3a_branch2a (in-place)
I1207 20:04:39.119484  8737 net.cpp:150] Setting up bn3a_branch2a
I1207 20:04:39.119500  8737 net.cpp:157] Top shape: 1 128 41 41 (215168)
I1207 20:04:39.119509  8737 net.cpp:165] Memory required for data: 252375772
I1207 20:04:39.119524  8737 layer_factory.hpp:77] Creating layer scale3a_branch2a
I1207 20:04:39.119545  8737 net.cpp:106] Creating Layer scale3a_branch2a
I1207 20:04:39.119556  8737 net.cpp:454] scale3a_branch2a <- res3a_branch2a
I1207 20:04:39.119576  8737 net.cpp:397] scale3a_branch2a -> res3a_branch2a (in-place)
I1207 20:04:39.119637  8737 layer_factory.hpp:77] Creating layer scale3a_branch2a
I1207 20:04:39.119783  8737 net.cpp:150] Setting up scale3a_branch2a
I1207 20:04:39.119799  8737 net.cpp:157] Top shape: 1 128 41 41 (215168)
I1207 20:04:39.119807  8737 net.cpp:165] Memory required for data: 253236444
I1207 20:04:39.119822  8737 layer_factory.hpp:77] Creating layer res3a_branch2a_relu
I1207 20:04:39.119833  8737 net.cpp:106] Creating Layer res3a_branch2a_relu
I1207 20:04:39.119843  8737 net.cpp:454] res3a_branch2a_relu <- res3a_branch2a
I1207 20:04:39.119858  8737 net.cpp:397] res3a_branch2a_relu -> res3a_branch2a (in-place)
I1207 20:04:39.119871  8737 net.cpp:150] Setting up res3a_branch2a_relu
I1207 20:04:39.119884  8737 net.cpp:157] Top shape: 1 128 41 41 (215168)
I1207 20:04:39.119892  8737 net.cpp:165] Memory required for data: 254097116
I1207 20:04:39.119901  8737 layer_factory.hpp:77] Creating layer res3a_branch2b
I1207 20:04:39.119915  8737 net.cpp:106] Creating Layer res3a_branch2b
I1207 20:04:39.119925  8737 net.cpp:454] res3a_branch2b <- res3a_branch2a
I1207 20:04:39.119940  8737 net.cpp:411] res3a_branch2b -> res3a_branch2b
I1207 20:04:39.120935  8737 net.cpp:150] Setting up res3a_branch2b
I1207 20:04:39.120956  8737 net.cpp:157] Top shape: 1 128 41 41 (215168)
I1207 20:04:39.120965  8737 net.cpp:165] Memory required for data: 254957788
I1207 20:04:39.120977  8737 layer_factory.hpp:77] Creating layer bn3a_branch2b
I1207 20:04:39.121000  8737 net.cpp:106] Creating Layer bn3a_branch2b
I1207 20:04:39.121011  8737 net.cpp:454] bn3a_branch2b <- res3a_branch2b
I1207 20:04:39.121024  8737 net.cpp:397] bn3a_branch2b -> res3a_branch2b (in-place)
I1207 20:04:39.121238  8737 net.cpp:150] Setting up bn3a_branch2b
I1207 20:04:39.121254  8737 net.cpp:157] Top shape: 1 128 41 41 (215168)
I1207 20:04:39.121263  8737 net.cpp:165] Memory required for data: 255818460
I1207 20:04:39.121279  8737 layer_factory.hpp:77] Creating layer scale3a_branch2b
I1207 20:04:39.121294  8737 net.cpp:106] Creating Layer scale3a_branch2b
I1207 20:04:39.121302  8737 net.cpp:454] scale3a_branch2b <- res3a_branch2b
I1207 20:04:39.121315  8737 net.cpp:397] scale3a_branch2b -> res3a_branch2b (in-place)
I1207 20:04:39.121371  8737 layer_factory.hpp:77] Creating layer scale3a_branch2b
I1207 20:04:39.121515  8737 net.cpp:150] Setting up scale3a_branch2b
I1207 20:04:39.121531  8737 net.cpp:157] Top shape: 1 128 41 41 (215168)
I1207 20:04:39.121539  8737 net.cpp:165] Memory required for data: 256679132
I1207 20:04:39.121552  8737 layer_factory.hpp:77] Creating layer res3a_branch2b_relu
I1207 20:04:39.121567  8737 net.cpp:106] Creating Layer res3a_branch2b_relu
I1207 20:04:39.121578  8737 net.cpp:454] res3a_branch2b_relu <- res3a_branch2b
I1207 20:04:39.121590  8737 net.cpp:397] res3a_branch2b_relu -> res3a_branch2b (in-place)
I1207 20:04:39.121604  8737 net.cpp:150] Setting up res3a_branch2b_relu
I1207 20:04:39.121616  8737 net.cpp:157] Top shape: 1 128 41 41 (215168)
I1207 20:04:39.121624  8737 net.cpp:165] Memory required for data: 257539804
I1207 20:04:39.121634  8737 layer_factory.hpp:77] Creating layer res3a_branch2c
I1207 20:04:39.121649  8737 net.cpp:106] Creating Layer res3a_branch2c
I1207 20:04:39.121660  8737 net.cpp:454] res3a_branch2c <- res3a_branch2b
I1207 20:04:39.121675  8737 net.cpp:411] res3a_branch2c -> res3a_branch2c
I1207 20:04:39.122573  8737 net.cpp:150] Setting up res3a_branch2c
I1207 20:04:39.122592  8737 net.cpp:157] Top shape: 1 512 41 41 (860672)
I1207 20:04:39.122602  8737 net.cpp:165] Memory required for data: 260982492
I1207 20:04:39.122614  8737 layer_factory.hpp:77] Creating layer bn3a_branch2c
I1207 20:04:39.122633  8737 net.cpp:106] Creating Layer bn3a_branch2c
I1207 20:04:39.122644  8737 net.cpp:454] bn3a_branch2c <- res3a_branch2c
I1207 20:04:39.122658  8737 net.cpp:397] bn3a_branch2c -> res3a_branch2c (in-place)
I1207 20:04:39.122879  8737 net.cpp:150] Setting up bn3a_branch2c
I1207 20:04:39.122905  8737 net.cpp:157] Top shape: 1 512 41 41 (860672)
I1207 20:04:39.122915  8737 net.cpp:165] Memory required for data: 264425180
I1207 20:04:39.122931  8737 layer_factory.hpp:77] Creating layer scale3a_branch2c
I1207 20:04:39.122943  8737 net.cpp:106] Creating Layer scale3a_branch2c
I1207 20:04:39.122953  8737 net.cpp:454] scale3a_branch2c <- res3a_branch2c
I1207 20:04:39.122966  8737 net.cpp:397] scale3a_branch2c -> res3a_branch2c (in-place)
I1207 20:04:39.123019  8737 layer_factory.hpp:77] Creating layer scale3a_branch2c
I1207 20:04:39.123167  8737 net.cpp:150] Setting up scale3a_branch2c
I1207 20:04:39.123184  8737 net.cpp:157] Top shape: 1 512 41 41 (860672)
I1207 20:04:39.123193  8737 net.cpp:165] Memory required for data: 267867868
I1207 20:04:39.123206  8737 layer_factory.hpp:77] Creating layer res3a
I1207 20:04:39.123221  8737 net.cpp:106] Creating Layer res3a
I1207 20:04:39.123232  8737 net.cpp:454] res3a <- res3a_branch1
I1207 20:04:39.123245  8737 net.cpp:454] res3a <- res3a_branch2c
I1207 20:04:39.123256  8737 net.cpp:411] res3a -> res3a
I1207 20:04:39.123294  8737 net.cpp:150] Setting up res3a
I1207 20:04:39.123309  8737 net.cpp:157] Top shape: 1 512 41 41 (860672)
I1207 20:04:39.123317  8737 net.cpp:165] Memory required for data: 271310556
I1207 20:04:39.123327  8737 layer_factory.hpp:77] Creating layer res3a_relu
I1207 20:04:39.123338  8737 net.cpp:106] Creating Layer res3a_relu
I1207 20:04:39.123347  8737 net.cpp:454] res3a_relu <- res3a
I1207 20:04:39.123359  8737 net.cpp:397] res3a_relu -> res3a (in-place)
I1207 20:04:39.123373  8737 net.cpp:150] Setting up res3a_relu
I1207 20:04:39.123384  8737 net.cpp:157] Top shape: 1 512 41 41 (860672)
I1207 20:04:39.123392  8737 net.cpp:165] Memory required for data: 274753244
I1207 20:04:39.123401  8737 layer_factory.hpp:77] Creating layer res3a_res3a_relu_0_split
I1207 20:04:39.123414  8737 net.cpp:106] Creating Layer res3a_res3a_relu_0_split
I1207 20:04:39.123422  8737 net.cpp:454] res3a_res3a_relu_0_split <- res3a
I1207 20:04:39.123435  8737 net.cpp:411] res3a_res3a_relu_0_split -> res3a_res3a_relu_0_split_0
I1207 20:04:39.123448  8737 net.cpp:411] res3a_res3a_relu_0_split -> res3a_res3a_relu_0_split_1
I1207 20:04:39.123497  8737 net.cpp:150] Setting up res3a_res3a_relu_0_split
I1207 20:04:39.123512  8737 net.cpp:157] Top shape: 1 512 41 41 (860672)
I1207 20:04:39.123522  8737 net.cpp:157] Top shape: 1 512 41 41 (860672)
I1207 20:04:39.123531  8737 net.cpp:165] Memory required for data: 281638620
I1207 20:04:39.123540  8737 layer_factory.hpp:77] Creating layer res3b1_branch2a
I1207 20:04:39.123555  8737 net.cpp:106] Creating Layer res3b1_branch2a
I1207 20:04:39.123566  8737 net.cpp:454] res3b1_branch2a <- res3a_res3a_relu_0_split_0
I1207 20:04:39.123579  8737 net.cpp:411] res3b1_branch2a -> res3b1_branch2a
I1207 20:04:39.123849  8737 net.cpp:150] Setting up res3b1_branch2a
I1207 20:04:39.123867  8737 net.cpp:157] Top shape: 1 128 41 41 (215168)
I1207 20:04:39.123875  8737 net.cpp:165] Memory required for data: 282499292
I1207 20:04:39.123888  8737 layer_factory.hpp:77] Creating layer bn3b1_branch2a
I1207 20:04:39.123900  8737 net.cpp:106] Creating Layer bn3b1_branch2a
I1207 20:04:39.123910  8737 net.cpp:454] bn3b1_branch2a <- res3b1_branch2a
I1207 20:04:39.123926  8737 net.cpp:397] bn3b1_branch2a -> res3b1_branch2a (in-place)
I1207 20:04:39.124143  8737 net.cpp:150] Setting up bn3b1_branch2a
I1207 20:04:39.124167  8737 net.cpp:157] Top shape: 1 128 41 41 (215168)
I1207 20:04:39.124176  8737 net.cpp:165] Memory required for data: 283359964
I1207 20:04:39.124191  8737 layer_factory.hpp:77] Creating layer scale3b1_branch2a
I1207 20:04:39.124207  8737 net.cpp:106] Creating Layer scale3b1_branch2a
I1207 20:04:39.124218  8737 net.cpp:454] scale3b1_branch2a <- res3b1_branch2a
I1207 20:04:39.124230  8737 net.cpp:397] scale3b1_branch2a -> res3b1_branch2a (in-place)
I1207 20:04:39.124286  8737 layer_factory.hpp:77] Creating layer scale3b1_branch2a
I1207 20:04:39.124428  8737 net.cpp:150] Setting up scale3b1_branch2a
I1207 20:04:39.124447  8737 net.cpp:157] Top shape: 1 128 41 41 (215168)
I1207 20:04:39.124464  8737 net.cpp:165] Memory required for data: 284220636
I1207 20:04:39.124478  8737 layer_factory.hpp:77] Creating layer res3b1_branch2a_relu
I1207 20:04:39.124493  8737 net.cpp:106] Creating Layer res3b1_branch2a_relu
I1207 20:04:39.124505  8737 net.cpp:454] res3b1_branch2a_relu <- res3b1_branch2a
I1207 20:04:39.124516  8737 net.cpp:397] res3b1_branch2a_relu -> res3b1_branch2a (in-place)
I1207 20:04:39.124529  8737 net.cpp:150] Setting up res3b1_branch2a_relu
I1207 20:04:39.124541  8737 net.cpp:157] Top shape: 1 128 41 41 (215168)
I1207 20:04:39.124550  8737 net.cpp:165] Memory required for data: 285081308
I1207 20:04:39.124559  8737 layer_factory.hpp:77] Creating layer res3b1_branch2b
I1207 20:04:39.124575  8737 net.cpp:106] Creating Layer res3b1_branch2b
I1207 20:04:39.124585  8737 net.cpp:454] res3b1_branch2b <- res3b1_branch2a
I1207 20:04:39.124611  8737 net.cpp:411] res3b1_branch2b -> res3b1_branch2b
I1207 20:04:39.125603  8737 net.cpp:150] Setting up res3b1_branch2b
I1207 20:04:39.125624  8737 net.cpp:157] Top shape: 1 128 41 41 (215168)
I1207 20:04:39.125633  8737 net.cpp:165] Memory required for data: 285941980
I1207 20:04:39.125646  8737 layer_factory.hpp:77] Creating layer bn3b1_branch2b
I1207 20:04:39.125660  8737 net.cpp:106] Creating Layer bn3b1_branch2b
I1207 20:04:39.125670  8737 net.cpp:454] bn3b1_branch2b <- res3b1_branch2b
I1207 20:04:39.125684  8737 net.cpp:397] bn3b1_branch2b -> res3b1_branch2b (in-place)
I1207 20:04:39.125902  8737 net.cpp:150] Setting up bn3b1_branch2b
I1207 20:04:39.125917  8737 net.cpp:157] Top shape: 1 128 41 41 (215168)
I1207 20:04:39.125926  8737 net.cpp:165] Memory required for data: 286802652
I1207 20:04:39.125941  8737 layer_factory.hpp:77] Creating layer scale3b1_branch2b
I1207 20:04:39.125955  8737 net.cpp:106] Creating Layer scale3b1_branch2b
I1207 20:04:39.125965  8737 net.cpp:454] scale3b1_branch2b <- res3b1_branch2b
I1207 20:04:39.125980  8737 net.cpp:397] scale3b1_branch2b -> res3b1_branch2b (in-place)
I1207 20:04:39.126037  8737 layer_factory.hpp:77] Creating layer scale3b1_branch2b
I1207 20:04:39.126185  8737 net.cpp:150] Setting up scale3b1_branch2b
I1207 20:04:39.126202  8737 net.cpp:157] Top shape: 1 128 41 41 (215168)
I1207 20:04:39.126210  8737 net.cpp:165] Memory required for data: 287663324
I1207 20:04:39.126224  8737 layer_factory.hpp:77] Creating layer res3b1_branch2b_relu
I1207 20:04:39.126236  8737 net.cpp:106] Creating Layer res3b1_branch2b_relu
I1207 20:04:39.126245  8737 net.cpp:454] res3b1_branch2b_relu <- res3b1_branch2b
I1207 20:04:39.126260  8737 net.cpp:397] res3b1_branch2b_relu -> res3b1_branch2b (in-place)
I1207 20:04:39.126274  8737 net.cpp:150] Setting up res3b1_branch2b_relu
I1207 20:04:39.126286  8737 net.cpp:157] Top shape: 1 128 41 41 (215168)
I1207 20:04:39.126296  8737 net.cpp:165] Memory required for data: 288523996
I1207 20:04:39.126304  8737 layer_factory.hpp:77] Creating layer res3b1_branch2c
I1207 20:04:39.126320  8737 net.cpp:106] Creating Layer res3b1_branch2c
I1207 20:04:39.126332  8737 net.cpp:454] res3b1_branch2c <- res3b1_branch2b
I1207 20:04:39.126344  8737 net.cpp:411] res3b1_branch2c -> res3b1_branch2c
I1207 20:04:39.126615  8737 net.cpp:150] Setting up res3b1_branch2c
I1207 20:04:39.126631  8737 net.cpp:157] Top shape: 1 512 41 41 (860672)
I1207 20:04:39.126641  8737 net.cpp:165] Memory required for data: 291966684
I1207 20:04:39.126652  8737 layer_factory.hpp:77] Creating layer bn3b1_branch2c
I1207 20:04:39.126667  8737 net.cpp:106] Creating Layer bn3b1_branch2c
I1207 20:04:39.126677  8737 net.cpp:454] bn3b1_branch2c <- res3b1_branch2c
I1207 20:04:39.126690  8737 net.cpp:397] bn3b1_branch2c -> res3b1_branch2c (in-place)
I1207 20:04:39.126906  8737 net.cpp:150] Setting up bn3b1_branch2c
I1207 20:04:39.126922  8737 net.cpp:157] Top shape: 1 512 41 41 (860672)
I1207 20:04:39.126931  8737 net.cpp:165] Memory required for data: 295409372
I1207 20:04:39.126946  8737 layer_factory.hpp:77] Creating layer scale3b1_branch2c
I1207 20:04:39.126967  8737 net.cpp:106] Creating Layer scale3b1_branch2c
I1207 20:04:39.126984  8737 net.cpp:454] scale3b1_branch2c <- res3b1_branch2c
I1207 20:04:39.126997  8737 net.cpp:397] scale3b1_branch2c -> res3b1_branch2c (in-place)
I1207 20:04:39.127050  8737 layer_factory.hpp:77] Creating layer scale3b1_branch2c
I1207 20:04:39.127204  8737 net.cpp:150] Setting up scale3b1_branch2c
I1207 20:04:39.127221  8737 net.cpp:157] Top shape: 1 512 41 41 (860672)
I1207 20:04:39.127230  8737 net.cpp:165] Memory required for data: 298852060
I1207 20:04:39.127243  8737 layer_factory.hpp:77] Creating layer res3b1
I1207 20:04:39.127255  8737 net.cpp:106] Creating Layer res3b1
I1207 20:04:39.127265  8737 net.cpp:454] res3b1 <- res3a_res3a_relu_0_split_1
I1207 20:04:39.127277  8737 net.cpp:454] res3b1 <- res3b1_branch2c
I1207 20:04:39.127291  8737 net.cpp:411] res3b1 -> res3b1
I1207 20:04:39.127326  8737 net.cpp:150] Setting up res3b1
I1207 20:04:39.127341  8737 net.cpp:157] Top shape: 1 512 41 41 (860672)
I1207 20:04:39.127349  8737 net.cpp:165] Memory required for data: 302294748
I1207 20:04:39.127358  8737 layer_factory.hpp:77] Creating layer res3b1_relu
I1207 20:04:39.127372  8737 net.cpp:106] Creating Layer res3b1_relu
I1207 20:04:39.127383  8737 net.cpp:454] res3b1_relu <- res3b1
I1207 20:04:39.127394  8737 net.cpp:397] res3b1_relu -> res3b1 (in-place)
I1207 20:04:39.127408  8737 net.cpp:150] Setting up res3b1_relu
I1207 20:04:39.127419  8737 net.cpp:157] Top shape: 1 512 41 41 (860672)
I1207 20:04:39.127427  8737 net.cpp:165] Memory required for data: 305737436
I1207 20:04:39.127437  8737 layer_factory.hpp:77] Creating layer res3b1_res3b1_relu_0_split
I1207 20:04:39.127449  8737 net.cpp:106] Creating Layer res3b1_res3b1_relu_0_split
I1207 20:04:39.127459  8737 net.cpp:454] res3b1_res3b1_relu_0_split <- res3b1
I1207 20:04:39.127470  8737 net.cpp:411] res3b1_res3b1_relu_0_split -> res3b1_res3b1_relu_0_split_0
I1207 20:04:39.127485  8737 net.cpp:411] res3b1_res3b1_relu_0_split -> res3b1_res3b1_relu_0_split_1
I1207 20:04:39.127533  8737 net.cpp:150] Setting up res3b1_res3b1_relu_0_split
I1207 20:04:39.127548  8737 net.cpp:157] Top shape: 1 512 41 41 (860672)
I1207 20:04:39.127559  8737 net.cpp:157] Top shape: 1 512 41 41 (860672)
I1207 20:04:39.127568  8737 net.cpp:165] Memory required for data: 312622812
I1207 20:04:39.127578  8737 layer_factory.hpp:77] Creating layer res3b2_branch2a
I1207 20:04:39.127593  8737 net.cpp:106] Creating Layer res3b2_branch2a
I1207 20:04:39.127604  8737 net.cpp:454] res3b2_branch2a <- res3b1_res3b1_relu_0_split_0
I1207 20:04:39.127616  8737 net.cpp:411] res3b2_branch2a -> res3b2_branch2a
I1207 20:04:39.127888  8737 net.cpp:150] Setting up res3b2_branch2a
I1207 20:04:39.127907  8737 net.cpp:157] Top shape: 1 128 41 41 (215168)
I1207 20:04:39.127915  8737 net.cpp:165] Memory required for data: 313483484
I1207 20:04:39.127928  8737 layer_factory.hpp:77] Creating layer bn3b2_branch2a
I1207 20:04:39.128324  8737 net.cpp:106] Creating Layer bn3b2_branch2a
I1207 20:04:39.128340  8737 net.cpp:454] bn3b2_branch2a <- res3b2_branch2a
I1207 20:04:39.128355  8737 net.cpp:397] bn3b2_branch2a -> res3b2_branch2a (in-place)
I1207 20:04:39.128612  8737 net.cpp:150] Setting up bn3b2_branch2a
I1207 20:04:39.128629  8737 net.cpp:157] Top shape: 1 128 41 41 (215168)
I1207 20:04:39.128638  8737 net.cpp:165] Memory required for data: 314344156
I1207 20:04:39.128654  8737 layer_factory.hpp:77] Creating layer scale3b2_branch2a
I1207 20:04:39.128669  8737 net.cpp:106] Creating Layer scale3b2_branch2a
I1207 20:04:39.128679  8737 net.cpp:454] scale3b2_branch2a <- res3b2_branch2a
I1207 20:04:39.128692  8737 net.cpp:397] scale3b2_branch2a -> res3b2_branch2a (in-place)
I1207 20:04:39.128891  8737 layer_factory.hpp:77] Creating layer scale3b2_branch2a
I1207 20:04:39.129043  8737 net.cpp:150] Setting up scale3b2_branch2a
I1207 20:04:39.129060  8737 net.cpp:157] Top shape: 1 128 41 41 (215168)
I1207 20:04:39.129070  8737 net.cpp:165] Memory required for data: 315204828
I1207 20:04:39.129083  8737 layer_factory.hpp:77] Creating layer res3b2_branch2a_relu
I1207 20:04:39.129101  8737 net.cpp:106] Creating Layer res3b2_branch2a_relu
I1207 20:04:39.129118  8737 net.cpp:454] res3b2_branch2a_relu <- res3b2_branch2a
I1207 20:04:39.129130  8737 net.cpp:397] res3b2_branch2a_relu -> res3b2_branch2a (in-place)
I1207 20:04:39.129144  8737 net.cpp:150] Setting up res3b2_branch2a_relu
I1207 20:04:39.129155  8737 net.cpp:157] Top shape: 1 128 41 41 (215168)
I1207 20:04:39.129164  8737 net.cpp:165] Memory required for data: 316065500
I1207 20:04:39.129173  8737 layer_factory.hpp:77] Creating layer res3b2_branch2b
I1207 20:04:39.129189  8737 net.cpp:106] Creating Layer res3b2_branch2b
I1207 20:04:39.129200  8737 net.cpp:454] res3b2_branch2b <- res3b2_branch2a
I1207 20:04:39.129216  8737 net.cpp:411] res3b2_branch2b -> res3b2_branch2b
I1207 20:04:39.130182  8737 net.cpp:150] Setting up res3b2_branch2b
I1207 20:04:39.130203  8737 net.cpp:157] Top shape: 1 128 41 41 (215168)
I1207 20:04:39.130213  8737 net.cpp:165] Memory required for data: 316926172
I1207 20:04:39.130224  8737 layer_factory.hpp:77] Creating layer bn3b2_branch2b
I1207 20:04:39.130241  8737 net.cpp:106] Creating Layer bn3b2_branch2b
I1207 20:04:39.130252  8737 net.cpp:454] bn3b2_branch2b <- res3b2_branch2b
I1207 20:04:39.130265  8737 net.cpp:397] bn3b2_branch2b -> res3b2_branch2b (in-place)
I1207 20:04:39.130487  8737 net.cpp:150] Setting up bn3b2_branch2b
I1207 20:04:39.130504  8737 net.cpp:157] Top shape: 1 128 41 41 (215168)
I1207 20:04:39.130513  8737 net.cpp:165] Memory required for data: 317786844
I1207 20:04:39.130528  8737 layer_factory.hpp:77] Creating layer scale3b2_branch2b
I1207 20:04:39.130542  8737 net.cpp:106] Creating Layer scale3b2_branch2b
I1207 20:04:39.130551  8737 net.cpp:454] scale3b2_branch2b <- res3b2_branch2b
I1207 20:04:39.130564  8737 net.cpp:397] scale3b2_branch2b -> res3b2_branch2b (in-place)
I1207 20:04:39.130620  8737 layer_factory.hpp:77] Creating layer scale3b2_branch2b
I1207 20:04:39.130769  8737 net.cpp:150] Setting up scale3b2_branch2b
I1207 20:04:39.130787  8737 net.cpp:157] Top shape: 1 128 41 41 (215168)
I1207 20:04:39.130796  8737 net.cpp:165] Memory required for data: 318647516
I1207 20:04:39.130810  8737 layer_factory.hpp:77] Creating layer res3b2_branch2b_relu
I1207 20:04:39.130822  8737 net.cpp:106] Creating Layer res3b2_branch2b_relu
I1207 20:04:39.130832  8737 net.cpp:454] res3b2_branch2b_relu <- res3b2_branch2b
I1207 20:04:39.130843  8737 net.cpp:397] res3b2_branch2b_relu -> res3b2_branch2b (in-place)
I1207 20:04:39.130857  8737 net.cpp:150] Setting up res3b2_branch2b_relu
I1207 20:04:39.130869  8737 net.cpp:157] Top shape: 1 128 41 41 (215168)
I1207 20:04:39.130877  8737 net.cpp:165] Memory required for data: 319508188
I1207 20:04:39.130887  8737 layer_factory.hpp:77] Creating layer res3b2_branch2c
I1207 20:04:39.130903  8737 net.cpp:106] Creating Layer res3b2_branch2c
I1207 20:04:39.130913  8737 net.cpp:454] res3b2_branch2c <- res3b2_branch2b
I1207 20:04:39.130928  8737 net.cpp:411] res3b2_branch2c -> res3b2_branch2c
I1207 20:04:39.131835  8737 net.cpp:150] Setting up res3b2_branch2c
I1207 20:04:39.131855  8737 net.cpp:157] Top shape: 1 512 41 41 (860672)
I1207 20:04:39.131865  8737 net.cpp:165] Memory required for data: 322950876
I1207 20:04:39.131877  8737 layer_factory.hpp:77] Creating layer bn3b2_branch2c
I1207 20:04:39.131894  8737 net.cpp:106] Creating Layer bn3b2_branch2c
I1207 20:04:39.131904  8737 net.cpp:454] bn3b2_branch2c <- res3b2_branch2c
I1207 20:04:39.131917  8737 net.cpp:397] bn3b2_branch2c -> res3b2_branch2c (in-place)
I1207 20:04:39.132141  8737 net.cpp:150] Setting up bn3b2_branch2c
I1207 20:04:39.132166  8737 net.cpp:157] Top shape: 1 512 41 41 (860672)
I1207 20:04:39.132176  8737 net.cpp:165] Memory required for data: 326393564
I1207 20:04:39.132191  8737 layer_factory.hpp:77] Creating layer scale3b2_branch2c
I1207 20:04:39.132205  8737 net.cpp:106] Creating Layer scale3b2_branch2c
I1207 20:04:39.132215  8737 net.cpp:454] scale3b2_branch2c <- res3b2_branch2c
I1207 20:04:39.132226  8737 net.cpp:397] scale3b2_branch2c -> res3b2_branch2c (in-place)
I1207 20:04:39.132290  8737 layer_factory.hpp:77] Creating layer scale3b2_branch2c
I1207 20:04:39.132454  8737 net.cpp:150] Setting up scale3b2_branch2c
I1207 20:04:39.132472  8737 net.cpp:157] Top shape: 1 512 41 41 (860672)
I1207 20:04:39.132480  8737 net.cpp:165] Memory required for data: 329836252
I1207 20:04:39.132493  8737 layer_factory.hpp:77] Creating layer res3b2
I1207 20:04:39.132508  8737 net.cpp:106] Creating Layer res3b2
I1207 20:04:39.132519  8737 net.cpp:454] res3b2 <- res3b1_res3b1_relu_0_split_1
I1207 20:04:39.132530  8737 net.cpp:454] res3b2 <- res3b2_branch2c
I1207 20:04:39.132542  8737 net.cpp:411] res3b2 -> res3b2
I1207 20:04:39.132580  8737 net.cpp:150] Setting up res3b2
I1207 20:04:39.132594  8737 net.cpp:157] Top shape: 1 512 41 41 (860672)
I1207 20:04:39.132603  8737 net.cpp:165] Memory required for data: 333278940
I1207 20:04:39.132612  8737 layer_factory.hpp:77] Creating layer res3b2_relu
I1207 20:04:39.132623  8737 net.cpp:106] Creating Layer res3b2_relu
I1207 20:04:39.132633  8737 net.cpp:454] res3b2_relu <- res3b2
I1207 20:04:39.132644  8737 net.cpp:397] res3b2_relu -> res3b2 (in-place)
I1207 20:04:39.132658  8737 net.cpp:150] Setting up res3b2_relu
I1207 20:04:39.132669  8737 net.cpp:157] Top shape: 1 512 41 41 (860672)
I1207 20:04:39.132678  8737 net.cpp:165] Memory required for data: 336721628
I1207 20:04:39.132688  8737 layer_factory.hpp:77] Creating layer res3b2_res3b2_relu_0_split
I1207 20:04:39.132699  8737 net.cpp:106] Creating Layer res3b2_res3b2_relu_0_split
I1207 20:04:39.132709  8737 net.cpp:454] res3b2_res3b2_relu_0_split <- res3b2
I1207 20:04:39.132722  8737 net.cpp:411] res3b2_res3b2_relu_0_split -> res3b2_res3b2_relu_0_split_0
I1207 20:04:39.132736  8737 net.cpp:411] res3b2_res3b2_relu_0_split -> res3b2_res3b2_relu_0_split_1
I1207 20:04:39.132784  8737 net.cpp:150] Setting up res3b2_res3b2_relu_0_split
I1207 20:04:39.132798  8737 net.cpp:157] Top shape: 1 512 41 41 (860672)
I1207 20:04:39.132810  8737 net.cpp:157] Top shape: 1 512 41 41 (860672)
I1207 20:04:39.132818  8737 net.cpp:165] Memory required for data: 343607004
I1207 20:04:39.132827  8737 layer_factory.hpp:77] Creating layer res3b3_branch2a
I1207 20:04:39.132843  8737 net.cpp:106] Creating Layer res3b3_branch2a
I1207 20:04:39.132853  8737 net.cpp:454] res3b3_branch2a <- res3b2_res3b2_relu_0_split_0
I1207 20:04:39.132866  8737 net.cpp:411] res3b3_branch2a -> res3b3_branch2a
I1207 20:04:39.133143  8737 net.cpp:150] Setting up res3b3_branch2a
I1207 20:04:39.133162  8737 net.cpp:157] Top shape: 1 128 41 41 (215168)
I1207 20:04:39.133170  8737 net.cpp:165] Memory required for data: 344467676
I1207 20:04:39.133183  8737 layer_factory.hpp:77] Creating layer bn3b3_branch2a
I1207 20:04:39.133195  8737 net.cpp:106] Creating Layer bn3b3_branch2a
I1207 20:04:39.133205  8737 net.cpp:454] bn3b3_branch2a <- res3b3_branch2a
I1207 20:04:39.133220  8737 net.cpp:397] bn3b3_branch2a -> res3b3_branch2a (in-place)
I1207 20:04:39.133440  8737 net.cpp:150] Setting up bn3b3_branch2a
I1207 20:04:39.133455  8737 net.cpp:157] Top shape: 1 128 41 41 (215168)
I1207 20:04:39.133465  8737 net.cpp:165] Memory required for data: 345328348
I1207 20:04:39.133494  8737 layer_factory.hpp:77] Creating layer scale3b3_branch2a
I1207 20:04:39.133512  8737 net.cpp:106] Creating Layer scale3b3_branch2a
I1207 20:04:39.133522  8737 net.cpp:454] scale3b3_branch2a <- res3b3_branch2a
I1207 20:04:39.133535  8737 net.cpp:397] scale3b3_branch2a -> res3b3_branch2a (in-place)
I1207 20:04:39.133594  8737 layer_factory.hpp:77] Creating layer scale3b3_branch2a
I1207 20:04:39.133741  8737 net.cpp:150] Setting up scale3b3_branch2a
I1207 20:04:39.133757  8737 net.cpp:157] Top shape: 1 128 41 41 (215168)
I1207 20:04:39.133767  8737 net.cpp:165] Memory required for data: 346189020
I1207 20:04:39.133780  8737 layer_factory.hpp:77] Creating layer res3b3_branch2a_relu
I1207 20:04:39.133792  8737 net.cpp:106] Creating Layer res3b3_branch2a_relu
I1207 20:04:39.133802  8737 net.cpp:454] res3b3_branch2a_relu <- res3b3_branch2a
I1207 20:04:39.133821  8737 net.cpp:397] res3b3_branch2a_relu -> res3b3_branch2a (in-place)
I1207 20:04:39.133842  8737 net.cpp:150] Setting up res3b3_branch2a_relu
I1207 20:04:39.133854  8737 net.cpp:157] Top shape: 1 128 41 41 (215168)
I1207 20:04:39.133863  8737 net.cpp:165] Memory required for data: 347049692
I1207 20:04:39.133872  8737 layer_factory.hpp:77] Creating layer res3b3_branch2b
I1207 20:04:39.133888  8737 net.cpp:106] Creating Layer res3b3_branch2b
I1207 20:04:39.133898  8737 net.cpp:454] res3b3_branch2b <- res3b3_branch2a
I1207 20:04:39.133910  8737 net.cpp:411] res3b3_branch2b -> res3b3_branch2b
I1207 20:04:39.134877  8737 net.cpp:150] Setting up res3b3_branch2b
I1207 20:04:39.134896  8737 net.cpp:157] Top shape: 1 128 41 41 (215168)
I1207 20:04:39.134905  8737 net.cpp:165] Memory required for data: 347910364
I1207 20:04:39.134918  8737 layer_factory.hpp:77] Creating layer bn3b3_branch2b
I1207 20:04:39.134934  8737 net.cpp:106] Creating Layer bn3b3_branch2b
I1207 20:04:39.134945  8737 net.cpp:454] bn3b3_branch2b <- res3b3_branch2b
I1207 20:04:39.134958  8737 net.cpp:397] bn3b3_branch2b -> res3b3_branch2b (in-place)
I1207 20:04:39.135179  8737 net.cpp:150] Setting up bn3b3_branch2b
I1207 20:04:39.135196  8737 net.cpp:157] Top shape: 1 128 41 41 (215168)
I1207 20:04:39.135205  8737 net.cpp:165] Memory required for data: 348771036
I1207 20:04:39.135221  8737 layer_factory.hpp:77] Creating layer scale3b3_branch2b
I1207 20:04:39.135234  8737 net.cpp:106] Creating Layer scale3b3_branch2b
I1207 20:04:39.135243  8737 net.cpp:454] scale3b3_branch2b <- res3b3_branch2b
I1207 20:04:39.135258  8737 net.cpp:397] scale3b3_branch2b -> res3b3_branch2b (in-place)
I1207 20:04:39.135314  8737 layer_factory.hpp:77] Creating layer scale3b3_branch2b
I1207 20:04:39.135466  8737 net.cpp:150] Setting up scale3b3_branch2b
I1207 20:04:39.135483  8737 net.cpp:157] Top shape: 1 128 41 41 (215168)
I1207 20:04:39.135493  8737 net.cpp:165] Memory required for data: 349631708
I1207 20:04:39.135505  8737 layer_factory.hpp:77] Creating layer res3b3_branch2b_relu
I1207 20:04:39.135519  8737 net.cpp:106] Creating Layer res3b3_branch2b_relu
I1207 20:04:39.135529  8737 net.cpp:454] res3b3_branch2b_relu <- res3b3_branch2b
I1207 20:04:39.135540  8737 net.cpp:397] res3b3_branch2b_relu -> res3b3_branch2b (in-place)
I1207 20:04:39.135553  8737 net.cpp:150] Setting up res3b3_branch2b_relu
I1207 20:04:39.135565  8737 net.cpp:157] Top shape: 1 128 41 41 (215168)
I1207 20:04:39.135574  8737 net.cpp:165] Memory required for data: 350492380
I1207 20:04:39.135583  8737 layer_factory.hpp:77] Creating layer res3b3_branch2c
I1207 20:04:39.135601  8737 net.cpp:106] Creating Layer res3b3_branch2c
I1207 20:04:39.135612  8737 net.cpp:454] res3b3_branch2c <- res3b3_branch2b
I1207 20:04:39.135630  8737 net.cpp:411] res3b3_branch2c -> res3b3_branch2c
I1207 20:04:39.135915  8737 net.cpp:150] Setting up res3b3_branch2c
I1207 20:04:39.135932  8737 net.cpp:157] Top shape: 1 512 41 41 (860672)
I1207 20:04:39.135941  8737 net.cpp:165] Memory required for data: 353935068
I1207 20:04:39.135953  8737 layer_factory.hpp:77] Creating layer bn3b3_branch2c
I1207 20:04:39.135967  8737 net.cpp:106] Creating Layer bn3b3_branch2c
I1207 20:04:39.135977  8737 net.cpp:454] bn3b3_branch2c <- res3b3_branch2c
I1207 20:04:39.135993  8737 net.cpp:397] bn3b3_branch2c -> res3b3_branch2c (in-place)
I1207 20:04:39.136224  8737 net.cpp:150] Setting up bn3b3_branch2c
I1207 20:04:39.136240  8737 net.cpp:157] Top shape: 1 512 41 41 (860672)
I1207 20:04:39.136250  8737 net.cpp:165] Memory required for data: 357377756
I1207 20:04:39.136265  8737 layer_factory.hpp:77] Creating layer scale3b3_branch2c
I1207 20:04:39.136281  8737 net.cpp:106] Creating Layer scale3b3_branch2c
I1207 20:04:39.136291  8737 net.cpp:454] scale3b3_branch2c <- res3b3_branch2c
I1207 20:04:39.136303  8737 net.cpp:397] scale3b3_branch2c -> res3b3_branch2c (in-place)
I1207 20:04:39.136358  8737 layer_factory.hpp:77] Creating layer scale3b3_branch2c
I1207 20:04:39.136509  8737 net.cpp:150] Setting up scale3b3_branch2c
I1207 20:04:39.136525  8737 net.cpp:157] Top shape: 1 512 41 41 (860672)
I1207 20:04:39.136539  8737 net.cpp:165] Memory required for data: 360820444
I1207 20:04:39.136562  8737 layer_factory.hpp:77] Creating layer res3b3
I1207 20:04:39.136577  8737 net.cpp:106] Creating Layer res3b3
I1207 20:04:39.136587  8737 net.cpp:454] res3b3 <- res3b2_res3b2_relu_0_split_1
I1207 20:04:39.136600  8737 net.cpp:454] res3b3 <- res3b3_branch2c
I1207 20:04:39.136611  8737 net.cpp:411] res3b3 -> res3b3
I1207 20:04:39.136648  8737 net.cpp:150] Setting up res3b3
I1207 20:04:39.136663  8737 net.cpp:157] Top shape: 1 512 41 41 (860672)
I1207 20:04:39.136672  8737 net.cpp:165] Memory required for data: 364263132
I1207 20:04:39.136682  8737 layer_factory.hpp:77] Creating layer res3b3_relu
I1207 20:04:39.136693  8737 net.cpp:106] Creating Layer res3b3_relu
I1207 20:04:39.136703  8737 net.cpp:454] res3b3_relu <- res3b3
I1207 20:04:39.136716  8737 net.cpp:397] res3b3_relu -> res3b3 (in-place)
I1207 20:04:39.136730  8737 net.cpp:150] Setting up res3b3_relu
I1207 20:04:39.136741  8737 net.cpp:157] Top shape: 1 512 41 41 (860672)
I1207 20:04:39.136750  8737 net.cpp:165] Memory required for data: 367705820
I1207 20:04:39.136759  8737 layer_factory.hpp:77] Creating layer res3b3_res3b3_relu_0_split
I1207 20:04:39.136771  8737 net.cpp:106] Creating Layer res3b3_res3b3_relu_0_split
I1207 20:04:39.136780  8737 net.cpp:454] res3b3_res3b3_relu_0_split <- res3b3
I1207 20:04:39.136792  8737 net.cpp:411] res3b3_res3b3_relu_0_split -> res3b3_res3b3_relu_0_split_0
I1207 20:04:39.136806  8737 net.cpp:411] res3b3_res3b3_relu_0_split -> res3b3_res3b3_relu_0_split_1
I1207 20:04:39.136857  8737 net.cpp:150] Setting up res3b3_res3b3_relu_0_split
I1207 20:04:39.136871  8737 net.cpp:157] Top shape: 1 512 41 41 (860672)
I1207 20:04:39.136883  8737 net.cpp:157] Top shape: 1 512 41 41 (860672)
I1207 20:04:39.136891  8737 net.cpp:165] Memory required for data: 374591196
I1207 20:04:39.136900  8737 layer_factory.hpp:77] Creating layer res4a_branch1
I1207 20:04:39.136914  8737 net.cpp:106] Creating Layer res4a_branch1
I1207 20:04:39.136924  8737 net.cpp:454] res4a_branch1 <- res3b3_res3b3_relu_0_split_0
I1207 20:04:39.136939  8737 net.cpp:411] res4a_branch1 -> res4a_branch1
I1207 20:04:39.138833  8737 net.cpp:150] Setting up res4a_branch1
I1207 20:04:39.138852  8737 net.cpp:157] Top shape: 1 1024 41 41 (1721344)
I1207 20:04:39.138862  8737 net.cpp:165] Memory required for data: 381476572
I1207 20:04:39.138875  8737 layer_factory.hpp:77] Creating layer bn4a_branch1
I1207 20:04:39.138888  8737 net.cpp:106] Creating Layer bn4a_branch1
I1207 20:04:39.138900  8737 net.cpp:454] bn4a_branch1 <- res4a_branch1
I1207 20:04:39.138914  8737 net.cpp:397] bn4a_branch1 -> res4a_branch1 (in-place)
I1207 20:04:39.139139  8737 net.cpp:150] Setting up bn4a_branch1
I1207 20:04:39.139156  8737 net.cpp:157] Top shape: 1 1024 41 41 (1721344)
I1207 20:04:39.139165  8737 net.cpp:165] Memory required for data: 388361948
I1207 20:04:39.139180  8737 layer_factory.hpp:77] Creating layer scale4a_branch1
I1207 20:04:39.139196  8737 net.cpp:106] Creating Layer scale4a_branch1
I1207 20:04:39.139206  8737 net.cpp:454] scale4a_branch1 <- res4a_branch1
I1207 20:04:39.139219  8737 net.cpp:397] scale4a_branch1 -> res4a_branch1 (in-place)
I1207 20:04:39.139274  8737 layer_factory.hpp:77] Creating layer scale4a_branch1
I1207 20:04:39.139430  8737 net.cpp:150] Setting up scale4a_branch1
I1207 20:04:39.139446  8737 net.cpp:157] Top shape: 1 1024 41 41 (1721344)
I1207 20:04:39.139456  8737 net.cpp:165] Memory required for data: 395247324
I1207 20:04:39.139468  8737 layer_factory.hpp:77] Creating layer res4a_branch2a
I1207 20:04:39.139485  8737 net.cpp:106] Creating Layer res4a_branch2a
I1207 20:04:39.139497  8737 net.cpp:454] res4a_branch2a <- res3b3_res3b3_relu_0_split_1
I1207 20:04:39.139513  8737 net.cpp:411] res4a_branch2a -> res4a_branch2a
I1207 20:04:39.140575  8737 net.cpp:150] Setting up res4a_branch2a
I1207 20:04:39.140596  8737 net.cpp:157] Top shape: 1 256 41 41 (430336)
I1207 20:04:39.140605  8737 net.cpp:165] Memory required for data: 396968668
I1207 20:04:39.140625  8737 layer_factory.hpp:77] Creating layer bn4a_branch2a
I1207 20:04:39.140650  8737 net.cpp:106] Creating Layer bn4a_branch2a
I1207 20:04:39.140661  8737 net.cpp:454] bn4a_branch2a <- res4a_branch2a
I1207 20:04:39.140673  8737 net.cpp:397] bn4a_branch2a -> res4a_branch2a (in-place)
I1207 20:04:39.140897  8737 net.cpp:150] Setting up bn4a_branch2a
I1207 20:04:39.140913  8737 net.cpp:157] Top shape: 1 256 41 41 (430336)
I1207 20:04:39.140921  8737 net.cpp:165] Memory required for data: 398690012
I1207 20:04:39.140938  8737 layer_factory.hpp:77] Creating layer scale4a_branch2a
I1207 20:04:39.140950  8737 net.cpp:106] Creating Layer scale4a_branch2a
I1207 20:04:39.140960  8737 net.cpp:454] scale4a_branch2a <- res4a_branch2a
I1207 20:04:39.140974  8737 net.cpp:397] scale4a_branch2a -> res4a_branch2a (in-place)
I1207 20:04:39.141031  8737 layer_factory.hpp:77] Creating layer scale4a_branch2a
I1207 20:04:39.141181  8737 net.cpp:150] Setting up scale4a_branch2a
I1207 20:04:39.141197  8737 net.cpp:157] Top shape: 1 256 41 41 (430336)
I1207 20:04:39.141206  8737 net.cpp:165] Memory required for data: 400411356
I1207 20:04:39.141221  8737 layer_factory.hpp:77] Creating layer res4a_branch2a_relu
I1207 20:04:39.141235  8737 net.cpp:106] Creating Layer res4a_branch2a_relu
I1207 20:04:39.141247  8737 net.cpp:454] res4a_branch2a_relu <- res4a_branch2a
I1207 20:04:39.141258  8737 net.cpp:397] res4a_branch2a_relu -> res4a_branch2a (in-place)
I1207 20:04:39.141271  8737 net.cpp:150] Setting up res4a_branch2a_relu
I1207 20:04:39.141283  8737 net.cpp:157] Top shape: 1 256 41 41 (430336)
I1207 20:04:39.141291  8737 net.cpp:165] Memory required for data: 402132700
I1207 20:04:39.141300  8737 layer_factory.hpp:77] Creating layer res4a_branch2b
I1207 20:04:39.141316  8737 net.cpp:106] Creating Layer res4a_branch2b
I1207 20:04:39.141326  8737 net.cpp:454] res4a_branch2b <- res4a_branch2a
I1207 20:04:39.141341  8737 net.cpp:411] res4a_branch2b -> res4a_branch2b
I1207 20:04:39.143431  8737 net.cpp:150] Setting up res4a_branch2b
I1207 20:04:39.143451  8737 net.cpp:157] Top shape: 1 256 41 41 (430336)
I1207 20:04:39.143460  8737 net.cpp:165] Memory required for data: 403854044
I1207 20:04:39.143473  8737 layer_factory.hpp:77] Creating layer bn4a_branch2b
I1207 20:04:39.143491  8737 net.cpp:106] Creating Layer bn4a_branch2b
I1207 20:04:39.143501  8737 net.cpp:454] bn4a_branch2b <- res4a_branch2b
I1207 20:04:39.143514  8737 net.cpp:397] bn4a_branch2b -> res4a_branch2b (in-place)
I1207 20:04:39.143746  8737 net.cpp:150] Setting up bn4a_branch2b
I1207 20:04:39.143764  8737 net.cpp:157] Top shape: 1 256 41 41 (430336)
I1207 20:04:39.143772  8737 net.cpp:165] Memory required for data: 405575388
I1207 20:04:39.143788  8737 layer_factory.hpp:77] Creating layer scale4a_branch2b
I1207 20:04:39.143805  8737 net.cpp:106] Creating Layer scale4a_branch2b
I1207 20:04:39.143815  8737 net.cpp:454] scale4a_branch2b <- res4a_branch2b
I1207 20:04:39.143827  8737 net.cpp:397] scale4a_branch2b -> res4a_branch2b (in-place)
I1207 20:04:39.143887  8737 layer_factory.hpp:77] Creating layer scale4a_branch2b
I1207 20:04:39.144039  8737 net.cpp:150] Setting up scale4a_branch2b
I1207 20:04:39.144057  8737 net.cpp:157] Top shape: 1 256 41 41 (430336)
I1207 20:04:39.144065  8737 net.cpp:165] Memory required for data: 407296732
I1207 20:04:39.144079  8737 layer_factory.hpp:77] Creating layer res4a_branch2b_relu
I1207 20:04:39.144091  8737 net.cpp:106] Creating Layer res4a_branch2b_relu
I1207 20:04:39.144101  8737 net.cpp:454] res4a_branch2b_relu <- res4a_branch2b
I1207 20:04:39.144115  8737 net.cpp:397] res4a_branch2b_relu -> res4a_branch2b (in-place)
I1207 20:04:39.144130  8737 net.cpp:150] Setting up res4a_branch2b_relu
I1207 20:04:39.144142  8737 net.cpp:157] Top shape: 1 256 41 41 (430336)
I1207 20:04:39.144158  8737 net.cpp:165] Memory required for data: 409018076
I1207 20:04:39.144170  8737 layer_factory.hpp:77] Creating layer res4a_branch2c
I1207 20:04:39.144182  8737 net.cpp:106] Creating Layer res4a_branch2c
I1207 20:04:39.144193  8737 net.cpp:454] res4a_branch2c <- res4a_branch2b
I1207 20:04:39.144217  8737 net.cpp:411] res4a_branch2c -> res4a_branch2c
I1207 20:04:39.145297  8737 net.cpp:150] Setting up res4a_branch2c
I1207 20:04:39.145316  8737 net.cpp:157] Top shape: 1 1024 41 41 (1721344)
I1207 20:04:39.145325  8737 net.cpp:165] Memory required for data: 415903452
I1207 20:04:39.145339  8737 layer_factory.hpp:77] Creating layer bn4a_branch2c
I1207 20:04:39.145352  8737 net.cpp:106] Creating Layer bn4a_branch2c
I1207 20:04:39.145362  8737 net.cpp:454] bn4a_branch2c <- res4a_branch2c
I1207 20:04:39.145377  8737 net.cpp:397] bn4a_branch2c -> res4a_branch2c (in-place)
I1207 20:04:39.145612  8737 net.cpp:150] Setting up bn4a_branch2c
I1207 20:04:39.145628  8737 net.cpp:157] Top shape: 1 1024 41 41 (1721344)
I1207 20:04:39.145637  8737 net.cpp:165] Memory required for data: 422788828
I1207 20:04:39.145653  8737 layer_factory.hpp:77] Creating layer scale4a_branch2c
I1207 20:04:39.145679  8737 net.cpp:106] Creating Layer scale4a_branch2c
I1207 20:04:39.145691  8737 net.cpp:454] scale4a_branch2c <- res4a_branch2c
I1207 20:04:39.145706  8737 net.cpp:397] scale4a_branch2c -> res4a_branch2c (in-place)
I1207 20:04:39.145761  8737 layer_factory.hpp:77] Creating layer scale4a_branch2c
I1207 20:04:39.145923  8737 net.cpp:150] Setting up scale4a_branch2c
I1207 20:04:39.145941  8737 net.cpp:157] Top shape: 1 1024 41 41 (1721344)
I1207 20:04:39.145949  8737 net.cpp:165] Memory required for data: 429674204
I1207 20:04:39.145963  8737 layer_factory.hpp:77] Creating layer res4a
I1207 20:04:39.145977  8737 net.cpp:106] Creating Layer res4a
I1207 20:04:39.145987  8737 net.cpp:454] res4a <- res4a_branch1
I1207 20:04:39.145998  8737 net.cpp:454] res4a <- res4a_branch2c
I1207 20:04:39.146013  8737 net.cpp:411] res4a -> res4a
I1207 20:04:39.146047  8737 net.cpp:150] Setting up res4a
I1207 20:04:39.146062  8737 net.cpp:157] Top shape: 1 1024 41 41 (1721344)
I1207 20:04:39.146072  8737 net.cpp:165] Memory required for data: 436559580
I1207 20:04:39.146081  8737 layer_factory.hpp:77] Creating layer res4a_relu
I1207 20:04:39.146093  8737 net.cpp:106] Creating Layer res4a_relu
I1207 20:04:39.146103  8737 net.cpp:454] res4a_relu <- res4a
I1207 20:04:39.146116  8737 net.cpp:397] res4a_relu -> res4a (in-place)
I1207 20:04:39.146128  8737 net.cpp:150] Setting up res4a_relu
I1207 20:04:39.146139  8737 net.cpp:157] Top shape: 1 1024 41 41 (1721344)
I1207 20:04:39.146148  8737 net.cpp:165] Memory required for data: 443444956
I1207 20:04:39.146157  8737 layer_factory.hpp:77] Creating layer res4a_res4a_relu_0_split
I1207 20:04:39.146173  8737 net.cpp:106] Creating Layer res4a_res4a_relu_0_split
I1207 20:04:39.146183  8737 net.cpp:454] res4a_res4a_relu_0_split <- res4a
I1207 20:04:39.146194  8737 net.cpp:411] res4a_res4a_relu_0_split -> res4a_res4a_relu_0_split_0
I1207 20:04:39.146209  8737 net.cpp:411] res4a_res4a_relu_0_split -> res4a_res4a_relu_0_split_1
I1207 20:04:39.146267  8737 net.cpp:150] Setting up res4a_res4a_relu_0_split
I1207 20:04:39.146283  8737 net.cpp:157] Top shape: 1 1024 41 41 (1721344)
I1207 20:04:39.146296  8737 net.cpp:157] Top shape: 1 1024 41 41 (1721344)
I1207 20:04:39.146303  8737 net.cpp:165] Memory required for data: 457215708
I1207 20:04:39.146313  8737 layer_factory.hpp:77] Creating layer res4b1_branch2a
I1207 20:04:39.146327  8737 net.cpp:106] Creating Layer res4b1_branch2a
I1207 20:04:39.146337  8737 net.cpp:454] res4b1_branch2a <- res4a_res4a_relu_0_split_0
I1207 20:04:39.146354  8737 net.cpp:411] res4b1_branch2a -> res4b1_branch2a
I1207 20:04:39.147419  8737 net.cpp:150] Setting up res4b1_branch2a
I1207 20:04:39.147439  8737 net.cpp:157] Top shape: 1 256 41 41 (430336)
I1207 20:04:39.147447  8737 net.cpp:165] Memory required for data: 458937052
I1207 20:04:39.147460  8737 layer_factory.hpp:77] Creating layer bn4b1_branch2a
I1207 20:04:39.147475  8737 net.cpp:106] Creating Layer bn4b1_branch2a
I1207 20:04:39.147485  8737 net.cpp:454] bn4b1_branch2a <- res4b1_branch2a
I1207 20:04:39.147500  8737 net.cpp:397] bn4b1_branch2a -> res4b1_branch2a (in-place)
I1207 20:04:39.147740  8737 net.cpp:150] Setting up bn4b1_branch2a
I1207 20:04:39.147758  8737 net.cpp:157] Top shape: 1 256 41 41 (430336)
I1207 20:04:39.147773  8737 net.cpp:165] Memory required for data: 460658396
I1207 20:04:39.147789  8737 layer_factory.hpp:77] Creating layer scale4b1_branch2a
I1207 20:04:39.147806  8737 net.cpp:106] Creating Layer scale4b1_branch2a
I1207 20:04:39.147816  8737 net.cpp:454] scale4b1_branch2a <- res4b1_branch2a
I1207 20:04:39.147828  8737 net.cpp:397] scale4b1_branch2a -> res4b1_branch2a (in-place)
I1207 20:04:39.147887  8737 layer_factory.hpp:77] Creating layer scale4b1_branch2a
I1207 20:04:39.148042  8737 net.cpp:150] Setting up scale4b1_branch2a
I1207 20:04:39.148058  8737 net.cpp:157] Top shape: 1 256 41 41 (430336)
I1207 20:04:39.148067  8737 net.cpp:165] Memory required for data: 462379740
I1207 20:04:39.148082  8737 layer_factory.hpp:77] Creating layer res4b1_branch2a_relu
I1207 20:04:39.148097  8737 net.cpp:106] Creating Layer res4b1_branch2a_relu
I1207 20:04:39.148107  8737 net.cpp:454] res4b1_branch2a_relu <- res4b1_branch2a
I1207 20:04:39.148118  8737 net.cpp:397] res4b1_branch2a_relu -> res4b1_branch2a (in-place)
I1207 20:04:39.148133  8737 net.cpp:150] Setting up res4b1_branch2a_relu
I1207 20:04:39.148144  8737 net.cpp:157] Top shape: 1 256 41 41 (430336)
I1207 20:04:39.148167  8737 net.cpp:165] Memory required for data: 464101084
I1207 20:04:39.148177  8737 layer_factory.hpp:77] Creating layer res4b1_branch2b
I1207 20:04:39.148193  8737 net.cpp:106] Creating Layer res4b1_branch2b
I1207 20:04:39.148205  8737 net.cpp:454] res4b1_branch2b <- res4b1_branch2a
I1207 20:04:39.148221  8737 net.cpp:411] res4b1_branch2b -> res4b1_branch2b
I1207 20:04:39.150482  8737 net.cpp:150] Setting up res4b1_branch2b
I1207 20:04:39.150502  8737 net.cpp:157] Top shape: 1 256 41 41 (430336)
I1207 20:04:39.150512  8737 net.cpp:165] Memory required for data: 465822428
I1207 20:04:39.150524  8737 layer_factory.hpp:77] Creating layer bn4b1_branch2b
I1207 20:04:39.150542  8737 net.cpp:106] Creating Layer bn4b1_branch2b
I1207 20:04:39.150553  8737 net.cpp:454] bn4b1_branch2b <- res4b1_branch2b
I1207 20:04:39.150566  8737 net.cpp:397] bn4b1_branch2b -> res4b1_branch2b (in-place)
I1207 20:04:39.150813  8737 net.cpp:150] Setting up bn4b1_branch2b
I1207 20:04:39.150831  8737 net.cpp:157] Top shape: 1 256 41 41 (430336)
I1207 20:04:39.150840  8737 net.cpp:165] Memory required for data: 467543772
I1207 20:04:39.150856  8737 layer_factory.hpp:77] Creating layer scale4b1_branch2b
I1207 20:04:39.150871  8737 net.cpp:106] Creating Layer scale4b1_branch2b
I1207 20:04:39.150881  8737 net.cpp:454] scale4b1_branch2b <- res4b1_branch2b
I1207 20:04:39.150895  8737 net.cpp:397] scale4b1_branch2b -> res4b1_branch2b (in-place)
I1207 20:04:39.150954  8737 layer_factory.hpp:77] Creating layer scale4b1_branch2b
I1207 20:04:39.151114  8737 net.cpp:150] Setting up scale4b1_branch2b
I1207 20:04:39.151131  8737 net.cpp:157] Top shape: 1 256 41 41 (430336)
I1207 20:04:39.151140  8737 net.cpp:165] Memory required for data: 469265116
I1207 20:04:39.151154  8737 layer_factory.hpp:77] Creating layer res4b1_branch2b_relu
I1207 20:04:39.151166  8737 net.cpp:106] Creating Layer res4b1_branch2b_relu
I1207 20:04:39.151175  8737 net.cpp:454] res4b1_branch2b_relu <- res4b1_branch2b
I1207 20:04:39.151190  8737 net.cpp:397] res4b1_branch2b_relu -> res4b1_branch2b (in-place)
I1207 20:04:39.151204  8737 net.cpp:150] Setting up res4b1_branch2b_relu
I1207 20:04:39.151217  8737 net.cpp:157] Top shape: 1 256 41 41 (430336)
I1207 20:04:39.151227  8737 net.cpp:165] Memory required for data: 470986460
I1207 20:04:39.151237  8737 layer_factory.hpp:77] Creating layer res4b1_branch2c
I1207 20:04:39.151254  8737 net.cpp:106] Creating Layer res4b1_branch2c
I1207 20:04:39.151267  8737 net.cpp:454] res4b1_branch2c <- res4b1_branch2b
I1207 20:04:39.151279  8737 net.cpp:411] res4b1_branch2c -> res4b1_branch2c
I1207 20:04:39.152369  8737 net.cpp:150] Setting up res4b1_branch2c
I1207 20:04:39.152390  8737 net.cpp:157] Top shape: 1 1024 41 41 (1721344)
I1207 20:04:39.152405  8737 net.cpp:165] Memory required for data: 477871836
I1207 20:04:39.152417  8737 layer_factory.hpp:77] Creating layer bn4b1_branch2c
I1207 20:04:39.152442  8737 net.cpp:106] Creating Layer bn4b1_branch2c
I1207 20:04:39.152453  8737 net.cpp:454] bn4b1_branch2c <- res4b1_branch2c
I1207 20:04:39.152467  8737 net.cpp:397] bn4b1_branch2c -> res4b1_branch2c (in-place)
I1207 20:04:39.152704  8737 net.cpp:150] Setting up bn4b1_branch2c
I1207 20:04:39.152720  8737 net.cpp:157] Top shape: 1 1024 41 41 (1721344)
I1207 20:04:39.152729  8737 net.cpp:165] Memory required for data: 484757212
I1207 20:04:39.152745  8737 layer_factory.hpp:77] Creating layer scale4b1_branch2c
I1207 20:04:39.152758  8737 net.cpp:106] Creating Layer scale4b1_branch2c
I1207 20:04:39.152767  8737 net.cpp:454] scale4b1_branch2c <- res4b1_branch2c
I1207 20:04:39.152781  8737 net.cpp:397] scale4b1_branch2c -> res4b1_branch2c (in-place)
I1207 20:04:39.152835  8737 layer_factory.hpp:77] Creating layer scale4b1_branch2c
I1207 20:04:39.152993  8737 net.cpp:150] Setting up scale4b1_branch2c
I1207 20:04:39.153010  8737 net.cpp:157] Top shape: 1 1024 41 41 (1721344)
I1207 20:04:39.153019  8737 net.cpp:165] Memory required for data: 491642588
I1207 20:04:39.153033  8737 layer_factory.hpp:77] Creating layer res4b1
I1207 20:04:39.153048  8737 net.cpp:106] Creating Layer res4b1
I1207 20:04:39.153059  8737 net.cpp:454] res4b1 <- res4a_res4a_relu_0_split_1
I1207 20:04:39.153069  8737 net.cpp:454] res4b1 <- res4b1_branch2c
I1207 20:04:39.153081  8737 net.cpp:411] res4b1 -> res4b1
I1207 20:04:39.153123  8737 net.cpp:150] Setting up res4b1
I1207 20:04:39.153138  8737 net.cpp:157] Top shape: 1 1024 41 41 (1721344)
I1207 20:04:39.153147  8737 net.cpp:165] Memory required for data: 498527964
I1207 20:04:39.153156  8737 layer_factory.hpp:77] Creating layer res4b1_relu
I1207 20:04:39.153169  8737 net.cpp:106] Creating Layer res4b1_relu
I1207 20:04:39.153179  8737 net.cpp:454] res4b1_relu <- res4b1
I1207 20:04:39.153195  8737 net.cpp:397] res4b1_relu -> res4b1 (in-place)
I1207 20:04:39.153210  8737 net.cpp:150] Setting up res4b1_relu
I1207 20:04:39.153223  8737 net.cpp:157] Top shape: 1 1024 41 41 (1721344)
I1207 20:04:39.153233  8737 net.cpp:165] Memory required for data: 505413340
I1207 20:04:39.153242  8737 layer_factory.hpp:77] Creating layer res4b1_res4b1_relu_0_split
I1207 20:04:39.153256  8737 net.cpp:106] Creating Layer res4b1_res4b1_relu_0_split
I1207 20:04:39.153266  8737 net.cpp:454] res4b1_res4b1_relu_0_split <- res4b1
I1207 20:04:39.153281  8737 net.cpp:411] res4b1_res4b1_relu_0_split -> res4b1_res4b1_relu_0_split_0
I1207 20:04:39.153296  8737 net.cpp:411] res4b1_res4b1_relu_0_split -> res4b1_res4b1_relu_0_split_1
I1207 20:04:39.153348  8737 net.cpp:150] Setting up res4b1_res4b1_relu_0_split
I1207 20:04:39.153363  8737 net.cpp:157] Top shape: 1 1024 41 41 (1721344)
I1207 20:04:39.153375  8737 net.cpp:157] Top shape: 1 1024 41 41 (1721344)
I1207 20:04:39.153384  8737 net.cpp:165] Memory required for data: 519184092
I1207 20:04:39.153393  8737 layer_factory.hpp:77] Creating layer res4b2_branch2a
I1207 20:04:39.153410  8737 net.cpp:106] Creating Layer res4b2_branch2a
I1207 20:04:39.153421  8737 net.cpp:454] res4b2_branch2a <- res4b1_res4b1_relu_0_split_0
I1207 20:04:39.153434  8737 net.cpp:411] res4b2_branch2a -> res4b2_branch2a
I1207 20:04:39.154500  8737 net.cpp:150] Setting up res4b2_branch2a
I1207 20:04:39.154520  8737 net.cpp:157] Top shape: 1 256 41 41 (430336)
I1207 20:04:39.154530  8737 net.cpp:165] Memory required for data: 520905436
I1207 20:04:39.154542  8737 layer_factory.hpp:77] Creating layer bn4b2_branch2a
I1207 20:04:39.154559  8737 net.cpp:106] Creating Layer bn4b2_branch2a
I1207 20:04:39.154570  8737 net.cpp:454] bn4b2_branch2a <- res4b2_branch2a
I1207 20:04:39.154583  8737 net.cpp:397] bn4b2_branch2a -> res4b2_branch2a (in-place)
I1207 20:04:39.154819  8737 net.cpp:150] Setting up bn4b2_branch2a
I1207 20:04:39.154835  8737 net.cpp:157] Top shape: 1 256 41 41 (430336)
I1207 20:04:39.154844  8737 net.cpp:165] Memory required for data: 522626780
I1207 20:04:39.154865  8737 layer_factory.hpp:77] Creating layer scale4b2_branch2a
I1207 20:04:39.154886  8737 net.cpp:106] Creating Layer scale4b2_branch2a
I1207 20:04:39.154897  8737 net.cpp:454] scale4b2_branch2a <- res4b2_branch2a
I1207 20:04:39.154911  8737 net.cpp:397] scale4b2_branch2a -> res4b2_branch2a (in-place)
I1207 20:04:39.154969  8737 layer_factory.hpp:77] Creating layer scale4b2_branch2a
I1207 20:04:39.155129  8737 net.cpp:150] Setting up scale4b2_branch2a
I1207 20:04:39.155146  8737 net.cpp:157] Top shape: 1 256 41 41 (430336)
I1207 20:04:39.155155  8737 net.cpp:165] Memory required for data: 524348124
I1207 20:04:39.155169  8737 layer_factory.hpp:77] Creating layer res4b2_branch2a_relu
I1207 20:04:39.155181  8737 net.cpp:106] Creating Layer res4b2_branch2a_relu
I1207 20:04:39.155191  8737 net.cpp:454] res4b2_branch2a_relu <- res4b2_branch2a
I1207 20:04:39.155208  8737 net.cpp:397] res4b2_branch2a_relu -> res4b2_branch2a (in-place)
I1207 20:04:39.155223  8737 net.cpp:150] Setting up res4b2_branch2a_relu
I1207 20:04:39.155236  8737 net.cpp:157] Top shape: 1 256 41 41 (430336)
I1207 20:04:39.155243  8737 net.cpp:165] Memory required for data: 526069468
I1207 20:04:39.155253  8737 layer_factory.hpp:77] Creating layer res4b2_branch2b
I1207 20:04:39.155269  8737 net.cpp:106] Creating Layer res4b2_branch2b
I1207 20:04:39.155280  8737 net.cpp:454] res4b2_branch2b <- res4b2_branch2a
I1207 20:04:39.155292  8737 net.cpp:411] res4b2_branch2b -> res4b2_branch2b
I1207 20:04:39.157430  8737 net.cpp:150] Setting up res4b2_branch2b
I1207 20:04:39.157452  8737 net.cpp:157] Top shape: 1 256 41 41 (430336)
I1207 20:04:39.157461  8737 net.cpp:165] Memory required for data: 527790812
I1207 20:04:39.157474  8737 layer_factory.hpp:77] Creating layer bn4b2_branch2b
I1207 20:04:39.157490  8737 net.cpp:106] Creating Layer bn4b2_branch2b
I1207 20:04:39.157500  8737 net.cpp:454] bn4b2_branch2b <- res4b2_branch2b
I1207 20:04:39.157516  8737 net.cpp:397] bn4b2_branch2b -> res4b2_branch2b (in-place)
I1207 20:04:39.157747  8737 net.cpp:150] Setting up bn4b2_branch2b
I1207 20:04:39.157764  8737 net.cpp:157] Top shape: 1 256 41 41 (430336)
I1207 20:04:39.157773  8737 net.cpp:165] Memory required for data: 529512156
I1207 20:04:39.157788  8737 layer_factory.hpp:77] Creating layer scale4b2_branch2b
I1207 20:04:39.157807  8737 net.cpp:106] Creating Layer scale4b2_branch2b
I1207 20:04:39.157817  8737 net.cpp:454] scale4b2_branch2b <- res4b2_branch2b
I1207 20:04:39.157830  8737 net.cpp:397] scale4b2_branch2b -> res4b2_branch2b (in-place)
I1207 20:04:39.157889  8737 layer_factory.hpp:77] Creating layer scale4b2_branch2b
I1207 20:04:39.158044  8737 net.cpp:150] Setting up scale4b2_branch2b
I1207 20:04:39.158061  8737 net.cpp:157] Top shape: 1 256 41 41 (430336)
I1207 20:04:39.158069  8737 net.cpp:165] Memory required for data: 531233500
I1207 20:04:39.158083  8737 layer_factory.hpp:77] Creating layer res4b2_branch2b_relu
I1207 20:04:39.158098  8737 net.cpp:106] Creating Layer res4b2_branch2b_relu
I1207 20:04:39.158109  8737 net.cpp:454] res4b2_branch2b_relu <- res4b2_branch2b
I1207 20:04:39.158121  8737 net.cpp:397] res4b2_branch2b_relu -> res4b2_branch2b (in-place)
I1207 20:04:39.158134  8737 net.cpp:150] Setting up res4b2_branch2b_relu
I1207 20:04:39.158146  8737 net.cpp:157] Top shape: 1 256 41 41 (430336)
I1207 20:04:39.158155  8737 net.cpp:165] Memory required for data: 532954844
I1207 20:04:39.158165  8737 layer_factory.hpp:77] Creating layer res4b2_branch2c
I1207 20:04:39.158180  8737 net.cpp:106] Creating Layer res4b2_branch2c
I1207 20:04:39.158192  8737 net.cpp:454] res4b2_branch2c <- res4b2_branch2b
I1207 20:04:39.158207  8737 net.cpp:411] res4b2_branch2c -> res4b2_branch2c
I1207 20:04:39.159278  8737 net.cpp:150] Setting up res4b2_branch2c
I1207 20:04:39.159298  8737 net.cpp:157] Top shape: 1 1024 41 41 (1721344)
I1207 20:04:39.159307  8737 net.cpp:165] Memory required for data: 539840220
I1207 20:04:39.159320  8737 layer_factory.hpp:77] Creating layer bn4b2_branch2c
I1207 20:04:39.159338  8737 net.cpp:106] Creating Layer bn4b2_branch2c
I1207 20:04:39.159354  8737 net.cpp:454] bn4b2_branch2c <- res4b2_branch2c
I1207 20:04:39.159376  8737 net.cpp:397] bn4b2_branch2c -> res4b2_branch2c (in-place)
I1207 20:04:39.159620  8737 net.cpp:150] Setting up bn4b2_branch2c
I1207 20:04:39.159636  8737 net.cpp:157] Top shape: 1 1024 41 41 (1721344)
I1207 20:04:39.159644  8737 net.cpp:165] Memory required for data: 546725596
I1207 20:04:39.159660  8737 layer_factory.hpp:77] Creating layer scale4b2_branch2c
I1207 20:04:39.159673  8737 net.cpp:106] Creating Layer scale4b2_branch2c
I1207 20:04:39.159683  8737 net.cpp:454] scale4b2_branch2c <- res4b2_branch2c
I1207 20:04:39.159700  8737 net.cpp:397] scale4b2_branch2c -> res4b2_branch2c (in-place)
I1207 20:04:39.159757  8737 layer_factory.hpp:77] Creating layer scale4b2_branch2c
I1207 20:04:39.159929  8737 net.cpp:150] Setting up scale4b2_branch2c
I1207 20:04:39.159945  8737 net.cpp:157] Top shape: 1 1024 41 41 (1721344)
I1207 20:04:39.159953  8737 net.cpp:165] Memory required for data: 553610972
I1207 20:04:39.159967  8737 layer_factory.hpp:77] Creating layer res4b2
I1207 20:04:39.159981  8737 net.cpp:106] Creating Layer res4b2
I1207 20:04:39.159991  8737 net.cpp:454] res4b2 <- res4b1_res4b1_relu_0_split_1
I1207 20:04:39.160001  8737 net.cpp:454] res4b2 <- res4b2_branch2c
I1207 20:04:39.160018  8737 net.cpp:411] res4b2 -> res4b2
I1207 20:04:39.160055  8737 net.cpp:150] Setting up res4b2
I1207 20:04:39.160074  8737 net.cpp:157] Top shape: 1 1024 41 41 (1721344)
I1207 20:04:39.160084  8737 net.cpp:165] Memory required for data: 560496348
I1207 20:04:39.160094  8737 layer_factory.hpp:77] Creating layer res4b2_relu
I1207 20:04:39.160105  8737 net.cpp:106] Creating Layer res4b2_relu
I1207 20:04:39.160115  8737 net.cpp:454] res4b2_relu <- res4b2
I1207 20:04:39.160127  8737 net.cpp:397] res4b2_relu -> res4b2 (in-place)
I1207 20:04:39.160140  8737 net.cpp:150] Setting up res4b2_relu
I1207 20:04:39.160158  8737 net.cpp:157] Top shape: 1 1024 41 41 (1721344)
I1207 20:04:39.160169  8737 net.cpp:165] Memory required for data: 567381724
I1207 20:04:39.160178  8737 layer_factory.hpp:77] Creating layer res4b2_res4b2_relu_0_split
I1207 20:04:39.160190  8737 net.cpp:106] Creating Layer res4b2_res4b2_relu_0_split
I1207 20:04:39.160199  8737 net.cpp:454] res4b2_res4b2_relu_0_split <- res4b2
I1207 20:04:39.160214  8737 net.cpp:411] res4b2_res4b2_relu_0_split -> res4b2_res4b2_relu_0_split_0
I1207 20:04:39.160229  8737 net.cpp:411] res4b2_res4b2_relu_0_split -> res4b2_res4b2_relu_0_split_1
I1207 20:04:39.160284  8737 net.cpp:150] Setting up res4b2_res4b2_relu_0_split
I1207 20:04:39.160298  8737 net.cpp:157] Top shape: 1 1024 41 41 (1721344)
I1207 20:04:39.160310  8737 net.cpp:157] Top shape: 1 1024 41 41 (1721344)
I1207 20:04:39.160317  8737 net.cpp:165] Memory required for data: 581152476
I1207 20:04:39.160327  8737 layer_factory.hpp:77] Creating layer res4b3_branch2a
I1207 20:04:39.160341  8737 net.cpp:106] Creating Layer res4b3_branch2a
I1207 20:04:39.160351  8737 net.cpp:454] res4b3_branch2a <- res4b2_res4b2_relu_0_split_0
I1207 20:04:39.160363  8737 net.cpp:411] res4b3_branch2a -> res4b3_branch2a
I1207 20:04:39.161507  8737 net.cpp:150] Setting up res4b3_branch2a
I1207 20:04:39.161527  8737 net.cpp:157] Top shape: 1 256 41 41 (430336)
I1207 20:04:39.161536  8737 net.cpp:165] Memory required for data: 582873820
I1207 20:04:39.161550  8737 layer_factory.hpp:77] Creating layer bn4b3_branch2a
I1207 20:04:39.161566  8737 net.cpp:106] Creating Layer bn4b3_branch2a
I1207 20:04:39.161577  8737 net.cpp:454] bn4b3_branch2a <- res4b3_branch2a
I1207 20:04:39.161590  8737 net.cpp:397] bn4b3_branch2a -> res4b3_branch2a (in-place)
I1207 20:04:39.161839  8737 net.cpp:150] Setting up bn4b3_branch2a
I1207 20:04:39.161856  8737 net.cpp:157] Top shape: 1 256 41 41 (430336)
I1207 20:04:39.161865  8737 net.cpp:165] Memory required for data: 584595164
I1207 20:04:39.161881  8737 layer_factory.hpp:77] Creating layer scale4b3_branch2a
I1207 20:04:39.161900  8737 net.cpp:106] Creating Layer scale4b3_branch2a
I1207 20:04:39.161912  8737 net.cpp:454] scale4b3_branch2a <- res4b3_branch2a
I1207 20:04:39.161937  8737 net.cpp:397] scale4b3_branch2a -> res4b3_branch2a (in-place)
I1207 20:04:39.162004  8737 layer_factory.hpp:77] Creating layer scale4b3_branch2a
I1207 20:04:39.162192  8737 net.cpp:150] Setting up scale4b3_branch2a
I1207 20:04:39.162214  8737 net.cpp:157] Top shape: 1 256 41 41 (430336)
I1207 20:04:39.162225  8737 net.cpp:165] Memory required for data: 586316508
I1207 20:04:39.162240  8737 layer_factory.hpp:77] Creating layer res4b3_branch2a_relu
I1207 20:04:39.162253  8737 net.cpp:106] Creating Layer res4b3_branch2a_relu
I1207 20:04:39.162263  8737 net.cpp:454] res4b3_branch2a_relu <- res4b3_branch2a
I1207 20:04:39.162276  8737 net.cpp:397] res4b3_branch2a_relu -> res4b3_branch2a (in-place)
I1207 20:04:39.162288  8737 net.cpp:150] Setting up res4b3_branch2a_relu
I1207 20:04:39.162300  8737 net.cpp:157] Top shape: 1 256 41 41 (430336)
I1207 20:04:39.162308  8737 net.cpp:165] Memory required for data: 588037852
I1207 20:04:39.162318  8737 layer_factory.hpp:77] Creating layer res4b3_branch2b
I1207 20:04:39.162334  8737 net.cpp:106] Creating Layer res4b3_branch2b
I1207 20:04:39.162345  8737 net.cpp:454] res4b3_branch2b <- res4b3_branch2a
I1207 20:04:39.162360  8737 net.cpp:411] res4b3_branch2b -> res4b3_branch2b
I1207 20:04:39.170392  8737 net.cpp:150] Setting up res4b3_branch2b
I1207 20:04:39.170461  8737 net.cpp:157] Top shape: 1 256 41 41 (430336)
I1207 20:04:39.170471  8737 net.cpp:165] Memory required for data: 589759196
I1207 20:04:39.170493  8737 layer_factory.hpp:77] Creating layer bn4b3_branch2b
I1207 20:04:39.170521  8737 net.cpp:106] Creating Layer bn4b3_branch2b
I1207 20:04:39.170536  8737 net.cpp:454] bn4b3_branch2b <- res4b3_branch2b
I1207 20:04:39.170552  8737 net.cpp:397] bn4b3_branch2b -> res4b3_branch2b (in-place)
I1207 20:04:39.170809  8737 net.cpp:150] Setting up bn4b3_branch2b
I1207 20:04:39.170825  8737 net.cpp:157] Top shape: 1 256 41 41 (430336)
I1207 20:04:39.170835  8737 net.cpp:165] Memory required for data: 591480540
I1207 20:04:39.170853  8737 layer_factory.hpp:77] Creating layer scale4b3_branch2b
I1207 20:04:39.170869  8737 net.cpp:106] Creating Layer scale4b3_branch2b
I1207 20:04:39.170879  8737 net.cpp:454] scale4b3_branch2b <- res4b3_branch2b
I1207 20:04:39.170892  8737 net.cpp:397] scale4b3_branch2b -> res4b3_branch2b (in-place)
I1207 20:04:39.170958  8737 layer_factory.hpp:77] Creating layer scale4b3_branch2b
I1207 20:04:39.171125  8737 net.cpp:150] Setting up scale4b3_branch2b
I1207 20:04:39.171141  8737 net.cpp:157] Top shape: 1 256 41 41 (430336)
I1207 20:04:39.171150  8737 net.cpp:165] Memory required for data: 593201884
I1207 20:04:39.171165  8737 layer_factory.hpp:77] Creating layer res4b3_branch2b_relu
I1207 20:04:39.171178  8737 net.cpp:106] Creating Layer res4b3_branch2b_relu
I1207 20:04:39.171188  8737 net.cpp:454] res4b3_branch2b_relu <- res4b3_branch2b
I1207 20:04:39.171205  8737 net.cpp:397] res4b3_branch2b_relu -> res4b3_branch2b (in-place)
I1207 20:04:39.171219  8737 net.cpp:150] Setting up res4b3_branch2b_relu
I1207 20:04:39.171231  8737 net.cpp:157] Top shape: 1 256 41 41 (430336)
I1207 20:04:39.171241  8737 net.cpp:165] Memory required for data: 594923228
I1207 20:04:39.171249  8737 layer_factory.hpp:77] Creating layer res4b3_branch2c
I1207 20:04:39.171264  8737 net.cpp:106] Creating Layer res4b3_branch2c
I1207 20:04:39.171275  8737 net.cpp:454] res4b3_branch2c <- res4b3_branch2b
I1207 20:04:39.171303  8737 net.cpp:411] res4b3_branch2c -> res4b3_branch2c
I1207 20:04:39.178166  8737 net.cpp:150] Setting up res4b3_branch2c
I1207 20:04:39.178236  8737 net.cpp:157] Top shape: 1 1024 41 41 (1721344)
I1207 20:04:39.178246  8737 net.cpp:165] Memory required for data: 601808604
I1207 20:04:39.178267  8737 layer_factory.hpp:77] Creating layer bn4b3_branch2c
I1207 20:04:39.178288  8737 net.cpp:106] Creating Layer bn4b3_branch2c
I1207 20:04:39.178300  8737 net.cpp:454] bn4b3_branch2c <- res4b3_branch2c
I1207 20:04:39.178320  8737 net.cpp:397] bn4b3_branch2c -> res4b3_branch2c (in-place)
I1207 20:04:39.178587  8737 net.cpp:150] Setting up bn4b3_branch2c
I1207 20:04:39.178614  8737 net.cpp:157] Top shape: 1 1024 41 41 (1721344)
I1207 20:04:39.178642  8737 net.cpp:165] Memory required for data: 608693980
I1207 20:04:39.178660  8737 layer_factory.hpp:77] Creating layer scale4b3_branch2c
I1207 20:04:39.178678  8737 net.cpp:106] Creating Layer scale4b3_branch2c
I1207 20:04:39.178689  8737 net.cpp:454] scale4b3_branch2c <- res4b3_branch2c
I1207 20:04:39.178700  8737 net.cpp:397] scale4b3_branch2c -> res4b3_branch2c (in-place)
I1207 20:04:39.178764  8737 layer_factory.hpp:77] Creating layer scale4b3_branch2c
I1207 20:04:39.178936  8737 net.cpp:150] Setting up scale4b3_branch2c
I1207 20:04:39.178952  8737 net.cpp:157] Top shape: 1 1024 41 41 (1721344)
I1207 20:04:39.178961  8737 net.cpp:165] Memory required for data: 615579356
I1207 20:04:39.178977  8737 layer_factory.hpp:77] Creating layer res4b3
I1207 20:04:39.178992  8737 net.cpp:106] Creating Layer res4b3
I1207 20:04:39.179003  8737 net.cpp:454] res4b3 <- res4b2_res4b2_relu_0_split_1
I1207 20:04:39.179015  8737 net.cpp:454] res4b3 <- res4b3_branch2c
I1207 20:04:39.179028  8737 net.cpp:411] res4b3 -> res4b3
I1207 20:04:39.179067  8737 net.cpp:150] Setting up res4b3
I1207 20:04:39.179082  8737 net.cpp:157] Top shape: 1 1024 41 41 (1721344)
I1207 20:04:39.179091  8737 net.cpp:165] Memory required for data: 622464732
I1207 20:04:39.179100  8737 layer_factory.hpp:77] Creating layer res4b3_relu
I1207 20:04:39.179112  8737 net.cpp:106] Creating Layer res4b3_relu
I1207 20:04:39.179122  8737 net.cpp:454] res4b3_relu <- res4b3
I1207 20:04:39.179136  8737 net.cpp:397] res4b3_relu -> res4b3 (in-place)
I1207 20:04:39.179152  8737 net.cpp:150] Setting up res4b3_relu
I1207 20:04:39.179163  8737 net.cpp:157] Top shape: 1 1024 41 41 (1721344)
I1207 20:04:39.179172  8737 net.cpp:165] Memory required for data: 629350108
I1207 20:04:39.179181  8737 layer_factory.hpp:77] Creating layer res4b3_res4b3_relu_0_split
I1207 20:04:39.179193  8737 net.cpp:106] Creating Layer res4b3_res4b3_relu_0_split
I1207 20:04:39.179203  8737 net.cpp:454] res4b3_res4b3_relu_0_split <- res4b3
I1207 20:04:39.179215  8737 net.cpp:411] res4b3_res4b3_relu_0_split -> res4b3_res4b3_relu_0_split_0
I1207 20:04:39.179229  8737 net.cpp:411] res4b3_res4b3_relu_0_split -> res4b3_res4b3_relu_0_split_1
I1207 20:04:39.179281  8737 net.cpp:150] Setting up res4b3_res4b3_relu_0_split
I1207 20:04:39.179296  8737 net.cpp:157] Top shape: 1 1024 41 41 (1721344)
I1207 20:04:39.179308  8737 net.cpp:157] Top shape: 1 1024 41 41 (1721344)
I1207 20:04:39.179316  8737 net.cpp:165] Memory required for data: 643120860
I1207 20:04:39.179325  8737 layer_factory.hpp:77] Creating layer res4b4_branch2a
I1207 20:04:39.179342  8737 net.cpp:106] Creating Layer res4b4_branch2a
I1207 20:04:39.179352  8737 net.cpp:454] res4b4_branch2a <- res4b3_res4b3_relu_0_split_0
I1207 20:04:39.179371  8737 net.cpp:411] res4b4_branch2a -> res4b4_branch2a
I1207 20:04:39.185359  8737 net.cpp:150] Setting up res4b4_branch2a
I1207 20:04:39.185431  8737 net.cpp:157] Top shape: 1 256 41 41 (430336)
I1207 20:04:39.185439  8737 net.cpp:165] Memory required for data: 644842204
I1207 20:04:39.185461  8737 layer_factory.hpp:77] Creating layer bn4b4_branch2a
I1207 20:04:39.185483  8737 net.cpp:106] Creating Layer bn4b4_branch2a
I1207 20:04:39.185497  8737 net.cpp:454] bn4b4_branch2a <- res4b4_branch2a
I1207 20:04:39.185513  8737 net.cpp:397] bn4b4_branch2a -> res4b4_branch2a (in-place)
I1207 20:04:39.185796  8737 net.cpp:150] Setting up bn4b4_branch2a
I1207 20:04:39.185814  8737 net.cpp:157] Top shape: 1 256 41 41 (430336)
I1207 20:04:39.185823  8737 net.cpp:165] Memory required for data: 646563548
I1207 20:04:39.185840  8737 layer_factory.hpp:77] Creating layer scale4b4_branch2a
I1207 20:04:39.185859  8737 net.cpp:106] Creating Layer scale4b4_branch2a
I1207 20:04:39.185869  8737 net.cpp:454] scale4b4_branch2a <- res4b4_branch2a
I1207 20:04:39.185883  8737 net.cpp:397] scale4b4_branch2a -> res4b4_branch2a (in-place)
I1207 20:04:39.185948  8737 layer_factory.hpp:77] Creating layer scale4b4_branch2a
I1207 20:04:39.186131  8737 net.cpp:150] Setting up scale4b4_branch2a
I1207 20:04:39.186148  8737 net.cpp:157] Top shape: 1 256 41 41 (430336)
I1207 20:04:39.186172  8737 net.cpp:165] Memory required for data: 648284892
I1207 20:04:39.186187  8737 layer_factory.hpp:77] Creating layer res4b4_branch2a_relu
I1207 20:04:39.186199  8737 net.cpp:106] Creating Layer res4b4_branch2a_relu
I1207 20:04:39.186209  8737 net.cpp:454] res4b4_branch2a_relu <- res4b4_branch2a
I1207 20:04:39.186224  8737 net.cpp:397] res4b4_branch2a_relu -> res4b4_branch2a (in-place)
I1207 20:04:39.186239  8737 net.cpp:150] Setting up res4b4_branch2a_relu
I1207 20:04:39.186250  8737 net.cpp:157] Top shape: 1 256 41 41 (430336)
I1207 20:04:39.186259  8737 net.cpp:165] Memory required for data: 650006236
I1207 20:04:39.186269  8737 layer_factory.hpp:77] Creating layer res4b4_branch2b
I1207 20:04:39.186285  8737 net.cpp:106] Creating Layer res4b4_branch2b
I1207 20:04:39.186296  8737 net.cpp:454] res4b4_branch2b <- res4b4_branch2a
I1207 20:04:39.186308  8737 net.cpp:411] res4b4_branch2b -> res4b4_branch2b
I1207 20:04:39.193311  8737 net.cpp:150] Setting up res4b4_branch2b
I1207 20:04:39.193380  8737 net.cpp:157] Top shape: 1 256 41 41 (430336)
I1207 20:04:39.193390  8737 net.cpp:165] Memory required for data: 651727580
I1207 20:04:39.193413  8737 layer_factory.hpp:77] Creating layer bn4b4_branch2b
I1207 20:04:39.193436  8737 net.cpp:106] Creating Layer bn4b4_branch2b
I1207 20:04:39.193449  8737 net.cpp:454] bn4b4_branch2b <- res4b4_branch2b
I1207 20:04:39.193466  8737 net.cpp:397] bn4b4_branch2b -> res4b4_branch2b (in-place)
I1207 20:04:39.193728  8737 net.cpp:150] Setting up bn4b4_branch2b
I1207 20:04:39.193744  8737 net.cpp:157] Top shape: 1 256 41 41 (430336)
I1207 20:04:39.193753  8737 net.cpp:165] Memory required for data: 653448924
I1207 20:04:39.193770  8737 layer_factory.hpp:77] Creating layer scale4b4_branch2b
I1207 20:04:39.193785  8737 net.cpp:106] Creating Layer scale4b4_branch2b
I1207 20:04:39.193795  8737 net.cpp:454] scale4b4_branch2b <- res4b4_branch2b
I1207 20:04:39.193810  8737 net.cpp:397] scale4b4_branch2b -> res4b4_branch2b (in-place)
I1207 20:04:39.193874  8737 layer_factory.hpp:77] Creating layer scale4b4_branch2b
I1207 20:04:39.194044  8737 net.cpp:150] Setting up scale4b4_branch2b
I1207 20:04:39.194063  8737 net.cpp:157] Top shape: 1 256 41 41 (430336)
I1207 20:04:39.194072  8737 net.cpp:165] Memory required for data: 655170268
I1207 20:04:39.194087  8737 layer_factory.hpp:77] Creating layer res4b4_branch2b_relu
I1207 20:04:39.194100  8737 net.cpp:106] Creating Layer res4b4_branch2b_relu
I1207 20:04:39.194110  8737 net.cpp:454] res4b4_branch2b_relu <- res4b4_branch2b
I1207 20:04:39.194123  8737 net.cpp:397] res4b4_branch2b_relu -> res4b4_branch2b (in-place)
I1207 20:04:39.194135  8737 net.cpp:150] Setting up res4b4_branch2b_relu
I1207 20:04:39.194147  8737 net.cpp:157] Top shape: 1 256 41 41 (430336)
I1207 20:04:39.194156  8737 net.cpp:165] Memory required for data: 656891612
I1207 20:04:39.194166  8737 layer_factory.hpp:77] Creating layer res4b4_branch2c
I1207 20:04:39.194183  8737 net.cpp:106] Creating Layer res4b4_branch2c
I1207 20:04:39.194195  8737 net.cpp:454] res4b4_branch2c <- res4b4_branch2b
I1207 20:04:39.194211  8737 net.cpp:411] res4b4_branch2c -> res4b4_branch2c
I1207 20:04:39.200170  8737 net.cpp:150] Setting up res4b4_branch2c
I1207 20:04:39.200239  8737 net.cpp:157] Top shape: 1 1024 41 41 (1721344)
I1207 20:04:39.200249  8737 net.cpp:165] Memory required for data: 663776988
I1207 20:04:39.200271  8737 layer_factory.hpp:77] Creating layer bn4b4_branch2c
I1207 20:04:39.200294  8737 net.cpp:106] Creating Layer bn4b4_branch2c
I1207 20:04:39.200307  8737 net.cpp:454] bn4b4_branch2c <- res4b4_branch2c
I1207 20:04:39.200325  8737 net.cpp:397] bn4b4_branch2c -> res4b4_branch2c (in-place)
I1207 20:04:39.200619  8737 net.cpp:150] Setting up bn4b4_branch2c
I1207 20:04:39.200636  8737 net.cpp:157] Top shape: 1 1024 41 41 (1721344)
I1207 20:04:39.200645  8737 net.cpp:165] Memory required for data: 670662364
I1207 20:04:39.200662  8737 layer_factory.hpp:77] Creating layer scale4b4_branch2c
I1207 20:04:39.200690  8737 net.cpp:106] Creating Layer scale4b4_branch2c
I1207 20:04:39.200716  8737 net.cpp:454] scale4b4_branch2c <- res4b4_branch2c
I1207 20:04:39.200728  8737 net.cpp:397] scale4b4_branch2c -> res4b4_branch2c (in-place)
I1207 20:04:39.200793  8737 layer_factory.hpp:77] Creating layer scale4b4_branch2c
I1207 20:04:39.200971  8737 net.cpp:150] Setting up scale4b4_branch2c
I1207 20:04:39.200987  8737 net.cpp:157] Top shape: 1 1024 41 41 (1721344)
I1207 20:04:39.200996  8737 net.cpp:165] Memory required for data: 677547740
I1207 20:04:39.201011  8737 layer_factory.hpp:77] Creating layer res4b4
I1207 20:04:39.201025  8737 net.cpp:106] Creating Layer res4b4
I1207 20:04:39.201035  8737 net.cpp:454] res4b4 <- res4b3_res4b3_relu_0_split_1
I1207 20:04:39.201046  8737 net.cpp:454] res4b4 <- res4b4_branch2c
I1207 20:04:39.201061  8737 net.cpp:411] res4b4 -> res4b4
I1207 20:04:39.201102  8737 net.cpp:150] Setting up res4b4
I1207 20:04:39.201117  8737 net.cpp:157] Top shape: 1 1024 41 41 (1721344)
I1207 20:04:39.201126  8737 net.cpp:165] Memory required for data: 684433116
I1207 20:04:39.201136  8737 layer_factory.hpp:77] Creating layer res4b4_relu
I1207 20:04:39.201151  8737 net.cpp:106] Creating Layer res4b4_relu
I1207 20:04:39.201161  8737 net.cpp:454] res4b4_relu <- res4b4
I1207 20:04:39.201174  8737 net.cpp:397] res4b4_relu -> res4b4 (in-place)
I1207 20:04:39.201186  8737 net.cpp:150] Setting up res4b4_relu
I1207 20:04:39.201198  8737 net.cpp:157] Top shape: 1 1024 41 41 (1721344)
I1207 20:04:39.201207  8737 net.cpp:165] Memory required for data: 691318492
I1207 20:04:39.201216  8737 layer_factory.hpp:77] Creating layer res4b4_res4b4_relu_0_split
I1207 20:04:39.201228  8737 net.cpp:106] Creating Layer res4b4_res4b4_relu_0_split
I1207 20:04:39.201238  8737 net.cpp:454] res4b4_res4b4_relu_0_split <- res4b4
I1207 20:04:39.201251  8737 net.cpp:411] res4b4_res4b4_relu_0_split -> res4b4_res4b4_relu_0_split_0
I1207 20:04:39.201264  8737 net.cpp:411] res4b4_res4b4_relu_0_split -> res4b4_res4b4_relu_0_split_1
I1207 20:04:39.201318  8737 net.cpp:150] Setting up res4b4_res4b4_relu_0_split
I1207 20:04:39.201333  8737 net.cpp:157] Top shape: 1 1024 41 41 (1721344)
I1207 20:04:39.201344  8737 net.cpp:157] Top shape: 1 1024 41 41 (1721344)
I1207 20:04:39.201354  8737 net.cpp:165] Memory required for data: 705089244
I1207 20:04:39.201362  8737 layer_factory.hpp:77] Creating layer res4b5_branch2a
I1207 20:04:39.201380  8737 net.cpp:106] Creating Layer res4b5_branch2a
I1207 20:04:39.201391  8737 net.cpp:454] res4b5_branch2a <- res4b4_res4b4_relu_0_split_0
I1207 20:04:39.201403  8737 net.cpp:411] res4b5_branch2a -> res4b5_branch2a
I1207 20:04:39.207597  8737 net.cpp:150] Setting up res4b5_branch2a
I1207 20:04:39.207669  8737 net.cpp:157] Top shape: 1 256 41 41 (430336)
I1207 20:04:39.207679  8737 net.cpp:165] Memory required for data: 706810588
I1207 20:04:39.207700  8737 layer_factory.hpp:77] Creating layer bn4b5_branch2a
I1207 20:04:39.207721  8737 net.cpp:106] Creating Layer bn4b5_branch2a
I1207 20:04:39.207734  8737 net.cpp:454] bn4b5_branch2a <- res4b5_branch2a
I1207 20:04:39.207753  8737 net.cpp:397] bn4b5_branch2a -> res4b5_branch2a (in-place)
I1207 20:04:39.208058  8737 net.cpp:150] Setting up bn4b5_branch2a
I1207 20:04:39.208076  8737 net.cpp:157] Top shape: 1 256 41 41 (430336)
I1207 20:04:39.208086  8737 net.cpp:165] Memory required for data: 708531932
I1207 20:04:39.208103  8737 layer_factory.hpp:77] Creating layer scale4b5_branch2a
I1207 20:04:39.208120  8737 net.cpp:106] Creating Layer scale4b5_branch2a
I1207 20:04:39.208132  8737 net.cpp:454] scale4b5_branch2a <- res4b5_branch2a
I1207 20:04:39.208144  8737 net.cpp:397] scale4b5_branch2a -> res4b5_branch2a (in-place)
I1207 20:04:39.208226  8737 layer_factory.hpp:77] Creating layer scale4b5_branch2a
I1207 20:04:39.208413  8737 net.cpp:150] Setting up scale4b5_branch2a
I1207 20:04:39.208431  8737 net.cpp:157] Top shape: 1 256 41 41 (430336)
I1207 20:04:39.208439  8737 net.cpp:165] Memory required for data: 710253276
I1207 20:04:39.208464  8737 layer_factory.hpp:77] Creating layer res4b5_branch2a_relu
I1207 20:04:39.208494  8737 net.cpp:106] Creating Layer res4b5_branch2a_relu
I1207 20:04:39.208505  8737 net.cpp:454] res4b5_branch2a_relu <- res4b5_branch2a
I1207 20:04:39.208520  8737 net.cpp:397] res4b5_branch2a_relu -> res4b5_branch2a (in-place)
I1207 20:04:39.208534  8737 net.cpp:150] Setting up res4b5_branch2a_relu
I1207 20:04:39.208546  8737 net.cpp:157] Top shape: 1 256 41 41 (430336)
I1207 20:04:39.208555  8737 net.cpp:165] Memory required for data: 711974620
I1207 20:04:39.208564  8737 layer_factory.hpp:77] Creating layer res4b5_branch2b
I1207 20:04:39.208580  8737 net.cpp:106] Creating Layer res4b5_branch2b
I1207 20:04:39.208590  8737 net.cpp:454] res4b5_branch2b <- res4b5_branch2a
I1207 20:04:39.208605  8737 net.cpp:411] res4b5_branch2b -> res4b5_branch2b
I1207 20:04:39.215445  8737 net.cpp:150] Setting up res4b5_branch2b
I1207 20:04:39.215515  8737 net.cpp:157] Top shape: 1 256 41 41 (430336)
I1207 20:04:39.215525  8737 net.cpp:165] Memory required for data: 713695964
I1207 20:04:39.215546  8737 layer_factory.hpp:77] Creating layer bn4b5_branch2b
I1207 20:04:39.215567  8737 net.cpp:106] Creating Layer bn4b5_branch2b
I1207 20:04:39.215584  8737 net.cpp:454] bn4b5_branch2b <- res4b5_branch2b
I1207 20:04:39.215600  8737 net.cpp:397] bn4b5_branch2b -> res4b5_branch2b (in-place)
I1207 20:04:39.215862  8737 net.cpp:150] Setting up bn4b5_branch2b
I1207 20:04:39.215878  8737 net.cpp:157] Top shape: 1 256 41 41 (430336)
I1207 20:04:39.215888  8737 net.cpp:165] Memory required for data: 715417308
I1207 20:04:39.215904  8737 layer_factory.hpp:77] Creating layer scale4b5_branch2b
I1207 20:04:39.215920  8737 net.cpp:106] Creating Layer scale4b5_branch2b
I1207 20:04:39.215930  8737 net.cpp:454] scale4b5_branch2b <- res4b5_branch2b
I1207 20:04:39.215945  8737 net.cpp:397] scale4b5_branch2b -> res4b5_branch2b (in-place)
I1207 20:04:39.216012  8737 layer_factory.hpp:77] Creating layer scale4b5_branch2b
I1207 20:04:39.216193  8737 net.cpp:150] Setting up scale4b5_branch2b
I1207 20:04:39.216212  8737 net.cpp:157] Top shape: 1 256 41 41 (430336)
I1207 20:04:39.216222  8737 net.cpp:165] Memory required for data: 717138652
I1207 20:04:39.216235  8737 layer_factory.hpp:77] Creating layer res4b5_branch2b_relu
I1207 20:04:39.216248  8737 net.cpp:106] Creating Layer res4b5_branch2b_relu
I1207 20:04:39.216259  8737 net.cpp:454] res4b5_branch2b_relu <- res4b5_branch2b
I1207 20:04:39.216274  8737 net.cpp:397] res4b5_branch2b_relu -> res4b5_branch2b (in-place)
I1207 20:04:39.216289  8737 net.cpp:150] Setting up res4b5_branch2b_relu
I1207 20:04:39.216300  8737 net.cpp:157] Top shape: 1 256 41 41 (430336)
I1207 20:04:39.216310  8737 net.cpp:165] Memory required for data: 718859996
I1207 20:04:39.216318  8737 layer_factory.hpp:77] Creating layer res4b5_branch2c
I1207 20:04:39.216336  8737 net.cpp:106] Creating Layer res4b5_branch2c
I1207 20:04:39.216347  8737 net.cpp:454] res4b5_branch2c <- res4b5_branch2b
I1207 20:04:39.216361  8737 net.cpp:411] res4b5_branch2c -> res4b5_branch2c
I1207 20:04:39.222290  8737 net.cpp:150] Setting up res4b5_branch2c
I1207 20:04:39.222362  8737 net.cpp:157] Top shape: 1 1024 41 41 (1721344)
I1207 20:04:39.222371  8737 net.cpp:165] Memory required for data: 725745372
I1207 20:04:39.222393  8737 layer_factory.hpp:77] Creating layer bn4b5_branch2c
I1207 20:04:39.222416  8737 net.cpp:106] Creating Layer bn4b5_branch2c
I1207 20:04:39.222430  8737 net.cpp:454] bn4b5_branch2c <- res4b5_branch2c
I1207 20:04:39.222447  8737 net.cpp:397] bn4b5_branch2c -> res4b5_branch2c (in-place)
I1207 20:04:39.222746  8737 net.cpp:150] Setting up bn4b5_branch2c
I1207 20:04:39.222764  8737 net.cpp:157] Top shape: 1 1024 41 41 (1721344)
I1207 20:04:39.222774  8737 net.cpp:165] Memory required for data: 732630748
I1207 20:04:39.222791  8737 layer_factory.hpp:77] Creating layer scale4b5_branch2c
I1207 20:04:39.222806  8737 net.cpp:106] Creating Layer scale4b5_branch2c
I1207 20:04:39.222816  8737 net.cpp:454] scale4b5_branch2c <- res4b5_branch2c
I1207 20:04:39.222839  8737 net.cpp:397] scale4b5_branch2c -> res4b5_branch2c (in-place)
I1207 20:04:39.222919  8737 layer_factory.hpp:77] Creating layer scale4b5_branch2c
I1207 20:04:39.223091  8737 net.cpp:150] Setting up scale4b5_branch2c
I1207 20:04:39.223111  8737 net.cpp:157] Top shape: 1 1024 41 41 (1721344)
I1207 20:04:39.223120  8737 net.cpp:165] Memory required for data: 739516124
I1207 20:04:39.223181  8737 layer_factory.hpp:77] Creating layer res4b5
I1207 20:04:39.223197  8737 net.cpp:106] Creating Layer res4b5
I1207 20:04:39.223208  8737 net.cpp:454] res4b5 <- res4b4_res4b4_relu_0_split_1
I1207 20:04:39.223219  8737 net.cpp:454] res4b5 <- res4b5_branch2c
I1207 20:04:39.223235  8737 net.cpp:411] res4b5 -> res4b5
I1207 20:04:39.223280  8737 net.cpp:150] Setting up res4b5
I1207 20:04:39.223295  8737 net.cpp:157] Top shape: 1 1024 41 41 (1721344)
I1207 20:04:39.223304  8737 net.cpp:165] Memory required for data: 746401500
I1207 20:04:39.223315  8737 layer_factory.hpp:77] Creating layer res4b5_relu
I1207 20:04:39.223326  8737 net.cpp:106] Creating Layer res4b5_relu
I1207 20:04:39.223336  8737 net.cpp:454] res4b5_relu <- res4b5
I1207 20:04:39.223351  8737 net.cpp:397] res4b5_relu -> res4b5 (in-place)
I1207 20:04:39.223367  8737 net.cpp:150] Setting up res4b5_relu
I1207 20:04:39.223381  8737 net.cpp:157] Top shape: 1 1024 41 41 (1721344)
I1207 20:04:39.223388  8737 net.cpp:165] Memory required for data: 753286876
I1207 20:04:39.223397  8737 layer_factory.hpp:77] Creating layer res4b5_res4b5_relu_0_split
I1207 20:04:39.223412  8737 net.cpp:106] Creating Layer res4b5_res4b5_relu_0_split
I1207 20:04:39.223423  8737 net.cpp:454] res4b5_res4b5_relu_0_split <- res4b5
I1207 20:04:39.223434  8737 net.cpp:411] res4b5_res4b5_relu_0_split -> res4b5_res4b5_relu_0_split_0
I1207 20:04:39.223449  8737 net.cpp:411] res4b5_res4b5_relu_0_split -> res4b5_res4b5_relu_0_split_1
I1207 20:04:39.223505  8737 net.cpp:150] Setting up res4b5_res4b5_relu_0_split
I1207 20:04:39.223522  8737 net.cpp:157] Top shape: 1 1024 41 41 (1721344)
I1207 20:04:39.223534  8737 net.cpp:157] Top shape: 1 1024 41 41 (1721344)
I1207 20:04:39.223542  8737 net.cpp:165] Memory required for data: 767057628
I1207 20:04:39.223551  8737 layer_factory.hpp:77] Creating layer res4b6_branch2a
I1207 20:04:39.223567  8737 net.cpp:106] Creating Layer res4b6_branch2a
I1207 20:04:39.223577  8737 net.cpp:454] res4b6_branch2a <- res4b5_res4b5_relu_0_split_0
I1207 20:04:39.223592  8737 net.cpp:411] res4b6_branch2a -> res4b6_branch2a
I1207 20:04:39.229962  8737 net.cpp:150] Setting up res4b6_branch2a
I1207 20:04:39.230031  8737 net.cpp:157] Top shape: 1 256 41 41 (430336)
I1207 20:04:39.230041  8737 net.cpp:165] Memory required for data: 768778972
I1207 20:04:39.230064  8737 layer_factory.hpp:77] Creating layer bn4b6_branch2a
I1207 20:04:39.230085  8737 net.cpp:106] Creating Layer bn4b6_branch2a
I1207 20:04:39.230098  8737 net.cpp:454] bn4b6_branch2a <- res4b6_branch2a
I1207 20:04:39.230118  8737 net.cpp:397] bn4b6_branch2a -> res4b6_branch2a (in-place)
I1207 20:04:39.230432  8737 net.cpp:150] Setting up bn4b6_branch2a
I1207 20:04:39.230448  8737 net.cpp:157] Top shape: 1 256 41 41 (430336)
I1207 20:04:39.230458  8737 net.cpp:165] Memory required for data: 770500316
I1207 20:04:39.230475  8737 layer_factory.hpp:77] Creating layer scale4b6_branch2a
I1207 20:04:39.230494  8737 net.cpp:106] Creating Layer scale4b6_branch2a
I1207 20:04:39.230504  8737 net.cpp:454] scale4b6_branch2a <- res4b6_branch2a
I1207 20:04:39.230517  8737 net.cpp:397] scale4b6_branch2a -> res4b6_branch2a (in-place)
I1207 20:04:39.230586  8737 layer_factory.hpp:77] Creating layer scale4b6_branch2a
I1207 20:04:39.230756  8737 net.cpp:150] Setting up scale4b6_branch2a
I1207 20:04:39.230772  8737 net.cpp:157] Top shape: 1 256 41 41 (430336)
I1207 20:04:39.230780  8737 net.cpp:165] Memory required for data: 772221660
I1207 20:04:39.230795  8737 layer_factory.hpp:77] Creating layer res4b6_branch2a_relu
I1207 20:04:39.230811  8737 net.cpp:106] Creating Layer res4b6_branch2a_relu
I1207 20:04:39.230823  8737 net.cpp:454] res4b6_branch2a_relu <- res4b6_branch2a
I1207 20:04:39.230844  8737 net.cpp:397] res4b6_branch2a_relu -> res4b6_branch2a (in-place)
I1207 20:04:39.230875  8737 net.cpp:150] Setting up res4b6_branch2a_relu
I1207 20:04:39.230888  8737 net.cpp:157] Top shape: 1 256 41 41 (430336)
I1207 20:04:39.230897  8737 net.cpp:165] Memory required for data: 773943004
I1207 20:04:39.230906  8737 layer_factory.hpp:77] Creating layer res4b6_branch2b
I1207 20:04:39.230924  8737 net.cpp:106] Creating Layer res4b6_branch2b
I1207 20:04:39.230936  8737 net.cpp:454] res4b6_branch2b <- res4b6_branch2a
I1207 20:04:39.230947  8737 net.cpp:411] res4b6_branch2b -> res4b6_branch2b
I1207 20:04:39.237860  8737 net.cpp:150] Setting up res4b6_branch2b
I1207 20:04:39.237934  8737 net.cpp:157] Top shape: 1 256 41 41 (430336)
I1207 20:04:39.237944  8737 net.cpp:165] Memory required for data: 775664348
I1207 20:04:39.237967  8737 layer_factory.hpp:77] Creating layer bn4b6_branch2b
I1207 20:04:39.237990  8737 net.cpp:106] Creating Layer bn4b6_branch2b
I1207 20:04:39.238003  8737 net.cpp:454] bn4b6_branch2b <- res4b6_branch2b
I1207 20:04:39.238021  8737 net.cpp:397] bn4b6_branch2b -> res4b6_branch2b (in-place)
I1207 20:04:39.238318  8737 net.cpp:150] Setting up bn4b6_branch2b
I1207 20:04:39.238337  8737 net.cpp:157] Top shape: 1 256 41 41 (430336)
I1207 20:04:39.238345  8737 net.cpp:165] Memory required for data: 777385692
I1207 20:04:39.238363  8737 layer_factory.hpp:77] Creating layer scale4b6_branch2b
I1207 20:04:39.238378  8737 net.cpp:106] Creating Layer scale4b6_branch2b
I1207 20:04:39.238389  8737 net.cpp:454] scale4b6_branch2b <- res4b6_branch2b
I1207 20:04:39.238404  8737 net.cpp:397] scale4b6_branch2b -> res4b6_branch2b (in-place)
I1207 20:04:39.238468  8737 layer_factory.hpp:77] Creating layer scale4b6_branch2b
I1207 20:04:39.238636  8737 net.cpp:150] Setting up scale4b6_branch2b
I1207 20:04:39.238652  8737 net.cpp:157] Top shape: 1 256 41 41 (430336)
I1207 20:04:39.238662  8737 net.cpp:165] Memory required for data: 779107036
I1207 20:04:39.238677  8737 layer_factory.hpp:77] Creating layer res4b6_branch2b_relu
I1207 20:04:39.238689  8737 net.cpp:106] Creating Layer res4b6_branch2b_relu
I1207 20:04:39.238699  8737 net.cpp:454] res4b6_branch2b_relu <- res4b6_branch2b
I1207 20:04:39.238711  8737 net.cpp:397] res4b6_branch2b_relu -> res4b6_branch2b (in-place)
I1207 20:04:39.238725  8737 net.cpp:150] Setting up res4b6_branch2b_relu
I1207 20:04:39.238737  8737 net.cpp:157] Top shape: 1 256 41 41 (430336)
I1207 20:04:39.238745  8737 net.cpp:165] Memory required for data: 780828380
I1207 20:04:39.238755  8737 layer_factory.hpp:77] Creating layer res4b6_branch2c
I1207 20:04:39.238772  8737 net.cpp:106] Creating Layer res4b6_branch2c
I1207 20:04:39.238785  8737 net.cpp:454] res4b6_branch2c <- res4b6_branch2b
I1207 20:04:39.238801  8737 net.cpp:411] res4b6_branch2c -> res4b6_branch2c
I1207 20:04:39.244591  8737 net.cpp:150] Setting up res4b6_branch2c
I1207 20:04:39.244662  8737 net.cpp:157] Top shape: 1 1024 41 41 (1721344)
I1207 20:04:39.244670  8737 net.cpp:165] Memory required for data: 787713756
I1207 20:04:39.244693  8737 layer_factory.hpp:77] Creating layer bn4b6_branch2c
I1207 20:04:39.244746  8737 net.cpp:106] Creating Layer bn4b6_branch2c
I1207 20:04:39.244761  8737 net.cpp:454] bn4b6_branch2c <- res4b6_branch2c
…
I1207 20:04:39.952528  8737 net.cpp:157] Top shape: 1 2048 31 31 (1968128)
I1207 20:04:39.952538  8737 net.cpp:165] Memory required for data: 3957376220
I1207 20:04:39.952548  8737 layer_factory.hpp:77] Creating layer res5a_relu_res075
I1207 20:04:39.952561  8737 net.cpp:106] Creating Layer res5a_relu_res075
I1207 20:04:39.952572  8737 net.cpp:454] res5a_relu_res075 <- res5a_res075
I1207 20:04:39.952584  8737 net.cpp:397] res5a_relu_res075 -> res5a_res075 (in-place)
I1207 20:04:39.952599  8737 net.cpp:150] Setting up res5a_relu_res075
I1207 20:04:39.952610  8737 net.cpp:157] Top shape: 1 2048 31 31 (1968128)
I1207 20:04:39.952620  8737 net.cpp:165] Memory required for data: 3965248732
I1207 20:04:39.952628  8737 layer_factory.hpp:77] Creating layer res5a_res075_res5a_relu_res075_0_split
I1207 20:04:39.952649  8737 net.cpp:106] Creating Layer res5a_res075_res5a_relu_res075_0_split
I1207 20:04:39.952659  8737 net.cpp:454] res5a_res075_res5a_relu_res075_0_split <- res5a_res075
I1207 20:04:39.952677  8737 net.cpp:411] res5a_res075_res5a_relu_res075_0_split -> res5a_res075_res5a_relu_res075_0_split_0
I1207 20:04:39.952693  8737 net.cpp:411] res5a_res075_res5a_relu_res075_0_split -> res5a_res075_res5a_relu_res075_0_split_1
I1207 20:04:39.952749  8737 net.cpp:150] Setting up res5a_res075_res5a_relu_res075_0_split
I1207 20:04:39.952765  8737 net.cpp:157] Top shape: 1 2048 31 31 (1968128)
I1207 20:04:39.952777  8737 net.cpp:157] Top shape: 1 2048 31 31 (1968128)
I1207 20:04:39.952786  8737 net.cpp:165] Memory required for data: 3980993756
I1207 20:04:39.952796  8737 layer_factory.hpp:77] Creating layer res5b_branch2a_res075
I1207 20:04:39.952812  8737 net.cpp:106] Creating Layer res5b_branch2a_res075
I1207 20:04:39.952824  8737 net.cpp:454] res5b_branch2a_res075 <- res5a_res075_res5a_relu_res075_0_split_0
I1207 20:04:39.952838  8737 net.cpp:411] res5b_branch2a_res075 -> res5b_branch2a_res075
I1207 20:04:39.956276  8737 net.cpp:150] Setting up res5b_branch2a_res075
I1207 20:04:39.956297  8737 net.cpp:157] Top shape: 1 512 31 31 (492032)
I1207 20:04:39.956306  8737 net.cpp:165] Memory required for data: 3982961884
I1207 20:04:39.956318  8737 net.cpp:514] Sharing parameters 'res5b_branch2a_0' owned by layer 'res5b_branch2a', param index 0
I1207 20:04:39.956329  8737 layer_factory.hpp:77] Creating layer bn5b_branch2a_res075
I1207 20:04:39.956348  8737 net.cpp:106] Creating Layer bn5b_branch2a_res075
I1207 20:04:39.956362  8737 net.cpp:454] bn5b_branch2a_res075 <- res5b_branch2a_res075
I1207 20:04:39.956374  8737 net.cpp:397] bn5b_branch2a_res075 -> res5b_branch2a_res075 (in-place)
I1207 20:04:39.956632  8737 net.cpp:150] Setting up bn5b_branch2a_res075
I1207 20:04:39.956650  8737 net.cpp:157] Top shape: 1 512 31 31 (492032)
I1207 20:04:39.956658  8737 net.cpp:165] Memory required for data: 3984930012
I1207 20:04:39.956670  8737 net.cpp:514] Sharing parameters 'bn5b_branch2a_0' owned by layer 'bn5b_branch2a', param index 0
I1207 20:04:39.956682  8737 net.cpp:514] Sharing parameters 'bn5b_branch2a_1' owned by layer 'bn5b_branch2a', param index 1
I1207 20:04:39.956693  8737 net.cpp:514] Sharing parameters 'bn5b_branch2a_2' owned by layer 'bn5b_branch2a', param index 2
I1207 20:04:39.956703  8737 layer_factory.hpp:77] Creating layer scale5b_branch2a_res075
I1207 20:04:39.956717  8737 net.cpp:106] Creating Layer scale5b_branch2a_res075
I1207 20:04:39.956727  8737 net.cpp:454] scale5b_branch2a_res075 <- res5b_branch2a_res075
I1207 20:04:39.956739  8737 net.cpp:397] scale5b_branch2a_res075 -> res5b_branch2a_res075 (in-place)
I1207 20:04:39.956810  8737 layer_factory.hpp:77] Creating layer scale5b_branch2a_res075
I1207 20:04:39.956990  8737 net.cpp:150] Setting up scale5b_branch2a_res075
I1207 20:04:39.957010  8737 net.cpp:157] Top shape: 1 512 31 31 (492032)
I1207 20:04:39.957018  8737 net.cpp:165] Memory required for data: 3986898140
I1207 20:04:39.957031  8737 net.cpp:514] Sharing parameters 'scale5b_branch2a_0' owned by layer 'scale5b_branch2a', param index 0
I1207 20:04:39.957042  8737 net.cpp:514] Sharing parameters 'scale5b_branch2a_1' owned by layer 'scale5b_branch2a', param index 1
I1207 20:04:39.957057  8737 layer_factory.hpp:77] Creating layer res5b_branch2a_relu_res075
I1207 20:04:39.957070  8737 net.cpp:106] Creating Layer res5b_branch2a_relu_res075
I1207 20:04:39.957080  8737 net.cpp:454] res5b_branch2a_relu_res075 <- res5b_branch2a_res075
I1207 20:04:39.957093  8737 net.cpp:397] res5b_branch2a_relu_res075 -> res5b_branch2a_res075 (in-place)
I1207 20:04:39.957106  8737 net.cpp:150] Setting up res5b_branch2a_relu_res075
I1207 20:04:39.957118  8737 net.cpp:157] Top shape: 1 512 31 31 (492032)
I1207 20:04:39.957128  8737 net.cpp:165] Memory required for data: 3988866268
I1207 20:04:39.957136  8737 layer_factory.hpp:77] Creating layer res5b_branch2b_res075
I1207 20:04:39.957154  8737 net.cpp:106] Creating Layer res5b_branch2b_res075
I1207 20:04:39.957175  8737 net.cpp:454] res5b_branch2b_res075 <- res5b_branch2a_res075
I1207 20:04:39.957191  8737 net.cpp:411] res5b_branch2b_res075 -> res5b_branch2b_res075
I1207 20:04:39.964388  8737 net.cpp:150] Setting up res5b_branch2b_res075
I1207 20:04:39.964411  8737 net.cpp:157] Top shape: 1 512 31 31 (492032)
I1207 20:04:39.964421  8737 net.cpp:165] Memory required for data: 3990834396
I1207 20:04:39.964432  8737 net.cpp:514] Sharing parameters 'res5b_branch2b_0' owned by layer 'res5b_branch2b', param index 0
I1207 20:04:39.964444  8737 layer_factory.hpp:77] Creating layer bn5b_branch2b_res075
I1207 20:04:39.964458  8737 net.cpp:106] Creating Layer bn5b_branch2b_res075
I1207 20:04:39.964469  8737 net.cpp:454] bn5b_branch2b_res075 <- res5b_branch2b_res075
I1207 20:04:39.964488  8737 net.cpp:397] bn5b_branch2b_res075 -> res5b_branch2b_res075 (in-place)
I1207 20:04:39.964751  8737 net.cpp:150] Setting up bn5b_branch2b_res075
I1207 20:04:39.964767  8737 net.cpp:157] Top shape: 1 512 31 31 (492032)
I1207 20:04:39.964776  8737 net.cpp:165] Memory required for data: 3992802524
I1207 20:04:39.964788  8737 net.cpp:514] Sharing parameters 'bn5b_branch2b_0' owned by layer 'bn5b_branch2b', param index 0
I1207 20:04:39.964800  8737 net.cpp:514] Sharing parameters 'bn5b_branch2b_1' owned by layer 'bn5b_branch2b', param index 1
I1207 20:04:39.964812  8737 net.cpp:514] Sharing parameters 'bn5b_branch2b_2' owned by layer 'bn5b_branch2b', param index 2
I1207 20:04:39.964820  8737 layer_factory.hpp:77] Creating layer scale5b_branch2b_res075
I1207 20:04:39.964838  8737 net.cpp:106] Creating Layer scale5b_branch2b_res075
I1207 20:04:39.964849  8737 net.cpp:454] scale5b_branch2b_res075 <- res5b_branch2b_res075
I1207 20:04:39.964862  8737 net.cpp:397] scale5b_branch2b_res075 -> res5b_branch2b_res075 (in-place)
I1207 20:04:39.964936  8737 layer_factory.hpp:77] Creating layer scale5b_branch2b_res075
I1207 20:04:39.965116  8737 net.cpp:150] Setting up scale5b_branch2b_res075
I1207 20:04:39.965133  8737 net.cpp:157] Top shape: 1 512 31 31 (492032)
I1207 20:04:39.965142  8737 net.cpp:165] Memory required for data: 3994770652
I1207 20:04:39.965153  8737 net.cpp:514] Sharing parameters 'scale5b_branch2b_0' owned by layer 'scale5b_branch2b', param index 0
I1207 20:04:39.965165  8737 net.cpp:514] Sharing parameters 'scale5b_branch2b_1' owned by layer 'scale5b_branch2b', param index 1
I1207 20:04:39.965175  8737 layer_factory.hpp:77] Creating layer res5b_branch2b_relu_res075
I1207 20:04:39.965193  8737 net.cpp:106] Creating Layer res5b_branch2b_relu_res075
I1207 20:04:39.965204  8737 net.cpp:454] res5b_branch2b_relu_res075 <- res5b_branch2b_res075
I1207 20:04:39.965219  8737 net.cpp:397] res5b_branch2b_relu_res075 -> res5b_branch2b_res075 (in-place)
I1207 20:04:39.965234  8737 net.cpp:150] Setting up res5b_branch2b_relu_res075
I1207 20:04:39.965245  8737 net.cpp:157] Top shape: 1 512 31 31 (492032)
I1207 20:04:39.965255  8737 net.cpp:165] Memory required for data: 3996738780
I1207 20:04:39.965265  8737 layer_factory.hpp:77] Creating layer res5b_branch2c_res075
I1207 20:04:39.965277  8737 net.cpp:106] Creating Layer res5b_branch2c_res075
I1207 20:04:39.965287  8737 net.cpp:454] res5b_branch2c_res075 <- res5b_branch2b_res075
I1207 20:04:39.965306  8737 net.cpp:411] res5b_branch2c_res075 -> res5b_branch2c_res075
I1207 20:04:39.968763  8737 net.cpp:150] Setting up res5b_branch2c_res075
I1207 20:04:39.968785  8737 net.cpp:157] Top shape: 1 2048 31 31 (1968128)
I1207 20:04:39.968794  8737 net.cpp:165] Memory required for data: 4004611292
I1207 20:04:39.968806  8737 net.cpp:514] Sharing parameters 'res5b_branch2c_0' owned by layer 'res5b_branch2c', param index 0
I1207 20:04:39.968817  8737 layer_factory.hpp:77] Creating layer bn5b_branch2c_res075
I1207 20:04:39.968832  8737 net.cpp:106] Creating Layer bn5b_branch2c_res075
I1207 20:04:39.968843  8737 net.cpp:454] bn5b_branch2c_res075 <- res5b_branch2c_res075
I1207 20:04:39.968857  8737 net.cpp:397] bn5b_branch2c_res075 -> res5b_branch2c_res075 (in-place)
I1207 20:04:39.969148  8737 net.cpp:150] Setting up bn5b_branch2c_res075
I1207 20:04:39.969177  8737 net.cpp:157] Top shape: 1 2048 31 31 (1968128)
I1207 20:04:39.969187  8737 net.cpp:165] Memory required for data: 4012483804
I1207 20:04:39.969197  8737 net.cpp:514] Sharing parameters 'bn5b_branch2c_0' owned by layer 'bn5b_branch2c', param index 0
I1207 20:04:39.969210  8737 net.cpp:514] Sharing parameters 'bn5b_branch2c_1' owned by layer 'bn5b_branch2c', param index 1
I1207 20:04:39.969221  8737 net.cpp:514] Sharing parameters 'bn5b_branch2c_2' owned by layer 'bn5b_branch2c', param index 2
I1207 20:04:39.969231  8737 layer_factory.hpp:77] Creating layer scale5b_branch2c_res075
I1207 20:04:39.969244  8737 net.cpp:106] Creating Layer scale5b_branch2c_res075
I1207 20:04:39.969254  8737 net.cpp:454] scale5b_branch2c_res075 <- res5b_branch2c_res075
I1207 20:04:39.969271  8737 net.cpp:397] scale5b_branch2c_res075 -> res5b_branch2c_res075 (in-place)
I1207 20:04:39.969349  8737 layer_factory.hpp:77] Creating layer scale5b_branch2c_res075
I1207 20:04:39.969550  8737 net.cpp:150] Setting up scale5b_branch2c_res075
I1207 20:04:39.969568  8737 net.cpp:157] Top shape: 1 2048 31 31 (1968128)
I1207 20:04:39.969576  8737 net.cpp:165] Memory required for data: 4020356316
I1207 20:04:39.969588  8737 net.cpp:514] Sharing parameters 'scale5b_branch2c_0' owned by layer 'scale5b_branch2c', param index 0
I1207 20:04:39.969600  8737 net.cpp:514] Sharing parameters 'scale5b_branch2c_1' owned by layer 'scale5b_branch2c', param index 1
I1207 20:04:39.969610  8737 layer_factory.hpp:77] Creating layer res5b_res075
I1207 20:04:39.969624  8737 net.cpp:106] Creating Layer res5b_res075
I1207 20:04:39.969635  8737 net.cpp:454] res5b_res075 <- res5a_res075_res5a_relu_res075_0_split_1
I1207 20:04:39.969646  8737 net.cpp:454] res5b_res075 <- res5b_branch2c_res075
I1207 20:04:39.969663  8737 net.cpp:411] res5b_res075 -> res5b_res075
I1207 20:04:39.969704  8737 net.cpp:150] Setting up res5b_res075
I1207 20:04:39.969722  8737 net.cpp:157] Top shape: 1 2048 31 31 (1968128)
I1207 20:04:39.969732  8737 net.cpp:165] Memory required for data: 4028228828
I1207 20:04:39.969741  8737 layer_factory.hpp:77] Creating layer res5b_relu_res075
I1207 20:04:39.969753  8737 net.cpp:106] Creating Layer res5b_relu_res075
I1207 20:04:39.969761  8737 net.cpp:454] res5b_relu_res075 <- res5b_res075
I1207 20:04:39.969774  8737 net.cpp:397] res5b_relu_res075 -> res5b_res075 (in-place)
I1207 20:04:39.969787  8737 net.cpp:150] Setting up res5b_relu_res075
I1207 20:04:39.969799  8737 net.cpp:157] Top shape: 1 2048 31 31 (1968128)
I1207 20:04:39.969807  8737 net.cpp:165] Memory required for data: 4036101340
I1207 20:04:39.969816  8737 layer_factory.hpp:77] Creating layer res5b_res075_res5b_relu_res075_0_split
I1207 20:04:39.969833  8737 net.cpp:106] Creating Layer res5b_res075_res5b_relu_res075_0_split
I1207 20:04:39.969844  8737 net.cpp:454] res5b_res075_res5b_relu_res075_0_split <- res5b_res075
I1207 20:04:39.969857  8737 net.cpp:411] res5b_res075_res5b_relu_res075_0_split -> res5b_res075_res5b_relu_res075_0_split_0
I1207 20:04:39.969872  8737 net.cpp:411] res5b_res075_res5b_relu_res075_0_split -> res5b_res075_res5b_relu_res075_0_split_1
I1207 20:04:39.969931  8737 net.cpp:150] Setting up res5b_res075_res5b_relu_res075_0_split
I1207 20:04:39.969951  8737 net.cpp:157] Top shape: 1 2048 31 31 (1968128)
I1207 20:04:39.969964  8737 net.cpp:157] Top shape: 1 2048 31 31 (1968128)
I1207 20:04:39.969971  8737 net.cpp:165] Memory required for data: 4051846364
I1207 20:04:39.969981  8737 layer_factory.hpp:77] Creating layer res5c_branch2a_res075
I1207 20:04:39.969995  8737 net.cpp:106] Creating Layer res5c_branch2a_res075
I1207 20:04:39.970005  8737 net.cpp:454] res5c_branch2a_res075 <- res5b_res075_res5b_relu_res075_0_split_0
I1207 20:04:39.970019  8737 net.cpp:411] res5c_branch2a_res075 -> res5c_branch2a_res075
I1207 20:04:39.973471  8737 net.cpp:150] Setting up res5c_branch2a_res075
I1207 20:04:39.973492  8737 net.cpp:157] Top shape: 1 512 31 31 (492032)
I1207 20:04:39.973501  8737 net.cpp:165] Memory required for data: 4053814492
I1207 20:04:39.973522  8737 net.cpp:514] Sharing parameters 'res5c_branch2a_0' owned by layer 'res5c_branch2a', param index 0
I1207 20:04:39.973534  8737 layer_factory.hpp:77] Creating layer bn5c_branch2a_res075
I1207 20:04:39.973552  8737 net.cpp:106] Creating Layer bn5c_branch2a_res075
I1207 20:04:39.973564  8737 net.cpp:454] bn5c_branch2a_res075 <- res5c_branch2a_res075
I1207 20:04:39.973578  8737 net.cpp:397] bn5c_branch2a_res075 -> res5c_branch2a_res075 (in-place)
I1207 20:04:39.973841  8737 net.cpp:150] Setting up bn5c_branch2a_res075
I1207 20:04:39.973858  8737 net.cpp:157] Top shape: 1 512 31 31 (492032)
I1207 20:04:39.973867  8737 net.cpp:165] Memory required for data: 4055782620
I1207 20:04:39.973878  8737 net.cpp:514] Sharing parameters 'bn5c_branch2a_0' owned by layer 'bn5c_branch2a', param index 0
I1207 20:04:39.973891  8737 net.cpp:514] Sharing parameters 'bn5c_branch2a_1' owned by layer 'bn5c_branch2a', param index 1
I1207 20:04:39.973901  8737 net.cpp:514] Sharing parameters 'bn5c_branch2a_2' owned by layer 'bn5c_branch2a', param index 2
I1207 20:04:39.973912  8737 layer_factory.hpp:77] Creating layer scale5c_branch2a_res075
I1207 20:04:39.973925  8737 net.cpp:106] Creating Layer scale5c_branch2a_res075
I1207 20:04:39.973935  8737 net.cpp:454] scale5c_branch2a_res075 <- res5c_branch2a_res075
I1207 20:04:39.973953  8737 net.cpp:397] scale5c_branch2a_res075 -> res5c_branch2a_res075 (in-place)
I1207 20:04:39.974023  8737 layer_factory.hpp:77] Creating layer scale5c_branch2a_res075
I1207 20:04:39.974205  8737 net.cpp:150] Setting up scale5c_branch2a_res075
I1207 20:04:39.974222  8737 net.cpp:157] Top shape: 1 512 31 31 (492032)
I1207 20:04:39.974231  8737 net.cpp:165] Memory required for data: 4057750748
I1207 20:04:39.974242  8737 net.cpp:514] Sharing parameters 'scale5c_branch2a_0' owned by layer 'scale5c_branch2a', param index 0
I1207 20:04:39.974254  8737 net.cpp:514] Sharing parameters 'scale5c_branch2a_1' owned by layer 'scale5c_branch2a', param index 1
I1207 20:04:39.974264  8737 layer_factory.hpp:77] Creating layer res5c_branch2a_relu_res075
I1207 20:04:39.974277  8737 net.cpp:106] Creating Layer res5c_branch2a_relu_res075
I1207 20:04:39.974287  8737 net.cpp:454] res5c_branch2a_relu_res075 <- res5c_branch2a_res075
I1207 20:04:39.974299  8737 net.cpp:397] res5c_branch2a_relu_res075 -> res5c_branch2a_res075 (in-place)
I1207 20:04:39.974313  8737 net.cpp:150] Setting up res5c_branch2a_relu_res075
I1207 20:04:39.974324  8737 net.cpp:157] Top shape: 1 512 31 31 (492032)
I1207 20:04:39.974334  8737 net.cpp:165] Memory required for data: 4059718876
I1207 20:04:39.974342  8737 layer_factory.hpp:77] Creating layer res5c_branch2b_res075
I1207 20:04:39.974360  8737 net.cpp:106] Creating Layer res5c_branch2b_res075
I1207 20:04:39.974372  8737 net.cpp:454] res5c_branch2b_res075 <- res5c_branch2a_res075
I1207 20:04:39.974388  8737 net.cpp:411] res5c_branch2b_res075 -> res5c_branch2b_res075
I1207 20:04:39.981577  8737 net.cpp:150] Setting up res5c_branch2b_res075
I1207 20:04:39.981602  8737 net.cpp:157] Top shape: 1 512 31 31 (492032)
I1207 20:04:39.981612  8737 net.cpp:165] Memory required for data: 4061687004
I1207 20:04:39.981624  8737 net.cpp:514] Sharing parameters 'res5c_branch2b_0' owned by layer 'res5c_branch2b', param index 0
I1207 20:04:39.981640  8737 layer_factory.hpp:77] Creating layer bn5c_branch2b_res075
I1207 20:04:39.981659  8737 net.cpp:106] Creating Layer bn5c_branch2b_res075
I1207 20:04:39.981672  8737 net.cpp:454] bn5c_branch2b_res075 <- res5c_branch2b_res075
I1207 20:04:39.981685  8737 net.cpp:397] bn5c_branch2b_res075 -> res5c_branch2b_res075 (in-place)
I1207 20:04:39.981947  8737 net.cpp:150] Setting up bn5c_branch2b_res075
I1207 20:04:39.981964  8737 net.cpp:157] Top shape: 1 512 31 31 (492032)
I1207 20:04:39.981973  8737 net.cpp:165] Memory required for data: 4063655132
I1207 20:04:39.981986  8737 net.cpp:514] Sharing parameters 'bn5c_branch2b_0' owned by layer 'bn5c_branch2b', param index 0
I1207 20:04:39.981997  8737 net.cpp:514] Sharing parameters 'bn5c_branch2b_1' owned by layer 'bn5c_branch2b', param index 1
I1207 20:04:39.982017  8737 net.cpp:514] Sharing parameters 'bn5c_branch2b_2' owned by layer 'bn5c_branch2b', param index 2
I1207 20:04:39.982028  8737 layer_factory.hpp:77] Creating layer scale5c_branch2b_res075
I1207 20:04:39.982045  8737 net.cpp:106] Creating Layer scale5c_branch2b_res075
I1207 20:04:39.982058  8737 net.cpp:454] scale5c_branch2b_res075 <- res5c_branch2b_res075
I1207 20:04:39.982070  8737 net.cpp:397] scale5c_branch2b_res075 -> res5c_branch2b_res075 (in-place)
I1207 20:04:39.982144  8737 layer_factory.hpp:77] Creating layer scale5c_branch2b_res075
I1207 20:04:39.982956  8737 net.cpp:150] Setting up scale5c_branch2b_res075
I1207 20:04:39.982975  8737 net.cpp:157] Top shape: 1 512 31 31 (492032)
I1207 20:04:39.982985  8737 net.cpp:165] Memory required for data: 4065623260
I1207 20:04:39.982996  8737 net.cpp:514] Sharing parameters 'scale5c_branch2b_0' owned by layer 'scale5c_branch2b', param index 0
I1207 20:04:39.983009  8737 net.cpp:514] Sharing parameters 'scale5c_branch2b_1' owned by layer 'scale5c_branch2b', param index 1
I1207 20:04:39.983019  8737 layer_factory.hpp:77] Creating layer res5c_branch2b_relu_res075
I1207 20:04:39.983034  8737 net.cpp:106] Creating Layer res5c_branch2b_relu_res075
I1207 20:04:39.983045  8737 net.cpp:454] res5c_branch2b_relu_res075 <- res5c_branch2b_res075
I1207 20:04:39.983057  8737 net.cpp:397] res5c_branch2b_relu_res075 -> res5c_branch2b_res075 (in-place)
I1207 20:04:39.983072  8737 net.cpp:150] Setting up res5c_branch2b_relu_res075
I1207 20:04:39.983084  8737 net.cpp:157] Top shape: 1 512 31 31 (492032)
I1207 20:04:39.983093  8737 net.cpp:165] Memory required for data: 4067591388
I1207 20:04:39.983103  8737 layer_factory.hpp:77] Creating layer res5c_branch2c_res075
I1207 20:04:39.983120  8737 net.cpp:106] Creating Layer res5c_branch2c_res075
I1207 20:04:39.983132  8737 net.cpp:454] res5c_branch2c_res075 <- res5c_branch2b_res075
I1207 20:04:39.983146  8737 net.cpp:411] res5c_branch2c_res075 -> res5c_branch2c_res075
I1207 20:04:39.986601  8737 net.cpp:150] Setting up res5c_branch2c_res075
I1207 20:04:39.986624  8737 net.cpp:157] Top shape: 1 2048 31 31 (1968128)
I1207 20:04:39.986634  8737 net.cpp:165] Memory required for data: 4075463900
I1207 20:04:39.986645  8737 net.cpp:514] Sharing parameters 'res5c_branch2c_0' owned by layer 'res5c_branch2c', param index 0
I1207 20:04:39.986656  8737 layer_factory.hpp:77] Creating layer bn5c_branch2c_res075
I1207 20:04:39.986670  8737 net.cpp:106] Creating Layer bn5c_branch2c_res075
I1207 20:04:39.986681  8737 net.cpp:454] bn5c_branch2c_res075 <- res5c_branch2c_res075
I1207 20:04:39.986699  8737 net.cpp:397] bn5c_branch2c_res075 -> res5c_branch2c_res075 (in-place)
I1207 20:04:39.986989  8737 net.cpp:150] Setting up bn5c_branch2c_res075
I1207 20:04:39.987006  8737 net.cpp:157] Top shape: 1 2048 31 31 (1968128)
I1207 20:04:39.987015  8737 net.cpp:165] Memory required for data: 4083336412
I1207 20:04:39.987027  8737 net.cpp:514] Sharing parameters 'bn5c_branch2c_0' owned by layer 'bn5c_branch2c', param index 0
I1207 20:04:39.987040  8737 net.cpp:514] Sharing parameters 'bn5c_branch2c_1' owned by layer 'bn5c_branch2c', param index 1
I1207 20:04:39.987051  8737 net.cpp:514] Sharing parameters 'bn5c_branch2c_2' owned by layer 'bn5c_branch2c', param index 2
I1207 20:04:39.987066  8737 layer_factory.hpp:77] Creating layer scale5c_branch2c_res075
I1207 20:04:39.987083  8737 net.cpp:106] Creating Layer scale5c_branch2c_res075
I1207 20:04:39.987095  8737 net.cpp:454] scale5c_branch2c_res075 <- res5c_branch2c_res075
I1207 20:04:39.987108  8737 net.cpp:397] scale5c_branch2c_res075 -> res5c_branch2c_res075 (in-place)
I1207 20:04:39.987187  8737 layer_factory.hpp:77] Creating layer scale5c_branch2c_res075
I1207 20:04:39.987385  8737 net.cpp:150] Setting up scale5c_branch2c_res075
I1207 20:04:39.987402  8737 net.cpp:157] Top shape: 1 2048 31 31 (1968128)
I1207 20:04:39.987411  8737 net.cpp:165] Memory required for data: 4091208924
I1207 20:04:39.987421  8737 net.cpp:514] Sharing parameters 'scale5c_branch2c_0' owned by layer 'scale5c_branch2c', param index 0
I1207 20:04:39.987442  8737 net.cpp:514] Sharing parameters 'scale5c_branch2c_1' owned by layer 'scale5c_branch2c', param index 1
I1207 20:04:39.987453  8737 layer_factory.hpp:77] Creating layer res5c_res075
I1207 20:04:39.987470  8737 net.cpp:106] Creating Layer res5c_res075
I1207 20:04:39.987483  8737 net.cpp:454] res5c_res075 <- res5b_res075_res5b_relu_res075_0_split_1
I1207 20:04:39.987494  8737 net.cpp:454] res5c_res075 <- res5c_branch2c_res075
I1207 20:04:39.987509  8737 net.cpp:411] res5c_res075 -> res5c_res075
I1207 20:04:39.987550  8737 net.cpp:150] Setting up res5c_res075
I1207 20:04:39.987565  8737 net.cpp:157] Top shape: 1 2048 31 31 (1968128)
I1207 20:04:39.987574  8737 net.cpp:165] Memory required for data: 4099081436
I1207 20:04:39.987583  8737 layer_factory.hpp:77] Creating layer res5c_relu_res075
I1207 20:04:39.987599  8737 net.cpp:106] Creating Layer res5c_relu_res075
I1207 20:04:39.987612  8737 net.cpp:454] res5c_relu_res075 <- res5c_res075
I1207 20:04:39.987623  8737 net.cpp:397] res5c_relu_res075 -> res5c_res075 (in-place)
I1207 20:04:39.987637  8737 net.cpp:150] Setting up res5c_relu_res075
I1207 20:04:39.987648  8737 net.cpp:157] Top shape: 1 2048 31 31 (1968128)
I1207 20:04:39.987658  8737 net.cpp:165] Memory required for data: 4106953948
I1207 20:04:39.987666  8737 layer_factory.hpp:77] Creating layer res5c_res075_res5c_relu_res075_0_split
I1207 20:04:39.987679  8737 net.cpp:106] Creating Layer res5c_res075_res5c_relu_res075_0_split
I1207 20:04:39.987689  8737 net.cpp:454] res5c_res075_res5c_relu_res075_0_split <- res5c_res075
I1207 20:04:39.987700  8737 net.cpp:411] res5c_res075_res5c_relu_res075_0_split -> res5c_res075_res5c_relu_res075_0_split_0
I1207 20:04:39.987715  8737 net.cpp:411] res5c_res075_res5c_relu_res075_0_split -> res5c_res075_res5c_relu_res075_0_split_1
I1207 20:04:39.987730  8737 net.cpp:411] res5c_res075_res5c_relu_res075_0_split -> res5c_res075_res5c_relu_res075_0_split_2
I1207 20:04:39.987743  8737 net.cpp:411] res5c_res075_res5c_relu_res075_0_split -> res5c_res075_res5c_relu_res075_0_split_3
I1207 20:04:39.987830  8737 net.cpp:150] Setting up res5c_res075_res5c_relu_res075_0_split
I1207 20:04:39.987846  8737 net.cpp:157] Top shape: 1 2048 31 31 (1968128)
I1207 20:04:39.987857  8737 net.cpp:157] Top shape: 1 2048 31 31 (1968128)
I1207 20:04:39.987869  8737 net.cpp:157] Top shape: 1 2048 31 31 (1968128)
I1207 20:04:39.987879  8737 net.cpp:157] Top shape: 1 2048 31 31 (1968128)
I1207 20:04:39.987889  8737 net.cpp:165] Memory required for data: 4138443996
I1207 20:04:39.987897  8737 layer_factory.hpp:77] Creating layer fc1_textdet_c0
I1207 20:04:39.987917  8737 net.cpp:106] Creating Layer fc1_textdet_c0
I1207 20:04:39.987931  8737 net.cpp:454] fc1_textdet_c0 <- res5c_res5c_relu_0_split_0
I1207 20:04:39.987947  8737 net.cpp:411] fc1_textdet_c0 -> fc1_textdet_c0
I1207 20:04:39.990483  8737 net.cpp:150] Setting up fc1_textdet_c0
I1207 20:04:39.990502  8737 net.cpp:157] Top shape: 1 2 41 41 (3362)
I1207 20:04:39.990512  8737 net.cpp:165] Memory required for data: 4138457444
I1207 20:04:39.990526  8737 layer_factory.hpp:77] Creating layer fc1_textdet_c1
I1207 20:04:39.990548  8737 net.cpp:106] Creating Layer fc1_textdet_c1
I1207 20:04:39.990561  8737 net.cpp:454] fc1_textdet_c1 <- res5c_res5c_relu_0_split_1
I1207 20:04:39.990582  8737 net.cpp:411] fc1_textdet_c1 -> fc1_textdet_c1
I1207 20:04:39.993093  8737 net.cpp:150] Setting up fc1_textdet_c1
I1207 20:04:39.993111  8737 net.cpp:157] Top shape: 1 2 41 41 (3362)
I1207 20:04:39.993120  8737 net.cpp:165] Memory required for data: 4138470892
I1207 20:04:39.993135  8737 layer_factory.hpp:77] Creating layer fc1_textdet_c2
I1207 20:04:39.993154  8737 net.cpp:106] Creating Layer fc1_textdet_c2
I1207 20:04:39.993165  8737 net.cpp:454] fc1_textdet_c2 <- res5c_res5c_relu_0_split_2
I1207 20:04:39.993183  8737 net.cpp:411] fc1_textdet_c2 -> fc1_textdet_c2
I1207 20:04:39.995679  8737 net.cpp:150] Setting up fc1_textdet_c2
I1207 20:04:39.995697  8737 net.cpp:157] Top shape: 1 2 41 41 (3362)
I1207 20:04:39.995714  8737 net.cpp:165] Memory required for data: 4138484340
I1207 20:04:39.995729  8737 layer_factory.hpp:77] Creating layer fc1_textdet_c3
I1207 20:04:39.995750  8737 net.cpp:106] Creating Layer fc1_textdet_c3
I1207 20:04:39.995762  8737 net.cpp:454] fc1_textdet_c3 <- res5c_res5c_relu_0_split_3
I1207 20:04:39.995779  8737 net.cpp:411] fc1_textdet_c3 -> fc1_textdet_c3
I1207 20:04:39.999609  8737 net.cpp:150] Setting up fc1_textdet_c3
I1207 20:04:39.999630  8737 net.cpp:157] Top shape: 1 2 41 41 (3362)
I1207 20:04:39.999640  8737 net.cpp:165] Memory required for data: 4138497788
I1207 20:04:39.999655  8737 layer_factory.hpp:77] Creating layer fc1_textdet
I1207 20:04:39.999670  8737 net.cpp:106] Creating Layer fc1_textdet
I1207 20:04:39.999680  8737 net.cpp:454] fc1_textdet <- fc1_textdet_c0
I1207 20:04:39.999692  8737 net.cpp:454] fc1_textdet <- fc1_textdet_c1
I1207 20:04:39.999703  8737 net.cpp:454] fc1_textdet <- fc1_textdet_c2
I1207 20:04:39.999713  8737 net.cpp:454] fc1_textdet <- fc1_textdet_c3
I1207 20:04:39.999730  8737 net.cpp:411] fc1_textdet -> fc1_textdet
I1207 20:04:39.999776  8737 net.cpp:150] Setting up fc1_textdet
I1207 20:04:39.999794  8737 net.cpp:157] Top shape: 1 2 41 41 (3362)
I1207 20:04:39.999804  8737 net.cpp:165] Memory required for data: 4138511236
I1207 20:04:39.999814  8737 layer_factory.hpp:77] Creating layer fc1_textdet_fc1_textdet_0_split
I1207 20:04:39.999825  8737 net.cpp:106] Creating Layer fc1_textdet_fc1_textdet_0_split
I1207 20:04:39.999835  8737 net.cpp:454] fc1_textdet_fc1_textdet_0_split <- fc1_textdet
I1207 20:04:39.999848  8737 net.cpp:411] fc1_textdet_fc1_textdet_0_split -> fc1_textdet_fc1_textdet_0_split_0
I1207 20:04:39.999862  8737 net.cpp:411] fc1_textdet_fc1_textdet_0_split -> fc1_textdet_fc1_textdet_0_split_1
I1207 20:04:39.999881  8737 net.cpp:411] fc1_textdet_fc1_textdet_0_split -> fc1_textdet_fc1_textdet_0_split_2
I1207 20:04:39.999960  8737 net.cpp:150] Setting up fc1_textdet_fc1_textdet_0_split
I1207 20:04:39.999975  8737 net.cpp:157] Top shape: 1 2 41 41 (3362)
I1207 20:04:39.999987  8737 net.cpp:157] Top shape: 1 2 41 41 (3362)
I1207 20:04:39.999999  8737 net.cpp:157] Top shape: 1 2 41 41 (3362)
I1207 20:04:40.000006  8737 net.cpp:165] Memory required for data: 4138551580
I1207 20:04:40.000016  8737 layer_factory.hpp:77] Creating layer fc1_textdet_res05_c0
I1207 20:04:40.000035  8737 net.cpp:106] Creating Layer fc1_textdet_res05_c0
I1207 20:04:40.000046  8737 net.cpp:454] fc1_textdet_res05_c0 <- res5c_res05_res5c_relu_res05_0_split_0
I1207 20:04:40.000066  8737 net.cpp:411] fc1_textdet_res05_c0 -> fc1_textdet_res05_c0
I1207 20:04:40.002617  8737 net.cpp:150] Setting up fc1_textdet_res05_c0
I1207 20:04:40.002637  8737 net.cpp:157] Top shape: 1 2 21 21 (882)
I1207 20:04:40.002646  8737 net.cpp:165] Memory required for data: 4138555108
I1207 20:04:40.002657  8737 net.cpp:514] Sharing parameters 'fc1_textdet_c0_w' owned by layer 'fc1_textdet_c0', param index 0
I1207 20:04:40.002671  8737 net.cpp:514] Sharing parameters 'fc1_textdet_c0_b' owned by layer 'fc1_textdet_c0', param index 1
I1207 20:04:40.002681  8737 layer_factory.hpp:77] Creating layer fc1_textdet_res05_c1
I1207 20:04:40.002701  8737 net.cpp:106] Creating Layer fc1_textdet_res05_c1
I1207 20:04:40.002713  8737 net.cpp:454] fc1_textdet_res05_c1 <- res5c_res05_res5c_relu_res05_0_split_1
I1207 20:04:40.002735  8737 net.cpp:411] fc1_textdet_res05_c1 -> fc1_textdet_res05_c1
I1207 20:04:40.005302  8737 net.cpp:150] Setting up fc1_textdet_res05_c1
I1207 20:04:40.005322  8737 net.cpp:157] Top shape: 1 2 21 21 (882)
I1207 20:04:40.005331  8737 net.cpp:165] Memory required for data: 4138558636
I1207 20:04:40.005342  8737 net.cpp:514] Sharing parameters 'fc1_textdet_c1_w' owned by layer 'fc1_textdet_c1', param index 0
I1207 20:04:40.005353  8737 net.cpp:514] Sharing parameters 'fc1_textdet_c1_b' owned by layer 'fc1_textdet_c1', param index 1
I1207 20:04:40.005363  8737 layer_factory.hpp:77] Creating layer fc1_textdet_res05_c2
I1207 20:04:40.005385  8737 net.cpp:106] Creating Layer fc1_textdet_res05_c2
I1207 20:04:40.005406  8737 net.cpp:454] fc1_textdet_res05_c2 <- res5c_res05_res5c_relu_res05_0_split_2
I1207 20:04:40.005421  8737 net.cpp:411] fc1_textdet_res05_c2 -> fc1_textdet_res05_c2
I1207 20:04:40.007870  8737 net.cpp:150] Setting up fc1_textdet_res05_c2
I1207 20:04:40.007889  8737 net.cpp:157] Top shape: 1 2 21 21 (882)
I1207 20:04:40.007899  8737 net.cpp:165] Memory required for data: 4138562164
I1207 20:04:40.007910  8737 net.cpp:514] Sharing parameters 'fc1_textdet_c2_w' owned by layer 'fc1_textdet_c2', param index 0
I1207 20:04:40.007920  8737 net.cpp:514] Sharing parameters 'fc1_textdet_c2_b' owned by layer 'fc1_textdet_c2', param index 1
I1207 20:04:40.007930  8737 layer_factory.hpp:77] Creating layer fc1_textdet_res05_c3
I1207 20:04:40.007949  8737 net.cpp:106] Creating Layer fc1_textdet_res05_c3
I1207 20:04:40.007961  8737 net.cpp:454] fc1_textdet_res05_c3 <- res5c_res05_res5c_relu_res05_0_split_3
I1207 20:04:40.007979  8737 net.cpp:411] fc1_textdet_res05_c3 -> fc1_textdet_res05_c3
I1207 20:04:40.010433  8737 net.cpp:150] Setting up fc1_textdet_res05_c3
I1207 20:04:40.010452  8737 net.cpp:157] Top shape: 1 2 21 21 (882)
I1207 20:04:40.010462  8737 net.cpp:165] Memory required for data: 4138565692
I1207 20:04:40.010473  8737 net.cpp:514] Sharing parameters 'fc1_textdet_c3_w' owned by layer 'fc1_textdet_c3', param index 0
I1207 20:04:40.010484  8737 net.cpp:514] Sharing parameters 'fc1_textdet_c3_b' owned by layer 'fc1_textdet_c3', param index 1
I1207 20:04:40.010494  8737 layer_factory.hpp:77] Creating layer fc1_textdet_res05
I1207 20:04:40.010507  8737 net.cpp:106] Creating Layer fc1_textdet_res05
I1207 20:04:40.010517  8737 net.cpp:454] fc1_textdet_res05 <- fc1_textdet_res05_c0
I1207 20:04:40.010529  8737 net.cpp:454] fc1_textdet_res05 <- fc1_textdet_res05_c1
I1207 20:04:40.010540  8737 net.cpp:454] fc1_textdet_res05 <- fc1_textdet_res05_c2
I1207 20:04:40.010550  8737 net.cpp:454] fc1_textdet_res05 <- fc1_textdet_res05_c3
I1207 20:04:40.010565  8737 net.cpp:411] fc1_textdet_res05 -> fc1_textdet_res05
I1207 20:04:40.010607  8737 net.cpp:150] Setting up fc1_textdet_res05
I1207 20:04:40.010625  8737 net.cpp:157] Top shape: 1 2 21 21 (882)
I1207 20:04:40.010634  8737 net.cpp:165] Memory required for data: 4138569220
I1207 20:04:40.010643  8737 layer_factory.hpp:77] Creating layer fc1_textdet_res05_fc1_textdet_res05_0_split
I1207 20:04:40.010658  8737 net.cpp:106] Creating Layer fc1_textdet_res05_fc1_textdet_res05_0_split
I1207 20:04:40.010669  8737 net.cpp:454] fc1_textdet_res05_fc1_textdet_res05_0_split <- fc1_textdet_res05
I1207 20:04:40.010681  8737 net.cpp:411] fc1_textdet_res05_fc1_textdet_res05_0_split -> fc1_textdet_res05_fc1_textdet_res05_0_split_0
I1207 20:04:40.010702  8737 net.cpp:411] fc1_textdet_res05_fc1_textdet_res05_0_split -> fc1_textdet_res05_fc1_textdet_res05_0_split_1
I1207 20:04:40.010718  8737 net.cpp:411] fc1_textdet_res05_fc1_textdet_res05_0_split -> fc1_textdet_res05_fc1_textdet_res05_0_split_2
I1207 20:04:40.010795  8737 net.cpp:150] Setting up fc1_textdet_res05_fc1_textdet_res05_0_split
I1207 20:04:40.010812  8737 net.cpp:157] Top shape: 1 2 21 21 (882)
I1207 20:04:40.010823  8737 net.cpp:157] Top shape: 1 2 21 21 (882)
I1207 20:04:40.010833  8737 net.cpp:157] Top shape: 1 2 21 21 (882)
I1207 20:04:40.010841  8737 net.cpp:165] Memory required for data: 4138579804
I1207 20:04:40.010855  8737 layer_factory.hpp:77] Creating layer fc1_textdet_res075_c0
I1207 20:04:40.010874  8737 net.cpp:106] Creating Layer fc1_textdet_res075_c0
I1207 20:04:40.010885  8737 net.cpp:454] fc1_textdet_res075_c0 <- res5c_res075_res5c_relu_res075_0_split_0
I1207 20:04:40.010905  8737 net.cpp:411] fc1_textdet_res075_c0 -> fc1_textdet_res075_c0
I1207 20:04:40.013407  8737 net.cpp:150] Setting up fc1_textdet_res075_c0
I1207 20:04:40.013427  8737 net.cpp:157] Top shape: 1 2 31 31 (1922)
I1207 20:04:40.013435  8737 net.cpp:165] Memory required for data: 4138587492
I1207 20:04:40.013447  8737 net.cpp:514] Sharing parameters 'fc1_textdet_c0_w' owned by layer 'fc1_textdet_c0', param index 0
I1207 20:04:40.013458  8737 net.cpp:514] Sharing parameters 'fc1_textdet_c0_b' owned by layer 'fc1_textdet_c0', param index 1
I1207 20:04:40.013476  8737 layer_factory.hpp:77] Creating layer fc1_textdet_res075_c1
I1207 20:04:40.013497  8737 net.cpp:106] Creating Layer fc1_textdet_res075_c1
I1207 20:04:40.013509  8737 net.cpp:454] fc1_textdet_res075_c1 <- res5c_res075_res5c_relu_res075_0_split_1
I1207 20:04:40.013526  8737 net.cpp:411] fc1_textdet_res075_c1 -> fc1_textdet_res075_c1
I1207 20:04:40.016079  8737 net.cpp:150] Setting up fc1_textdet_res075_c1
I1207 20:04:40.016098  8737 net.cpp:157] Top shape: 1 2 31 31 (1922)
I1207 20:04:40.016106  8737 net.cpp:165] Memory required for data: 4138595180
I1207 20:04:40.016118  8737 net.cpp:514] Sharing parameters 'fc1_textdet_c1_w' owned by layer 'fc1_textdet_c1', param index 0
I1207 20:04:40.016129  8737 net.cpp:514] Sharing parameters 'fc1_textdet_c1_b' owned by layer 'fc1_textdet_c1', param index 1
I1207 20:04:40.016139  8737 layer_factory.hpp:77] Creating layer fc1_textdet_res075_c2
I1207 20:04:40.016162  8737 net.cpp:106] Creating Layer fc1_textdet_res075_c2
I1207 20:04:40.016176  8737 net.cpp:454] fc1_textdet_res075_c2 <- res5c_res075_res5c_relu_res075_0_split_2
I1207 20:04:40.016191  8737 net.cpp:411] fc1_textdet_res075_c2 -> fc1_textdet_res075_c2
I1207 20:04:40.019292  8737 net.cpp:150] Setting up fc1_textdet_res075_c2
I1207 20:04:40.019312  8737 net.cpp:157] Top shape: 1 2 31 31 (1922)
I1207 20:04:40.019321  8737 net.cpp:165] Memory required for data: 4138602868
I1207 20:04:40.019332  8737 net.cpp:514] Sharing parameters 'fc1_textdet_c2_w' owned by layer 'fc1_textdet_c2', param index 0
I1207 20:04:40.019345  8737 net.cpp:514] Sharing parameters 'fc1_textdet_c2_b' owned by layer 'fc1_textdet_c2', param index 1
I1207 20:04:40.019356  8737 layer_factory.hpp:77] Creating layer fc1_textdet_res075_c3
I1207 20:04:40.019376  8737 net.cpp:106] Creating Layer fc1_textdet_res075_c3
I1207 20:04:40.019388  8737 net.cpp:454] fc1_textdet_res075_c3 <- res5c_res075_res5c_relu_res075_0_split_3
I1207 20:04:40.019405  8737 net.cpp:411] fc1_textdet_res075_c3 -> fc1_textdet_res075_c3
I1207 20:04:40.021855  8737 net.cpp:150] Setting up fc1_textdet_res075_c3
I1207 20:04:40.021874  8737 net.cpp:157] Top shape: 1 2 31 31 (1922)
I1207 20:04:40.021883  8737 net.cpp:165] Memory required for data: 4138610556
I1207 20:04:40.021894  8737 net.cpp:514] Sharing parameters 'fc1_textdet_c3_w' owned by layer 'fc1_textdet_c3', param index 0
I1207 20:04:40.021906  8737 net.cpp:514] Sharing parameters 'fc1_textdet_c3_b' owned by layer 'fc1_textdet_c3', param index 1
I1207 20:04:40.021916  8737 layer_factory.hpp:77] Creating layer fc1_textdet_res075
I1207 20:04:40.021929  8737 net.cpp:106] Creating Layer fc1_textdet_res075
I1207 20:04:40.021939  8737 net.cpp:454] fc1_textdet_res075 <- fc1_textdet_res075_c0
I1207 20:04:40.021950  8737 net.cpp:454] fc1_textdet_res075 <- fc1_textdet_res075_c1
I1207 20:04:40.021961  8737 net.cpp:454] fc1_textdet_res075 <- fc1_textdet_res075_c2
I1207 20:04:40.021971  8737 net.cpp:454] fc1_textdet_res075 <- fc1_textdet_res075_c3
I1207 20:04:40.021988  8737 net.cpp:411] fc1_textdet_res075 -> fc1_textdet_res075
I1207 20:04:40.022030  8737 net.cpp:150] Setting up fc1_textdet_res075
I1207 20:04:40.022045  8737 net.cpp:157] Top shape: 1 2 31 31 (1922)
I1207 20:04:40.022059  8737 net.cpp:165] Memory required for data: 4138618244
I1207 20:04:40.022069  8737 layer_factory.hpp:77] Creating layer fc1_textdet_res05_interp
I1207 20:04:40.022088  8737 net.cpp:106] Creating Layer fc1_textdet_res05_interp
I1207 20:04:40.022099  8737 net.cpp:454] fc1_textdet_res05_interp <- fc1_textdet_res05_fc1_textdet_res05_0_split_0
I1207 20:04:40.022115  8737 net.cpp:411] fc1_textdet_res05_interp -> fc1_textdet_res05_interp
I1207 20:04:40.022157  8737 net.cpp:150] Setting up fc1_textdet_res05_interp
I1207 20:04:40.022172  8737 net.cpp:157] Top shape: 1 2 41 41 (3362)
I1207 20:04:40.022181  8737 net.cpp:165] Memory required for data: 4138631692
I1207 20:04:40.022192  8737 layer_factory.hpp:77] Creating layer fc1_textdet_res075_interp
I1207 20:04:40.022217  8737 net.cpp:106] Creating Layer fc1_textdet_res075_interp
I1207 20:04:40.022228  8737 net.cpp:454] fc1_textdet_res075_interp <- fc1_textdet_res075
I1207 20:04:40.022241  8737 net.cpp:411] fc1_textdet_res075_interp -> fc1_textdet_res075_interp
I1207 20:04:40.022284  8737 net.cpp:150] Setting up fc1_textdet_res075_interp
I1207 20:04:40.022300  8737 net.cpp:157] Top shape: 1 2 41 41 (3362)
I1207 20:04:40.022308  8737 net.cpp:165] Memory required for data: 4138645140
I1207 20:04:40.022317  8737 layer_factory.hpp:77] Creating layer fc1_textdet_res075_interp_fc1_textdet_res075_interp_0_split
I1207 20:04:40.022330  8737 net.cpp:106] Creating Layer fc1_textdet_res075_interp_fc1_textdet_res075_interp_0_split
I1207 20:04:40.022341  8737 net.cpp:454] fc1_textdet_res075_interp_fc1_textdet_res075_interp_0_split <- fc1_textdet_res075_interp
I1207 20:04:40.022357  8737 net.cpp:411] fc1_textdet_res075_interp_fc1_textdet_res075_interp_0_split -> fc1_textdet_res075_interp_fc1_textdet_res075_interp_0_split_0
I1207 20:04:40.022374  8737 net.cpp:411] fc1_textdet_res075_interp_fc1_textdet_res075_interp_0_split -> fc1_textdet_res075_interp_fc1_textdet_res075_interp_0_split_1
I1207 20:04:40.022388  8737 net.cpp:411] fc1_textdet_res075_interp_fc1_textdet_res075_interp_0_split -> fc1_textdet_res075_interp_fc1_textdet_res075_interp_0_split_2
I1207 20:04:40.022466  8737 net.cpp:150] Setting up fc1_textdet_res075_interp_fc1_textdet_res075_interp_0_split
I1207 20:04:40.022483  8737 net.cpp:157] Top shape: 1 2 41 41 (3362)
I1207 20:04:40.022495  8737 net.cpp:157] Top shape: 1 2 41 41 (3362)
I1207 20:04:40.022505  8737 net.cpp:157] Top shape: 1 2 41 41 (3362)
I1207 20:04:40.022513  8737 net.cpp:165] Memory required for data: 4138685484
I1207 20:04:40.022523  8737 layer_factory.hpp:77] Creating layer fc_fusion
I1207 20:04:40.022536  8737 net.cpp:106] Creating Layer fc_fusion
I1207 20:04:40.022547  8737 net.cpp:454] fc_fusion <- fc1_textdet_fc1_textdet_0_split_0
I1207 20:04:40.022558  8737 net.cpp:454] fc_fusion <- fc1_textdet_res075_interp_fc1_textdet_res075_interp_0_split_0
I1207 20:04:40.022569  8737 net.cpp:454] fc_fusion <- fc1_textdet_res05_interp
I1207 20:04:40.022585  8737 net.cpp:411] fc_fusion -> fc_fusion
I1207 20:04:40.022644  8737 net.cpp:150] Setting up fc_fusion
I1207 20:04:40.022660  8737 net.cpp:157] Top shape: 1 2 41 41 (3362)
I1207 20:04:40.022668  8737 net.cpp:165] Memory required for data: 4138698932
I1207 20:04:40.022678  8737 layer_factory.hpp:77] Creating layer fc_fusion_fc_fusion_0_split
I1207 20:04:40.022696  8737 net.cpp:106] Creating Layer fc_fusion_fc_fusion_0_split
I1207 20:04:40.022706  8737 net.cpp:454] fc_fusion_fc_fusion_0_split <- fc_fusion
I1207 20:04:40.022722  8737 net.cpp:411] fc_fusion_fc_fusion_0_split -> fc_fusion_fc_fusion_0_split_0
I1207 20:04:40.022737  8737 net.cpp:411] fc_fusion_fc_fusion_0_split -> fc_fusion_fc_fusion_0_split_1
I1207 20:04:40.022794  8737 net.cpp:150] Setting up fc_fusion_fc_fusion_0_split
I1207 20:04:40.022810  8737 net.cpp:157] Top shape: 1 2 41 41 (3362)
I1207 20:04:40.022821  8737 net.cpp:157] Top shape: 1 2 41 41 (3362)
I1207 20:04:40.022830  8737 net.cpp:165] Memory required for data: 4138725828
I1207 20:04:40.022838  8737 layer_factory.hpp:77] Creating layer label_shrink
I1207 20:04:40.022850  8737 net.cpp:106] Creating Layer label_shrink
I1207 20:04:40.022866  8737 net.cpp:454] label_shrink <- label_data_1_split_0
I1207 20:04:40.022878  8737 net.cpp:411] label_shrink -> label_shrink
I1207 20:04:40.022922  8737 net.cpp:150] Setting up label_shrink
I1207 20:04:40.022938  8737 net.cpp:157] Top shape: 1 1 41 41 (1681)
I1207 20:04:40.022946  8737 net.cpp:165] Memory required for data: 4138732552
I1207 20:04:40.022955  8737 layer_factory.hpp:77] Creating layer label_shrink_label_shrink_0_split
I1207 20:04:40.022967  8737 net.cpp:106] Creating Layer label_shrink_label_shrink_0_split
I1207 20:04:40.022977  8737 net.cpp:454] label_shrink_label_shrink_0_split <- label_shrink
I1207 20:04:40.022990  8737 net.cpp:411] label_shrink_label_shrink_0_split -> label_shrink_label_shrink_0_split_0
I1207 20:04:40.023012  8737 net.cpp:411] label_shrink_label_shrink_0_split -> label_shrink_label_shrink_0_split_1
I1207 20:04:40.023027  8737 net.cpp:411] label_shrink_label_shrink_0_split -> label_shrink_label_shrink_0_split_2
I1207 20:04:40.023046  8737 net.cpp:411] label_shrink_label_shrink_0_split -> label_shrink_label_shrink_0_split_3
I1207 20:04:40.023061  8737 net.cpp:411] label_shrink_label_shrink_0_split -> label_shrink_label_shrink_0_split_4
I1207 20:04:40.023077  8737 net.cpp:411] label_shrink_label_shrink_0_split -> label_shrink_label_shrink_0_split_5
I1207 20:04:40.023198  8737 net.cpp:150] Setting up label_shrink_label_shrink_0_split
I1207 20:04:40.023214  8737 net.cpp:157] Top shape: 1 1 41 41 (1681)
I1207 20:04:40.023226  8737 net.cpp:157] Top shape: 1 1 41 41 (1681)
I1207 20:04:40.023236  8737 net.cpp:157] Top shape: 1 1 41 41 (1681)
I1207 20:04:40.023247  8737 net.cpp:157] Top shape: 1 1 41 41 (1681)
I1207 20:04:40.023257  8737 net.cpp:157] Top shape: 1 1 41 41 (1681)
I1207 20:04:40.023268  8737 net.cpp:157] Top shape: 1 1 41 41 (1681)
I1207 20:04:40.023277  8737 net.cpp:165] Memory required for data: 4138772896
I1207 20:04:40.023285  8737 layer_factory.hpp:77] Creating layer loss
I1207 20:04:40.023301  8737 net.cpp:106] Creating Layer loss
I1207 20:04:40.023313  8737 net.cpp:454] loss <- fc_fusion_fc_fusion_0_split_0
I1207 20:04:40.023329  8737 net.cpp:454] loss <- label_shrink_label_shrink_0_split_0
I1207 20:04:40.023345  8737 net.cpp:411] loss -> (automatic)
I1207 20:04:40.023367  8737 layer_factory.hpp:77] Creating layer loss
I1207 20:04:40.023514  8737 net.cpp:150] Setting up loss
I1207 20:04:40.023530  8737 net.cpp:157] Top shape: (1)
I1207 20:04:40.023538  8737 net.cpp:160]     with loss weight 1
I1207 20:04:40.023582  8737 net.cpp:165] Memory required for data: 4138772900
I1207 20:04:40.023592  8737 layer_factory.hpp:77] Creating layer accuracy
I1207 20:04:40.023608  8737 net.cpp:106] Creating Layer accuracy
I1207 20:04:40.023620  8737 net.cpp:454] accuracy <- fc_fusion_fc_fusion_0_split_1
I1207 20:04:40.023633  8737 net.cpp:454] accuracy <- label_shrink_label_shrink_0_split_1
I1207 20:04:40.023645  8737 net.cpp:411] accuracy -> accuracy
I1207 20:04:40.023706  8737 net.cpp:150] Setting up accuracy
I1207 20:04:40.023722  8737 net.cpp:157] Top shape: 1 1 1 3 (3)
I1207 20:04:40.023731  8737 net.cpp:165] Memory required for data: 4138772912
I1207 20:04:40.023741  8737 layer_factory.hpp:77] Creating layer loss_res1
I1207 20:04:40.023753  8737 net.cpp:106] Creating Layer loss_res1
I1207 20:04:40.023763  8737 net.cpp:454] loss_res1 <- fc1_textdet_fc1_textdet_0_split_1
I1207 20:04:40.023775  8737 net.cpp:454] loss_res1 <- label_shrink_label_shrink_0_split_2
I1207 20:04:40.023788  8737 net.cpp:411] loss_res1 -> (automatic)
I1207 20:04:40.023802  8737 layer_factory.hpp:77] Creating layer loss_res1
I1207 20:04:40.023941  8737 net.cpp:150] Setting up loss_res1
I1207 20:04:40.023957  8737 net.cpp:157] Top shape: (1)
I1207 20:04:40.023967  8737 net.cpp:160]     with loss weight 1
I1207 20:04:40.023978  8737 net.cpp:165] Memory required for data: 4138772916
I1207 20:04:40.023988  8737 layer_factory.hpp:77] Creating layer accuracy_res1
I1207 20:04:40.024000  8737 net.cpp:106] Creating Layer accuracy_res1
I1207 20:04:40.024011  8737 net.cpp:454] accuracy_res1 <- fc1_textdet_fc1_textdet_0_split_2
I1207 20:04:40.024027  8737 net.cpp:454] accuracy_res1 <- label_shrink_label_shrink_0_split_3
I1207 20:04:40.024044  8737 net.cpp:411] accuracy_res1 -> accuracy_res1
I1207 20:04:40.024091  8737 net.cpp:150] Setting up accuracy_res1
I1207 20:04:40.024106  8737 net.cpp:157] Top shape: 1 1 1 3 (3)
I1207 20:04:40.024116  8737 net.cpp:165] Memory required for data: 4138772928
I1207 20:04:40.024124  8737 layer_factory.hpp:77] Creating layer loss_res075
I1207 20:04:40.024137  8737 net.cpp:106] Creating Layer loss_res075
I1207 20:04:40.024147  8737 net.cpp:454] loss_res075 <- fc1_textdet_res075_interp_fc1_textdet_res075_interp_0_split_1
I1207 20:04:40.024165  8737 net.cpp:454] loss_res075 <- label_shrink_label_shrink_0_split_4
I1207 20:04:40.024191  8737 net.cpp:411] loss_res075 -> (automatic)
I1207 20:04:40.024209  8737 layer_factory.hpp:77] Creating layer loss_res075
I1207 20:04:40.024353  8737 net.cpp:150] Setting up loss_res075
I1207 20:04:40.024369  8737 net.cpp:157] Top shape: (1)
I1207 20:04:40.024377  8737 net.cpp:160]     with loss weight 1
I1207 20:04:40.024389  8737 net.cpp:165] Memory required for data: 4138772932
I1207 20:04:40.024399  8737 layer_factory.hpp:77] Creating layer accuracy_res075
I1207 20:04:40.024415  8737 net.cpp:106] Creating Layer accuracy_res075
I1207 20:04:40.024427  8737 net.cpp:454] accuracy_res075 <- fc1_textdet_res075_interp_fc1_textdet_res075_interp_0_split_2
I1207 20:04:40.024438  8737 net.cpp:454] accuracy_res075 <- label_shrink_label_shrink_0_split_5
I1207 20:04:40.024453  8737 net.cpp:411] accuracy_res075 -> accuracy_res075
I1207 20:04:40.024495  8737 net.cpp:150] Setting up accuracy_res075
I1207 20:04:40.024511  8737 net.cpp:157] Top shape: 1 1 1 3 (3)
I1207 20:04:40.024520  8737 net.cpp:165] Memory required for data: 4138772944
I1207 20:04:40.024529  8737 layer_factory.hpp:77] Creating layer label_shrink16
I1207 20:04:40.024546  8737 net.cpp:106] Creating Layer label_shrink16
I1207 20:04:40.024559  8737 net.cpp:454] label_shrink16 <- label_data_1_split_1
I1207 20:04:40.024571  8737 net.cpp:411] label_shrink16 -> label_shrink16
I1207 20:04:40.024616  8737 net.cpp:150] Setting up label_shrink16
I1207 20:04:40.024631  8737 net.cpp:157] Top shape: 1 1 21 21 (441)
I1207 20:04:40.024639  8737 net.cpp:165] Memory required for data: 4138774708
I1207 20:04:40.024648  8737 layer_factory.hpp:77] Creating layer label_shrink16_label_shrink16_0_split
I1207 20:04:40.024660  8737 net.cpp:106] Creating Layer label_shrink16_label_shrink16_0_split
I1207 20:04:40.024670  8737 net.cpp:454] label_shrink16_label_shrink16_0_split <- label_shrink16
I1207 20:04:40.024688  8737 net.cpp:411] label_shrink16_label_shrink16_0_split -> label_shrink16_label_shrink16_0_split_0
I1207 20:04:40.024703  8737 net.cpp:411] label_shrink16_label_shrink16_0_split -> label_shrink16_label_shrink16_0_split_1
I1207 20:04:40.024762  8737 net.cpp:150] Setting up label_shrink16_label_shrink16_0_split
I1207 20:04:40.024778  8737 net.cpp:157] Top shape: 1 1 21 21 (441)
I1207 20:04:40.024790  8737 net.cpp:157] Top shape: 1 1 21 21 (441)
I1207 20:04:40.024797  8737 net.cpp:165] Memory required for data: 4138778236
I1207 20:04:40.024807  8737 layer_factory.hpp:77] Creating layer loss_res05
I1207 20:04:40.024819  8737 net.cpp:106] Creating Layer loss_res05
I1207 20:04:40.024829  8737 net.cpp:454] loss_res05 <- fc1_textdet_res05_fc1_textdet_res05_0_split_1
I1207 20:04:40.024842  8737 net.cpp:454] loss_res05 <- label_shrink16_label_shrink16_0_split_0
I1207 20:04:40.024853  8737 net.cpp:411] loss_res05 -> (automatic)
I1207 20:04:40.024868  8737 layer_factory.hpp:77] Creating layer loss_res05
I1207 20:04:40.025001  8737 net.cpp:150] Setting up loss_res05
I1207 20:04:40.025017  8737 net.cpp:157] Top shape: (1)
I1207 20:04:40.025025  8737 net.cpp:160]     with loss weight 1
I1207 20:04:40.025037  8737 net.cpp:165] Memory required for data: 4138778240
I1207 20:04:40.025046  8737 layer_factory.hpp:77] Creating layer accuracy_res05
I1207 20:04:40.025058  8737 net.cpp:106] Creating Layer accuracy_res05
I1207 20:04:40.025074  8737 net.cpp:454] accuracy_res05 <- fc1_textdet_res05_fc1_textdet_res05_0_split_2
I1207 20:04:40.025086  8737 net.cpp:454] accuracy_res05 <- label_shrink16_label_shrink16_0_split_1
I1207 20:04:40.025104  8737 net.cpp:411] accuracy_res05 -> accuracy_res05
I1207 20:04:40.025146  8737 net.cpp:150] Setting up accuracy_res05
I1207 20:04:40.025161  8737 net.cpp:157] Top shape: 1 1 1 3 (3)
I1207 20:04:40.025171  8737 net.cpp:165] Memory required for data: 4138778252
I1207 20:04:40.025179  8737 net.cpp:228] accuracy_res05 does not need backward computation.
I1207 20:04:40.025189  8737 net.cpp:226] loss_res05 needs backward computation.
I1207 20:04:40.025199  8737 net.cpp:228] label_shrink16_label_shrink16_0_split does not need backward computation.
I1207 20:04:40.025218  8737 net.cpp:228] label_shrink16 does not need backward computation.
…
