…
I1214 16:04:08.040921 13869 net.cpp:322] The NetState phase (0) differed from the phase (1) specified by a rule in layer accuracy
I1214 16:04:08.043438 13869 net.cpp:49] Initializing net from parameters: 
name: "psp50_train"
state {
  phase: TRAIN
}
layer {
  name: "data"
  type: "ImageSegData"
  top: "data"
  top: "label"
  include {
    phase: TRAIN
  }
  transform_param {
    mirror: true
    crop_size: 473
    mean_value: 104.008
    mean_value: 116.669
    mean_value: 122.675
  }
  image_data_param {
    source: "./NYUv2_40cls/train.deeplablist"
    batch_size: 1
    shuffle: true
    root_folder: "./NYUv2_40cls/"
    label_type: PIXEL
  }
}
layer {
  name: "conv1_1_3x3_s2"
  type: "Convolution"
  bottom: "data"
  top: "conv1_1_3x3_s2"
  param {
    lr_mult: 1
    decay_mult: 1
  }
  convolution_param {
    num_output: 64
    bias_term: false
    pad: 1
    kernel_size: 3
    stride: 2
    weight_filler {
      type: "msra"
    }
  }
}
layer {
  name: "conv1_1_3x3_s2/bn"
  type: "BN"
  bottom: "conv1_1_3x3_s2"
  top: "conv1_1_3x3_s2"
  param {
    lr_mult: 1
    decay_mult: 0
  }
  param {
    lr_mult: 1
    decay_mult: 0
  }
  param {
    lr_mult: 0
    decay_mult: 0
  }
  param {
    lr_mult: 0
    decay_mult: 0
  }
  bn_param {
    slope_filler {
      type: "constant"
      value: 1
    }
    bias_filler {
      type: "constant"
      value: 0
    }
    momentum: 0.95
    frozen: true
  }
}
layer {
  name: "conv1_1_3x3_s2/relu"
  type: "ReLU"
  bottom: "conv1_1_3x3_s2"
  top: "conv1_1_3x3_s2"
}
layer {
  name: "conv1_2_3x3"
  type: "Convolution"
  bottom: "conv1_1_3x3_s2"
  top: "conv1_2_3x3"
  param {
    lr_mult: 1
    decay_mult: 1
  }
  convolution_param {
    num_output: 64
    bias_term: false
    pad: 1
    kernel_size: 3
    stride: 1
    weight_filler {
      type: "msra"
    }
  }
}
layer {
  name: "conv1_2_3x3/bn"
  type: "BN"
  bottom: "conv1_2_3x3"
  top: "conv1_2_3x3"
  param {
    lr_mult: 1
    decay_mult: 0
  }
  param {
    lr_mult: 1
    decay_mult: 0
  }
  param {
    lr_mult: 0
    decay_mult: 0
  }
  param {
    lr_mult: 0
    decay_mult: 0
  }
  bn_param {
    slope_filler {
      type: "constant"
      value: 1
    }
    bias_filler {
      type: "constant"
      value: 0
    }
    momentum: 0.95
    frozen: true
  }
}
layer {
  name: "conv1_2_3x3/relu"
  type: "ReLU"
  bottom: "conv1_2_3x3"
  top: "conv1_2_3x3"
}
layer {
  name: "conv1_3_3x3"
  type: "Convolution"
  bottom: "conv1_2_3x3"
  top: "conv1_3_3x3"
  param {
    lr_mult: 1
    decay_mult: 1
  }
  convolution_param {
    num_output: 128
    bias_term: false
    pad: 1
    kernel_size: 3
    stride: 1
    weight_filler {
      type: "msra"
    }
  }
}
layer {
  name: "conv1_3_3x3/bn"
  type: "BN"
  bottom: "conv1_3_3x3"
  top: "conv1_3_3x3"
  param {
    lr_mult: 1
    decay_mult: 0
  }
  param {
    lr_mult: 1
    decay_mult: 0
  }
  param {
    lr_mult: 0
    decay_mult: 0
  }
  param {
    lr_mult: 0
    decay_mult: 0
  }
  bn_param {
    slope_filler {
      type: "constant"
      value: 1
    }
    bias_filler {
      type: "constant"
      value: 0
    }
    momentum: 0.95
    frozen: true
  }
}
layer {
  name: "conv1_3_3x3/relu"
  type: "ReLU"
  bottom: "conv1_3_3x3"
  top: "conv1_3_3x3"
}
layer {
  name: "pool1_3x3_s2"
  type: "Pooling"
  bottom: "conv1_3_3x3"
  top: "pool1_3x3_s2"
  pooling_param {
    pool: MAX
    kernel_size: 3
    stride: 2
    pad: 1
  }
}
layer {
  name: "conv2_1_1x1_reduce"
  type: "Convolution"
  bottom: "pool1_3x3_s2"
  top: "conv2_1_1x1_reduce"
  param {
    lr_mult: 1
    decay_mult: 1
  }
  convolution_param {
    num_output: 64
    bias_term: false
    pad: 0
    kernel_size: 1
    stride: 1
    weight_filler {
      type: "msra"
    }
  }
}
layer {
  name: "conv2_1_1x1_reduce/bn"
  type: "BN"
  bottom: "conv2_1_1x1_reduce"
  top: "conv2_1_1x1_reduce"
  param {
    lr_mult: 1
    decay_mult: 0
  }
  param {
    lr_mult: 1
    decay_mult: 0
  }
  param {
    lr_mult: 0
    decay_mult: 0
  }
  param {
    lr_mult: 0
    decay_mult: 0
  }
  bn_param {
    slope_filler {
      type: "constant"
      value: 1
    }
    bias_filler {
      type: "constant"
      value: 0
    }
    momentum: 0.95
    frozen: true
  }
}
layer {
  name: "conv2_1_1x1_reduce/relu"
  type: "ReLU"
  bottom: "conv2_1_1x1_reduce"
  top: "conv2_1_1x1_reduce"
}
layer {
  name: "conv2_1_3x3"
  type: "Convolution"
  bottom: "conv2_1_1x1_reduce"
  top: "conv2_1_3x3"
  param {
    lr_mult: 1
    decay_mult: 1
  }
  convolution_param {
    num_output: 64
    bias_term: false
    pad: 1
    kernel_size: 3
    stride: 1
    weight_filler {
      type: "msra"
    }
  }
}
layer {
  name: "conv2_1_3x3/bn"
  type: "BN"
  bottom: "conv2_1_3x3"
  top: "conv2_1_3x3"
  param {
    lr_mult: 1
    decay_mult: 0
  }
  param {
    lr_mult: 1
    decay_mult: 0
  }
  param {
    lr_mult: 0
    decay_mult: 0
  }
  param {
    lr_mult: 0
    decay_mult: 0
  }
  bn_param {
    slope_filler {
      type: "constant"
      value: 1
    }
    bias_filler {
      type: "constant"
      value: 0
    }
    momentum: 0.95
    frozen: true
  }
}
layer {
  name: "conv2_1_3x3/relu"
  type: "ReLU"
  bottom: "conv2_1_3x3"
  top: "conv2_1_3x3"
}
layer {
  name: "conv2_1_1x1_increase"
  type: "Convolution"
  bottom: "conv2_1_3x3"
  top: "conv2_1_1x1_increase"
  param {
    lr_mult: 1
    decay_mult: 1
  }
  convolution_param {
    num_output: 256
    bias_term: false
    pad: 0
    kernel_size: 1
    stride: 1
    weight_filler {
      type: "msra"
    }
  }
}
layer {
  name: "conv2_1_1x1_increase/bn"
  type: "BN"
  bottom: "conv2_1_1x1_increase"
  top: "conv2_1_1x1_increase"
  param {
    lr_mult: 1
    decay_mult: 0
  }
  param {
    lr_mult: 1
    decay_mult: 0
  }
  param {
    lr_mult: 0
    decay_mult: 0
  }
  param {
    lr_mult: 0
    decay_mult: 0
  }
  bn_param {
    slope_filler {
      type: "constant"
      value: 1
    }
    bias_filler {
      type: "constant"
      value: 0
    }
    momentum: 0.95
    frozen: true
  }
}
layer {
  name: "conv2_1_1x1_proj"
  type: "Convolution"
  bottom: "pool1_3x3_s2"
  top: "conv2_1_1x1_proj"
  param {
    lr_mult: 1
    decay_mult: 1
  }
  convolution_param {
    num_output: 256
    bias_term: false
    pad: 0
    kernel_size: 1
    stride: 1
    weight_filler {
      type: "msra"
    }
  }
}
layer {
  name: "conv2_1_1x1_proj/bn"
  type: "BN"
  bottom: "conv2_1_1x1_proj"
  top: "conv2_1_1x1_proj"
  param {
    lr_mult: 1
    decay_mult: 0
  }
  param {
    lr_mult: 1
    decay_mult: 0
  }
  param {
    lr_mult: 0
    decay_mult: 0
  }
  param {
    lr_mult: 0
    decay_mult: 0
  }
  bn_param {
    slope_filler {
      type: "constant"
      value: 1
    }
    bias_filler {
      type: "constant"
      value: 0
    }
    momentum: 0.95
    frozen: true
  }
}
layer {
  name: "conv2_1"
  type: "Eltwise"
  bottom: "conv2_1_1x1_proj"
  bottom: "conv2_1_1x1_increase"
  top: "conv2_1"
  eltwise_param {
    operation: SUM
  }
}
layer {
  name: "conv2_1/relu"
  type: "ReLU"
  bottom: "conv2_1"
  top: "conv2_1"
}
layer {
  name: "conv2_2_1x1_reduce"
  type: "Convolution"
  bottom: "conv2_1"
  top: "conv2_2_1x1_reduce"
  param {
    lr_mult: 1
    decay_mult: 1
  }
  convolution_param {
    num_output: 64
    bias_term: false
    pad: 0
    kernel_size: 1
    stride: 1
    weight_filler {
      type: "msra"
    }
  }
}
layer {
  name: "conv2_2_1x1_reduce/bn"
  type: "BN"
  bottom: "conv2_2_1x1_reduce"
  top: "conv2_2_1x1_reduce"
  param {
    lr_mult: 1
    decay_mult: 0
  }
  param {
    lr_mult: 1
    decay_mult: 0
  }
  param {
    lr_mult: 0
    decay_mult: 0
  }
  param {
    lr_mult: 0
    decay_mult: 0
  }
  bn_param {
    slope_filler {
      type: "constant"
      value: 1
    }
    bias_filler {
      type: "constant"
      value: 0
    }
    momentum: 0.95
    frozen: true
  }
}
layer {
  name: "conv2_2_1x1_reduce/relu"
  type: "ReLU"
  bottom: "conv2_2_1x1_reduce"
  top: "conv2_2_1x1_reduce"
}
layer {
  name: "conv2_2_3x3"
  type: "Convolution"
  bottom: "conv2_2_1x1_reduce"
  top: "conv2_2_3x3"
  param {
    lr_mult: 1
    decay_mult: 1
  }
  convolution_param {
    num_output: 64
    bias_term: false
    pad: 1
    kernel_size: 3
    stride: 1
    weight_filler {
      type: "msra"
    }
  }
}
layer {
  name: "conv2_2_3x3/bn"
  type: "BN"
  bottom: "conv2_2_3x3"
  top: "conv2_2_3x3"
  param {
    lr_mult: 1
    decay_mult: 0
  }
  param {
    lr_mult: 1
    decay_mult: 0
  }
  param {
    lr_mult: 0
    decay_mult: 0
  }
  param {
    lr_mult: 0
    decay_mult: 0
  }
  bn_param {
    slope_filler {
      type: "constant"
      value: 1
    }
    bias_filler {
      type: "constant"
      value: 0
    }
    momentum: 0.95
    frozen: true
  }
}
layer {
  name: "conv2_2_3x3/relu"
  type: "ReLU"
  bottom: "conv2_2_3x3"
  top: "conv2_2_3x3"
}
layer {
  name: "conv2_2_1x1_increase"
  type: "Convolution"
  bottom: "conv2_2_3x3"
  top: "conv2_2_1x1_increase"
  param {
    lr_mult: 1
    decay_mult: 1
  }
  convolution_param {
    num_output: 256
    bias_term: false
    pad: 0
    kernel_size: 1
    stride: 1
    weight_filler {
      type: "msra"
    }
  }
}
layer {
  name: "conv2_2_1x1_increase/bn"
  type: "BN"
  bottom: "conv2_2_1x1_increase"
  top: "conv2_2_1x1_increase"
  param {
    lr_mult: 1
    decay_mult: 0
  }
  param {
    lr_mult: 1
    decay_mult: 0
  }
  param {
    lr_mult: 0
    decay_mult: 0
  }
  param {
    lr_mult: 0
    decay_mult: 0
  }
  bn_param {
    slope_filler {
      type: "constant"
      value: 1
    }
    bias_filler {
      type: "constant"
      value: 0
    }
    momentum: 0.95
    frozen: true
  }
}
layer {
  name: "conv2_2"
  type: "Eltwise"
  bottom: "conv2_1"
  bottom: "conv2_2_1x1_increase"
  top: "conv2_2"
  eltwise_param {
    operation: SUM
  }
}
layer {
  name: "conv2_2/relu"
  type: "ReLU"
  bottom: "conv2_2"
  top: "conv2_2"
}
layer {
  name: "conv2_3_1x1_reduce"
  type: "Convolution"
  bottom: "conv2_2"
  top: "conv2_3_1x1_reduce"
  param {
    lr_mult: 1
    decay_mult: 1
  }
  convolution_param {
    num_output: 64
    bias_term: false
    pad: 0
    kernel_size: 1
    stride: 1
    weight_filler {
      type: "msra"
    }
  }
}
layer {
  name: "conv2_3_1x1_reduce/bn"
  type: "BN"
  bottom: "conv2_3_1x1_reduce"
  top: "conv2_3_1x1_reduce"
  param {
    lr_mult: 1
    decay_mult: 0
  }
  param {
    lr_mult: 1
    decay_mult: 0
  }
  param {
    lr_mult: 0
    decay_mult: 0
  }
  param {
    lr_mult: 0
    decay_mult: 0
  }
  bn_param {
    slope_filler {
      type: "constant"
      value: 1
    }
    bias_filler {
      type: "constant"
      value: 0
    }
    momentum: 0.95
    frozen: true
  }
}
layer {
  name: "conv2_3_1x1_reduce/relu"
  type: "ReLU"
  bottom: "conv2_3_1x1_reduce"
  top: "conv2_3_1x1_reduce"
}
layer {
  name: "conv2_3_3x3"
  type: "Convolution"
  bottom: "conv2_3_1x1_reduce"
  top: "conv2_3_3x3"
  param {
    lr_mult: 1
    decay_mult: 1
  }
  convolution_param {
    num_output: 64
    bias_term: false
    pad: 1
    kernel_size: 3
    stride: 1
    weight_filler {
      type: "msra"
    }
  }
}
layer {
  name: "conv2_3_3x3/bn"
  type: "BN"
  bottom: "conv2_3_3x3"
  top: "conv2_3_3x3"
  param {
    lr_mult: 1
    decay_mult: 0
  }
  param {
    lr_mult: 1
    decay_mult: 0
  }
  param {
    lr_mult: 0
    decay_mult: 0
  }
  param {
    lr_mult: 0
    decay_mult: 0
  }
  bn_param {
    slope_filler {
      type: "constant"
      value: 1
    }
    bias_filler {
      type: "constant"
      value: 0
    }
    momentum: 0.95
    frozen: true
  }
}
layer {
  name: "conv2_3_3x3/relu"
  type: "ReLU"
  bottom: "conv2_3_3x3"
  top: "conv2_3_3x3"
}
layer {
  name: "conv2_3_1x1_increase"
  type: "Convolution"
  bottom: "conv2_3_3x3"
  top: "conv2_3_1x1_increase"
  param {
    lr_mult: 1
    decay_mult: 1
  }
  convolution_param {
    num_output: 256
    bias_term: false
    pad: 0
    kernel_size: 1
    stride: 1
    weight_filler {
      type: "msra"
    }
  }
}
layer {
  name: "conv2_3_1x1_increase/bn"
  type: "BN"
  bottom: "conv2_3_1x1_increase"
  top: "conv2_3_1x1_increase"
  param {
    lr_mult: 1
    decay_mult: 0
  }
  param {
    lr_mult: 1
    decay_mult: 0
  }
  param {
    lr_mult: 0
    decay_mult: 0
  }
  param {
    lr_mult: 0
    decay_mult: 0
  }
  bn_param {
    slope_filler {
      type: "constant"
      value: 1
    }
    bias_filler {
      type: "constant"
      value: 0
    }
    momentum: 0.95
    frozen: true
  }
}
layer {
  name: "conv2_3"
  type: "Eltwise"
  bottom: "conv2_2"
  bottom: "conv2_3_1x1_increase"
  top: "conv2_3"
  eltwise_param {
    operation: SUM
  }
}
layer {
  name: "conv2_3/relu"
  type: "ReLU"
  bottom: "conv2_3"
  top: "conv2_3"
}
layer {
  name: "conv3_1_1x1_reduce"
  type: "Convolution"
  bottom: "conv2_3"
  top: "conv3_1_1x1_reduce"
  param {
    lr_mult: 1
    decay_mult: 1
  }
  convolution_param {
    num_output: 128
    bias_term: false
    pad: 0
    kernel_size: 1
    stride: 2
    weight_filler {
      type: "msra"
    }
  }
}
layer {
  name: "conv3_1_1x1_reduce/bn"
  type: "BN"
  bottom: "conv3_1_1x1_reduce"
  top: "conv3_1_1x1_reduce"
  param {
    lr_mult: 1
    decay_mult: 0
  }
  param {
    lr_mult: 1
    decay_mult: 0
  }
  param {
    lr_mult: 0
    decay_mult: 0
  }
  param {
    lr_mult: 0
    decay_mult: 0
  }
  bn_param {
    slope_filler {
      type: "constant"
      value: 1
    }
    bias_filler {
      type: "constant"
      value: 0
    }
    momentum: 0.95
    frozen: true
  }
}
layer {
  name: "conv3_1_1x1_reduce/relu"
  type: "ReLU"
  bottom: "conv3_1_1x1_reduce"
  top: "conv3_1_1x1_reduce"
}
layer {
  name: "conv3_1_3x3"
  type: "Convolution"
  bottom: "conv3_1_1x1_reduce"
  top: "conv3_1_3x3"
  param {
    lr_mult: 1
    decay_mult: 1
  }
  convolution_param {
    num_output: 128
    bias_term: false
    pad: 1
    kernel_size: 3
    stride: 1
    weight_filler {
      type: "msra"
    }
  }
}
layer {
  name: "conv3_1_3x3/bn"
  type: "BN"
  bottom: "conv3_1_3x3"
  top: "conv3_1_3x3"
  param {
    lr_mult: 1
    decay_mult: 0
  }
  param {
    lr_mult: 1
    decay_mult: 0
  }
  param {
    lr_mult: 0
    decay_mult: 0
  }
  param {
    lr_mult: 0
    decay_mult: 0
  }
  bn_param {
    slope_filler {
      type: "constant"
      value: 1
    }
    bias_filler {
      type: "constant"
      value: 0
    }
    momentum: 0.95
    frozen: true
  }
}
layer {
  name: "conv3_1_3x3/relu"
  type: "ReLU"
  bottom: "conv3_1_3x3"
  top: "conv3_1_3x3"
}
layer {
  name: "conv3_1_1x1_increase"
  type: "Convolution"
  bottom: "conv3_1_3x3"
  top: "conv3_1_1x1_increase"
  param {
    lr_mult: 1
    decay_mult: 1
  }
  convolution_param {
    num_output: 512
    bias_term: false
    pad: 0
    kernel_size: 1
    stride: 1
    weight_filler {
      type: "msra"
    }
  }
}
layer {
  name: "conv3_1_1x1_increase/bn"
  type: "BN"
  bottom: "conv3_1_1x1_increase"
  top: "conv3_1_1x1_increase"
  param {
    lr_mult: 1
    decay_mult: 0
  }
  param {
    lr_mult: 1
    decay_mult: 0
  }
  param {
    lr_mult: 0
    decay_mult: 0
  }
  param {
    lr_mult: 0
    decay_mult: 0
  }
  bn_param {
    slope_filler {
      type: "constant"
      value: 1
    }
    bias_filler {
      type: "constant"
      value: 0
    }
    momentum: 0.95
    frozen: true
  }
}
layer {
  name: "conv3_1_1x1_proj"
  type: "Convolution"
  bottom: "conv2_3"
  top: "conv3_1_1x1_proj"
  param {
    lr_mult: 1
    decay_mult: 1
  }
  convolution_param {
    num_output: 512
    bias_term: false
    pad: 0
    kernel_size: 1
    stride: 2
    weight_filler {
      type: "msra"
    }
  }
}
layer {
  name: "conv3_1_1x1_proj/bn"
  type: "BN"
  bottom: "conv3_1_1x1_proj"
  top: "conv3_1_1x1_proj"
  param {
    lr_mult: 1
    decay_mult: 0
  }
  param {
    lr_mult: 1
    decay_mult: 0
  }
  param {
    lr_mult: 0
    decay_mult: 0
  }
  param {
    lr_mult: 0
    decay_mult: 0
  }
  bn_param {
    slope_filler {
      type: "constant"
      value: 1
    }
    bias_filler {
      type: "constant"
      value: 0
    }
    momentum: 0.95
    frozen: true
  }
}
layer {
  name: "conv3_1"
  type: "Eltwise"
  bottom: "conv3_1_1x1_proj"
  bottom: "conv3_1_1x1_increase"
  top: "conv3_1"
  eltwise_param {
    operation: SUM
  }
}
layer {
  name: "conv3_1/relu"
  type: "ReLU"
  bottom: "conv3_1"
  top: "conv3_1"
}
layer {
  name: "conv3_2_1x1_reduce"
  type: "Convolution"
  bottom: "conv3_1"
  top: "conv3_2_1x1_reduce"
  param {
    lr_mult: 1
    decay_mult: 1
  }
  convolution_param {
    num_output: 128
    bias_term: false
    pad: 0
    kernel_size: 1
    stride: 1
    weight_filler {
      type: "msra"
    }
  }
}
layer {
  name: "conv3_2_1x1_reduce/bn"
  type: "BN"
  bottom: "conv3_2_1x1_reduce"
  top: "conv3_2_1x1_reduce"
  param {
    lr_mult: 1
    decay_mult: 0
  }
  param {
    lr_mult: 1
    decay_mult: 0
  }
  param {
    lr_mult: 0
    decay_mult: 0
  }
  param {
    lr_mult: 0
    decay_mult: 0
  }
  bn_param {
    slope_filler {
      type: "constant"
      value: 1
    }
    bias_filler {
      type: "constant"
      value: 0
    }
    momentum: 0.95
    frozen: true
  }
}
layer {
  name: "conv3_2_1x1_reduce/relu"
  type: "ReLU"
  bottom: "conv3_2_1x1_reduce"
  top: "conv3_2_1x1_reduce"
}
layer {
  name: "conv3_2_3x3"
  type: "Convolution"
  bottom: "conv3_2_1x1_reduce"
  top: "conv3_2_3x3"
  param {
    lr_mult: 1
    decay_mult: 1
  }
  convolution_param {
    num_output: 128
    bias_term: false
    pad: 1
    kernel_size: 3
    stride: 1
    weight_filler {
      type: "msra"
    }
  }
}
layer {
  name: "conv3_2_3x3/bn"
  type: "BN"
  bottom: "conv3_2_3x3"
  top: "conv3_2_3x3"
  param {
    lr_mult: 1
    decay_mult: 0
  }
  param {
    lr_mult: 1
    decay_mult: 0
  }
  param {
    lr_mult: 0
    decay_mult: 0
  }
  param {
    lr_mult: 0
    decay_mult: 0
  }
  bn_param {
    slope_filler {
      type: "constant"
      value: 1
    }
    bias_filler {
      type: "constant"
      value: 0
    }
    momentum: 0.95
    frozen: true
  }
}
layer {
  name: "conv3_2_3x3/relu"
  type: "ReLU"
  bottom: "conv3_2_3x3"
  top: "conv3_2_3x3"
}
layer {
  name: "conv3_2_1x1_increase"
  type: "Convolution"
  bottom: "conv3_2_3x3"
  top: "conv3_2_1x1_increase"
  param {
    lr_mult: 1
    decay_mult: 1
  }
  convolution_param {
    num_output: 512
    bias_term: false
    pad: 0
    kernel_size: 1
    stride: 1
    weight_filler {
      type: "msra"
    }
  }
}
layer {
  name: "conv3_2_1x1_increase/bn"
  type: "BN"
  bottom: "conv3_2_1x1_increase"
  top: "conv3_2_1x1_increase"
  param {
    lr_mult: 1
    decay_mult: 0
  }
  param {
    lr_mult: 1
    decay_mult: 0
  }
  param {
    lr_mult: 0
    decay_mult: 0
  }
  param {
    lr_mult: 0
    decay_mult: 0
  }
  bn_param {
    slope_filler {
      type: "constant"
      value: 1
    }
    bias_filler {
      type: "constant"
      value: 0
    }
    momentum: 0.95
    frozen: true
  }
}
layer {
  name: "conv3_2"
  type: "Eltwise"
  bottom: "conv3_1"
  bottom: "conv3_2_1x1_increase"
  top: "conv3_2"
  eltwise_param {
    operation: SUM
  }
}
layer {
  name: "conv3_2/relu"
  type: "ReLU"
  bottom: "conv3_2"
  top: "conv3_2"
}
layer {
  name: "conv3_3_1x1_reduce"
  type: "Convolution"
  bottom: "conv3_2"
  top: "conv3_3_1x1_reduce"
  param {
    lr_mult: 1
    decay_mult: 1
  }
  convolution_param {
    num_output: 128
    bias_term: false
    pad: 0
    kernel_size: 1
    stride: 1
    weight_filler {
      type: "msra"
    }
  }
}
layer {
  name: "conv3_3_1x1_reduce/bn"
  type: "BN"
  bottom: "conv3_3_1x1_reduce"
  top: "conv3_3_1x1_reduce"
  param {
    lr_mult: 1
    decay_mult: 0
  }
  param {
    lr_mult: 1
    decay_mult: 0
  }
  param {
    lr_mult: 0
    decay_mult: 0
  }
  param {
    lr_mult: 0
    decay_mult: 0
  }
  bn_param {
    slope_filler {
      type: "constant"
      value: 1
    }
    bias_filler {
      type: "constant"
      value: 0
    }
    momentum: 0.95
    frozen: true
  }
}
layer {
  name: "conv3_3_1x1_reduce/relu"
  type: "ReLU"
  bottom: "conv3_3_1x1_reduce"
  top: "conv3_3_1x1_reduce"
}
layer {
  name: "conv3_3_3x3"
  type: "Convolution"
  bottom: "conv3_3_1x1_reduce"
  top: "conv3_3_3x3"
  param {
    lr_mult: 1
    decay_mult: 1
  }
  convolution_param {
    num_output: 128
    bias_term: false
    pad: 1
    kernel_size: 3
    stride: 1
    weight_filler {
      type: "msra"
    }
  }
}
layer {
  name: "conv3_3_3x3/bn"
  type: "BN"
  bottom: "conv3_3_3x3"
  top: "conv3_3_3x3"
  param {
    lr_mult: 1
    decay_mult: 0
  }
  param {
    lr_mult: 1
    decay_mult: 0
  }
  param {
    lr_mult: 0
    decay_mult: 0
  }
  param {
    lr_mult: 0
    decay_mult: 0
  }
  bn_param {
    slope_filler {
      type: "constant"
      value: 1
    }
    bias_filler {
      type: "constant"
      value: 0
    }
    momentum: 0.95
    frozen: true
  }
}
layer {
  name: "conv3_3_3x3/relu"
  type: "ReLU"
  bottom: "conv3_3_3x3"
  top: "conv3_3_3x3"
}
layer {
  name: "conv3_3_1x1_increase"
  type: "Convolution"
  bottom: "conv3_3_3x3"
  top: "conv3_3_1x1_increase"
  param {
    lr_mult: 1
    decay_mult: 1
  }
  convolution_param {
    num_output: 512
    bias_term: false
    pad: 0
    kernel_size: 1
    stride: 1
    weight_filler {
      type: "msra"
    }
  }
}
layer {
  name: "conv3_3_1x1_increase/bn"
  type: "BN"
  bottom: "conv3_3_1x1_increase"
  top: "conv3_3_1x1_increase"
  param {
    lr_mult: 1
    decay_mult: 0
  }
  param {
    lr_mult: 1
    decay_mult: 0
  }
  param {
    lr_mult: 0
    decay_mult: 0
  }
  param {
    lr_mult: 0
    decay_mult: 0
  }
  bn_param {
    slope_filler {
      type: "constant"
      value: 1
    }
    bias_filler {
      type: "constant"
      value: 0
    }
    momentum: 0.95
    frozen: true
  }
}
layer {
  name: "conv3_3"
  type: "Eltwise"
  bottom: "conv3_2"
  bottom: "conv3_3_1x1_increase"
  top: "conv3_3"
  eltwise_param {
    operation: SUM
  }
}
layer {
  name: "conv3_3/relu"
  type: "ReLU"
  bottom: "conv3_3"
  top: "conv3_3"
}
layer {
  name: "conv3_4_1x1_reduce"
  type: "Convolution"
  bottom: "conv3_3"
  top: "conv3_4_1x1_reduce"
  param {
    lr_mult: 1
    decay_mult: 1
  }
  convolution_param {
    num_output: 128
    bias_term: false
    pad: 0
    kernel_size: 1
    stride: 1
    weight_filler {
      type: "msra"
    }
  }
}
layer {
  name: "conv3_4_1x1_reduce/bn"
  type: "BN"
  bottom: "conv3_4_1x1_reduce"
  top: "conv3_4_1x1_reduce"
  param {
    lr_mult: 1
    decay_mult: 0
  }
  param {
    lr_mult: 1
    decay_mult: 0
  }
  param {
    lr_mult: 0
    decay_mult: 0
  }
  param {
    lr_mult: 0
    decay_mult: 0
  }
  bn_param {
    slope_filler {
      type: "constant"
      value: 1
    }
    bias_filler {
      type: "constant"
      value: 0
    }
    momentum: 0.95
    frozen: true
  }
}
layer {
  name: "conv3_4_1x1_reduce/relu"
  type: "ReLU"
  bottom: "conv3_4_1x1_reduce"
  top: "conv3_4_1x1_reduce"
}
layer {
  name: "conv3_4_3x3"
  type: "Convolution"
  bottom: "conv3_4_1x1_reduce"
  top: "conv3_4_3x3"
  param {
    lr_mult: 1
    decay_mult: 1
  }
  convolution_param {
    num_output: 128
    bias_term: false
    pad: 1
    kernel_size: 3
    stride: 1
    weight_filler {
      type: "msra"
    }
  }
}
layer {
  name: "conv3_4_3x3/bn"
  type: "BN"
  bottom: "conv3_4_3x3"
  top: "conv3_4_3x3"
  param {
    lr_mult: 1
    decay_mult: 0
  }
  param {
    lr_mult: 1
    decay_mult: 0
  }
  param {
    lr_mult: 0
    decay_mult: 0
  }
  param {
    lr_mult: 0
    decay_mult: 0
  }
  bn_param {
    slope_filler {
      type: "constant"
      value: 1
    }
    bias_filler {
      type: "constant"
      value: 0
    }
    momentum: 0.95
    frozen: true
  }
}
layer {
  name: "conv3_4_3x3/relu"
  type: "ReLU"
  bottom: "conv3_4_3x3"
  top: "conv3_4_3x3"
}
layer {
  name: "conv3_4_1x1_increase"
  type: "Convolution"
  bottom: "conv3_4_3x3"
  top: "conv3_4_1x1_increase"
  param {
    lr_mult: 1
    decay_mult: 1
  }
  convolution_param {
    num_output: 512
    bias_term: false
    pad: 0
    kernel_size: 1
    stride: 1
    weight_filler {
      type: "msra"
    }
  }
}
layer {
  name: "conv3_4_1x1_increase/bn"
  type: "BN"
  bottom: "conv3_4_1x1_increase"
  top: "conv3_4_1x1_increase"
  param {
    lr_mult: 1
    decay_mult: 0
  }
  param {
    lr_mult: 1
    decay_mult: 0
  }
  param {
    lr_mult: 0
    decay_mult: 0
  }
  param {
    lr_mult: 0
    decay_mult: 0
  }
  bn_param {
    slope_filler {
      type: "constant"
      value: 1
    }
    bias_filler {
      type: "constant"
      value: 0
    }
    momentum: 0.95
    frozen: true
  }
}
layer {
  name: "conv3_4"
  type: "Eltwise"
  bottom: "conv3_3"
  bottom: "conv3_4_1x1_increase"
  top: "conv3_4"
  eltwise_param {
    operation: SUM
  }
}
layer {
  name: "conv3_4/relu"
  type: "ReLU"
  bottom: "conv3_4"
  top: "conv3_4"
}
layer {
  name: "conv4_1_1x1_reduce"
  type: "Convolution"
  bottom: "conv3_4"
  top: "conv4_1_1x1_reduce"
  param {
    lr_mult: 1
    decay_mult: 1
  }
  convolution_param {
    num_output: 256
    bias_term: false
    pad: 0
    kernel_size: 1
    stride: 1
    weight_filler {
      type: "msra"
    }
  }
}
layer {
  name: "conv4_1_1x1_reduce/bn"
  type: "BN"
  bottom: "conv4_1_1x1_reduce"
  top: "conv4_1_1x1_reduce"
  param {
    lr_mult: 1
    decay_mult: 0
  }
  param {
    lr_mult: 1
    decay_mult: 0
  }
  param {
    lr_mult: 0
    decay_mult: 0
  }
  param {
    lr_mult: 0
    decay_mult: 0
  }
  bn_param {
    slope_filler {
      type: "constant"
      value: 1
    }
    bias_filler {
      type: "constant"
      value: 0
    }
    momentum: 0.95
    frozen: true
  }
}
layer {
  name: "conv4_1_1x1_reduce/relu"
  type: "ReLU"
  bottom: "conv4_1_1x1_reduce"
  top: "conv4_1_1x1_reduce"
}
layer {
  name: "conv4_1_3x3"
  type: "Convolution"
  bottom: "conv4_1_1x1_reduce"
  top: "conv4_1_3x3"
  param {
    lr_mult: 1
    decay_mult: 1
  }
  convolution_param {
    num_output: 256
    bias_term: false
    pad: 2
    kernel_size: 3
    stride: 1
    weight_filler {
      type: "msra"
    }
    dilation: 2
  }
}
layer {
  name: "conv4_1_3x3/bn"
  type: "BN"
  bottom: "conv4_1_3x3"
  top: "conv4_1_3x3"
  param {
    lr_mult: 1
    decay_mult: 0
  }
  param {
    lr_mult: 1
    decay_mult: 0
  }
  param {
    lr_mult: 0
    decay_mult: 0
  }
  param {
    lr_mult: 0
    decay_mult: 0
  }
  bn_param {
    slope_filler {
      type: "constant"
      value: 1
    }
    bias_filler {
      type: "constant"
      value: 0
    }
    momentum: 0.95
    frozen: true
  }
}
layer {
  name: "conv4_1_3x3/relu"
  type: "ReLU"
  bottom: "conv4_1_3x3"
  top: "conv4_1_3x3"
}
layer {
  name: "conv4_1_1x1_increase"
  type: "Convolution"
  bottom: "conv4_1_3x3"
  top: "conv4_1_1x1_increase"
  param {
    lr_mult: 1
    decay_mult: 1
  }
  convolution_param {
    num_output: 1024
    bias_term: false
    pad: 0
    kernel_size: 1
    stride: 1
    weight_filler {
      type: "msra"
    }
  }
}
layer {
  name: "conv4_1_1x1_increase/bn"
  type: "BN"
  bottom: "conv4_1_1x1_increase"
  top: "conv4_1_1x1_increase"
  param {
    lr_mult: 1
    decay_mult: 0
  }
  param {
    lr_mult: 1
    decay_mult: 0
  }
  param {
    lr_mult: 0
    decay_mult: 0
  }
  param {
    lr_mult: 0
    decay_mult: 0
  }
  bn_param {
    slope_filler {
      type: "constant"
      value: 1
    }
    bias_filler {
      type: "constant"
      value: 0
    }
    momentum: 0.95
    frozen: true
  }
}
layer {
  name: "conv4_1_1x1_proj"
  type: "Convolution"
  bottom: "conv3_4"
  top: "conv4_1_1x1_proj"
  param {
    lr_mult: 1
    decay_mult: 1
  }
  convolution_param {
    num_output: 1024
    bias_term: false
    pad: 0
    kernel_size: 1
    stride: 1
    weight_filler {
      type: "msra"
    }
  }
}
layer {
  name: "conv4_1_1x1_proj/bn"
  type: "BN"
  bottom: "conv4_1_1x1_proj"
  top: "conv4_1_1x1_proj"
  param {
    lr_mult: 1
    decay_mult: 0
  }
  param {
    lr_mult: 1
    decay_mult: 0
  }
  param {
    lr_mult: 0
    decay_mult: 0
  }
  param {
    lr_mult: 0
    decay_mult: 0
  }
  bn_param {
    slope_filler {
      type: "constant"
      value: 1
    }
    bias_filler {
      type: "constant"
      value: 0
    }
    momentum: 0.95
    frozen: true
  }
}
layer {
  name: "conv4_1"
  type: "Eltwise"
  bottom: "conv4_1_1x1_proj"
  bottom: "conv4_1_1x1_increase"
  top: "conv4_1"
  eltwise_param {
    operation: SUM
  }
}
layer {
  name: "conv4_1/relu"
  type: "ReLU"
  bottom: "conv4_1"
  top: "conv4_1"
}
layer {
  name: "conv4_2_1x1_reduce"
  type: "Convolution"
  bottom: "conv4_1"
  top: "conv4_2_1x1_reduce"
  param {
    lr_mult: 1
    decay_mult: 1
  }
  convolution_param {
    num_output: 256
    bias_term: false
    pad: 0
    kernel_size: 1
    stride: 1
    weight_filler {
      type: "msra"
    }
  }
}
layer {
  name: "conv4_2_1x1_reduce/bn"
  type: "BN"
  bottom: "conv4_2_1x1_reduce"
  top: "conv4_2_1x1_reduce"
  param {
    lr_mult: 1
    decay_mult: 0
  }
  param {
    lr_mult: 1
    decay_mult: 0
  }
  param {
    lr_mult: 0
    decay_mult: 0
  }
  param {
    lr_mult: 0
    decay_mult: 0
  }
  bn_param {
    slope_filler {
      type: "constant"
      value: 1
    }
    bias_filler {
      type: "constant"
      value: 0
    }
    momentum: 0.95
    frozen: true
  }
}
layer {
  name: "conv4_2_1x1_reduce/relu"
  type: "ReLU"
  bottom: "conv4_2_1x1_reduce"
  top: "conv4_2_1x1_reduce"
}
layer {
  name: "conv4_2_3x3"
  type: "Convolution"
  bottom: "conv4_2_1x1_reduce"
  top: "conv4_2_3x3"
  param {
    lr_mult: 1
    decay_mult: 1
  }
  convolution_param {
    num_output: 256
    bias_term: false
    pad: 2
    kernel_size: 3
    stride: 1
    weight_filler {
      type: "msra"
    }
    dilation: 2
  }
}
layer {
  name: "conv4_2_3x3/bn"
  type: "BN"
  bottom: "conv4_2_3x3"
  top: "conv4_2_3x3"
  param {
    lr_mult: 1
    decay_mult: 0
  }
  param {
    lr_mult: 1
    decay_mult: 0
  }
  param {
    lr_mult: 0
    decay_mult: 0
  }
  param {
    lr_mult: 0
    decay_mult: 0
  }
  bn_param {
    slope_filler {
      type: "constant"
      value: 1
    }
    bias_filler {
      type: "constant"
      value: 0
    }
    momentum: 0.95
    frozen: true
  }
}
layer {
  name: "conv4_2_3x3/re
I1214 16:04:08.044736 13869 layer_factory.hpp:77] Creating layer data
I1214 16:04:08.044811 13869 net.cpp:106] Creating Layer data
I1214 16:04:08.044834 13869 net.cpp:411] data -> data
I1214 16:04:08.044888 13869 net.cpp:411] data -> label
I1214 16:04:08.044912 13869 net.cpp:411] data -> (automatic)
I1214 16:04:08.045475 13869 image_seg_data_layer.cpp:46] Opening file ./NYUv2_40cls/train.deeplablist
I1214 16:04:08.051576 13869 image_seg_data_layer.cpp:63] Shuffling data
I1214 16:04:08.051779 13869 image_seg_data_layer.cpp:68] A total of 4247 images.
I1214 16:04:08.072706 13869 image_seg_data_layer.cpp:137] output data size: 1,3,473,473
I1214 16:04:08.072728 13869 image_seg_data_layer.cpp:141] output label size: 1,1,473,473
I1214 16:04:08.072738 13869 image_seg_data_layer.cpp:145] output data_dim size: 1,1,1,2
I1214 16:04:08.088543 13869 net.cpp:150] Setting up data
I1214 16:04:08.088582 13869 net.cpp:157] Top shape: 1 3 473 473 (671187)
I1214 16:04:08.088598 13869 net.cpp:157] Top shape: 1 1 473 473 (223729)
I1214 16:04:08.088611 13869 net.cpp:157] Top shape: 1 1 1 2 (2)
I1214 16:04:08.088625 13869 net.cpp:165] Memory required for data: 3579672
I1214 16:04:08.088640 13869 layer_factory.hpp:77] Creating layer conv1_1_3x3_s2
I1214 16:04:08.088696 13869 net.cpp:106] Creating Layer conv1_1_3x3_s2
I1214 16:04:08.088713 13869 net.cpp:454] conv1_1_3x3_s2 <- data
I1214 16:04:08.088744 13869 net.cpp:411] conv1_1_3x3_s2 -> conv1_1_3x3_s2
I1214 16:04:08.089817 13869 net.cpp:150] Setting up conv1_1_3x3_s2
I1214 16:04:08.089836 13869 net.cpp:157] Top shape: 1 64 237 237 (3594816)
I1214 16:04:08.089846 13869 net.cpp:165] Memory required for data: 17958936
I1214 16:04:08.089880 13869 layer_factory.hpp:77] Creating layer conv1_1_3x3_s2/bn
I1214 16:04:08.089903 13869 net.cpp:106] Creating Layer conv1_1_3x3_s2/bn
I1214 16:04:08.089915 13869 net.cpp:454] conv1_1_3x3_s2/bn <- conv1_1_3x3_s2
I1214 16:04:08.089941 13869 net.cpp:397] conv1_1_3x3_s2/bn -> conv1_1_3x3_s2 (in-place)
I1214 16:04:08.091413 13869 net.cpp:150] Setting up conv1_1_3x3_s2/bn
I1214 16:04:08.091434 13869 net.cpp:157] Top shape: 1 64 237 237 (3594816)
I1214 16:04:08.091444 13869 net.cpp:165] Memory required for data: 32338200
I1214 16:04:08.091469 13869 layer_factory.hpp:77] Creating layer conv1_1_3x3_s2/relu
I1214 16:04:08.091485 13869 net.cpp:106] Creating Layer conv1_1_3x3_s2/relu
I1214 16:04:08.091495 13869 net.cpp:454] conv1_1_3x3_s2/relu <- conv1_1_3x3_s2
I1214 16:04:08.091507 13869 net.cpp:397] conv1_1_3x3_s2/relu -> conv1_1_3x3_s2 (in-place)
I1214 16:04:08.091526 13869 net.cpp:150] Setting up conv1_1_3x3_s2/relu
I1214 16:04:08.091538 13869 net.cpp:157] Top shape: 1 64 237 237 (3594816)
I1214 16:04:08.091547 13869 net.cpp:165] Memory required for data: 46717464
I1214 16:04:08.091557 13869 layer_factory.hpp:77] Creating layer conv1_2_3x3
I1214 16:04:08.091575 13869 net.cpp:106] Creating Layer conv1_2_3x3
I1214 16:04:08.091586 13869 net.cpp:454] conv1_2_3x3 <- conv1_1_3x3_s2
I1214 16:04:08.091603 13869 net.cpp:411] conv1_2_3x3 -> conv1_2_3x3
I1214 16:04:08.093972 13869 net.cpp:150] Setting up conv1_2_3x3
I1214 16:04:08.093992 13869 net.cpp:157] Top shape: 1 64 237 237 (3594816)
I1214 16:04:08.094002 13869 net.cpp:165] Memory required for data: 61096728
I1214 16:04:08.094015 13869 layer_factory.hpp:77] Creating layer conv1_2_3x3/bn
I1214 16:04:08.094029 13869 net.cpp:106] Creating Layer conv1_2_3x3/bn
I1214 16:04:08.094038 13869 net.cpp:454] conv1_2_3x3/bn <- conv1_2_3x3
I1214 16:04:08.094054 13869 net.cpp:397] conv1_2_3x3/bn -> conv1_2_3x3 (in-place)
I1214 16:04:08.094362 13869 net.cpp:150] Setting up conv1_2_3x3/bn
I1214 16:04:08.094380 13869 net.cpp:157] Top shape: 1 64 237 237 (3594816)
I1214 16:04:08.094389 13869 net.cpp:165] Memory required for data: 75475992
I1214 16:04:08.094410 13869 layer_factory.hpp:77] Creating layer conv1_2_3x3/relu
I1214 16:04:08.094422 13869 net.cpp:106] Creating Layer conv1_2_3x3/relu
I1214 16:04:08.094432 13869 net.cpp:454] conv1_2_3x3/relu <- conv1_2_3x3
I1214 16:04:08.094458 13869 net.cpp:397] conv1_2_3x3/relu -> conv1_2_3x3 (in-place)
I1214 16:04:08.094476 13869 net.cpp:150] Setting up conv1_2_3x3/relu
I1214 16:04:08.094488 13869 net.cpp:157] Top shape: 1 64 237 237 (3594816)
I1214 16:04:08.094497 13869 net.cpp:165] Memory required for data: 89855256
I1214 16:04:08.094507 13869 layer_factory.hpp:77] Creating layer conv1_3_3x3
I1214 16:04:08.094524 13869 net.cpp:106] Creating Layer conv1_3_3x3
I1214 16:04:08.094535 13869 net.cpp:454] conv1_3_3x3 <- conv1_2_3x3
I1214 16:04:08.094548 13869 net.cpp:411] conv1_3_3x3 -> conv1_3_3x3
I1214 16:04:08.099666 13869 net.cpp:150] Setting up conv1_3_3x3
I1214 16:04:08.099689 13869 net.cpp:157] Top shape: 1 128 237 237 (7189632)
I1214 16:04:08.099697 13869 net.cpp:165] Memory required for data: 118613784
I1214 16:04:08.099710 13869 layer_factory.hpp:77] Creating layer conv1_3_3x3/bn
I1214 16:04:08.099731 13869 net.cpp:106] Creating Layer conv1_3_3x3/bn
I1214 16:04:08.099743 13869 net.cpp:454] conv1_3_3x3/bn <- conv1_3_3x3
I1214 16:04:08.099757 13869 net.cpp:397] conv1_3_3x3/bn -> conv1_3_3x3 (in-place)
I1214 16:04:08.100042 13869 net.cpp:150] Setting up conv1_3_3x3/bn
I1214 16:04:08.100060 13869 net.cpp:157] Top shape: 1 128 237 237 (7189632)
I1214 16:04:08.100070 13869 net.cpp:165] Memory required for data: 147372312
I1214 16:04:08.100087 13869 layer_factory.hpp:77] Creating layer conv1_3_3x3/relu
I1214 16:04:08.100100 13869 net.cpp:106] Creating Layer conv1_3_3x3/relu
I1214 16:04:08.100109 13869 net.cpp:454] conv1_3_3x3/relu <- conv1_3_3x3
I1214 16:04:08.100126 13869 net.cpp:397] conv1_3_3x3/relu -> conv1_3_3x3 (in-place)
I1214 16:04:08.100142 13869 net.cpp:150] Setting up conv1_3_3x3/relu
I1214 16:04:08.100163 13869 net.cpp:157] Top shape: 1 128 237 237 (7189632)
I1214 16:04:08.100174 13869 net.cpp:165] Memory required for data: 176130840
I1214 16:04:08.100183 13869 layer_factory.hpp:77] Creating layer pool1_3x3_s2
I1214 16:04:08.100196 13869 net.cpp:106] Creating Layer pool1_3x3_s2
I1214 16:04:08.100213 13869 net.cpp:454] pool1_3x3_s2 <- conv1_3_3x3
I1214 16:04:08.100235 13869 net.cpp:411] pool1_3x3_s2 -> pool1_3x3_s2
I1214 16:04:08.100306 13869 net.cpp:150] Setting up pool1_3x3_s2
I1214 16:04:08.100322 13869 net.cpp:157] Top shape: 1 128 119 119 (1812608)
I1214 16:04:08.100332 13869 net.cpp:165] Memory required for data: 183381272
I1214 16:04:08.100342 13869 layer_factory.hpp:77] Creating layer pool1_3x3_s2_pool1_3x3_s2_0_split
I1214 16:04:08.100358 13869 net.cpp:106] Creating Layer pool1_3x3_s2_pool1_3x3_s2_0_split
I1214 16:04:08.100368 13869 net.cpp:454] pool1_3x3_s2_pool1_3x3_s2_0_split <- pool1_3x3_s2
I1214 16:04:08.100380 13869 net.cpp:411] pool1_3x3_s2_pool1_3x3_s2_0_split -> pool1_3x3_s2_pool1_3x3_s2_0_split_0
I1214 16:04:08.100394 13869 net.cpp:411] pool1_3x3_s2_pool1_3x3_s2_0_split -> pool1_3x3_s2_pool1_3x3_s2_0_split_1
I1214 16:04:08.100455 13869 net.cpp:150] Setting up pool1_3x3_s2_pool1_3x3_s2_0_split
I1214 16:04:08.100471 13869 net.cpp:157] Top shape: 1 128 119 119 (1812608)
I1214 16:04:08.100482 13869 net.cpp:157] Top shape: 1 128 119 119 (1812608)
I1214 16:04:08.100492 13869 net.cpp:165] Memory required for data: 197882136
I1214 16:04:08.100500 13869 layer_factory.hpp:77] Creating layer conv2_1_1x1_reduce
I1214 16:04:08.100520 13869 net.cpp:106] Creating Layer conv2_1_1x1_reduce
I1214 16:04:08.100533 13869 net.cpp:454] conv2_1_1x1_reduce <- pool1_3x3_s2_pool1_3x3_s2_0_split_0
I1214 16:04:08.100548 13869 net.cpp:411] conv2_1_1x1_reduce -> conv2_1_1x1_reduce
I1214 16:04:08.101869 13869 net.cpp:150] Setting up conv2_1_1x1_reduce
I1214 16:04:08.101889 13869 net.cpp:157] Top shape: 1 64 119 119 (906304)
I1214 16:04:08.101899 13869 net.cpp:165] Memory required for data: 201507352
I1214 16:04:08.101912 13869 layer_factory.hpp:77] Creating layer conv2_1_1x1_reduce/bn
I1214 16:04:08.101932 13869 net.cpp:106] Creating Layer conv2_1_1x1_reduce/bn
I1214 16:04:08.101943 13869 net.cpp:454] conv2_1_1x1_reduce/bn <- conv2_1_1x1_reduce
I1214 16:04:08.101956 13869 net.cpp:397] conv2_1_1x1_reduce/bn -> conv2_1_1x1_reduce (in-place)
I1214 16:04:08.102622 13869 net.cpp:150] Setting up conv2_1_1x1_reduce/bn
I1214 16:04:08.102640 13869 net.cpp:157] Top shape: 1 64 119 119 (906304)
I1214 16:04:08.102649 13869 net.cpp:165] Memory required for data: 205132568
I1214 16:04:08.102676 13869 layer_factory.hpp:77] Creating layer conv2_1_1x1_reduce/relu
I1214 16:04:08.102690 13869 net.cpp:106] Creating Layer conv2_1_1x1_reduce/relu
I1214 16:04:08.102700 13869 net.cpp:454] conv2_1_1x1_reduce/relu <- conv2_1_1x1_reduce
I1214 16:04:08.102715 13869 net.cpp:397] conv2_1_1x1_reduce/relu -> conv2_1_1x1_reduce (in-place)
I1214 16:04:08.102730 13869 net.cpp:150] Setting up conv2_1_1x1_reduce/relu
I1214 16:04:08.102741 13869 net.cpp:157] Top shape: 1 64 119 119 (906304)
I1214 16:04:08.102751 13869 net.cpp:165] Memory required for data: 208757784
I1214 16:04:08.102761 13869 layer_factory.hpp:77] Creating layer conv2_1_3x3
I1214 16:04:08.102774 13869 net.cpp:106] Creating Layer conv2_1_3x3
I1214 16:04:08.102793 13869 net.cpp:454] conv2_1_3x3 <- conv2_1_1x1_reduce
I1214 16:04:08.102813 13869 net.cpp:411] conv2_1_3x3 -> conv2_1_3x3
I1214 16:04:08.105552 13869 net.cpp:150] Setting up conv2_1_3x3
I1214 16:04:08.105572 13869 net.cpp:157] Top shape: 1 64 119 119 (906304)
I1214 16:04:08.105582 13869 net.cpp:165] Memory required for data: 212383000
I1214 16:04:08.105594 13869 layer_factory.hpp:77] Creating layer conv2_1_3x3/bn
I1214 16:04:08.105609 13869 net.cpp:106] Creating Layer conv2_1_3x3/bn
I1214 16:04:08.105619 13869 net.cpp:454] conv2_1_3x3/bn <- conv2_1_3x3
I1214 16:04:08.105641 13869 net.cpp:397] conv2_1_3x3/bn -> conv2_1_3x3 (in-place)
I1214 16:04:08.105924 13869 net.cpp:150] Setting up conv2_1_3x3/bn
I1214 16:04:08.105942 13869 net.cpp:157] Top shape: 1 64 119 119 (906304)
I1214 16:04:08.105952 13869 net.cpp:165] Memory required for data: 216008216
I1214 16:04:08.105967 13869 layer_factory.hpp:77] Creating layer conv2_1_3x3/relu
I1214 16:04:08.105980 13869 net.cpp:106] Creating Layer conv2_1_3x3/relu
I1214 16:04:08.105994 13869 net.cpp:454] conv2_1_3x3/relu <- conv2_1_3x3
I1214 16:04:08.106014 13869 net.cpp:397] conv2_1_3x3/relu -> conv2_1_3x3 (in-place)
I1214 16:04:08.106029 13869 net.cpp:150] Setting up conv2_1_3x3/relu
I1214 16:04:08.106040 13869 net.cpp:157] Top shape: 1 64 119 119 (906304)
I1214 16:04:08.106050 13869 net.cpp:165] Memory required for data: 219633432
I1214 16:04:08.106060 13869 layer_factory.hpp:77] Creating layer conv2_1_1x1_increase
I1214 16:04:08.106078 13869 net.cpp:106] Creating Layer conv2_1_1x1_increase
I1214 16:04:08.106089 13869 net.cpp:454] conv2_1_1x1_increase <- conv2_1_3x3
I1214 16:04:08.106106 13869 net.cpp:411] conv2_1_1x1_increase -> conv2_1_1x1_increase
I1214 16:04:08.107271 13869 net.cpp:150] Setting up conv2_1_1x1_increase
I1214 16:04:08.107290 13869 net.cpp:157] Top shape: 1 256 119 119 (3625216)
I1214 16:04:08.107298 13869 net.cpp:165] Memory required for data: 234134296
I1214 16:04:08.107311 13869 layer_factory.hpp:77] Creating layer conv2_1_1x1_increase/bn
I1214 16:04:08.107324 13869 net.cpp:106] Creating Layer conv2_1_1x1_increase/bn
I1214 16:04:08.107334 13869 net.cpp:454] conv2_1_1x1_increase/bn <- conv2_1_1x1_increase
I1214 16:04:08.107355 13869 net.cpp:397] conv2_1_1x1_increase/bn -> conv2_1_1x1_increase (in-place)
I1214 16:04:08.107614 13869 net.cpp:150] Setting up conv2_1_1x1_increase/bn
I1214 16:04:08.107630 13869 net.cpp:157] Top shape: 1 256 119 119 (3625216)
I1214 16:04:08.107640 13869 net.cpp:165] Memory required for data: 248635160
I1214 16:04:08.107656 13869 layer_factory.hpp:77] Creating layer conv2_1_1x1_proj
I1214 16:04:08.107677 13869 net.cpp:106] Creating Layer conv2_1_1x1_proj
I1214 16:04:08.107688 13869 net.cpp:454] conv2_1_1x1_proj <- pool1_3x3_s2_pool1_3x3_s2_0_split_1
I1214 16:04:08.107702 13869 net.cpp:411] conv2_1_1x1_proj -> conv2_1_1x1_proj
I1214 16:04:08.110445 13869 net.cpp:150] Setting up conv2_1_1x1_proj
I1214 16:04:08.110466 13869 net.cpp:157] Top shape: 1 256 119 119 (3625216)
I1214 16:04:08.110476 13869 net.cpp:165] Memory required for data: 263136024
I1214 16:04:08.110489 13869 layer_factory.hpp:77] Creating layer conv2_1_1x1_proj/bn
I1214 16:04:08.110517 13869 net.cpp:106] Creating Layer conv2_1_1x1_proj/bn
I1214 16:04:08.110529 13869 net.cpp:454] conv2_1_1x1_proj/bn <- conv2_1_1x1_proj
I1214 16:04:08.110543 13869 net.cpp:397] conv2_1_1x1_proj/bn -> conv2_1_1x1_proj (in-place)
I1214 16:04:08.110803 13869 net.cpp:150] Setting up conv2_1_1x1_proj/bn
I1214 16:04:08.110821 13869 net.cpp:157] Top shape: 1 256 119 119 (3625216)
I1214 16:04:08.110831 13869 net.cpp:165] Memory required for data: 277636888
I1214 16:04:08.110857 13869 layer_factory.hpp:77] Creating layer conv2_1
I1214 16:04:08.110874 13869 net.cpp:106] Creating Layer conv2_1
I1214 16:04:08.110884 13869 net.cpp:454] conv2_1 <- conv2_1_1x1_proj
I1214 16:04:08.110895 13869 net.cpp:454] conv2_1 <- conv2_1_1x1_increase
I1214 16:04:08.110910 13869 net.cpp:411] conv2_1 -> conv2_1
I1214 16:04:08.110955 13869 net.cpp:150] Setting up conv2_1
I1214 16:04:08.110971 13869 net.cpp:157] Top shape: 1 256 119 119 (3625216)
I1214 16:04:08.110980 13869 net.cpp:165] Memory required for data: 292137752
I1214 16:04:08.110991 13869 layer_factory.hpp:77] Creating layer conv2_1/relu
I1214 16:04:08.111007 13869 net.cpp:106] Creating Layer conv2_1/relu
I1214 16:04:08.111018 13869 net.cpp:454] conv2_1/relu <- conv2_1
I1214 16:04:08.111030 13869 net.cpp:397] conv2_1/relu -> conv2_1 (in-place)
I1214 16:04:08.111043 13869 net.cpp:150] Setting up conv2_1/relu
I1214 16:04:08.111055 13869 net.cpp:157] Top shape: 1 256 119 119 (3625216)
I1214 16:04:08.111064 13869 net.cpp:165] Memory required for data: 306638616
I1214 16:04:08.111074 13869 layer_factory.hpp:77] Creating layer conv2_1_conv2_1/relu_0_split
I1214 16:04:08.111088 13869 net.cpp:106] Creating Layer conv2_1_conv2_1/relu_0_split
I1214 16:04:08.111099 13869 net.cpp:454] conv2_1_conv2_1/relu_0_split <- conv2_1
I1214 16:04:08.111111 13869 net.cpp:411] conv2_1_conv2_1/relu_0_split -> conv2_1_conv2_1/relu_0_split_0
I1214 16:04:08.111125 13869 net.cpp:411] conv2_1_conv2_1/relu_0_split -> conv2_1_conv2_1/relu_0_split_1
I1214 16:04:08.111193 13869 net.cpp:150] Setting up conv2_1_conv2_1/relu_0_split
I1214 16:04:08.111209 13869 net.cpp:157] Top shape: 1 256 119 119 (3625216)
I1214 16:04:08.111220 13869 net.cpp:157] Top shape: 1 256 119 119 (3625216)
I1214 16:04:08.111229 13869 net.cpp:165] Memory required for data: 335640344
I1214 16:04:08.111238 13869 layer_factory.hpp:77] Creating layer conv2_2_1x1_reduce
I1214 16:04:08.111259 13869 net.cpp:106] Creating Layer conv2_2_1x1_reduce
I1214 16:04:08.111271 13869 net.cpp:454] conv2_2_1x1_reduce <- conv2_1_conv2_1/relu_0_split_0
I1214 16:04:08.111286 13869 net.cpp:411] conv2_2_1x1_reduce -> conv2_2_1x1_reduce
I1214 16:04:08.112478 13869 net.cpp:150] Setting up conv2_2_1x1_reduce
I1214 16:04:08.112498 13869 net.cpp:157] Top shape: 1 64 119 119 (906304)
I1214 16:04:08.112507 13869 net.cpp:165] Memory required for data: 339265560
I1214 16:04:08.112519 13869 layer_factory.hpp:77] Creating layer conv2_2_1x1_reduce/bn
I1214 16:04:08.112534 13869 net.cpp:106] Creating Layer conv2_2_1x1_reduce/bn
I1214 16:04:08.112543 13869 net.cpp:454] conv2_2_1x1_reduce/bn <- conv2_2_1x1_reduce
I1214 16:04:08.112561 13869 net.cpp:397] conv2_2_1x1_reduce/bn -> conv2_2_1x1_reduce (in-place)
I1214 16:04:08.112846 13869 net.cpp:150] Setting up conv2_2_1x1_reduce/bn
I1214 16:04:08.112864 13869 net.cpp:157] Top shape: 1 64 119 119 (906304)
I1214 16:04:08.112872 13869 net.cpp:165] Memory required for data: 342890776
I1214 16:04:08.112890 13869 layer_factory.hpp:77] Creating layer conv2_2_1x1_reduce/relu
I1214 16:04:08.112902 13869 net.cpp:106] Creating Layer conv2_2_1x1_reduce/relu
I1214 16:04:08.112911 13869 net.cpp:454] conv2_2_1x1_reduce/relu <- conv2_2_1x1_reduce
I1214 16:04:08.112923 13869 net.cpp:397] conv2_2_1x1_reduce/relu -> conv2_2_1x1_reduce (in-place)
I1214 16:04:08.112937 13869 net.cpp:150] Setting up conv2_2_1x1_reduce/relu
I1214 16:04:08.112949 13869 net.cpp:157] Top shape: 1 64 119 119 (906304)
I1214 16:04:08.112957 13869 net.cpp:165] Memory required for data: 346515992
I1214 16:04:08.112967 13869 layer_factory.hpp:77] Creating layer conv2_2_3x3
I1214 16:04:08.112988 13869 net.cpp:106] Creating Layer conv2_2_3x3
I1214 16:04:08.113000 13869 net.cpp:454] conv2_2_3x3 <- conv2_2_1x1_reduce
I1214 16:04:08.113015 13869 net.cpp:411] conv2_2_3x3 -> conv2_2_3x3
I1214 16:04:08.115358 13869 net.cpp:150] Setting up conv2_2_3x3
I1214 16:04:08.115376 13869 net.cpp:157] Top shape: 1 64 119 119 (906304)
I1214 16:04:08.115386 13869 net.cpp:165] Memory required for data: 350141208
I1214 16:04:08.115398 13869 layer_factory.hpp:77] Creating layer conv2_2_3x3/bn
I1214 16:04:08.115412 13869 net.cpp:106] Creating Layer conv2_2_3x3/bn
I1214 16:04:08.115422 13869 net.cpp:454] conv2_2_3x3/bn <- conv2_2_3x3
I1214 16:04:08.115445 13869 net.cpp:397] conv2_2_3x3/bn -> conv2_2_3x3 (in-place)
I1214 16:04:08.115730 13869 net.cpp:150] Setting up conv2_2_3x3/bn
I1214 16:04:08.115747 13869 net.cpp:157] Top shape: 1 64 119 119 (906304)
I1214 16:04:08.115756 13869 net.cpp:165] Memory required for data: 353766424
I1214 16:04:08.115774 13869 layer_factory.hpp:77] Creating layer conv2_2_3x3/relu
I1214 16:04:08.115787 13869 net.cpp:106] Creating Layer conv2_2_3x3/relu
I1214 16:04:08.115797 13869 net.cpp:454] conv2_2_3x3/relu <- conv2_2_3x3
I1214 16:04:08.115808 13869 net.cpp:397] conv2_2_3x3/relu -> conv2_2_3x3 (in-place)
I1214 16:04:08.115821 13869 net.cpp:150] Setting up conv2_2_3x3/relu
I1214 16:04:08.115833 13869 net.cpp:157] Top shape: 1 64 119 119 (906304)
I1214 16:04:08.115841 13869 net.cpp:165] Memory required for data: 357391640
I1214 16:04:08.115850 13869 layer_factory.hpp:77] Creating layer conv2_2_1x1_increase
I1214 16:04:08.115871 13869 net.cpp:106] Creating Layer conv2_2_1x1_increase
I1214 16:04:08.115882 13869 net.cpp:454] conv2_2_1x1_increase <- conv2_2_3x3
I1214 16:04:08.115898 13869 net.cpp:411] conv2_2_1x1_increase -> conv2_2_1x1_increase
I1214 16:04:08.117081 13869 net.cpp:150] Setting up conv2_2_1x1_increase
I1214 16:04:08.117101 13869 net.cpp:157] Top shape: 1 256 119 119 (3625216)
I1214 16:04:08.117116 13869 net.cpp:165] Memory required for data: 371892504
I1214 16:04:08.117137 13869 layer_factory.hpp:77] Creating layer conv2_2_1x1_increase/bn
I1214 16:04:08.117168 13869 net.cpp:106] Creating Layer conv2_2_1x1_increase/bn
I1214 16:04:08.117182 13869 net.cpp:454] conv2_2_1x1_increase/bn <- conv2_2_1x1_increase
I1214 16:04:08.117197 13869 net.cpp:397] conv2_2_1x1_increase/bn -> conv2_2_1x1_increase (in-place)
I1214 16:04:08.117458 13869 net.cpp:150] Setting up conv2_2_1x1_increase/bn
I1214 16:04:08.117476 13869 net.cpp:157] Top shape: 1 256 119 119 (3625216)
I1214 16:04:08.117486 13869 net.cpp:165] Memory required for data: 386393368
I1214 16:04:08.117502 13869 layer_factory.hpp:77] Creating layer conv2_2
I1214 16:04:08.117516 13869 net.cpp:106] Creating Layer conv2_2
I1214 16:04:08.117527 13869 net.cpp:454] conv2_2 <- conv2_1_conv2_1/relu_0_split_1
I1214 16:04:08.117537 13869 net.cpp:454] conv2_2 <- conv2_2_1x1_increase
I1214 16:04:08.117549 13869 net.cpp:411] conv2_2 -> conv2_2
I1214 16:04:08.117597 13869 net.cpp:150] Setting up conv2_2
I1214 16:04:08.117614 13869 net.cpp:157] Top shape: 1 256 119 119 (3625216)
I1214 16:04:08.117624 13869 net.cpp:165] Memory required for data: 400894232
I1214 16:04:08.117632 13869 layer_factory.hpp:77] Creating layer conv2_2/relu
I1214 16:04:08.117645 13869 net.cpp:106] Creating Layer conv2_2/relu
I1214 16:04:08.117655 13869 net.cpp:454] conv2_2/relu <- conv2_2
I1214 16:04:08.117669 13869 net.cpp:397] conv2_2/relu -> conv2_2 (in-place)
I1214 16:04:08.117683 13869 net.cpp:150] Setting up conv2_2/relu
I1214 16:04:08.117696 13869 net.cpp:157] Top shape: 1 256 119 119 (3625216)
I1214 16:04:08.117704 13869 net.cpp:165] Memory required for data: 415395096
I1214 16:04:08.117713 13869 layer_factory.hpp:77] Creating layer conv2_2_conv2_2/relu_0_split
I1214 16:04:08.117725 13869 net.cpp:106] Creating Layer conv2_2_conv2_2/relu_0_split
I1214 16:04:08.117734 13869 net.cpp:454] conv2_2_conv2_2/relu_0_split <- conv2_2
I1214 16:04:08.117758 13869 net.cpp:411] conv2_2_conv2_2/relu_0_split -> conv2_2_conv2_2/relu_0_split_0
I1214 16:04:08.117776 13869 net.cpp:411] conv2_2_conv2_2/relu_0_split -> conv2_2_conv2_2/relu_0_split_1
I1214 16:04:08.117828 13869 net.cpp:150] Setting up conv2_2_conv2_2/relu_0_split
I1214 16:04:08.117843 13869 net.cpp:157] Top shape: 1 256 119 119 (3625216)
I1214 16:04:08.117854 13869 net.cpp:157] Top shape: 1 256 119 119 (3625216)
I1214 16:04:08.117863 13869 net.cpp:165] Memory required for data: 444396824
I1214 16:04:08.117873 13869 layer_factory.hpp:77] Creating layer conv2_3_1x1_reduce
I1214 16:04:08.117895 13869 net.cpp:106] Creating Layer conv2_3_1x1_reduce
I1214 16:04:08.117907 13869 net.cpp:454] conv2_3_1x1_reduce <- conv2_2_conv2_2/relu_0_split_0
I1214 16:04:08.117923 13869 net.cpp:411] conv2_3_1x1_reduce -> conv2_3_1x1_reduce
I1214 16:04:08.119098 13869 net.cpp:150] Setting up conv2_3_1x1_reduce
I1214 16:04:08.119117 13869 net.cpp:157] Top shape: 1 64 119 119 (906304)
I1214 16:04:08.119127 13869 net.cpp:165] Memory required for data: 448022040
I1214 16:04:08.119138 13869 layer_factory.hpp:77] Creating layer conv2_3_1x1_reduce/bn
I1214 16:04:08.119160 13869 net.cpp:106] Creating Layer conv2_3_1x1_reduce/bn
I1214 16:04:08.119173 13869 net.cpp:454] conv2_3_1x1_reduce/bn <- conv2_3_1x1_reduce
I1214 16:04:08.119185 13869 net.cpp:397] conv2_3_1x1_reduce/bn -> conv2_3_1x1_reduce (in-place)
I1214 16:04:08.119473 13869 net.cpp:150] Setting up conv2_3_1x1_reduce/bn
I1214 16:04:08.119493 13869 net.cpp:157] Top shape: 1 64 119 119 (906304)
I1214 16:04:08.119501 13869 net.cpp:165] Memory required for data: 451647256
I1214 16:04:08.119518 13869 layer_factory.hpp:77] Creating layer conv2_3_1x1_reduce/relu
I1214 16:04:08.119530 13869 net.cpp:106] Creating Layer conv2_3_1x1_reduce/relu
I1214 16:04:08.119540 13869 net.cpp:454] conv2_3_1x1_reduce/relu <- conv2_3_1x1_reduce
I1214 16:04:08.119560 13869 net.cpp:397] conv2_3_1x1_reduce/relu -> conv2_3_1x1_reduce (in-place)
I1214 16:04:08.119575 13869 net.cpp:150] Setting up conv2_3_1x1_reduce/relu
I1214 16:04:08.119592 13869 net.cpp:157] Top shape: 1 64 119 119 (906304)
I1214 16:04:08.119609 13869 net.cpp:165] Memory required for data: 455272472
I1214 16:04:08.119618 13869 layer_factory.hpp:77] Creating layer conv2_3_3x3
I1214 16:04:08.119635 13869 net.cpp:106] Creating Layer conv2_3_3x3
I1214 16:04:08.119647 13869 net.cpp:454] conv2_3_3x3 <- conv2_3_1x1_reduce
I1214 16:04:08.119658 13869 net.cpp:411] conv2_3_3x3 -> conv2_3_3x3
I1214 16:04:08.122010 13869 net.cpp:150] Setting up conv2_3_3x3
I1214 16:04:08.122030 13869 net.cpp:157] Top shape: 1 64 119 119 (906304)
I1214 16:04:08.122040 13869 net.cpp:165] Memory required for data: 458897688
I1214 16:04:08.122052 13869 layer_factory.hpp:77] Creating layer conv2_3_3x3/bn
I1214 16:04:08.122066 13869 net.cpp:106] Creating Layer conv2_3_3x3/bn
I1214 16:04:08.122076 13869 net.cpp:454] conv2_3_3x3/bn <- conv2_3_3x3
I1214 16:04:08.122107 13869 net.cpp:397] conv2_3_3x3/bn -> conv2_3_3x3 (in-place)
I1214 16:04:08.122401 13869 net.cpp:150] Setting up conv2_3_3x3/bn
I1214 16:04:08.122419 13869 net.cpp:157] Top shape: 1 64 119 119 (906304)
I1214 16:04:08.122428 13869 net.cpp:165] Memory required for data: 462522904
I1214 16:04:08.122445 13869 layer_factory.hpp:77] Creating layer conv2_3_3x3/relu
I1214 16:04:08.122457 13869 net.cpp:106] Creating Layer conv2_3_3x3/relu
I1214 16:04:08.122467 13869 net.cpp:454] conv2_3_3x3/relu <- conv2_3_3x3
I1214 16:04:08.122484 13869 net.cpp:397] conv2_3_3x3/relu -> conv2_3_3x3 (in-place)
I1214 16:04:08.122500 13869 net.cpp:150] Setting up conv2_3_3x3/relu
I1214 16:04:08.122512 13869 net.cpp:157] Top shape: 1 64 119 119 (906304)
I1214 16:04:08.122521 13869 net.cpp:165] Memory required for data: 466148120
I1214 16:04:08.122530 13869 layer_factory.hpp:77] Creating layer conv2_3_1x1_increase
I1214 16:04:08.122546 13869 net.cpp:106] Creating Layer conv2_3_1x1_increase
I1214 16:04:08.122557 13869 net.cpp:454] conv2_3_1x1_increase <- conv2_3_3x3
I1214 16:04:08.122570 13869 net.cpp:411] conv2_3_1x1_increase -> conv2_3_1x1_increase
I1214 16:04:08.123738 13869 net.cpp:150] Setting up conv2_3_1x1_increase
I1214 16:04:08.123755 13869 net.cpp:157] Top shape: 1 256 119 119 (3625216)
I1214 16:04:08.123765 13869 net.cpp:165] Memory required for data: 480648984
I1214 16:04:08.123777 13869 layer_factory.hpp:77] Creating layer conv2_3_1x1_increase/bn
I1214 16:04:08.123797 13869 net.cpp:106] Creating Layer conv2_3_1x1_increase/bn
I1214 16:04:08.123808 13869 net.cpp:454] conv2_3_1x1_increase/bn <- conv2_3_1x1_increase
I1214 16:04:08.123822 13869 net.cpp:397] conv2_3_1x1_increase/bn -> conv2_3_1x1_increase (in-place)
I1214 16:04:08.124081 13869 net.cpp:150] Setting up conv2_3_1x1_increase/bn
I1214 16:04:08.124099 13869 net.cpp:157] Top shape: 1 256 119 119 (3625216)
I1214 16:04:08.124109 13869 net.cpp:165] Memory required for data: 495149848
I1214 16:04:08.124136 13869 layer_factory.hpp:77] Creating layer conv2_3
I1214 16:04:08.124160 13869 net.cpp:106] Creating Layer conv2_3
I1214 16:04:08.124172 13869 net.cpp:454] conv2_3 <- conv2_2_conv2_2/relu_0_split_1
I1214 16:04:08.124184 13869 net.cpp:454] conv2_3 <- conv2_3_1x1_increase
I1214 16:04:08.124197 13869 net.cpp:411] conv2_3 -> conv2_3
I1214 16:04:08.124231 13869 net.cpp:150] Setting up conv2_3
I1214 16:04:08.124246 13869 net.cpp:157] Top shape: 1 256 119 119 (3625216)
I1214 16:04:08.124255 13869 net.cpp:165] Memory required for data: 509650712
I1214 16:04:08.124264 13869 layer_factory.hpp:77] Creating layer conv2_3/relu
I1214 16:04:08.124282 13869 net.cpp:106] Creating Layer conv2_3/relu
I1214 16:04:08.124294 13869 net.cpp:454] conv2_3/relu <- conv2_3
I1214 16:04:08.124307 13869 net.cpp:397] conv2_3/relu -> conv2_3 (in-place)
I1214 16:04:08.124321 13869 net.cpp:150] Setting up conv2_3/relu
I1214 16:04:08.124333 13869 net.cpp:157] Top shape: 1 256 119 119 (3625216)
I1214 16:04:08.124342 13869 net.cpp:165] Memory required for data: 524151576
I1214 16:04:08.124351 13869 layer_factory.hpp:77] Creating layer conv2_3_conv2_3/relu_0_split
I1214 16:04:08.124362 13869 net.cpp:106] Creating Layer conv2_3_conv2_3/relu_0_split
I1214 16:04:08.124377 13869 net.cpp:454] conv2_3_conv2_3/relu_0_split <- conv2_3
I1214 16:04:08.124397 13869 net.cpp:411] conv2_3_conv2_3/relu_0_split -> conv2_3_conv2_3/relu_0_split_0
I1214 16:04:08.124411 13869 net.cpp:411] conv2_3_conv2_3/relu_0_split -> conv2_3_conv2_3/relu_0_split_1
I1214 16:04:08.124467 13869 net.cpp:150] Setting up conv2_3_conv2_3/relu_0_split
I1214 16:04:08.124483 13869 net.cpp:157] Top shape: 1 256 119 119 (3625216)
I1214 16:04:08.124495 13869 net.cpp:157] Top shape: 1 256 119 119 (3625216)
I1214 16:04:08.124503 13869 net.cpp:165] Memory required for data: 553153304
I1214 16:04:08.124512 13869 layer_factory.hpp:77] Creating layer conv3_1_1x1_reduce
I1214 16:04:08.124532 13869 net.cpp:106] Creating Layer conv3_1_1x1_reduce
I1214 16:04:08.124544 13869 net.cpp:454] conv3_1_1x1_reduce <- conv2_3_conv2_3/relu_0_split_0
I1214 16:04:08.124564 13869 net.cpp:411] conv3_1_1x1_reduce -> conv3_1_1x1_reduce
I1214 16:04:08.126659 13869 net.cpp:150] Setting up conv3_1_1x1_reduce
I1214 16:04:08.126677 13869 net.cpp:157] Top shape: 1 128 60 60 (460800)
I1214 16:04:08.126688 13869 net.cpp:165] Memory required for data: 554996504
I1214 16:04:08.126699 13869 layer_factory.hpp:77] Creating layer conv3_1_1x1_reduce/bn
I1214 16:04:08.126714 13869 net.cpp:106] Creating Layer conv3_1_1x1_reduce/bn
I1214 16:04:08.126724 13869 net.cpp:454] conv3_1_1x1_reduce/bn <- conv3_1_1x1_reduce
I1214 16:04:08.126742 13869 net.cpp:397] conv3_1_1x1_reduce/bn -> conv3_1_1x1_reduce (in-place)
I1214 16:04:08.126999 13869 net.cpp:150] Setting up conv3_1_1x1_reduce/bn
I1214 16:04:08.127017 13869 net.cpp:157] Top shape: 1 128 60 60 (460800)
I1214 16:04:08.127027 13869 net.cpp:165] Memory required for data: 556839704
I1214 16:04:08.127043 13869 layer_factory.hpp:77] Creating layer conv3_1_1x1_reduce/relu
I1214 16:04:08.127061 13869 net.cpp:106] Creating Layer conv3_1_1x1_reduce/relu
I1214 16:04:08.127073 13869 net.cpp:454] conv3_1_1x1_reduce/relu <- conv3_1_1x1_reduce
I1214 16:04:08.127085 13869 net.cpp:397] conv3_1_1x1_reduce/relu -> conv3_1_1x1_reduce (in-place)
I1214 16:04:08.127099 13869 net.cpp:150] Setting up conv3_1_1x1_reduce/relu
I1214 16:04:08.127110 13869 net.cpp:157] Top shape: 1 128 60 60 (460800)
I1214 16:04:08.127120 13869 net.cpp:165] Memory required for data: 558682904
I1214 16:04:08.127130 13869 layer_factory.hpp:77] Creating layer conv3_1_3x3
I1214 16:04:08.127143 13869 net.cpp:106] Creating Layer conv3_1_3x3
I1214 16:04:08.127152 13869 net.cpp:454] conv3_1_3x3 <- conv3_1_1x1_reduce
I1214 16:04:08.127171 13869 net.cpp:411] conv3_1_3x3 -> conv3_1_3x3
I1214 16:04:08.136109 13869 net.cpp:150] Setting up conv3_1_3x3
I1214 16:04:08.136131 13869 net.cpp:157] Top shape: 1 128 60 60 (460800)
I1214 16:04:08.136140 13869 net.cpp:165] Memory required for data: 560526104
I1214 16:04:08.136158 13869 layer_factory.hpp:77] Creating layer conv3_1_3x3/bn
I1214 16:04:08.136189 13869 net.cpp:106] Creating Layer conv3_1_3x3/bn
I1214 16:04:08.136204 13869 net.cpp:454] conv3_1_3x3/bn <- conv3_1_3x3
I1214 16:04:08.136216 13869 net.cpp:397] conv3_1_3x3/bn -> conv3_1_3x3 (in-place)
I1214 16:04:08.136477 13869 net.cpp:150] Setting up conv3_1_3x3/bn
I1214 16:04:08.136495 13869 net.cpp:157] Top shape: 1 128 60 60 (460800)
I1214 16:04:08.136504 13869 net.cpp:165] Memory required for data: 562369304
I1214 16:04:08.136521 13869 layer_factory.hpp:77] Creating layer conv3_1_3x3/relu
I1214 16:04:08.136534 13869 net.cpp:106] Creating Layer conv3_1_3x3/relu
I1214 16:04:08.136544 13869 net.cpp:454] conv3_1_3x3/relu <- conv3_1_3x3
I1214 16:04:08.136556 13869 net.cpp:397] conv3_1_3x3/relu -> conv3_1_3x3 (in-place)
I1214 16:04:08.136569 13869 net.cpp:150] Setting up conv3_1_3x3/relu
I1214 16:04:08.136581 13869 net.cpp:157] Top shape: 1 128 60 60 (460800)
I1214 16:04:08.136590 13869 net.cpp:165] Memory required for data: 564212504
I1214 16:04:08.136600 13869 layer_factory.hpp:77] Creating layer conv3_1_1x1_increase
I1214 16:04:08.136627 13869 net.cpp:106] Creating Layer conv3_1_1x1_increase
I1214 16:04:08.136641 13869 net.cpp:454] conv3_1_1x1_increase <- conv3_1_3x3
I1214 16:04:08.136663 13869 net.cpp:411] conv3_1_1x1_increase -> conv3_1_1x1_increase
I1214 16:04:08.140666 13869 net.cpp:150] Setting up conv3_1_1x1_increase
I1214 16:04:08.140686 13869 net.cpp:157] Top shape: 1 512 60 60 (1843200)
I1214 16:04:08.140694 13869 net.cpp:165] Memory required for data: 571585304
I1214 16:04:08.140707 13869 layer_factory.hpp:77] Creating layer conv3_1_1x1_increase/bn
I1214 16:04:08.140722 13869 net.cpp:106] Creating Layer conv3_1_1x1_increase/bn
I1214 16:04:08.140732 13869 net.cpp:454] conv3_1_1x1_increase/bn <- conv3_1_1x1_increase
I1214 16:04:08.140750 13869 net.cpp:397] conv3_1_1x1_increase/bn -> conv3_1_1x1_increase (in-place)
I1214 16:04:08.141641 13869 net.cpp:150] Setting up conv3_1_1x1_increase/bn
I1214 16:04:08.141661 13869 net.cpp:157] Top shape: 1 512 60 60 (1843200)
I1214 16:04:08.141671 13869 net.cpp:165] Memory required for data: 578958104
I1214 16:04:08.141690 13869 layer_factory.hpp:77] Creating layer conv3_1_1x1_proj
I1214 16:04:08.141705 13869 net.cpp:106] Creating Layer conv3_1_1x1_proj
I1214 16:04:08.141716 13869 net.cpp:454] conv3_1_1x1_proj <- conv2_3_conv2_3/relu_0_split_1
I1214 16:04:08.141734 13869 net.cpp:411] conv3_1_1x1_proj -> conv3_1_1x1_proj
I1214 16:04:08.150121 13869 net.cpp:150] Setting up conv3_1_1x1_proj
I1214 16:04:08.150143 13869 net.cpp:157] Top shape: 1 512 60 60 (1843200)
I1214 16:04:08.150153 13869 net.cpp:165] Memory required for data: 586330904
I1214 16:04:08.150166 13869 layer_factory.hpp:77] Creating layer conv3_1_1x1_proj/bn
I1214 16:04:08.150180 13869 net.cpp:106] Creating Layer conv3_1_1x1_proj/bn
I1214 16:04:08.150190 13869 net.cpp:454] conv3_1_1x1_proj/bn <- conv3_1_1x1_proj
I1214 16:04:08.150209 13869 net.cpp:397] conv3_1_1x1_proj/bn -> conv3_1_1x1_proj (in-place)
I1214 16:04:08.150473 13869 net.cpp:150] Setting up conv3_1_1x1_proj/bn
I1214 16:04:08.150490 13869 net.cpp:157] Top shape: 1 512 60 60 (1843200)
I1214 16:04:08.150499 13869 net.cpp:165] Memory required for data: 593703704
I1214 16:04:08.150517 13869 layer_factory.hpp:77] Creating layer conv3_1
I1214 16:04:08.150535 13869 net.cpp:106] Creating Layer conv3_1
I1214 16:04:08.150547 13869 net.cpp:454] conv3_1 <- conv3_1_1x1_proj
I1214 16:04:08.150557 13869 net.cpp:454] conv3_1 <- conv3_1_1x1_increase
I1214 16:04:08.150569 13869 net.cpp:411] conv3_1 -> conv3_1
I1214 16:04:08.150614 13869 net.cpp:150] Setting up conv3_1
I1214 16:04:08.150630 13869 net.cpp:157] Top shape: 1 512 60 60 (1843200)
I1214 16:04:08.150640 13869 net.cpp:165] Memory required for data: 601076504
I1214 16:04:08.150648 13869 layer_factory.hpp:77] Creating layer conv3_1/relu
I1214 16:04:08.150660 13869 net.cpp:106] Creating Layer conv3_1/relu
I1214 16:04:08.150670 13869 net.cpp:454] conv3_1/relu <- conv3_1
I1214 16:04:08.150683 13869 net.cpp:397] conv3_1/relu -> conv3_1 (in-place)
I1214 16:04:08.150698 13869 net.cpp:150] Setting up conv3_1/relu
I1214 16:04:08.150709 13869 net.cpp:157] Top shape: 1 512 60 60 (1843200)
I1214 16:04:08.150718 13869 net.cpp:165] Memory required for data: 608449304
I1214 16:04:08.150727 13869 layer_factory.hpp:77] Creating layer conv3_1_conv3_1/relu_0_split
I1214 16:04:08.150738 13869 net.cpp:106] Creating Layer conv3_1_conv3_1/relu_0_split
I1214 16:04:08.150748 13869 net.cpp:454] conv3_1_conv3_1/relu_0_split <- conv3_1
I1214 16:04:08.150766 13869 net.cpp:411] conv3_1_conv3_1/relu_0_split -> conv3_1_conv3_1/relu_0_split_0
I1214 16:04:08.150782 13869 net.cpp:411] conv3_1_conv3_1/relu_0_split -> conv3_1_conv3_1/relu_0_split_1
I1214 16:04:08.150833 13869 net.cpp:150] Setting up conv3_1_conv3_1/relu_0_split
I1214 16:04:08.150848 13869 net.cpp:157] Top shape: 1 512 60 60 (1843200)
I1214 16:04:08.150861 13869 net.cpp:157] Top shape: 1 512 60 60 (1843200)
I1214 16:04:08.150869 13869 net.cpp:165] Memory required for data: 623194904
I1214 16:04:08.150878 13869 layer_factory.hpp:77] Creating layer conv3_2_1x1_reduce
I1214 16:04:08.150898 13869 net.cpp:106] Creating Layer conv3_2_1x1_reduce
I1214 16:04:08.150910 13869 net.cpp:454] conv3_2_1x1_reduce <- conv3_1_conv3_1/relu_0_split_0
I1214 16:04:08.150926 13869 net.cpp:411] conv3_2_1x1_reduce -> conv3_2_1x1_reduce
I1214 16:04:08.155743 13869 net.cpp:150] Setting up conv3_2_1x1_reduce
I1214 16:04:08.155764 13869 net.cpp:157] Top shape: 1 128 60 60 (460800)
I1214 16:04:08.155774 13869 net.cpp:165] Memory required for data: 625038104
I1214 16:04:08.155786 13869 layer_factory.hpp:77] Creating layer conv3_2_1x1_reduce/bn
I1214 16:04:08.155810 13869 net.cpp:106] Creating Layer conv3_2_1x1_reduce/bn
I1214 16:04:08.155822 13869 net.cpp:454] conv3_2_1x1_reduce/bn <- conv3_2_1x1_reduce
I1214 16:04:08.155836 13869 net.cpp:397] conv3_2_1x1_reduce/bn -> conv3_2_1x1_reduce (in-place)
I1214 16:04:08.156098 13869 net.cpp:150] Setting up conv3_2_1x1_reduce/bn
I1214 16:04:08.156116 13869 net.cpp:157] Top shape: 1 128 60 60 (460800)
I1214 16:04:08.156126 13869 net.cpp:165] Memory required for data: 626881304
I1214 16:04:08.156142 13869 layer_factory.hpp:77] Creating layer conv3_2_1x1_reduce/relu
I1214 16:04:08.156162 13869 net.cpp:106] Creating Layer conv3_2_1x1_reduce/relu
I1214 16:04:08.156173 13869 net.cpp:454] conv3_2_1x1_reduce/relu <- conv3_2_1x1_reduce
I1214 16:04:08.156185 13869 net.cpp:397] conv3_2_1x1_reduce/relu -> conv3_2_1x1_reduce (in-place)
I1214 16:04:08.156199 13869 net.cpp:150] Setting up conv3_2_1x1_reduce/relu
I1214 16:04:08.156211 13869 net.cpp:157] Top shape: 1 128 60 60 (460800)
I1214 16:04:08.156220 13869 net.cpp:165] Memory required for data: 628724504
I1214 16:04:08.156229 13869 layer_factory.hpp:77] Creating layer conv3_2_3x3
I1214 16:04:08.156250 13869 net.cpp:106] Creating Layer conv3_2_3x3
I1214 16:04:08.156260 13869 net.cpp:454] conv3_2_3x3 <- conv3_2_1x1_reduce
I1214 16:04:08.156276 13869 net.cpp:411] conv3_2_3x3 -> conv3_2_3x3
I1214 16:04:08.165658 13869 net.cpp:150] Setting up conv3_2_3x3
I1214 16:04:08.165679 13869 net.cpp:157] Top shape: 1 128 60 60 (460800)
I1214 16:04:08.165689 13869 net.cpp:165] Memory required for data: 630567704
I1214 16:04:08.165701 13869 layer_factory.hpp:77] Creating layer conv3_2_3x3/bn
I1214 16:04:08.165724 13869 net.cpp:106] Creating Layer conv3_2_3x3/bn
I1214 16:04:08.165737 13869 net.cpp:454] conv3_2_3x3/bn <- conv3_2_3x3
I1214 16:04:08.165755 13869 net.cpp:397] conv3_2_3x3/bn -> conv3_2_3x3 (in-place)
I1214 16:04:08.166019 13869 net.cpp:150] Setting up conv3_2_3x3/bn
I1214 16:04:08.166038 13869 net.cpp:157] Top shape: 1 128 60 60 (460800)
I1214 16:04:08.166046 13869 net.cpp:165] Memory required for data: 632410904
I1214 16:04:08.166064 13869 layer_factory.hpp:77] Creating layer conv3_2_3x3/relu
I1214 16:04:08.166084 13869 net.cpp:106] Creating Layer conv3_2_3x3/relu
I1214 16:04:08.166095 13869 net.cpp:454] conv3_2_3x3/relu <- conv3_2_3x3
I1214 16:04:08.166106 13869 net.cpp:397] conv3_2_3x3/relu -> conv3_2_3x3 (in-place)
I1214 16:04:08.166119 13869 net.cpp:150] Setting up conv3_2_3x3/relu
I1214 16:04:08.166132 13869 net.cpp:157] Top shape: 1 128 60 60 (460800)
I1214 16:04:08.166141 13869 net.cpp:165] Memory required for data: 634254104
I1214 16:04:08.166151 13869 layer_factory.hpp:77] Creating layer conv3_2_1x1_increase
I1214 16:04:08.166164 13869 net.cpp:106] Creating Layer conv3_2_1x1_increase
I1214 16:04:08.166174 13869 net.cpp:454] conv3_2_1x1_increase <- conv3_2_3x3
I1214 16:04:08.166190 13869 net.cpp:411] conv3_2_1x1_increase -> conv3_2_1x1_increase
I1214 16:04:08.170187 13869 net.cpp:150] Setting up conv3_2_1x1_increase
I1214 16:04:08.170207 13869 net.cpp:157] Top shape: 1 512 60 60 (1843200)
I1214 16:04:08.170217 13869 net.cpp:165] Memory required for data: 641626904
I1214 16:04:08.170229 13869 layer_factory.hpp:77] Creating layer conv3_2_1x1_increase/bn
I1214 16:04:08.170248 13869 net.cpp:106] Creating Layer conv3_2_1x1_increase/bn
I1214 16:04:08.170258 13869 net.cpp:454] conv3_2_1x1_increase/bn <- conv3_2_1x1_increase
I1214 16:04:08.170272 13869 net.cpp:397] conv3_2_1x1_increase/bn -> conv3_2_1x1_increase (in-place)
I1214 16:04:08.170536 13869 net.cpp:150] Setting up conv3_2_1x1_increase/bn
I1214 16:04:08.170553 13869 net.cpp:157] Top shape: 1 512 60 60 (1843200)
I1214 16:04:08.170562 13869 net.cpp:165] Memory required for data: 648999704
I1214 16:04:08.170584 13869 layer_factory.hpp:77] Creating layer conv3_2
I1214 16:04:08.170608 13869 net.cpp:106] Creating Layer conv3_2
I1214 16:04:08.170617 13869 net.cpp:454] conv3_2 <- conv3_1_conv3_1/relu_0_split_1
I1214 16:04:08.170629 13869 net.cpp:454] conv3_2 <- conv3_2_1x1_increase
I1214 16:04:08.170640 13869 net.cpp:411] conv3_2 -> conv3_2
I1214 16:04:08.170681 13869 net.cpp:150] Setting up conv3_2
I1214 16:04:08.170697 13869 net.cpp:157] Top shape: 1 512 60 60 (1843200)
I1214 16:04:08.170706 13869 net.cpp:165] Memory required for data: 656372504
I1214 16:04:08.170716 13869 layer_factory.hpp:77] Creating layer conv3_2/relu
I1214 16:04:08.170729 13869 net.cpp:106] Creating Layer conv3_2/relu
I1214 16:04:08.170739 13869 net.cpp:454] conv3_2/relu <- conv3_2
I1214 16:04:08.170750 13869 net.cpp:397] conv3_2/relu -> conv3_2 (in-place)
I1214 16:04:08.170764 13869 net.cpp:150] Setting up conv3_2/relu
I1214 16:04:08.170776 13869 net.cpp:157] Top shape: 1 512 60 60 (1843200)
I1214 16:04:08.170784 13869 net.cpp:165] Memory required for data: 663745304
I1214 16:04:08.170794 13869 layer_factory.hpp:77] Creating layer conv3_2_conv3_2/relu_0_split
I1214 16:04:08.170805 13869 net.cpp:106] Creating Layer conv3_2_conv3_2/relu_0_split
I1214 16:04:08.170814 13869 net.cpp:454] conv3_2_conv3_2/relu_0_split <- conv3_2
I1214 16:04:08.170830 13869 net.cpp:411] conv3_2_conv3_2/relu_0_split -> conv3_2_conv3_2/relu_0_split_0
I1214 16:04:08.170846 13869 net.cpp:411] conv3_2_conv3_2/relu_0_split -> conv3_2_conv3_2/relu_0_split_1
I1214 16:04:08.170898 13869 net.cpp:150] Setting up conv3_2_conv3_2/relu_0_split
I1214 16:04:08.170914 13869 net.cpp:157] Top shape: 1 512 60 60 (1843200)
I1214 16:04:08.170925 13869 net.cpp:157] Top shape: 1 512 60 60 (1843200)
I1214 16:04:08.170934 13869 net.cpp:165] Memory required for data: 678490904
I1214 16:04:08.170943 13869 layer_factory.hpp:77] Creating layer conv3_3_1x1_reduce
I1214 16:04:08.170964 13869 net.cpp:106] Creating Layer conv3_3_1x1_reduce
I1214 16:04:08.170975 13869 net.cpp:454] conv3_3_1x1_reduce <- conv3_2_conv3_2/relu_0_split_0
I1214 16:04:08.170989 13869 net.cpp:411] conv3_3_1x1_reduce -> conv3_3_1x1_reduce
I1214 16:04:08.175153 13869 net.cpp:150] Setting up conv3_3_1x1_reduce
I1214 16:04:08.175173 13869 net.cpp:157] Top shape: 1 128 60 60 (460800)
I1214 16:04:08.175181 13869 net.cpp:165] Memory required for data: 680334104
I1214 16:04:08.175194 13869 layer_factory.hpp:77] Creating layer conv3_3_1x1_reduce/bn
I1214 16:04:08.175212 13869 net.cpp:106] Creating Layer conv3_3_1x1_reduce/bn
I1214 16:04:08.175223 13869 net.cpp:454] conv3_3_1x1_reduce/bn <- conv3_3_1x1_reduce
I1214 16:04:08.175237 13869 net.cpp:397] conv3_3_1x1_reduce/bn -> conv3_3_1x1_reduce (in-place)
I1214 16:04:08.175504 13869 net.cpp:150] Setting up conv3_3_1x1_reduce/bn
I1214 16:04:08.175523 13869 net.cpp:157] Top shape: 1 128 60 60 (460800)
I1214 16:04:08.175531 13869 net.cpp:165] Memory required for data: 682177304
I1214 16:04:08.175549 13869 layer_factory.hpp:77] Creating layer conv3_3_1x1_reduce/relu
I1214 16:04:08.175561 13869 net.cpp:106] Creating Layer conv3_3_1x1_reduce/relu
I1214 16:04:08.175570 13869 net.cpp:454] conv3_3_1x1_reduce/relu <- conv3_3_1x1_reduce
I1214 16:04:08.175582 13869 net.cpp:397] conv3_3_1x1_reduce/relu -> conv3_3_1x1_reduce (in-place)
I1214 16:04:08.175596 13869 net.cpp:150] Setting up conv3_3_1x1_reduce/relu
I1214 16:04:08.175608 13869 net.cpp:157] Top shape: 1 128 60 60 (460800)
I1214 16:04:08.175616 13869 net.cpp:165] Memory required for data: 684020504
I1214 16:04:08.175626 13869 layer_factory.hpp:77] Creating layer conv3_3_3x3
I1214 16:04:08.175645 13869 net.cpp:106] Creating Layer conv3_3_3x3
I1214 16:04:08.175657 13869 net.cpp:454] conv3_3_3x3 <- conv3_3_1x1_reduce
I1214 16:04:08.175669 13869 net.cpp:411] conv3_3_3x3 -> conv3_3_3x3
I1214 16:04:08.185221 13869 net.cpp:150] Setting up conv3_3_3x3
I1214 16:04:08.185241 13869 net.cpp:157] Top shape: 1 128 60 60 (460800)
I1214 16:04:08.185251 13869 net.cpp:165] Memory required for data: 685863704
I1214 16:04:08.185263 13869 layer_factory.hpp:77] Creating layer conv3_3_3x3/bn
I1214 16:04:08.185294 13869 net.cpp:106] Creating Layer conv3_3_3x3/bn
I1214 16:04:08.185307 13869 net.cpp:454] conv3_3_3x3/bn <- conv3_3_3x3
I1214 16:04:08.185320 13869 net.cpp:397] conv3_3_3x3/bn -> conv3_3_3x3 (in-place)
I1214 16:04:08.185588 13869 net.cpp:150] Setting up conv3_3_3x3/bn
I1214 16:04:08.185606 13869 net.cpp:157] Top shape: 1 128 60 60 (460800)
I1214 16:04:08.185616 13869 net.cpp:165] Memory required for data: 687706904
I1214 16:04:08.185631 13869 layer_factory.hpp:77] Creating layer conv3_3_3x3/relu
I1214 16:04:08.185644 13869 net.cpp:106] Creating Layer conv3_3_3x3/relu
I1214 16:04:08.185653 13869 net.cpp:454] conv3_3_3x3/relu <- conv3_3_3x3
I1214 16:04:08.185665 13869 net.cpp:397] conv3_3_3x3/relu -> conv3_3_3x3 (in-place)
I1214 16:04:08.185679 13869 net.cpp:150] Setting up conv3_3_3x3/relu
I1214 16:04:08.185691 13869 net.cpp:157] Top shape: 1 128 60 60 (460800)
I1214 16:04:08.185699 13869 net.cpp:165] Memory required for data: 689550104
I1214 16:04:08.185708 13869 layer_factory.hpp:77] Creating layer conv3_3_1x1_increase
I1214 16:04:08.185727 13869 net.cpp:106] Creating Layer conv3_3_1x1_increase
I1214 16:04:08.185739 13869 net.cpp:454] conv3_3_1x1_increase <- conv3_3_3x3
I1214 16:04:08.185751 13869 net.cpp:411] conv3_3_1x1_increase -> conv3_3_1x1_increase
I1214 16:04:08.189739 13869 net.cpp:150] Setting up conv3_3_1x1_increase
I1214 16:04:08.189759 13869 net.cpp:157] Top shape: 1 512 60 60 (1843200)
I1214 16:04:08.189769 13869 net.cpp:165] Memory required for data: 696922904
I1214 16:04:08.189780 13869 layer_factory.hpp:77] Creating layer conv3_3_1x1_increase/bn
I1214 16:04:08.189798 13869 net.cpp:106] Creating Layer conv3_3_1x1_increase/bn
I1214 16:04:08.189810 13869 net.cpp:454] conv3_3_1x1_increase/bn <- conv3_3_1x1_increase
I1214 16:04:08.189824 13869 net.cpp:397] conv3_3_1x1_increase/bn -> conv3_3_1x1_increase (in-place)
I1214 16:04:08.190089 13869 net.cpp:150] Setting up conv3_3_1x1_increase/bn
I1214 16:04:08.190106 13869 net.cpp:157] Top shape: 1 512 60 60 (1843200)
I1214 16:04:08.190115 13869 net.cpp:165] Memory required for data: 704295704
I1214 16:04:08.190132 13869 layer_factory.hpp:77] Creating layer conv3_3
I1214 16:04:08.190145 13869 net.cpp:106] Creating Layer conv3_3
I1214 16:04:08.190155 13869 net.cpp:454] conv3_3 <- conv3_2_conv3_2/relu_0_split_1
I1214 16:04:08.190165 13869 net.cpp:454] conv3_3 <- conv3_3_1x1_increase
I1214 16:04:08.190182 13869 net.cpp:411] conv3_3 -> conv3_3
I1214 16:04:08.190219 13869 net.cpp:150] Setting up conv3_3
I1214 16:04:08.190237 13869 net.cpp:157] Top shape: 1 512 60 60 (1843200)
I1214 16:04:08.190245 13869 net.cpp:165] Memory required for data: 711668504
I1214 16:04:08.190255 13869 layer_factory.hpp:77] Creating layer conv3_3/relu
I1214 16:04:08.190266 13869 net.cpp:106] Creating Layer conv3_3/relu
I1214 16:04:08.190276 13869 net.cpp:454] conv3_3/relu <- conv3_3
I1214 16:04:08.190287 13869 net.cpp:397] conv3_3/relu -> conv3_3 (in-place)
I1214 16:04:08.190300 13869 net.cpp:150] Setting up conv3_3/relu
I1214 16:04:08.190312 13869 net.cpp:157] Top shape: 1 512 60 60 (1843200)
I1214 16:04:08.190321 13869 net.cpp:165] Memory required for data: 719041304
I1214 16:04:08.190330 13869 layer_factory.hpp:77] Creating layer conv3_3_conv3_3/relu_0_split
I1214 16:04:08.190346 13869 net.cpp:106] Creating Layer conv3_3_conv3_3/relu_0_split
I1214 16:04:08.190357 13869 net.cpp:454] conv3_3_conv3_3/relu_0_split <- conv3_3
I1214 16:04:08.190369 13869 net.cpp:411] conv3_3_conv3_3/relu_0_split -> conv3_3_conv3_3/relu_0_split_0
I1214 16:04:08.190383 13869 net.cpp:411] conv3_3_conv3_3/relu_0_split -> conv3_3_conv3_3/relu_0_split_1
I1214 16:04:08.190441 13869 net.cpp:150] Setting up conv3_3_conv3_3/relu_0_split
I1214 16:04:08.190457 13869 net.cpp:157] Top shape: 1 512 60 60 (1843200)
I1214 16:04:08.190469 13869 net.cpp:157] Top shape: 1 512 60 60 (1843200)
I1214 16:04:08.190477 13869 net.cpp:165] Memory required for data: 733786904
I1214 16:04:08.190486 13869 layer_factory.hpp:77] Creating layer conv3_4_1x1_reduce
I1214 16:04:08.190508 13869 net.cpp:106] Creating Layer conv3_4_1x1_reduce
I1214 16:04:08.190527 13869 net.cpp:454] conv3_4_1x1_reduce <- conv3_3_conv3_3/relu_0_split_0
I1214 16:04:08.190546 13869 net.cpp:411] conv3_4_1x1_reduce -> conv3_4_1x1_reduce
I1214 16:04:08.195166 13869 net.cpp:150] Setting up conv3_4_1x1_reduce
I1214 16:04:08.195186 13869 net.cpp:157] Top shape: 1 128 60 60 (460800)
I1214 16:04:08.195196 13869 net.cpp:165] Memory required for data: 735630104
I1214 16:04:08.195209 13869 layer_factory.hpp:77] Creating layer conv3_4_1x1_reduce/bn
I1214 16:04:08.195224 13869 net.cpp:106] Creating Layer conv3_4_1x1_reduce/bn
I1214 16:04:08.195233 13869 net.cpp:454] conv3_4_1x1_reduce/bn <- conv3_4_1x1_reduce
I1214 16:04:08.195253 13869 net.cpp:397] conv3_4_1x1_reduce/bn -> conv3_4_1x1_reduce (in-place)
I1214 16:04:08.195519 13869 net.cpp:150] Setting up conv3_4_1x1_reduce/bn
I1214 16:04:08.195536 13869 net.cpp:157] Top shape: 1 128 60 60 (460800)
I1214 16:04:08.195545 13869 net.cpp:165] Memory required for data: 737473304
I1214 16:04:08.195562 13869 layer_factory.hpp:77] Creating layer conv3_4_1x1_reduce/relu
I1214 16:04:08.195580 13869 net.cpp:106] Creating Layer conv3_4_1x1_reduce/relu
I1214 16:04:08.195590 13869 net.cpp:454] conv3_4_1x1_reduce/relu <- conv3_4_1x1_reduce
I1214 16:04:08.195603 13869 net.cpp:397] conv3_4_1x1_reduce/relu -> conv3_4_1x1_reduce (in-place)
I1214 16:04:08.195617 13869 net.cpp:150] Setting up conv3_4_1x1_reduce/relu
I1214 16:04:08.195629 13869 net.cpp:157] Top shape: 1 128 60 60 (460800)
I1214 16:04:08.195638 13869 net.cpp:165] Memory required for data: 739316504
I1214 16:04:08.195647 13869 layer_factory.hpp:77] Creating layer conv3_4_3x3
I1214 16:04:08.195662 13869 net.cpp:106] Creating Layer conv3_4_3x3
I1214 16:04:08.195672 13869 net.cpp:454] conv3_4_3x3 <- conv3_4_1x1_reduce
I1214 16:04:08.195688 13869 net.cpp:411] conv3_4_3x3 -> conv3_4_3x3
I1214 16:04:08.205018 13869 net.cpp:150] Setting up conv3_4_3x3
I1214 16:04:08.205037 13869 net.cpp:157] Top shape: 1 128 60 60 (460800)
I1214 16:04:08.205047 13869 net.cpp:165] Memory required for data: 741159704
I1214 16:04:08.205060 13869 layer_factory.hpp:77] Creating layer conv3_4_3x3/bn
I1214 16:04:08.205075 13869 net.cpp:106] Creating Layer conv3_4_3x3/bn
I1214 16:04:08.205085 13869 net.cpp:454] conv3_4_3x3/bn <- conv3_4_3x3
I1214 16:04:08.205102 13869 net.cpp:397] conv3_4_3x3/bn -> conv3_4_3x3 (in-place)
I1214 16:04:08.205374 13869 net.cpp:150] Setting up conv3_4_3x3/bn
I1214 16:04:08.205390 13869 net.cpp:157] Top shape: 1 128 60 60 (460800)
I1214 16:04:08.205399 13869 net.cpp:165] Memory required for data: 743002904
I1214 16:04:08.205416 13869 layer_factory.hpp:77] Creating layer conv3_4_3x3/relu
I1214 16:04:08.205433 13869 net.cpp:106] Creating Layer conv3_4_3x3/relu
I1214 16:04:08.205445 13869 net.cpp:454] conv3_4_3x3/relu <- conv3_4_3x3
I1214 16:04:08.205456 13869 net.cpp:397] conv3_4_3x3/relu -> conv3_4_3x3 (in-place)
I1214 16:04:08.205471 13869 net.cpp:150] Setting up conv3_4_3x3/relu
I1214 16:04:08.205482 13869 net.cpp:157] Top shape: 1 128 60 60 (460800)
I1214 16:04:08.205490 13869 net.cpp:165] Memory required for data: 744846104
I1214 16:04:08.205499 13869 layer_factory.hpp:77] Creating layer conv3_4_1x1_increase
I1214 16:04:08.205514 13869 net.cpp:106] Creating Layer conv3_4_1x1_increase
I1214 16:04:08.205524 13869 net.cpp:454] conv3_4_1x1_increase <- conv3_4_3x3
I1214 16:04:08.205538 13869 net.cpp:411] conv3_4_1x1_increase -> conv3_4_1x1_increase
I1214 16:04:08.209604 13869 net.cpp:150] Setting up conv3_4_1x1_increase
I1214 16:04:08.209622 13869 net.cpp:157] Top shape: 1 512 60 60 (1843200)
I1214 16:04:08.209632 13869 net.cpp:165] Memory required for data: 752218904
I1214 16:04:08.209645 13869 layer_factory.hpp:77] Creating layer conv3_4_1x1_increase/bn
I1214 16:04:08.209662 13869 net.cpp:106] Creating Layer conv3_4_1x1_increase/bn
I1214 16:04:08.209674 13869 net.cpp:454] conv3_4_1x1_increase/bn <- conv3_4_1x1_increase
I1214 16:04:08.209687 13869 net.cpp:397] conv3_4_1x1_increase/bn -> conv3_4_1x1_increase (in-place)
I1214 16:04:08.209959 13869 net.cpp:150] Setting up conv3_4_1x1_increase/bn
I1214 16:04:08.209985 13869 net.cpp:157] Top shape: 1 512 60 60 (1843200)
I1214 16:04:08.209995 13869 net.cpp:165] Memory required for data: 759591704
I1214 16:04:08.210028 13869 layer_factory.hpp:77] Creating layer conv3_4
I1214 16:04:08.210043 13869 net.cpp:106] Creating Layer conv3_4
I1214 16:04:08.210054 13869 net.cpp:454] conv3_4 <- conv3_3_conv3_3/relu_0_split_1
I1214 16:04:08.210065 13869 net.cpp:454] conv3_4 <- conv3_4_1x1_increase
I1214 16:04:08.210081 13869 net.cpp:411] conv3_4 -> conv3_4
I1214 16:04:08.210120 13869 net.cpp:150] Setting up conv3_4
I1214 16:04:08.210135 13869 net.cpp:157] Top shape: 1 512 60 60 (1843200)
I1214 16:04:08.210144 13869 net.cpp:165] Memory required for data: 766964504
I1214 16:04:08.210155 13869 layer_factory.hpp:77] Creating layer conv3_4/relu
I1214 16:04:08.210165 13869 net.cpp:106] Creating Layer conv3_4/relu
I1214 16:04:08.210175 13869 net.cpp:454] conv3_4/relu <- conv3_4
I1214 16:04:08.210191 13869 net.cpp:397] conv3_4/relu -> conv3_4 (in-place)
I1214 16:04:08.210206 13869 net.cpp:150] Setting up conv3_4/relu
I1214 16:04:08.210216 13869 net.cpp:157] Top shape: 1 512 60 60 (1843200)
I1214 16:04:08.210225 13869 net.cpp:165] Memory required for data: 774337304
I1214 16:04:08.210235 13869 layer_factory.hpp:77] Creating layer conv3_4_conv3_4/relu_0_split
I1214 16:04:08.210247 13869 net.cpp:106] Creating Layer conv3_4_conv3_4/relu_0_split
I1214 16:04:08.210255 13869 net.cpp:454] conv3_4_conv3_4/relu_0_split <- conv3_4
I1214 16:04:08.210268 13869 net.cpp:411] conv3_4_conv3_4/relu_0_split -> conv3_4_conv3_4/relu_0_split_0
I1214 16:04:08.210281 13869 net.cpp:411] conv3_4_conv3_4/relu_0_split -> conv3_4_conv3_4/relu_0_split_1
I1214 16:04:08.210336 13869 net.cpp:150] Setting up conv3_4_conv3_4/relu_0_split
I1214 16:04:08.210352 13869 net.cpp:157] Top shape: 1 512 60 60 (1843200)
I1214 16:04:08.210363 13869 net.cpp:157] Top shape: 1 512 60 60 (1843200)
I1214 16:04:08.210371 13869 net.cpp:165] Memory required for data: 789082904
I1214 16:04:08.210381 13869 layer_factory.hpp:77] Creating layer conv4_1_1x1_reduce
I1214 16:04:08.210399 13869 net.cpp:106] Creating Layer conv4_1_1x1_reduce
I1214 16:04:08.210412 13869 net.cpp:454] conv4_1_1x1_reduce <- conv3_4_conv3_4/relu_0_split_0
I1214 16:04:08.210427 13869 net.cpp:411] conv4_1_1x1_reduce -> conv4_1_1x1_reduce
I1214 16:04:08.218238 13869 net.cpp:150] Setting up conv4_1_1x1_reduce
I1214 16:04:08.218257 13869 net.cpp:157] Top shape: 1 256 60 60 (921600)
I1214 16:04:08.218267 13869 net.cpp:165] Memory required for data: 792769304
I1214 16:04:08.218279 13869 layer_factory.hpp:77] Creating layer conv4_1_1x1_reduce/bn
I1214 16:04:08.218293 13869 net.cpp:106] Creating Layer conv4_1_1x1_reduce/bn
I1214 16:04:08.218303 13869 net.cpp:454] conv4_1_1x1_reduce/bn <- conv4_1_1x1_reduce
I1214 16:04:08.218318 13869 net.cpp:397] conv4_1_1x1_reduce/bn -> conv4_1_1x1_reduce (in-place)
I1214 16:04:08.218587 13869 net.cpp:150] Setting up conv4_1_1x1_reduce/bn
I1214 16:04:08.218605 13869 net.cpp:157] Top shape: 1 256 60 60 (921600)
I1214 16:04:08.218613 13869 net.cpp:165] Memory required for data: 796455704
I1214 16:04:08.218631 13869 layer_factory.hpp:77] Creating layer conv4_1_1x1_reduce/relu
I1214 16:04:08.218642 13869 net.cpp:106] Creating Layer conv4_1_1x1_reduce/relu
I1214 16:04:08.218652 13869 net.cpp:454] conv4_1_1x1_reduce/relu <- conv4_1_1x1_reduce
I1214 16:04:08.218669 13869 net.cpp:397] conv4_1_1x1_reduce/relu -> conv4_1_1x1_reduce (in-place)
I1214 16:04:08.218685 13869 net.cpp:150] Setting up conv4_1_1x1_reduce/relu
I1214 16:04:08.218698 13869 net.cpp:157] Top shape: 1 256 60 60 (921600)
I1214 16:04:08.218705 13869 net.cpp:165] Memory required for data: 800142104
I1214 16:04:08.218715 13869 layer_factory.hpp:77] Creating layer conv4_1_3x3
I1214 16:04:08.218731 13869 net.cpp:106] Creating Layer conv4_1_3x3
I1214 16:04:08.218742 13869 net.cpp:454] conv4_1_3x3 <- conv4_1_1x1_reduce
I1214 16:04:08.218755 13869 net.cpp:411] conv4_1_3x3 -> conv4_1_3x3
I1214 16:04:08.254925 13869 net.cpp:150] Setting up conv4_1_3x3
I1214 16:04:08.254951 13869 net.cpp:157] Top shape: 1 256 60 60 (921600)
I1214 16:04:08.254969 13869 net.cpp:165] Memory required for data: 803828504
I1214 16:04:08.254982 13869 layer_factory.hpp:77] Creating layer conv4_1_3x3/bn
I1214 16:04:08.254999 13869 net.cpp:106] Creating Layer conv4_1_3x3/bn
I1214 16:04:08.255010 13869 net.cpp:454] conv4_1_3x3/bn <- conv4_1_3x3
I1214 16:04:08.255023 13869 net.cpp:397] conv4_1_3x3/bn -> conv4_1_3x3 (in-place)
I1214 16:04:08.255297 13869 net.cpp:150] Setting up conv4_1_3x3/bn
I1214 16:04:08.255316 13869 net.cpp:157] Top shape: 1 256 60 60 (921600)
I1214 16:04:08.255324 13869 net.cpp:165] Memory required for data: 807514904
I1214 16:04:08.255342 13869 layer_factory.hpp:77] Creating layer conv4_1_3x3/relu
I1214 16:04:08.255354 13869 net.cpp:106] Creating Layer conv4_1_3x3/relu
I1214 16:04:08.255363 13869 net.cpp:454] conv4_1_3x3/relu <- conv4_1_3x3
I1214 16:04:08.255380 13869 net.cpp:397] conv4_1_3x3/relu -> conv4_1_3x3 (in-place)
I1214 16:04:08.255395 13869 net.cpp:150] Setting up conv4_1_3x3/relu
I1214 16:04:08.255408 13869 net.cpp:157] Top shape: 1 256 60 60 (921600)
I1214 16:04:08.255416 13869 net.cpp:165] Memory required for data: 811201304
I1214 16:04:08.255425 13869 layer_factory.hpp:77] Creating layer conv4_1_1x1_increase
I1214 16:04:08.255442 13869 net.cpp:106] Creating Layer conv4_1_1x1_increase
I1214 16:04:08.255453 13869 net.cpp:454] conv4_1_1x1_increase <- conv4_1_3x3
I1214 16:04:08.255466 13869 net.cpp:411] conv4_1_1x1_increase -> conv4_1_1x1_increase
I1214 16:04:08.271340 13869 net.cpp:150] Setting up conv4_1_1x1_increase
I1214 16:04:08.271361 13869 net.cpp:157] Top shape: 1 1024 60 60 (3686400)
I1214 16:04:08.271371 13869 net.cpp:165] Memory required for data: 825946904
I1214 16:04:08.271384 13869 layer_factory.hpp:77] Creating layer conv4_1_1x1_increase/bn
I1214 16:04:08.271402 13869 net.cpp:106] Creating Layer conv4_1_1x1_increase/bn
I1214 16:04:08.271414 13869 net.cpp:454] conv4_1_1x1_increase/bn <- conv4_1_1x1_increase
I1214 16:04:08.271427 13869 net.cpp:397] conv4_1_1x1_increase/bn -> conv4_1_1x1_increase (in-place)
I1214 16:04:08.271703 13869 net.cpp:150] Setting up conv4_1_1x1_increase/bn
I1214 16:04:08.271721 13869 net.cpp:157] Top shape: 1 1024 60 60 (3686400)
I1214 16:04:08.271730 13869 net.cpp:165] Memory required for data: 840692504
I1214 16:04:08.271747 13869 layer_factory.hpp:77] Creating layer conv4_1_1x1_proj
I1214 16:04:08.271764 13869 net.cpp:106] Creating Layer conv4_1_1x1_proj
I1214 16:04:08.271773 13869 net.cpp:454] conv4_1_1x1_proj <- conv3_4_conv3_4/relu_0_split_1
I1214 16:04:08.271791 13869 net.cpp:411] conv4_1_1x1_proj -> conv4_1_1x1_proj
I1214 16:04:08.303638 13869 net.cpp:150] Setting up conv4_1_1x1_proj
I1214 16:04:08.303659 13869 net.cpp:157] Top shape: 1 1024 60 60 (3686400)
I1214 16:04:08.303668 13869 net.cpp:165] Memory required for data: 855438104
I1214 16:04:08.303681 13869 layer_factory.hpp:77] Creating layer conv4_1_1x1_proj/bn
I1214 16:04:08.303695 13869 net.cpp:106] Creating Layer conv4_1_1x1_proj/bn
I1214 16:04:08.303705 13869 net.cpp:454] conv4_1_1x1_proj/bn <- conv4_1_1x1_proj
I1214 16:04:08.303724 13869 net.cpp:397] conv4_1_1x1_proj/bn -> conv4_1_1x1_proj (in-place)
I1214 16:04:08.304002 13869 net.cpp:150] Setting up conv4_1_1x1_proj/bn
I1214 16:04:08.304018 13869 net.cpp:157] Top shape: 1 1024 60 60 (3686400)
I1214 16:04:08.304028 13869 net.cpp:165] Memory required for data: 870183704
I1214 16:04:08.304044 13869 layer_factory.hpp:77] Creating layer conv4_1
I1214 16:04:08.304062 13869 net.cpp:106] Creating Layer conv4_1
I1214 16:04:08.304074 13869 net.cpp:454] conv4_1 <- conv4_1_1x1_proj
I1214 16:04:08.304085 13869 net.cpp:454] conv4_1 <- conv4_1_1x1_increase
I1214 16:04:08.304097 13869 net.cpp:411] conv4_1 -> conv4_1
I1214 16:04:08.304133 13869 net.cpp:150] Setting up conv4_1
I1214 16:04:08.304154 13869 net.cpp:157] Top shape: 1 1024 60 60 (3686400)
I1214 16:04:08.304165 13869 net.cpp:165] Memory required for data: 884929304
I1214 16:04:08.304174 13869 layer_factory.hpp:77] Creating layer conv4_1/relu
I1214 16:04:08.304199 13869 net.cpp:106] Creating Layer conv4_1/relu
I1214 16:04:08.304219 13869 net.cpp:454] conv4_1/relu <- conv4_1
I1214 16:04:08.304232 13869 net.cpp:397] conv4_1/relu -> conv4_1 (in-place)
I1214 16:04:08.304245 13869 net.cpp:150] Setting up conv4_1/relu
I1214 16:04:08.304258 13869 net.cpp:157] Top shape: 1 1024 60 60 (3686400)
I1214 16:04:08.304266 13869 net.cpp:165] Memory required for data: 899674904
I1214 16:04:08.304276 13869 layer_factory.hpp:77] Creating layer conv4_1_conv4_1/relu_0_split
I1214 16:04:08.304291 13869 net.cpp:106] Creating Layer conv4_1_conv4_1/relu_0_split
I1214 16:04:08.304299 13869 net.cpp:454] conv4_1_conv4_1/relu_0_split <- conv4_1
I1214 16:04:08.304311 13869 net.cpp:411] conv4_1_conv4_1/relu_0_split -> conv4_1_conv4_1/relu_0_split_0
I1214 16:04:08.304325 13869 net.cpp:411] conv4_1_conv4_1/relu_0_split -> conv4_1_conv4_1/relu_0_split_1
I1214 16:04:08.304384 13869 net.cpp:150] Setting up conv4_1_conv4_1/relu_0_split
I1214 16:04:08.304400 13869 net.cpp:157] Top shape: 1 1024 60 60 (3686400)
I1214 16:04:08.304411 13869 net.cpp:157] Top shape: 1 1024 60 60 (3686400)
I1214 16:04:08.304420 13869 net.cpp:165] Memory required for data: 929166104
I1214 16:04:08.304428 13869 layer_factory.hpp:77] Creating layer conv4_2_1x1_reduce
I1214 16:04:08.304447 13869 net.cpp:106] Creating Layer conv4_2_1x1_reduce
I1214 16:04:08.304460 13869 net.cpp:454] conv4_2_1x1_reduce <- conv4_1_conv4_1/relu_0_split_0
I1214 16:04:08.304473 13869 net.cpp:411] conv4_2_1x1_reduce -> conv4_2_1x1_reduce
I1214 16:04:08.320334 13869 net.cpp:150] Setting up conv4_2_1x1_reduce
I1214 16:04:08.320355 13869 net.cpp:157] Top shape: 1 256 60 60 (921600)
I1214 16:04:08.320364 13869 net.cpp:165] Memory required for data: 932852504
I1214 16:04:08.320377 13869 layer_factory.hpp:77] Creating layer conv4_2_1x1_reduce/bn
I1214 16:04:08.320392 13869 net.cpp:106] Creating Layer conv4_2_1x1_reduce/bn
I1214 16:04:08.320401 13869 net.cpp:454] conv4_2_1x1_reduce/bn <- conv4_2_1x1_reduce
I1214 16:04:08.320420 13869 net.cpp:397] conv4_2_1x1_reduce/bn -> conv4_2_1x1_reduce (in-place)
I1214 16:04:08.320689 13869 net.cpp:150] Setting up conv4_2_1x1_reduce/bn
I1214 16:04:08.320708 13869 net.cpp:157] Top shape: 1 256 60 60 (921600)
I1214 16:04:08.320716 13869 net.cpp:165] Memory required for data: 936538904
I1214 16:04:08.320734 13869 layer_factory.hpp:77] Creating layer conv4_2_1x1_reduce/relu
I1214 16:04:08.320750 13869 net.cpp:106] Creating Layer conv4_2_1x1_reduce/relu
I1214 16:04:08.320761 13869 net.cpp:454] conv4_2_1x1_reduce/relu <- conv4_2_1x1_reduce
I1214 16:04:08.320775 13869 net.cpp:397] conv4_2_1x1_reduce/relu -> conv4_2_1x1_reduce (in-place)
I1214 16:04:08.320787 13869 net.cpp:150] Setting up conv4_2_1x1_reduce/relu
I1214 16:04:08.320799 13869 net.cpp:157] Top shape: 1 256 60 60 (921600)
I1214 16:04:08.320809 13869 net.cpp:165] Memory required for data: 940225304
I1214 16:04:08.320818 13869 layer_factory.hpp:77] Creating layer conv4_2_3x3
I1214 16:04:08.320832 13869 net.cpp:106] Creating Layer conv4_2_3x3
I1214 16:04:08.320842 13869 net.cpp:454] conv4_2_3x3 <- conv4_2_1x1_reduce
I1214 16:04:08.320859 13869 net.cpp:411] conv4_2_3x3 -> conv4_2_3x3
I1214 16:04:08.356753 13869 net.cpp:150] Setting up conv4_2_3x3
I1214 16:04:08.356775 13869 net.cpp:157] Top shape: 1 256 60 60 (921600)
I1214 16:04:08.356784 13869 net.cpp:165] Memory required for data: 943911704
I1214 16:04:08.356797 13869 layer_factory.hpp:77] Creating layer conv4_2_3x3/bn
I1214 16:04:08.356812 13869 net.cpp:106] Creating Layer conv4_2_3x3/bn
I1214 16:04:08.356822 13869 net.cpp:454] conv4_2_3x3/bn <- conv4_2_3x3
I1214 16:04:08.356839 13869 net.cpp:397] conv4_2_3x3/bn -> conv4_2_3x3 (in-place)
I1214 16:04:08.357115 13869 net.cpp:150] Setting up conv4_2_3x3/bn
I1214 16:04:08.357132 13869 net.cpp:157] Top shape: 1 256 60 60 (921600)
I1214 16:04:08.357142 13869 net.cpp:165] Memory required for data: 947598104
I1214 16:04:08.357159 13869 layer_factory.hpp:77] Creating layer conv4_2_3x3/relu
I1214 16:04:08.357177 13869 net.cpp:106] Creating Layer conv4_2_3x3/relu
I1214 16:04:08.357192 13869 net.cpp:454] conv4_2_3x3/relu <- conv4_2_3x3
I1214 16:04:08.357213 13869 net.cpp:397] conv4_2_3x3/relu -> conv4_2_3x3 (in-place)
I1214 16:04:08.357228 13869 net.cpp:150] Setting up conv4_2_3x3/relu
I1214 16:04:08.357239 13869 net.cpp:157] Top shape: 1 256 60 60 (921600)
I1214 16:04:08.357249 13869 net.cpp:165] Memory required for data: 951284504
I1214 16:04:08.357257 13869 layer_factory.hpp:77] Creating layer conv4_2_1x1_increase
I1214 16:04:08.357271 13869 net.cpp:106] Creating Layer conv4_2_1x1_increase
I1214 16:04:08.357281 13869 net.cpp:454] conv4_2_1x1_increase <- conv4_2_3x3
I1214 16:04:08.357298 13869 net.cpp:411] conv4_2_1x1_increase -> conv4_2_1x1_increase
I1214 16:04:08.373188 13869 net.cpp:150] Setting up conv4_2_1x1_increase
I1214 16:04:08.373209 13869 net.cpp:157] Top shape: 1 1024 60 60 (3686400)
I1214 16:04:08.373219 13869 net.cpp:165] Memory required for data: 966030104
I1214 16:04:08.373231 13869 layer_factory.hpp:77] Creating layer conv4_2_1x1_increase/bn
I1214 16:04:08.373251 13869 net.cpp:106] Creating Layer conv4_2_1x1_increase/bn
I1214 16:04:08.373262 13869 net.cpp:454] conv4_2_1x1_increase/bn <- conv4_2_1x1_increase
I1214 16:04:08.373276 13869 net.cpp:397] conv4_2_1x1_increase/bn -> conv4_2_1x1_increase (in-place)
I1214 16:04:08.373550 13869 net.cpp:150] Setting up conv4_2_1x1_increase/bn
I1214 16:04:08.373569 13869 net.cpp:157] Top shape: 1 1024 60 60 (3686400)
I1214 16:04:08.373577 13869 net.cpp:165] Memory required for data: 980775704
I1214 16:04:08.373594 13869 layer_factory.hpp:77] Creating layer conv4_2
I1214 16:04:08.373607 13869 net.cpp:106] Creating Layer conv4_2
I1214 16:04:08.373617 13869 net.cpp:454] conv4_2 <- conv4_1_conv4_1/relu_0_split_1
I1214 16:04:08.373628 13869 net.cpp:454] conv4_2 <- conv4_2_1x1_increase
I1214 16:04:08.373646 13869 net.cpp:411] conv4_2 -> conv4_2
I1214 16:04:08.373687 13869 net.cpp:150] Setting up conv4_2
I1214 16:04:08.373702 13869 net.cpp:157] Top shape: 1 1024 60 60 (3686400)
I1214 16:04:08.373710 13869 net.cpp:165] Memory required for data: 995521304
I1214 16:04:08.373719 13869 layer_factory.hpp:77] Creating layer conv4_2/relu
I1214 16:04:08.373731 13869 net.cpp:106] Creating Layer conv4_2/relu
I1214 16:04:08.373740 13869 net.cpp:454] conv4_2/relu <- conv4_2
I1214 16:04:08.373756 13869 net.cpp:397] conv4_2/relu -> conv4_2 (in-place)
I1214 16:04:08.373772 13869 net.cpp:150] Setting up conv4_2/relu
I1214 16:04:08.373785 13869 net.cpp:157] Top shape: 1 1024 60 60 (3686400)
I1214 16:04:08.373793 13869 net.cpp:165] Memory required for data: 1010266904
I1214 16:04:08.373802 13869 layer_factory.hpp:77] Creating layer conv4_2_conv4_2/relu_0_split
I1214 16:04:08.373814 13869 net.cpp:106] Creating Layer conv4_2_conv4_2/relu_0_split
I1214 16:04:08.373824 13869 net.cpp:454] conv4_2_conv4_2/relu_0_split <- conv4_2
I1214 16:04:08.373839 13869 net.cpp:411] conv4_2_conv4_2/relu_0_split -> conv4_2_conv4_2/relu_0_split_0
I1214 16:04:08.373858 13869 net.cpp:411] conv4_2_conv4_2/relu_0_split -> conv4_2_conv4_2/relu_0_split_1
I1214 16:04:08.373917 13869 net.cpp:150] Setting up conv4_2_conv4_2/relu_0_split
I1214 16:04:08.373934 13869 net.cpp:157] Top shape: 1 1024 60 60 (3686400)
I1214 16:04:08.373944 13869 net.cpp:157] Top shape: 1 1024 60 60 (3686400)
I1214 16:04:08.373953 13869 net.cpp:165] Memory required for data: 1039758104
I1214 16:04:08.373962 13869 layer_factory.hpp:77] Creating layer conv4_3_1x1_reduce
I1214 16:04:08.373981 13869 net.cpp:106] Creating Layer conv4_3_1x1_reduce
I1214 16:04:08.373992 13869 net.cpp:454] conv4_3_1x1_reduce <- conv4_2_conv4_2/relu_0_split_0
I1214 16:04:08.374008 13869 net.cpp:411] conv4_3_1x1_reduce -> conv4_3_1x1_reduce
I1214 16:04:08.390036 13869 net.cpp:150] Setting up conv4_3_1x1_reduce
I1214 16:04:08.390058 13869 net.cpp:157] Top shape: 1 256 60 60 (921600)
I1214 16:04:08.390066 13869 net.cpp:165] Memory required for data: 1043444504
I1214 16:04:08.390079 13869 layer_factory.hpp:77] Creating layer conv4_3_1x1_reduce/bn
I1214 16:04:08.390099 13869 net.cpp:106] Creating Layer conv4_3_1x1_reduce/bn
I1214 16:04:08.390110 13869 net.cpp:454] conv4_3_1x1_reduce/bn <- conv4_3_1x1_reduce
I1214 16:04:08.390136 13869 net.cpp:397] conv4_3_1x1_reduce/bn -> conv4_3_1x1_reduce (in-place)
I1214 16:04:08.390417 13869 net.cpp:150] Setting up conv4_3_1x1_reduce/bn
I1214 16:04:08.390434 13869 net.cpp:157] Top shape: 1 256 60 60 (921600)
I1214 16:04:08.390444 13869 net.cpp:165] Memory required for data: 1047130904
I1214 16:04:08.390460 13869 layer_factory.hpp:77] Creating layer conv4_3_1x1_reduce/relu
I1214 16:04:08.390472 13869 net.cpp:106] Creating Layer conv4_3_1x1_reduce/relu
I1214 16:04:08.390482 13869 net.cpp:454] conv4_3_1x1_reduce/relu <- conv4_3_1x1_reduce
I1214 16:04:08.390493 13869 net.cpp:397] conv4_3_1x1_reduce/relu -> conv4_3_1x1_reduce (in-place)
I1214 16:04:08.390507 13869 net.cpp:150] Setting up conv4_3_1x1_reduce/relu
I1214 16:04:08.390519 13869 net.cpp:157] Top shape: 1 256 60 60 (921600)
I1214 16:04:08.390527 13869 net.cpp:165] Memory required for data: 1050817304
I1214 16:04:08.390537 13869 layer_factory.hpp:77] Creating layer conv4_3_3x3
I1214 16:04:08.390555 13869 net.cpp:106] Creating Layer conv4_3_3x3
I1214 16:04:08.390568 13869 net.cpp:454] conv4_3_3x3 <- conv4_3_1x1_reduce
I1214 16:04:08.390580 13869 net.cpp:411] conv4_3_3x3 -> conv4_3_3x3
I1214 16:04:08.426388 13869 net.cpp:150] Setting up conv4_3_3x3
I1214 16:04:08.426409 13869 net.cpp:157] Top shape: 1 256 60 60 (921600)
I1214 16:04:08.426419 13869 net.cpp:165] Memory required for data: 1054503704
I1214 16:04:08.426430 13869 layer_factory.hpp:77] Creating layer conv4_3_3x3/bn
I1214 16:04:08.426445 13869 net.cpp:106] Creating Layer conv4_3_3x3/bn
I1214 16:04:08.426455 13869 net.cpp:454] conv4_3_3x3/bn <- conv4_3_3x3
I1214 16:04:08.426473 13869 net.cpp:397] conv4_3_3x3/bn -> conv4_3_3x3 (in-place)
I1214 16:04:08.426753 13869 net.cpp:150] Setting up conv4_3_3x3/bn
I1214 16:04:08.426770 13869 net.cpp:157] Top shape: 1 256 60 60 (921600)
I1214 16:04:08.426779 13869 net.cpp:165] Memory required for data: 1058190104
I1214 16:04:08.426796 13869 layer_factory.hpp:77] Creating layer conv4_3_3x3/relu
I1214 16:04:08.426813 13869 net.cpp:106] Creating Layer conv4_3_3x3/relu
I1214 16:04:08.426825 13869 net.cpp:454] conv4_3_3x3/relu <- conv4_3_3x3
I1214 16:04:08.426836 13869 net.cpp:397] conv4_3_3x3/relu -> conv4_3_3x3 (in-place)
I1214 16:04:08.426851 13869 net.cpp:150] Setting up conv4_3_3x3/relu
I1214 16:04:08.426862 13869 net.cpp:157] Top shape: 1 256 60 60 (921600)
I1214 16:04:08.426872 13869 net.cpp:165] Memory required for data: 1061876504
I1214 16:04:08.426880 13869 layer_factory.hpp:77] Creating layer conv4_3_1x1_increase
I1214 16:04:08.426894 13869 net.cpp:106] Creating Layer conv4_3_1x1_increase
I1214 16:04:08.426904 13869 net.cpp:454] conv4_3_1x1_increase <- conv4_3_3x3
I1214 16:04:08.426921 13869 net.cpp:411] conv4_3_1x1_increase -> conv4_3_1x1_increase
I1214 16:04:08.443106 13869 net.cpp:150] Setting up conv4_3_1x1_increase
I1214 16:04:08.443127 13869 net.cpp:157] Top shape: 1 1024 60 60 (3686400)
I1214 16:04:08.443137 13869 net.cpp:165] Memory required for data: 1076622104
I1214 16:04:08.443150 13869 layer_factory.hpp:77] Creating layer conv4_3_1x1_increase/bn
I1214 16:04:08.443164 13869 net.cpp:106] Creating Layer conv4_3_1x1_increase/bn
I1214 16:04:08.443174 13869 net.cpp:454] conv4_3_1x1_increase/bn <- conv4_3_1x1_increase
I1214 16:04:08.443192 13869 net.cpp:397] conv4_3_1x1_increase/bn -> conv4_3_1x1_increase (in-place)
I1214 16:04:08.443475 13869 net.cpp:150] Setting up conv4_3_1x1_increase/bn
I1214 16:04:08.443492 13869 net.cpp:157] Top shape: 1 1024 60 60 (3686400)
I1214 16:04:08.443501 13869 net.cpp:165] Memory required for data: 1091367704
I1214 16:04:08.443518 13869 layer_factory.hpp:77] Creating layer conv4_3
I1214 16:04:08.443536 13869 net.cpp:106] Creating Layer conv4_3
I1214 16:04:08.443547 13869 net.cpp:454] conv4_3 <- conv4_2_conv4_2/relu_0_split_1
I1214 16:04:08.443558 13869 net.cpp:454] conv4_3 <- conv4_3_1x1_increase
I1214 16:04:08.443572 13869 net.cpp:411] conv4_3 -> conv4_3
I1214 16:04:08.443608 13869 net.cpp:150] Setting up conv4_3
I1214 16:04:08.443624 13869 net.cpp:157] Top shape: 1 1024 60 60 (3686400)
I1214 16:04:08.443645 13869 net.cpp:165] Memory required for data: 1106113304
I1214 16:04:08.443655 13869 layer_factory.hpp:77] Creating layer conv4_3/relu
I1214 16:04:08.443667 13869 net.cpp:106] Creating Layer conv4_3/relu
I1214 16:04:08.443677 13869 net.cpp:454] conv4_3/relu <- conv4_3
I1214 16:04:08.443693 13869 net.cpp:397] conv4_3/relu -> conv4_3 (in-place)
I1214 16:04:08.443708 13869 net.cpp:150] Setting up conv4_3/relu
I1214 16:04:08.443722 13869 net.cpp:157] Top shape: 1 1024 60 60 (3686400)
I1214 16:04:08.443730 13869 net.cpp:165] Memory required for data: 1120858904
I1214 16:04:08.443739 13869 layer_factory.hpp:77] Creating layer conv4_3_conv4_3/relu_0_split
I1214 16:04:08.443753 13869 net.cpp:106] Creating Layer conv4_3_conv4_3/relu_0_split
I1214 16:04:08.443763 13869 net.cpp:454] conv4_3_conv4_3/relu_0_split <- conv4_3
I1214 16:04:08.443774 13869 net.cpp:411] conv4_3_conv4_3/relu_0_split -> conv4_3_conv4_3/relu_0_split_0
I1214 16:04:08.443789 13869 net.cpp:411] conv4_3_conv4_3/relu_0_split -> conv4_3_conv4_3/relu_0_split_1
I1214 16:04:08.443845 13869 net.cpp:150] Setting up conv4_3_conv4_3/relu_0_split
I1214 16:04:08.443864 13869 net.cpp:157] Top shape: 1 1024 60 60 (3686400)
I1214 16:04:08.443876 13869 net.cpp:157] Top shape: 1 1024 60 60 (3686400)
I1214 16:04:08.443884 13869 net.cpp:165] Memory required for data: 1150350104
I1214 16:04:08.443894 13869 layer_factory.hpp:77] Creating layer conv4_4_1x1_reduce
I1214 16:04:08.443923 13869 net.cpp:106] Creating Layer conv4_4_1x1_reduce
I1214 16:04:08.443935 13869 net.cpp:454] conv4_4_1x1_reduce <- conv4_3_conv4_3/relu_0_split_0
I1214 16:04:08.443953 13869 net.cpp:411] conv4_4_1x1_reduce -> conv4_4_1x1_reduce
I1214 16:04:08.460153 13869 net.cpp:150] Setting up conv4_4_1x1_reduce
I1214 16:04:08.460175 13869 net.cpp:157] Top shape: 1 256 60 60 (921600)
I1214 16:04:08.460185 13869 net.cpp:165] Memory required for data: 1154036504
I1214 16:04:08.460198 13869 layer_factory.hpp:77] Creating layer conv4_4_1x1_reduce/bn
I1214 16:04:08.460212 13869 net.cpp:106] Creating Layer conv4_4_1x1_reduce/bn
I1214 16:04:08.460223 13869 net.cpp:454] conv4_4_1x1_reduce/bn <- conv4_4_1x1_reduce
I1214 16:04:08.460237 13869 net.cpp:397] conv4_4_1x1_reduce/bn -> conv4_4_1x1_reduce (in-place)
I1214 16:04:08.460515 13869 net.cpp:150] Setting up conv4_4_1x1_reduce/bn
I1214 16:04:08.460532 13869 net.cpp:157] Top shape: 1 256 60 60 (921600)
I1214 16:04:08.460541 13869 net.cpp:165] Memory required for data: 1157722904
I1214 16:04:08.460558 13869 layer_factory.hpp:77] Creating layer conv4_4_1x1_reduce/relu
I1214 16:04:08.460572 13869 net.cpp:106] Creating Layer conv4_4_1x1_reduce/relu
I1214 16:04:08.460582 13869 net.cpp:454] conv4_4_1x1_reduce/relu <- conv4_4_1x1_reduce
I1214 16:04:08.460598 13869 net.cpp:397] conv4_4_1x1_reduce/relu -> conv4_4_1x1_reduce (in-place)
I1214 16:04:08.460613 13869 net.cpp:150] Setting up conv4_4_1x1_reduce/relu
I1214 16:04:08.460626 13869 net.cpp:157] Top shape: 1 256 60 60 (921600)
I1214 16:04:08.460634 13869 net.cpp:165] Memory required for data: 1161409304
I1214 16:04:08.460644 13869 layer_factory.hpp:77] Creating layer conv4_4_3x3
I1214 16:04:08.460661 13869 net.cpp:106] Creating Layer conv4_4_3x3
I1214 16:04:08.460672 13869 net.cpp:454] conv4_4_3x3 <- conv4_4_1x1_reduce
I1214 16:04:08.460685 13869 net.cpp:411] conv4_4_3x3 -> conv4_4_3x3
I1214 16:04:08.496614 13869 net.cpp:150] Setting up conv4_4_3x3
I1214 16:04:08.496635 13869 net.cpp:157] Top shape: 1 256 60 60 (921600)
I1214 16:04:08.496645 13869 net.cpp:165] Memory required for data: 1165095704
I1214 16:04:08.496659 13869 layer_factory.hpp:77] Creating layer conv4_4_3x3/bn
I1214 16:04:08.496678 13869 net.cpp:106] Creating Layer conv4_4_3x3/bn
I1214 16:04:08.496690 13869 net.cpp:454] conv4_4_3x3/bn <- conv4_4_3x3
I1214 16:04:08.496704 13869 net.cpp:397] conv4_4_3x3/bn -> conv4_4_3x3 (in-place)
I1214 16:04:08.496990 13869 net.cpp:150] Setting up conv4_4_3x3/bn
I1214 16:04:08.497007 13869 net.cpp:157] Top shape: 1 256 60 60 (921600)
I1214 16:04:08.497017 13869 net.cpp:165] Memory required for data: 1168782104
I1214 16:04:08.497047 13869 layer_factory.hpp:77] Creating layer conv4_4_3x3/relu
I1214 16:04:08.497061 13869 net.cpp:106] Creating Layer conv4_4_3x3/relu
I1214 16:04:08.497069 13869 net.cpp:454] conv4_4_3x3/relu <- conv4_4_3x3
I1214 16:04:08.497081 13869 net.cpp:397] conv4_4_3x3/relu -> conv4_4_3x3 (in-place)
I1214 16:04:08.497095 13869 net.cpp:150] Setting up conv4_4_3x3/relu
I1214 16:04:08.497107 13869 net.cpp:157] Top shape: 1 256 60 60 (921600)
I1214 16:04:08.497117 13869 net.cpp:165] Memory required for data: 1172468504
I1214 16:04:08.497125 13869 layer_factory.hpp:77] Creating layer conv4_4_1x1_increase
I1214 16:04:08.497144 13869 net.cpp:106] Creating Layer conv4_4_1x1_increase
I1214 16:04:08.497155 13869 net.cpp:454] conv4_4_1x1_increase <- conv4_4_3x3
I1214 16:04:08.497171 13869 net.cpp:411] conv4_4_1x1_increase -> conv4_4_1x1_increase
I1214 16:04:08.513047 13869 net.cpp:150] Setting up conv4_4_1x1_increase
I1214 16:04:08.513068 13869 net.cpp:157] Top shape: 1 1024 60 60 (3686400)
I1214 16:04:08.513077 13869 net.cpp:165] Memory required for data: 1187214104
I1214 16:04:08.513090 13869 layer_factory.hpp:77] Creating layer conv4_4_1x1_increase/bn
I1214 16:04:08.513108 13869 net.cpp:106] Creating Layer conv4_4_1x1_increase/bn
I1214 16:04:08.513120 13869 net.cpp:454] conv4_4_1x1_increase/bn <- conv4_4_1x1_increase
I1214 16:04:08.513134 13869 net.cpp:397] conv4_4_1x1_increase/bn -> conv4_4_1x1_increase (in-place)
I1214 16:04:08.513427 13869 net.cpp:150] Setting up conv4_4_1x1_increase/bn
I1214 16:04:08.513444 13869 net.cpp:157] Top shape: 1 1024 60 60 (3686400)
I1214 16:04:08.513453 13869 net.cpp:165] Memory required for data: 1201959704
I1214 16:04:08.513470 13869 layer_factory.hpp:77] Creating layer conv4_4
I1214 16:04:08.513484 13869 net.cpp:106] Creating Layer conv4_4
I1214 16:04:08.513494 13869 net.cpp:454] conv4_4 <- conv4_3_conv4_3/relu_0_split_1
I1214 16:04:08.513505 13869 net.cpp:454] conv4_4 <- conv4_4_1x1_increase
I1214 16:04:08.513517 13869 net.cpp:411] conv4_4 -> conv4_4
I1214 16:04:08.513561 13869 net.cpp:150] Setting up conv4_4
I1214 16:04:08.513576 13869 net.cpp:157] Top shape: 1 1024 60 60 (3686400)
I1214 16:04:08.513584 13869 net.cpp:165] Memory required for data: 1216705304
I1214 16:04:08.513594 13869 layer_factory.hpp:77] Creating layer conv4_4/relu
I1214 16:04:08.513607 13869 net.cpp:106] Creating Layer conv4_4/relu
I1214 16:04:08.513618 13869 net.cpp:454] conv4_4/relu <- conv4_4
I1214 16:04:08.513630 13869 net.cpp:397] conv4_4/relu -> conv4_4 (in-place)
I1214 16:04:08.513644 13869 net.cpp:150] Setting up conv4_4/relu
I1214 16:04:08.513656 13869 net.cpp:157] Top shape: 1 1024 60 60 (3686400)
I1214 16:04:08.513664 13869 net.cpp:165] Memory required for data: 1231450904
I1214 16:04:08.513674 13869 layer_factory.hpp:77] Creating layer conv4_4_conv4_4/relu_0_split
I1214 16:04:08.513685 13869 net.cpp:106] Creating Layer conv4_4_conv4_4/relu_0_split
I1214 16:04:08.513695 13869 net.cpp:454] conv4_4_conv4_4/relu_0_split <- conv4_4
I1214 16:04:08.513712 13869 net.cpp:411] conv4_4_conv4_4/relu_0_split -> conv4_4_conv4_4/relu_0_split_0
I1214 16:04:08.513728 13869 net.cpp:411] conv4_4_conv4_4/relu_0_split -> conv4_4_conv4_4/relu_0_split_1
I1214 16:04:08.513782 13869 net.cpp:150] Setting up conv4_4_conv4_4/relu_0_split
I1214 16:04:08.513797 13869 net.cpp:157] Top shape: 1 1024 60 60 (3686400)
I1214 16:04:08.513808 13869 net.cpp:157] Top shape: 1 1024 60 60 (3686400)
I1214 16:04:08.513818 13869 net.cpp:165] Memory required for data: 1260942104
I1214 16:04:08.513826 13869 layer_factory.hpp:77] Creating layer conv4_5_1x1_reduce
I1214 16:04:08.513849 13869 net.cpp:106] Creating Layer conv4_5_1x1_reduce
I1214 16:04:08.513861 13869 net.cpp:454] conv4_5_1x1_reduce <- conv4_4_conv4_4/relu_0_split_0
I1214 16:04:08.513875 13869 net.cpp:411] conv4_5_1x1_reduce -> conv4_5_1x1_reduce
I1214 16:04:08.529932 13869 net.cpp:150] Setting up conv4_5_1x1_reduce
I1214 16:04:08.529953 13869 net.cpp:157] Top shape: 1 256 60 60 (921600)
I1214 16:04:08.529963 13869 net.cpp:165] Memory required for data: 1264628504
I1214 16:04:08.529980 13869 layer_factory.hpp:77] Creating layer conv4_5_1x1_reduce/bn
I1214 16:04:08.530007 13869 net.cpp:106] Creating Layer conv4_5_1x1_reduce/bn
I1214 16:04:08.530019 13869 net.cpp:454] conv4_5_1x1_reduce/bn <- conv4_5_1x1_reduce
I1214 16:04:08.530033 13869 net.cpp:397] conv4_5_1x1_reduce/bn -> conv4_5_1x1_reduce (in-place)
I1214 16:04:08.530320 13869 net.cpp:150] Setting up conv4_5_1x1_reduce/bn
I1214 16:04:08.530339 13869 net.cpp:157] Top shape: 1 256 60 60 (921600)
I1214 16:04:08.530347 13869 net.cpp:165] Memory required for data: 1268314904
I1214 16:04:08.530364 13869 layer_factory.hpp:77] Creating layer conv4_5_1x1_reduce/relu
I1214 16:04:08.530376 13869 net.cpp:106] Creating Layer conv4_5_1x1_reduce/relu
I1214 16:04:08.530386 13869 net.cpp:454] conv4_5_1x1_reduce/relu <- conv4_5_1x1_reduce
I1214 16:04:08.530398 13869 net.cpp:397] conv4_5_1x1_reduce/relu -> conv4_5_1x1_reduce (in-place)
I1214 16:04:08.530412 13869 net.cpp:150] Setting up conv4_5_1x1_reduce/relu
I1214 16:04:08.530424 13869 net.cpp:157] Top shape: 1 256 60 60 (921600)
I1214 16:04:08.530433 13869 net.cpp:165] Memory required for data: 1272001304
I1214 16:04:08.530442 13869 layer_factory.hpp:77] Creating layer conv4_5_3x3
I1214 16:04:08.530462 13869 net.cpp:106] Creating Layer conv4_5_3x3
I1214 16:04:08.530472 13869 net.cpp:454] conv4_5_3x3 <- conv4_5_1x1_reduce
I1214 16:04:08.530491 13869 net.cpp:411] conv4_5_3x3 -> conv4_5_3x3
I1214 16:04:08.566104 13869 net.cpp:150] Setting up conv4_5_3x3
I1214 16:04:08.566125 13869 net.cpp:157] Top shape: 1 256 60 60 (921600)
I1214 16:04:08.566135 13869 net.cpp:165] Memory required for data: 1275687704
I1214 16:04:08.566148 13869 layer_factory.hpp:77] Creating layer conv4_5_3x3/bn
I1214 16:04:08.566167 13869 net.cpp:106] Creating Layer conv4_5_3x3/bn
I1214 16:04:08.566179 13869 net.cpp:454] conv4_5_3x3/bn <- conv4_5_3x3
I1214 16:04:08.566192 13869 net.cpp:397] conv4_5_3x3/bn -> conv4_5_3x3 (in-place)
I1214 16:04:08.566479 13869 net.cpp:150] Setting up conv4_5_3x3/bn
I1214 16:04:08.566496 13869 net.cpp:157] Top shape: 1 256 60 60 (921600)
I1214 16:04:08.566506 13869 net.cpp:165] Memory required for data: 1279374104
I1214 16:04:08.566524 13869 layer_factory.hpp:77] Creating layer conv4_5_3x3/relu
I1214 16:04:08.566536 13869 net.cpp:106] Creating Layer conv4_5_3x3/relu
I1214 16:04:08.566545 13869 net.cpp:454] conv4_5_3x3/relu <- conv4_5_3x3
I1214 16:04:08.566557 13869 net.cpp:397] conv4_5_3x3/relu -> conv4_5_3x3 (in-place)
I1214 16:04:08.566571 13869 net.cpp:150] Setting up conv4_5_3x3/relu
I1214 16:04:08.566582 13869 net.cpp:157] Top shape: 1 256 60 60 (921600)
I1214 16:04:08.566591 13869 net.cpp:165] Memory required for data: 1283060504
I1214 16:04:08.566601 13869 layer_factory.hpp:77] Creating layer conv4_5_1x1_increase
I1214 16:04:08.566620 13869 net.cpp:106] Creating Layer conv4_5_1x1_increase
I1214 16:04:08.566632 13869 net.cpp:454] conv4_5_1x1_increase <- conv4_5_3x3
I1214 16:04:08.566648 13869 net.cpp:411] conv4_5_1x1_increase -> conv4_5_1x1_increase
I1214 16:04:08.582535 13869 net.cpp:150] Setting up conv4_5_1x1_increase
I1214 16:04:08.582556 13869 net.cpp:157] Top shape: 1 1024 60 60 (3686400)
I1214 16:04:08.582566 13869 net.cpp:165] Memory required for data: 1297806104
I1214 16:04:08.582577 13869 layer_factory.hpp:77] Creating layer conv4_5_1x1_increase/bn
I1214 16:04:08.582592 13869 net.cpp:106] Creating Layer conv4_5_1x1_increase/bn
I1214 16:04:08.582602 13869 net.cpp:454] conv4_5_1x1_increase/bn <- conv4_5_1x1_increase
I1214 16:04:08.582620 13869 net.cpp:397] conv4_5_1x1_increase/bn -> conv4_5_1x1_increase (in-place)
I1214 16:04:08.582903 13869 net.cpp:150] Setting up conv4_5_1x1_increase/bn
I1214 16:04:08.582921 13869 net.cpp:157] Top shape: 1 1024 60 60 (3686400)
I1214 16:04:08.582931 13869 net.cpp:165] Memory required for data: 1312551704
I1214 16:04:08.582947 13869 layer_factory.hpp:77] Creating layer conv4_5
I1214 16:04:08.582965 13869 net.cpp:106] Creating Layer conv4_5
I1214 16:04:08.582976 13869 net.cpp:454] conv4_5 <- conv4_4_conv4_4/relu_0_split_1
I1214 16:04:08.582993 13869 net.cpp:454] conv4_5 <- conv4_5_1x1_increase
I1214 16:04:08.583020 13869 net.cpp:411] conv4_5 -> conv4_5
I1214 16:04:08.583060 13869 net.cpp:150] Setting up conv4_5
I1214 16:04:08.583075 13869 net.cpp:157] Top shape: 1 1024 60 60 (3686400)
I1214 16:04:08.583083 13869 net.cpp:165] Memory required for data: 1327297304
I1214 16:04:08.583092 13869 layer_factory.hpp:77] Creating layer conv4_5/relu
I1214 16:04:08.583109 13869 net.cpp:106] Creating Layer conv4_5/relu
I1214 16:04:08.583120 13869 net.cpp:454] conv4_5/relu <- conv4_5
I1214 16:04:08.583135 13869 net.cpp:397] conv4_5/relu -> conv4_5 (in-place)
I1214 16:04:08.583149 13869 net.cpp:150] Setting up conv4_5/relu
I1214 16:04:08.583161 13869 net.cpp:157] Top shape: 1 1024 60 60 (3686400)
I1214 16:04:08.583169 13869 net.cpp:165] Memory required for data: 1342042904
I1214 16:04:08.583179 13869 layer_factory.hpp:77] Creating layer conv4_5_conv4_5/relu_0_split
I1214 16:04:08.583190 13869 net.cpp:106] Creating Layer conv4_5_conv4_5/relu_0_split
I1214 16:04:08.583199 13869 net.cpp:454] conv4_5_conv4_5/relu_0_split <- conv4_5
I1214 16:04:08.583211 13869 net.cpp:411] conv4_5_conv4_5/relu_0_split -> conv4_5_conv4_5/relu_0_split_0
I1214 16:04:08.583225 13869 net.cpp:411] conv4_5_conv4_5/relu_0_split -> conv4_5_conv4_5/relu_0_split_1
I1214 16:04:08.583287 13869 net.cpp:150] Setting up conv4_5_conv4_5/relu_0_split
I1214 16:04:08.583302 13869 net.cpp:157] Top shape: 1 1024 60 60 (3686400)
I1214 16:04:08.583313 13869 net.cpp:157] Top shape: 1 1024 60 60 (3686400)
I1214 16:04:08.583322 13869 net.cpp:165] Memory required for data: 1371534104
I1214 16:04:08.583330 13869 layer_factory.hpp:77] Creating layer conv4_6_1x1_reduce
I1214 16:04:08.583353 13869 net.cpp:106] Creating Layer conv4_6_1x1_reduce
I1214 16:04:08.583365 13869 net.cpp:454] conv4_6_1x1_reduce <- conv4_5_conv4_5/relu_0_split_0
I1214 16:04:08.583380 13869 net.cpp:411] conv4_6_1x1_reduce -> conv4_6_1x1_reduce
I1214 16:04:08.599609 13869 net.cpp:150] Setting up conv4_6_1x1_reduce
I1214 16:04:08.599630 13869 net.cpp:157] Top shape: 1 256 60 60 (921600)
I1214 16:04:08.599640 13869 net.cpp:165] Memory required for data: 1375220504
I1214 16:04:08.599653 13869 layer_factory.hpp:77] Creating layer conv4_6_1x1_reduce/bn
I1214 16:04:08.599673 13869 net.cpp:106] Creating Layer conv4_6_1x1_reduce/bn
I1214 16:04:08.599684 13869 net.cpp:454] conv4_6_1x1_reduce/bn <- conv4_6_1x1_reduce
I1214 16:04:08.599697 13869 net.cpp:397] conv4_6_1x1_reduce/bn -> conv4_6_1x1_reduce (in-place)
I1214 16:04:08.599982 13869 net.cpp:150] Setting up conv4_6_1x1_reduce/bn
I1214 16:04:08.600003 13869 net.cpp:157] Top shape: 1 256 60 60 (921600)
I1214 16:04:08.600013 13869 net.cpp:165] Memory required for data: 1378906904
I1214 16:04:08.600153 13869 layer_factory.hpp:77] Creating layer conv4_6_1x1_reduce/relu
I1214 16:04:08.600168 13869 net.cpp:106] Creating Layer conv4_6_1x1_reduce/relu
I1214 16:04:08.600178 13869 net.cpp:454] conv4_6_1x1_reduce/relu <- conv4_6_1x1_reduce
I1214 16:04:08.600190 13869 net.cpp:397] conv4_6_1x1_reduce/relu -> conv4_6_1x1_reduce (in-place)
I1214 16:04:08.600204 13869 net.cpp:150] Setting up conv4_6_1x1_reduce/relu
I1214 16:04:08.600216 13869 net.cpp:157] Top shape: 1 256 60 60 (921600)
I1214 16:04:08.600225 13869 net.cpp:165] Memory required for data: 1382593304
I1214 16:04:08.600234 13869 layer_factory.hpp:77] Creating layer conv4_6_3x3
I1214 16:04:08.600255 13869 net.cpp:106] Creating Layer conv4_6_3x3
I1214 16:04:08.600266 13869 net.cpp:454] conv4_6_3x3 <- conv4_6_1x1_reduce
I1214 16:04:08.600281 13869 net.cpp:411] conv4_6_3x3 -> conv4_6_3x3
I1214 16:04:08.636584 13869 net.cpp:150] Setting up conv4_6_3x3
I1214 16:04:08.636605 13869 net.cpp:157] Top shape: 1 256 60 60 (921600)
I1214 16:04:08.636615 13869 net.cpp:165] Memory required for data: 1386279704
I1214 16:04:08.636627 13869 layer_factory.hpp:77] Creating layer conv4_6_3x3/bn
I1214 16:04:08.636642 13869 net.cpp:106] Creating Layer conv4_6_3x3/bn
I1214 16:04:08.636652 13869 net.cpp:454] conv4_6_3x3/bn <- conv4_6_3x3
I1214 16:04:08.636670 13869 net.cpp:397] conv4_6_3x3/bn -> conv4_6_3x3 (in-place)
I1214 16:04:08.636977 13869 net.cpp:150] Setting up conv4_6_3x3/bn
I1214 16:04:08.636996 13869 net.cpp:157] Top shape: 1 256 60 60 (921600)
I1214 16:04:08.637006 13869 net.cpp:165] Memory required for data: 1389966104
I1214 16:04:08.637022 13869 layer_factory.hpp:77] Creating layer conv4_6_3x3/relu
I1214 16:04:08.637038 13869 net.cpp:106] Creating Layer conv4_6_3x3/relu
I1214 16:04:08.637050 13869 net.cpp:454] conv4_6_3x3/relu <- conv4_6_3x3
I1214 16:04:08.637063 13869 net.cpp:397] conv4_6_3x3/relu -> conv4_6_3x3 (in-place)
I1214 16:04:08.637075 13869 net.cpp:150] Setting up conv4_6_3x3/relu
I1214 16:04:08.637087 13869 net.cpp:157] Top shape: 1 256 60 60 (921600)
I1214 16:04:08.637096 13869 net.cpp:165] Memory required for data: 1393652504
I1214 16:04:08.637106 13869 layer_factory.hpp:77] Creating layer conv4_6_1x1_increase
I1214 16:04:08.637120 13869 net.cpp:106] Creating Layer conv4_6_1x1_increase
I1214 16:04:08.637130 13869 net.cpp:454] conv4_6_1x1_increase <- conv4_6_3x3
I1214 16:04:08.637146 13869 net.cpp:411] conv4_6_1x1_increase -> conv4_6_1x1_increase
I1214 16:04:08.653101 13869 net.cpp:150] Setting up conv4_6_1x1_increase
I1214 16:04:08.653122 13869 net.cpp:157] Top shape: 1 1024 60 60 (3686400)
I1214 16:04:08.653132 13869 net.cpp:165] Memory required for data: 1408398104
I1214 16:04:08.653144 13869 layer_factory.hpp:77] Creating layer conv4_6_1x1_increase/bn
I1214 16:04:08.653159 13869 net.cpp:106] Creating Layer conv4_6_1x1_increase/bn
I1214 16:04:08.653170 13869 net.cpp:454] conv4_6_1x1_increase/bn <- conv4_6_1x1_increase
I1214 16:04:08.653188 13869 net.cpp:397] conv4_6_1x1_increase/bn -> conv4_6_1x1_increase (in-place)
I1214 16:04:08.653487 13869 net.cpp:150] Setting up conv4_6_1x1_increase/bn
I1214 16:04:08.653506 13869 net.cpp:157] Top shape: 1 1024 60 60 (3686400)
I1214 16:04:08.653514 13869 net.cpp:165] Memory required for data: 1423143704
I1214 16:04:08.653532 13869 layer_factory.hpp:77] Creating layer conv4_6
I1214 16:04:08.653549 13869 net.cpp:106] Creating Layer conv4_6
I1214 16:04:08.653561 13869 net.cpp:454] conv4_6 <- conv4_5_conv4_5/relu_0_split_1
I1214 16:04:08.653573 13869 net.cpp:454] conv4_6 <- conv4_6_1x1_increase
I1214 16:04:08.653585 13869 net.cpp:411] conv4_6 -> conv4_6
I1214 16:04:08.653625 13869 net.cpp:150] Setting up conv4_6
I1214 16:04:08.653640 13869 net.cpp:157] Top shape: 1 1024 60 60 (3686400)
I1214 16:04:08.653648 13869 net.cpp:165] Memory required for data: 1437889304
I1214 16:04:08.653657 13869 layer_factory.hpp:77] Creating layer conv4_6/relu
I1214 16:04:08.653669 13869 net.cpp:106] Creating Layer conv4_6/relu
I1214 16:04:08.653678 13869 net.cpp:454] conv4_6/relu <- conv4_6
I1214 16:04:08.653695 13869 net.cpp:397] conv4_6/relu -> conv4_6 (in-place)
I1214 16:04:08.653710 13869 net.cpp:150] Setting up conv4_6/relu
I1214 16:04:08.653723 13869 net.cpp:157] Top shape: 1 1024 60 60 (3686400)
I1214 16:04:08.653731 13869 net.cpp:165] Memory required for data: 1452634904
I1214 16:04:08.653740 13869 layer_factory.hpp:77] Creating layer conv4_6_conv4_6/relu_0_split
I1214 16:04:08.653753 13869 net.cpp:106] Creating Layer conv4_6_conv4_6/relu_0_split
I1214 16:04:08.653762 13869 net.cpp:454] conv4_6_conv4_6/relu_0_split <- conv4_6
I1214 16:04:08.653777 13869 net.cpp:411] conv4_6_conv4_6/relu_0_split -> conv4_6_conv4_6/relu_0_split_0
I1214 16:04:08.653792 13869 net.cpp:411] conv4_6_conv4_6/relu_0_split -> conv4_6_conv4_6/relu_0_split_1
I1214 16:04:08.653849 13869 net.cpp:150] Setting up conv4_6_conv4_6/relu_0_split
I1214 16:04:08.653865 13869 net.cpp:157] Top shape: 1 1024 60 60 (3686400)
I1214 16:04:08.653880 13869 net.cpp:157] Top shape: 1 1024 60 60 (3686400)
I1214 16:04:08.653889 13869 net.cpp:165] Memory required for data: 1482126104
I1214 16:04:08.653898 13869 layer_factory.hpp:77] Creating layer conv5_1_1x1_reduce
I1214 16:04:08.653913 13869 net.cpp:106] Creating Layer conv5_1_1x1_reduce
I1214 16:04:08.653924 13869 net.cpp:454] conv5_1_1x1_reduce <- conv4_6_conv4_6/relu_0_split_0
I1214 16:04:08.653941 13869 net.cpp:411] conv5_1_1x1_reduce -> conv5_1_1x1_reduce
I1214 16:04:08.686086 13869 net.cpp:150] Setting up conv5_1_1x1_reduce
I1214 16:04:08.686116 13869 net.cpp:157] Top shape: 1 512 60 60 (1843200)
I1214 16:04:08.686126 13869 net.cpp:165] Memory required for data: 1489498904
I1214 16:04:08.686138 13869 layer_factory.hpp:77] Creating layer conv5_1_1x1_reduce/bn
I1214 16:04:08.686153 13869 net.cpp:106] Creating Layer conv5_1_1x1_reduce/bn
I1214 16:04:08.686163 13869 net.cpp:454] conv5_1_1x1_reduce/bn <- conv5_1_1x1_reduce
I1214 16:04:08.686182 13869 net.cpp:397] conv5_1_1x1_reduce/bn -> conv5_1_1x1_reduce (in-place)
I1214 16:04:08.686473 13869 net.cpp:150] Setting up conv5_1_1x1_reduce/bn
I1214 16:04:08.686491 13869 net.cpp:157] Top shape: 1 512 60 60 (1843200)
I1214 16:04:08.686501 13869 net.cpp:165] Memory required for data: 1496871704
I1214 16:04:08.686518 13869 layer_factory.hpp:77] Creating layer conv5_1_1x1_reduce/relu
I1214 16:04:08.686535 13869 net.cpp:106] Creating Layer conv5_1_1x1_reduce/relu
I1214 16:04:08.686547 13869 net.cpp:454] conv5_1_1x1_reduce/relu <- conv5_1_1x1_reduce
I1214 16:04:08.686558 13869 net.cpp:397] conv5_1_1x1_reduce/relu -> conv5_1_1x1_reduce (in-place)
I1214 16:04:08.686573 13869 net.cpp:150] Setting up conv5_1_1x1_reduce/relu
I1214 16:04:08.686584 13869 net.cpp:157] Top shape: 1 512 60 60 (1843200)
I1214 16:04:08.686594 13869 net.cpp:165] Memory required for data: 1504244504
I1214 16:04:08.686604 13869 layer_factory.hpp:77] Creating layer conv5_1_3x3
I1214 16:04:08.686617 13869 net.cpp:106] Creating Layer conv5_1_3x3
I1214 16:04:08.686627 13869 net.cpp:454] conv5_1_3x3 <- conv5_1_1x1_reduce
I1214 16:04:08.686645 13869 net.cpp:411] conv5_1_3x3 -> conv5_1_3x3
I1214 16:04:08.829329 13869 net.cpp:150] Setting up conv5_1_3x3
I1214 16:04:08.829354 13869 net.cpp:157] Top shape: 1 512 60 60 (1843200)
I1214 16:04:08.829362 13869 net.cpp:165] Memory required for data: 1511617304
I1214 16:04:08.829375 13869 layer_factory.hpp:77] Creating layer conv5_1_3x3/bn
I1214 16:04:08.829391 13869 net.cpp:106] Creating Layer conv5_1_3x3/bn
I1214 16:04:08.829401 13869 net.cpp:454] conv5_1_3x3/bn <- conv5_1_3x3
I1214 16:04:08.829414 13869 net.cpp:397] conv5_1_3x3/bn -> conv5_1_3x3 (in-place)
I1214 16:04:08.829712 13869 net.cpp:150] Setting up conv5_1_3x3/bn
I1214 16:04:08.829730 13869 net.cpp:157] Top shape: 1 512 60 60 (1843200)
I1214 16:04:08.829738 13869 net.cpp:165] Memory required for data: 1518990104
I1214 16:04:08.829756 13869 layer_factory.hpp:77] Creating layer conv5_1_3x3/relu
I1214 16:04:08.829768 13869 net.cpp:106] Creating Layer conv5_1_3x3/relu
I1214 16:04:08.829778 13869 net.cpp:454] conv5_1_3x3/relu <- conv5_1_3x3
I1214 16:04:08.829794 13869 net.cpp:397] conv5_1_3x3/relu -> conv5_1_3x3 (in-place)
I1214 16:04:08.829810 13869 net.cpp:150] Setting up conv5_1_3x3/relu
I1214 16:04:08.829823 13869 net.cpp:157] Top shape: 1 512 60 60 (1843200)
I1214 16:04:08.829831 13869 net.cpp:165] Memory required for data: 1526362904
I1214 16:04:08.829841 13869 layer_factory.hpp:77] Creating layer conv5_1_1x1_increase
I1214 16:04:08.829857 13869 net.cpp:106] Creating Layer conv5_1_1x1_increase
I1214 16:04:08.829869 13869 net.cpp:454] conv5_1_1x1_increase <- conv5_1_3x3
I1214 16:04:08.829881 13869 net.cpp:411] conv5_1_1x1_increase -> conv5_1_1x1_increase
I1214 16:04:08.893712 13869 net.cpp:150] Setting up conv5_1_1x1_increase
I1214 16:04:08.893734 13869 net.cpp:157] Top shape: 1 2048 60 60 (7372800)
I1214 16:04:08.893743 13869 net.cpp:165] Memory required for data: 1555854104
I1214 16:04:08.893756 13869 layer_factory.hpp:77] Creating layer conv5_1_1x1_increase/bn
I1214 16:04:08.893775 13869 net.cpp:106] Creating Layer conv5_1_1x1_increase/bn
I1214 16:04:08.893787 13869 net.cpp:454] conv5_1_1x1_increase/bn <- conv5_1_1x1_increase
I1214 16:04:08.893801 13869 net.cpp:397] conv5_1_1x1_increase/bn -> conv5_1_1x1_increase (in-place)
I1214 16:04:08.894104 13869 net.cpp:150] Setting up conv5_1_1x1_increase/bn
I1214 16:04:08.894121 13869 net.cpp:157] Top shape: 1 2048 60 60 (7372800)
I1214 16:04:08.894131 13869 net.cpp:165] Memory required for data: 1585345304
I1214 16:04:08.894155 13869 layer_factory.hpp:77] Creating layer conv5_1_1x1_proj
I1214 16:04:08.894181 13869 net.cpp:106] Creating Layer conv5_1_1x1_proj
I1214 16:04:08.894191 13869 net.cpp:454] conv5_1_1x1_proj <- conv4_6_conv4_6/relu_0_split_1
I1214 16:04:08.894212 13869 net.cpp:411] conv5_1_1x1_proj -> conv5_1_1x1_proj
I1214 16:04:09.020968 13869 net.cpp:150] Setting up conv5_1_1x1_proj
I1214 16:04:09.020992 13869 net.cpp:157] Top shape: 1 2048 60 60 (7372800)
I1214 16:04:09.021003 13869 net.cpp:165] Memory required for data: 1614836504
I1214 16:04:09.021015 13869 layer_factory.hpp:77] Creating layer conv5_1_1x1_proj/bn
I1214 16:04:09.021030 13869 net.cpp:106] Creating Layer conv5_1_1x1_proj/bn
I1214 16:04:09.021041 13869 net.cpp:454] conv5_1_1x1_proj/bn <- conv5_1_1x1_proj
I1214 16:04:09.021059 13869 net.cpp:397] conv5_1_1x1_proj/bn -> conv5_1_1x1_proj (in-place)
I1214 16:04:09.021366 13869 net.cpp:150] Setting up conv5_1_1x1_proj/bn
I1214 16:04:09.021384 13869 net.cpp:157] Top shape: 1 2048 60 60 (7372800)
I1214 16:04:09.021394 13869 net.cpp:165] Memory required for data: 1644327704
I1214 16:04:09.021410 13869 layer_factory.hpp:77] Creating layer conv5_1
I1214 16:04:09.021430 13869 net.cpp:106] Creating Layer conv5_1
I1214 16:04:09.021441 13869 net.cpp:454] conv5_1 <- conv5_1_1x1_proj
I1214 16:04:09.021452 13869 net.cpp:454] conv5_1 <- conv5_1_1x1_increase
I1214 16:04:09.021466 13869 net.cpp:411] conv5_1 -> conv5_1
I1214 16:04:09.021507 13869 net.cpp:150] Setting up conv5_1
I1214 16:04:09.021522 13869 net.cpp:157] Top shape: 1 2048 60 60 (7372800)
I1214 16:04:09.021531 13869 net.cpp:165] Memory required for data: 1673818904
I1214 16:04:09.021540 13869 layer_factory.hpp:77] Creating layer conv5_1/relu
I1214 16:04:09.021558 13869 net.cpp:106] Creating Layer conv5_1/relu
I1214 16:04:09.021569 13869 net.cpp:454] conv5_1/relu <- conv5_1
I1214 16:04:09.021581 13869 net.cpp:397] conv5_1/relu -> conv5_1 (in-place)
I1214 16:04:09.021595 13869 net.cpp:150] Setting up conv5_1/relu
I1214 16:04:09.021607 13869 net.cpp:157] Top shape: 1 2048 60 60 (7372800)
I1214 16:04:09.021616 13869 net.cpp:165] Memory required for data: 1703310104
I1214 16:04:09.021625 13869 layer_factory.hpp:77] Creating layer conv5_1_conv5_1/relu_0_split
I1214 16:04:09.021639 13869 net.cpp:106] Creating Layer conv5_1_conv5_1/relu_0_split
I1214 16:04:09.021651 13869 net.cpp:454] conv5_1_conv5_1/relu_0_split <- conv5_1
I1214 16:04:09.021662 13869 net.cpp:411] conv5_1_conv5_1/relu_0_split -> conv5_1_conv5_1/relu_0_split_0
I1214 16:04:09.021677 13869 net.cpp:411] conv5_1_conv5_1/relu_0_split -> conv5_1_conv5_1/relu_0_split_1
I1214 16:04:09.021740 13869 net.cpp:150] Setting up conv5_1_conv5_1/relu_0_split
I1214 16:04:09.021756 13869 net.cpp:157] Top shape: 1 2048 60 60 (7372800)
I1214 16:04:09.021767 13869 net.cpp:157] Top shape: 1 2048 60 60 (7372800)
I1214 16:04:09.021776 13869 net.cpp:165] Memory required for data: 1762292504
I1214 16:04:09.021785 13869 layer_factory.hpp:77] Creating layer conv5_2_1x1_reduce
I1214 16:04:09.021805 13869 net.cpp:106] Creating Layer conv5_2_1x1_reduce
I1214 16:04:09.021816 13869 net.cpp:454] conv5_2_1x1_reduce <- conv5_1_conv5_1/relu_0_split_0
I1214 16:04:09.021832 13869 net.cpp:411] conv5_2_1x1_reduce -> conv5_2_1x1_reduce
I1214 16:04:09.085548 13869 net.cpp:150] Setting up conv5_2_1x1_reduce
I1214 16:04:09.085571 13869 net.cpp:157] Top shape: 1 512 60 60 (1843200)
I1214 16:04:09.085579 13869 net.cpp:165] Memory required for data: 1769665304
I1214 16:04:09.085592 13869 layer_factory.hpp:77] Creating layer conv5_2_1x1_reduce/bn
I1214 16:04:09.085608 13869 net.cpp:106] Creating Layer conv5_2_1x1_reduce/bn
I1214 16:04:09.085618 13869 net.cpp:454] conv5_2_1x1_reduce/bn <- conv5_2_1x1_reduce
I1214 16:04:09.085635 13869 net.cpp:397] conv5_2_1x1_reduce/bn -> conv5_2_1x1_reduce (in-place)
I1214 16:04:09.085943 13869 net.cpp:150] Setting up conv5_2_1x1_reduce/bn
I1214 16:04:09.085961 13869 net.cpp:157] Top shape: 1 512 60 60 (1843200)
I1214 16:04:09.085970 13869 net.cpp:165] Memory required for data: 1777038104
I1214 16:04:09.085988 13869 layer_factory.hpp:77] Creating layer conv5_2_1x1_reduce/relu
I1214 16:04:09.086015 13869 net.cpp:106] Creating Layer conv5_2_1x1_reduce/relu
I1214 16:04:09.086026 13869 net.cpp:454] conv5_2_1x1_reduce/relu <- conv5_2_1x1_reduce
I1214 16:04:09.086038 13869 net.cpp:397] conv5_2_1x1_reduce/relu -> conv5_2_1x1_reduce (in-place)
I1214 16:04:09.086051 13869 net.cpp:150] Setting up conv5_2_1x1_reduce/relu
I1214 16:04:09.086064 13869 net.cpp:157] Top shape: 1 512 60 60 (1843200)
I1214 16:04:09.086073 13869 net.cpp:165] Memory required for data: 1784410904
I1214 16:04:09.086082 13869 layer_factory.hpp:77] Creating layer conv5_2_3x3
I1214 16:04:09.086097 13869 net.cpp:106] Creating Layer conv5_2_3x3
I1214 16:04:09.086107 13869 net.cpp:454] conv5_2_3x3 <- conv5_2_1x1_reduce
I1214 16:04:09.086124 13869 net.cpp:411] conv5_2_3x3 -> conv5_2_3x3
I1214 16:04:09.229281 13869 net.cpp:150] Setting up conv5_2_3x3
I1214 16:04:09.229306 13869 net.cpp:157] Top shape: 1 512 60 60 (1843200)
I1214 16:04:09.229316 13869 net.cpp:165] Memory required for data: 1791783704
I1214 16:04:09.229331 13869 layer_factory.hpp:77] Creating layer conv5_2_3x3/bn
I1214 16:04:09.229346 13869 net.cpp:106] Creating Layer conv5_2_3x3/bn
I1214 16:04:09.229357 13869 net.cpp:454] conv5_2_3x3/bn <- conv5_2_3x3
I1214 16:04:09.229374 13869 net.cpp:397] conv5_2_3x3/bn -> conv5_2_3x3 (in-place)
I1214 16:04:09.229686 13869 net.cpp:150] Setting up conv5_2_3x3/bn
I1214 16:04:09.229703 13869 net.cpp:157] Top shape: 1 512 60 60 (1843200)
I1214 16:04:09.229712 13869 net.cpp:165] Memory required for data: 1799156504
I1214 16:04:09.229730 13869 layer_factory.hpp:77] Creating layer conv5_2_3x3/relu
I1214 16:04:09.229750 13869 net.cpp:106] Creating Layer conv5_2_3x3/relu
I1214 16:04:09.229761 13869 net.cpp:454] conv5_2_3x3/relu <- conv5_2_3x3
I1214 16:04:09.229773 13869 net.cpp:397] conv5_2_3x3/relu -> conv5_2_3x3 (in-place)
I1214 16:04:09.229787 13869 net.cpp:150] Setting up conv5_2_3x3/relu
I1214 16:04:09.229799 13869 net.cpp:157] Top shape: 1 512 60 60 (1843200)
I1214 16:04:09.229809 13869 net.cpp:165] Memory required for data: 1806529304
I1214 16:04:09.229818 13869 layer_factory.hpp:77] Creating layer conv5_2_1x1_increase
I1214 16:04:09.229833 13869 net.cpp:106] Creating Layer conv5_2_1x1_increase
I1214 16:04:09.229843 13869 net.cpp:454] conv5_2_1x1_increase <- conv5_2_3x3
I1214 16:04:09.229861 13869 net.cpp:411] conv5_2_1x1_increase -> conv5_2_1x1_increase
I1214 16:04:09.293763 13869 net.cpp:150] Setting up conv5_2_1x1_increase
I1214 16:04:09.293786 13869 net.cpp:157] Top shape: 1 2048 60 60 (7372800)
I1214 16:04:09.293794 13869 net.cpp:165] Memory required for data: 1836020504
I1214 16:04:09.293807 13869 layer_factory.hpp:77] Creating layer conv5_2_1x1_increase/bn
I1214 16:04:09.293823 13869 net.cpp:106] Creating Layer conv5_2_1x1_increase/bn
I1214 16:04:09.293833 13869 net.cpp:454] conv5_2_1x1_increase/bn <- conv5_2_1x1_increase
I1214 16:04:09.293845 13869 net.cpp:397] conv5_2_1x1_increase/bn -> conv5_2_1x1_increase (in-place)
I1214 16:04:09.294158 13869 net.cpp:150] Setting up conv5_2_1x1_increase/bn
I1214 16:04:09.294176 13869 net.cpp:157] Top shape: 1 2048 60 60 (7372800)
I1214 16:04:09.294185 13869 net.cpp:165] Memory required for data: 1865511704
I1214 16:04:09.294239 13869 layer_factory.hpp:77] Creating layer conv5_2
I1214 16:04:09.294256 13869 net.cpp:106] Creating Layer conv5_2
I1214 16:04:09.294267 13869 net.cpp:454] conv5_2 <- conv5_1_conv5_1/relu_0_split_1
I1214 16:04:09.294278 13869 net.cpp:454] conv5_2 <- conv5_2_1x1_increase
I1214 16:04:09.294291 13869 net.cpp:411] conv5_2 -> conv5_2
I1214 16:04:09.294338 13869 net.cpp:150] Setting up conv5_2
I1214 16:04:09.294354 13869 net.cpp:157] Top shape: 1 2048 60 60 (7372800)
I1214 16:04:09.294363 13869 net.cpp:165] Memory required for data: 1895002904
I1214 16:04:09.294373 13869 layer_factory.hpp:77] Creating layer conv5_2/relu
I1214 16:04:09.294384 13869 net.cpp:106] Creating Layer conv5_2/relu
I1214 16:04:09.294394 13869 net.cpp:454] conv5_2/relu <- conv5_2
I1214 16:04:09.294409 13869 net.cpp:397] conv5_2/relu -> conv5_2 (in-place)
I1214 16:04:09.294430 13869 net.cpp:150] Setting up conv5_2/relu
I1214 16:04:09.294452 13869 net.cpp:157] Top shape: 1 2048 60 60 (7372800)
I1214 16:04:09.294461 13869 net.cpp:165] Memory required for data: 1924494104
I1214 16:04:09.294471 13869 layer_factory.hpp:77] Creating layer conv5_2_conv5_2/relu_0_split
I1214 16:04:09.294482 13869 net.cpp:106] Creating Layer conv5_2_conv5_2/relu_0_split
I1214 16:04:09.294492 13869 net.cpp:454] conv5_2_conv5_2/relu_0_split <- conv5_2
I1214 16:04:09.294508 13869 net.cpp:411] conv5_2_conv5_2/relu_0_split -> conv5_2_conv5_2/relu_0_split_0
I1214 16:04:09.294524 13869 net.cpp:411] conv5_2_conv5_2/relu_0_split -> conv5_2_conv5_2/relu_0_split_1
I1214 16:04:09.294582 13869 net.cpp:150] Setting up conv5_2_conv5_2/relu_0_split
I1214 16:04:09.294598 13869 net.cpp:157] Top shape: 1 2048 60 60 (7372800)
I1214 16:04:09.294610 13869 net.cpp:157] Top shape: 1 2048 60 60 (7372800)
I1214 16:04:09.294618 13869 net.cpp:165] Memory required for data: 1983476504
I1214 16:04:09.294627 13869 layer_factory.hpp:77] Creating layer conv5_3_1x1_reduce
I1214 16:04:09.294646 13869 net.cpp:106] Creating Layer conv5_3_1x1_reduce
I1214 16:04:09.294658 13869 net.cpp:454] conv5_3_1x1_reduce <- conv5_2_conv5_2/relu_0_split_0
I1214 16:04:09.294672 13869 net.cpp:411] conv5_3_1x1_reduce -> conv5_3_1x1_reduce
I1214 16:04:09.359109 13869 net.cpp:150] Setting up conv5_3_1x1_reduce
I1214 16:04:09.359130 13869 net.cpp:157] Top shape: 1 512 60 60 (1843200)
I1214 16:04:09.359140 13869 net.cpp:165] Memory required for data: 1990849304
I1214 16:04:09.359153 13869 layer_factory.hpp:77] Creating layer conv5_3_1x1_reduce/bn
I1214 16:04:09.359172 13869 net.cpp:106] Creating Layer conv5_3_1x1_reduce/bn
I1214 16:04:09.359185 13869 net.cpp:454] conv5_3_1x1_reduce/bn <- conv5_3_1x1_reduce
I1214 16:04:09.359199 13869 net.cpp:397] conv5_3_1x1_reduce/bn -> conv5_3_1x1_reduce (in-place)
I1214 16:04:09.359504 13869 net.cpp:150] Setting up conv5_3_1x1_reduce/bn
I1214 16:04:09.359521 13869 net.cpp:157] Top shape: 1 512 60 60 (1843200)
I1214 16:04:09.359531 13869 net.cpp:165] Memory required for data: 1998222104
I1214 16:04:09.359549 13869 layer_factory.hpp:77] Creating layer conv5_3_1x1_reduce/relu
I1214 16:04:09.359560 13869 net.cpp:106] Creating Layer conv5_3_1x1_reduce/relu
I1214 16:04:09.359570 13869 net.cpp:454] conv5_3_1x1_reduce/relu <- conv5_3_1x1_reduce
I1214 16:04:09.359582 13869 net.cpp:397] conv5_3_1x1_reduce/relu -> conv5_3_1x1_reduce (in-place)
I1214 16:04:09.359596 13869 net.cpp:150] Setting up conv5_3_1x1_reduce/relu
I1214 16:04:09.359608 13869 net.cpp:157] Top shape: 1 512 60 60 (1843200)
I1214 16:04:09.359616 13869 net.cpp:165] Memory required for data: 2005594904
I1214 16:04:09.359627 13869 layer_factory.hpp:77] Creating layer conv5_3_3x3
I1214 16:04:09.359645 13869 net.cpp:106] Creating Layer conv5_3_3x3
I1214 16:04:09.359657 13869 net.cpp:454] conv5_3_3x3 <- conv5_3_1x1_reduce
I1214 16:04:09.359673 13869 net.cpp:411] conv5_3_3x3 -> conv5_3_3x3
I1214 16:04:09.503036 13869 net.cpp:150] Setting up conv5_3_3x3
I1214 16:04:09.503060 13869 net.cpp:157] Top shape: 1 512 60 60 (1843200)
I1214 16:04:09.503070 13869 net.cpp:165] Memory required for data: 2012967704
I1214 16:04:09.503083 13869 layer_factory.hpp:77] Creating layer conv5_3_3x3/bn
I1214 16:04:09.503101 13869 net.cpp:106] Creating Layer conv5_3_3x3/bn
I1214 16:04:09.503113 13869 net.cpp:454] conv5_3_3x3/bn <- conv5_3_3x3
I1214 16:04:09.503129 13869 net.cpp:397] conv5_3_3x3/bn -> conv5_3_3x3 (in-place)
I1214 16:04:09.503442 13869 net.cpp:150] Setting up conv5_3_3x3/bn
I1214 16:04:09.503458 13869 net.cpp:157] Top shape: 1 512 60 60 (1843200)
I1214 16:04:09.503468 13869 net.cpp:165] Memory required for data: 2020340504
I1214 16:04:09.503485 13869 layer_factory.hpp:77] Creating layer conv5_3_3x3/relu
I1214 16:04:09.503499 13869 net.cpp:106] Creating Layer conv5_3_3x3/relu
I1214 16:04:09.503507 13869 net.cpp:454] conv5_3_3x3/relu <- conv5_3_3x3
I1214 16:04:09.503520 13869 net.cpp:397] conv5_3_3x3/relu -> conv5_3_3x3 (in-place)
I1214 16:04:09.503533 13869 net.cpp:150] Setting up conv5_3_3x3/relu
I1214 16:04:09.503551 13869 net.cpp:157] Top shape: 1 512 60 60 (1843200)
I1214 16:04:09.503571 13869 net.cpp:165] Memory required for data: 2027713304
I1214 16:04:09.503581 13869 layer_factory.hpp:77] Creating layer conv5_3_1x1_increase
I1214 16:04:09.503594 13869 net.cpp:106] Creating Layer conv5_3_1x1_increase
I1214 16:04:09.503604 13869 net.cpp:454] conv5_3_1x1_increase <- conv5_3_3x3
I1214 16:04:09.503623 13869 net.cpp:411] conv5_3_1x1_increase -> conv5_3_1x1_increase
I1214 16:04:09.567368 13869 net.cpp:150] Setting up conv5_3_1x1_increase
I1214 16:04:09.567390 13869 net.cpp:157] Top shape: 1 2048 60 60 (7372800)
I1214 16:04:09.567399 13869 net.cpp:165] Memory required for data: 2057204504
I1214 16:04:09.567412 13869 layer_factory.hpp:77] Creating layer conv5_3_1x1_increase/bn
I1214 16:04:09.567427 13869 net.cpp:106] Creating Layer conv5_3_1x1_increase/bn
I1214 16:04:09.567438 13869 net.cpp:454] conv5_3_1x1_increase/bn <- conv5_3_1x1_increase
I1214 16:04:09.567456 13869 net.cpp:397] conv5_3_1x1_increase/bn -> conv5_3_1x1_increase (in-place)
I1214 16:04:09.567772 13869 net.cpp:150] Setting up conv5_3_1x1_increase/bn
I1214 16:04:09.567790 13869 net.cpp:157] Top shape: 1 2048 60 60 (7372800)
I1214 16:04:09.567800 13869 net.cpp:165] Memory required for data: 2086695704
I1214 16:04:09.567817 13869 layer_factory.hpp:77] Creating layer conv5_3
I1214 16:04:09.567836 13869 net.cpp:106] Creating Layer conv5_3
I1214 16:04:09.567847 13869 net.cpp:454] conv5_3 <- conv5_2_conv5_2/relu_0_split_1
I1214 16:04:09.567858 13869 net.cpp:454] conv5_3 <- conv5_3_1x1_increase
I1214 16:04:09.567872 13869 net.cpp:411] conv5_3 -> conv5_3
I1214 16:04:09.567912 13869 net.cpp:150] Setting up conv5_3
I1214 16:04:09.567927 13869 net.cpp:157] Top shape: 1 2048 60 60 (7372800)
I1214 16:04:09.567936 13869 net.cpp:165] Memory required for data: 2116186904
I1214 16:04:09.567945 13869 layer_factory.hpp:77] Creating layer conv5_3/relu
I1214 16:04:09.567962 13869 net.cpp:106] Creating Layer conv5_3/relu
I1214 16:04:09.567973 13869 net.cpp:454] conv5_3/relu <- conv5_3
I1214 16:04:09.567986 13869 net.cpp:397] conv5_3/relu -> conv5_3 (in-place)
I1214 16:04:09.567999 13869 net.cpp:150] Setting up conv5_3/relu
I1214 16:04:09.568011 13869 net.cpp:157] Top shape: 1 2048 60 60 (7372800)
I1214 16:04:09.568019 13869 net.cpp:165] Memory required for data: 2145678104
I1214 16:04:09.568028 13869 layer_factory.hpp:77] Creating layer conv5_3_conv5_3/relu_0_split
I1214 16:04:09.568044 13869 net.cpp:106] Creating Layer conv5_3_conv5_3/relu_0_split
I1214 16:04:09.568055 13869 net.cpp:454] conv5_3_conv5_3/relu_0_split <- conv5_3
I1214 16:04:09.568068 13869 net.cpp:411] conv5_3_conv5_3/relu_0_split -> conv5_3_conv5_3/relu_0_split_0
I1214 16:04:09.568094 13869 net.cpp:411] conv5_3_conv5_3/relu_0_split -> conv5_3_conv5_3/relu_0_split_1
I1214 16:04:09.568109 13869 net.cpp:411] conv5_3_conv5_3/relu_0_split -> conv5_3_conv5_3/relu_0_split_2
I1214 16:04:09.568125 13869 net.cpp:411] conv5_3_conv5_3/relu_0_split -> conv5_3_conv5_3/relu_0_split_3
I1214 16:04:09.568142 13869 net.cpp:411] conv5_3_conv5_3/relu_0_split -> conv5_3_conv5_3/relu_0_split_4
I1214 16:04:09.568266 13869 net.cpp:150] Setting up conv5_3_conv5_3/relu_0_split
I1214 16:04:09.568284 13869 net.cpp:157] Top shape: 1 2048 60 60 (7372800)
I1214 16:04:09.568295 13869 net.cpp:157] Top shape: 1 2048 60 60 (7372800)
I1214 16:04:09.568305 13869 net.cpp:157] Top shape: 1 2048 60 60 (7372800)
I1214 16:04:09.568316 13869 net.cpp:157] Top shape: 1 2048 60 60 (7372800)
I1214 16:04:09.568327 13869 net.cpp:157] Top shape: 1 2048 60 60 (7372800)
I1214 16:04:09.568336 13869 net.cpp:165] Memory required for data: 2293134104
I1214 16:04:09.568346 13869 layer_factory.hpp:77] Creating layer conv5_3_pool1
I1214 16:04:09.568361 13869 net.cpp:106] Creating Layer conv5_3_pool1
I1214 16:04:09.568372 13869 net.cpp:454] conv5_3_pool1 <- conv5_3_conv5_3/relu_0_split_0
I1214 16:04:09.568384 13869 net.cpp:411] conv5_3_pool1 -> conv5_3_pool1
I1214 16:04:09.568431 13869 net.cpp:150] Setting up conv5_3_pool1
I1214 16:04:09.568452 13869 net.cpp:157] Top shape: 1 2048 1 1 (2048)
I1214 16:04:09.568472 13869 net.cpp:165] Memory required for data: 2293142296
I1214 16:04:09.568482 13869 layer_factory.hpp:77] Creating layer conv5_3_pool1_conv
I1214 16:04:09.568500 13869 net.cpp:106] Creating Layer conv5_3_pool1_conv
I1214 16:04:09.568511 13869 net.cpp:454] conv5_3_pool1_conv <- conv5_3_pool1
I1214 16:04:09.568523 13869 net.cpp:411] conv5_3_pool1_conv -> conv5_3_pool1_conv
I1214 16:04:09.632613 13869 net.cpp:150] Setting up conv5_3_pool1_conv
I1214 16:04:09.632635 13869 net.cpp:157] Top shape: 1 512 1 1 (512)
I1214 16:04:09.632644 13869 net.cpp:165] Memory required for data: 2293144344
I1214 16:04:09.632658 13869 layer_factory.hpp:77] Creating layer conv5_3_pool1_conv/bn
I1214 16:04:09.632676 13869 net.cpp:106] Creating Layer conv5_3_pool1_conv/bn
I1214 16:04:09.632688 13869 net.cpp:454] conv5_3_pool1_conv/bn <- conv5_3_pool1_conv
I1214 16:04:09.632702 13869 net.cpp:397] conv5_3_pool1_conv/bn -> conv5_3_pool1_conv (in-place)
I1214 16:04:09.633002 13869 net.cpp:150] Setting up conv5_3_pool1_conv/bn
I1214 16:04:09.633019 13869 net.cpp:157] Top shape: 1 512 1 1 (512)
I1214 16:04:09.633029 13869 net.cpp:165] Memory required for data: 2293146392
I1214 16:04:09.633046 13869 layer_factory.hpp:77] Creating layer conv5_3_pool1_conv/relu
I1214 16:04:09.633059 13869 net.cpp:106] Creating Layer conv5_3_pool1_conv/relu
I1214 16:04:09.633069 13869 net.cpp:454] conv5_3_pool1_conv/relu <- conv5_3_pool1_conv
I1214 16:04:09.633085 13869 net.cpp:397] conv5_3_pool1_conv/relu -> conv5_3_pool1_conv (in-place)
I1214 16:04:09.633100 13869 net.cpp:150] Setting up conv5_3_pool1_conv/relu
I1214 16:04:09.633113 13869 net.cpp:157] Top shape: 1 512 1 1 (512)
I1214 16:04:09.633122 13869 net.cpp:165] Memory required for data: 2293148440
I1214 16:04:09.633131 13869 layer_factory.hpp:77] Creating layer conv5_3_pool1_interp
I1214 16:04:09.633150 13869 net.cpp:106] Creating Layer conv5_3_pool1_interp
I1214 16:04:09.633160 13869 net.cpp:454] conv5_3_pool1_interp <- conv5_3_pool1_conv
I1214 16:04:09.633175 13869 net.cpp:411] conv5_3_pool1_interp -> conv5_3_pool1_interp
I1214 16:04:09.633226 13869 net.cpp:150] Setting up conv5_3_pool1_interp
I1214 16:04:09.633242 13869 net.cpp:157] Top shape: 1 512 60 60 (1843200)
I1214 16:04:09.633251 13869 net.cpp:165] Memory required for data: 2300521240
I1214 16:04:09.633260 13869 layer_factory.hpp:77] Creating layer conv5_3_pool2
I1214 16:04:09.633277 13869 net.cpp:106] Creating Layer conv5_3_pool2
I1214 16:04:09.633289 13869 net.cpp:454] conv5_3_pool2 <- conv5_3_conv5_3/relu_0_split_1
I1214 16:04:09.633303 13869 net.cpp:411] conv5_3_pool2 -> conv5_3_pool2
I1214 16:04:09.633347 13869 net.cpp:150] Setting up conv5_3_pool2
I1214 16:04:09.633361 13869 net.cpp:157] Top shape: 1 2048 2 2 (8192)
I1214 16:04:09.633370 13869 net.cpp:165] Memory required for data: 2300554008
I1214 16:04:09.633379 13869 layer_factory.hpp:77] Creating layer conv5_3_pool2_conv
I1214 16:04:09.633399 13869 net.cpp:106] Creating Layer conv5_3_pool2_conv
I1214 16:04:09.633411 13869 net.cpp:454] conv5_3_pool2_conv <- conv5_3_pool2
I1214 16:04:09.633429 13869 net.cpp:411] conv5_3_pool2_conv -> conv5_3_pool2_conv
I1214 16:04:09.697820 13869 net.cpp:150] Setting up conv5_3_pool2_conv
I1214 16:04:09.697842 13869 net.cpp:157] Top shape: 1 512 2 2 (2048)
I1214 16:04:09.697851 13869 net.cpp:165] Memory required for data: 2300562200
I1214 16:04:09.697865 13869 layer_factory.hpp:77] Creating layer conv5_3_pool2_conv/bn
I1214 16:04:09.697883 13869 net.cpp:106] Creating Layer conv5_3_pool2_conv/bn
I1214 16:04:09.697896 13869 net.cpp:454] conv5_3_pool2_conv/bn <- conv5_3_pool2_conv
I1214 16:04:09.697909 13869 net.cpp:397] conv5_3_pool2_conv/bn -> conv5_3_pool2_conv (in-place)
I1214 16:04:09.698206 13869 net.cpp:150] Setting up conv5_3_pool2_conv/bn
I1214 16:04:09.698223 13869 net.cpp:157] Top shape: 1 512 2 2 (2048)
I1214 16:04:09.698233 13869 net.cpp:165] Memory required for data: 2300570392
I1214 16:04:09.698251 13869 layer_factory.hpp:77] Creating layer conv5_3_pool2_conv/relu
I1214 16:04:09.698267 13869 net.cpp:106] Creating Layer conv5_3_pool2_conv/relu
I1214 16:04:09.698287 13869 net.cpp:454] conv5_3_pool2_conv/relu <- conv5_3_pool2_conv
I1214 16:04:09.698298 13869 net.cpp:397] conv5_3_pool2_conv/relu -> conv5_3_pool2_conv (in-place)
I1214 16:04:09.698312 13869 net.cpp:150] Setting up conv5_3_pool2_conv/relu
I1214 16:04:09.698324 13869 net.cpp:157] Top shape: 1 512 2 2 (2048)
I1214 16:04:09.698333 13869 net.cpp:165] Memory required for data: 2300578584
I1214 16:04:09.698343 13869 layer_factory.hpp:77] Creating layer conv5_3_pool2_interp
I1214 16:04:09.698354 13869 net.cpp:106] Creating Layer conv5_3_pool2_interp
I1214 16:04:09.698364 13869 net.cpp:454] conv5_3_pool2_interp <- conv5_3_pool2_conv
I1214 16:04:09.698384 13869 net.cpp:411] conv5_3_pool2_interp -> conv5_3_pool2_interp
I1214 16:04:09.698426 13869 net.cpp:150] Setting up conv5_3_pool2_interp
I1214 16:04:09.698444 13869 net.cpp:157] Top shape: 1 512 60 60 (1843200)
I1214 16:04:09.698453 13869 net.cpp:165] Memory required for data: 2307951384
I1214 16:04:09.698462 13869 layer_factory.hpp:77] Creating layer conv5_3_pool3
I1214 16:04:09.698475 13869 net.cpp:106] Creating Layer conv5_3_pool3
I1214 16:04:09.698485 13869 net.cpp:454] conv5_3_pool3 <- conv5_3_conv5_3/relu_0_split_2
I1214 16:04:09.698498 13869 net.cpp:411] conv5_3_pool3 -> conv5_3_pool3
I1214 16:04:09.698542 13869 net.cpp:150] Setting up conv5_3_pool3
I1214 16:04:09.698559 13869 net.cpp:157] Top shape: 1 2048 3 3 (18432)
I1214 16:04:09.698567 13869 net.cpp:165] Memory required for data: 2308025112
I1214 16:04:09.698576 13869 layer_factory.hpp:77] Creating layer conv5_3_pool3_conv
I1214 16:04:09.698595 13869 net.cpp:106] Creating Layer conv5_3_pool3_conv
I1214 16:04:09.698606 13869 net.cpp:454] conv5_3_pool3_conv <- conv5_3_pool3
I1214 16:04:09.698622 13869 net.cpp:411] conv5_3_pool3_conv -> conv5_3_pool3_conv
I1214 16:04:09.762481 13869 net.cpp:150] Setting up conv5_3_pool3_conv
I1214 16:04:09.762503 13869 net.cpp:157] Top shape: 1 512 3 3 (4608)
I1214 16:04:09.762513 13869 net.cpp:165] Memory required for data: 2308043544
I1214 16:04:09.762526 13869 layer_factory.hpp:77] Creating layer conv5_3_pool3_conv/bn
I1214 16:04:09.762542 13869 net.cpp:106] Creating Layer conv5_3_pool3_conv/bn
I1214 16:04:09.762552 13869 net.cpp:454] conv5_3_pool3_conv/bn <- conv5_3_pool3_conv
I1214 16:04:09.762570 13869 net.cpp:397] conv5_3_pool3_conv/bn -> conv5_3_pool3_conv (in-place)
I1214 16:04:09.762872 13869 net.cpp:150] Setting up conv5_3_pool3_conv/bn
I1214 16:04:09.762889 13869 net.cpp:157] Top shape: 1 512 3 3 (4608)
I1214 16:04:09.762899 13869 net.cpp:165] Memory required for data: 2308061976
I1214 16:04:09.762917 13869 layer_factory.hpp:77] Creating layer conv5_3_pool3_conv/relu
I1214 16:04:09.762933 13869 net.cpp:106] Creating Layer conv5_3_pool3_conv/relu
I1214 16:04:09.762944 13869 net.cpp:454] conv5_3_pool3_conv/relu <- conv5_3_pool3_conv
I1214 16:04:09.762958 13869 net.cpp:397] conv5_3_pool3_conv/relu -> conv5_3_pool3_conv (in-place)
I1214 16:04:09.762971 13869 net.cpp:150] Setting up conv5_3_pool3_conv/relu
I1214 16:04:09.762984 13869 net.cpp:157] Top shape: 1 512 3 3 (4608)
I1214 16:04:09.762992 13869 net.cpp:165] Memory required for data: 2308080408
…
I1214 16:04:11.475875 13869 net.cpp:454] conv4_5_1x1_reduce <- conv4_4_conv4_4/relu_0_split_0
I1214 16:04:11.475893 13869 net.cpp:411] conv4_5_1x1_reduce -> conv4_5_1x1_reduce
I1214 16:04:11.491955 13869 net.cpp:150] Setting up conv4_5_1x1_reduce
I1214 16:04:11.491974 13869 net.cpp:157] Top shape: 1 256 60 60 (921600)
I1214 16:04:11.491984 13869 net.cpp:165] Memory required for data: 1266418336
I1214 16:04:11.491997 13869 layer_factory.hpp:77] Creating layer conv4_5_1x1_reduce/bn
I1214 16:04:11.492015 13869 net.cpp:106] Creating Layer conv4_5_1x1_reduce/bn
I1214 16:04:11.492027 13869 net.cpp:454] conv4_5_1x1_reduce/bn <- conv4_5_1x1_reduce
I1214 16:04:11.492040 13869 net.cpp:397] conv4_5_1x1_reduce/bn -> conv4_5_1x1_reduce (in-place)
I1214 16:04:11.492323 13869 net.cpp:150] Setting up conv4_5_1x1_reduce/bn
I1214 16:04:11.492342 13869 net.cpp:157] Top shape: 1 256 60 60 (921600)
I1214 16:04:11.492352 13869 net.cpp:165] Memory required for data: 1270104736
I1214 16:04:11.492369 13869 layer_factory.hpp:77] Creating layer conv4_5_1x1_reduce/relu
I1214 16:04:11.492382 13869 net.cpp:106] Creating Layer conv4_5_1x1_reduce/relu
I1214 16:04:11.492393 13869 net.cpp:454] conv4_5_1x1_reduce/relu <- conv4_5_1x1_reduce
I1214 16:04:11.492408 13869 net.cpp:397] conv4_5_1x1_reduce/relu -> conv4_5_1x1_reduce (in-place)
I1214 16:04:11.492424 13869 net.cpp:150] Setting up conv4_5_1x1_reduce/relu
I1214 16:04:11.492436 13869 net.cpp:157] Top shape: 1 256 60 60 (921600)
I1214 16:04:11.492445 13869 net.cpp:165] Memory required for data: 1273791136
I1214 16:04:11.492455 13869 layer_factory.hpp:77] Creating layer conv4_5_3x3
I1214 16:04:11.492471 13869 net.cpp:106] Creating Layer conv4_5_3x3
I1214 16:04:11.492481 13869 net.cpp:454] conv4_5_3x3 <- conv4_5_1x1_reduce
I1214 16:04:11.492494 13869 net.cpp:411] conv4_5_3x3 -> conv4_5_3x3
I1214 16:04:11.528373 13869 net.cpp:150] Setting up conv4_5_3x3
I1214 16:04:11.528393 13869 net.cpp:157] Top shape: 1 256 60 60 (921600)
I1214 16:04:11.528403 13869 net.cpp:165] Memory required for data: 1277477536
I1214 16:04:11.528416 13869 layer_factory.hpp:77] Creating layer conv4_5_3x3/bn
I1214 16:04:11.528435 13869 net.cpp:106] Creating Layer conv4_5_3x3/bn
I1214 16:04:11.528447 13869 net.cpp:454] conv4_5_3x3/bn <- conv4_5_3x3
I1214 16:04:11.528460 13869 net.cpp:397] conv4_5_3x3/bn -> conv4_5_3x3 (in-place)
I1214 16:04:11.528741 13869 net.cpp:150] Setting up conv4_5_3x3/bn
I1214 16:04:11.528771 13869 net.cpp:157] Top shape: 1 256 60 60 (921600)
I1214 16:04:11.528781 13869 net.cpp:165] Memory required for data: 1281163936
I1214 16:04:11.528798 13869 layer_factory.hpp:77] Creating layer conv4_5_3x3/relu
I1214 16:04:11.528810 13869 net.cpp:106] Creating Layer conv4_5_3x3/relu
I1214 16:04:11.528820 13869 net.cpp:454] conv4_5_3x3/relu <- conv4_5_3x3
I1214 16:04:11.528831 13869 net.cpp:397] conv4_5_3x3/relu -> conv4_5_3x3 (in-place)
I1214 16:04:11.528846 13869 net.cpp:150] Setting up conv4_5_3x3/relu
I1214 16:04:11.528857 13869 net.cpp:157] Top shape: 1 256 60 60 (921600)
I1214 16:04:11.528865 13869 net.cpp:165] Memory required for data: 1284850336
I1214 16:04:11.528875 13869 layer_factory.hpp:77] Creating layer conv4_5_1x1_increase
I1214 16:04:11.528894 13869 net.cpp:106] Creating Layer conv4_5_1x1_increase
I1214 16:04:11.528906 13869 net.cpp:454] conv4_5_1x1_increase <- conv4_5_3x3
I1214 16:04:11.528921 13869 net.cpp:411] conv4_5_1x1_increase -> conv4_5_1x1_increase
I1214 16:04:11.545146 13869 net.cpp:150] Setting up conv4_5_1x1_increase
I1214 16:04:11.545167 13869 net.cpp:157] Top shape: 1 1024 60 60 (3686400)
I1214 16:04:11.545177 13869 net.cpp:165] Memory required for data: 1299595936
I1214 16:04:11.545191 13869 layer_factory.hpp:77] Creating layer conv4_5_1x1_increase/bn
I1214 16:04:11.545209 13869 net.cpp:106] Creating Layer conv4_5_1x1_increase/bn
I1214 16:04:11.545222 13869 net.cpp:454] conv4_5_1x1_increase/bn <- conv4_5_1x1_increase
I1214 16:04:11.545235 13869 net.cpp:397] conv4_5_1x1_increase/bn -> conv4_5_1x1_increase (in-place)
I1214 16:04:11.545545 13869 net.cpp:150] Setting up conv4_5_1x1_increase/bn
I1214 16:04:11.545563 13869 net.cpp:157] Top shape: 1 1024 60 60 (3686400)
I1214 16:04:11.545572 13869 net.cpp:165] Memory required for data: 1314341536
I1214 16:04:11.545590 13869 layer_factory.hpp:77] Creating layer conv4_5
I1214 16:04:11.545603 13869 net.cpp:106] Creating Layer conv4_5
I1214 16:04:11.545614 13869 net.cpp:454] conv4_5 <- conv4_4_conv4_4/relu_0_split_1
I1214 16:04:11.545624 13869 net.cpp:454] conv4_5 <- conv4_5_1x1_increase
I1214 16:04:11.545636 13869 net.cpp:411] conv4_5 -> conv4_5
I1214 16:04:11.545678 13869 net.cpp:150] Setting up conv4_5
I1214 16:04:11.545693 13869 net.cpp:157] Top shape: 1 1024 60 60 (3686400)
I1214 16:04:11.545702 13869 net.cpp:165] Memory required for data: 1329087136
I1214 16:04:11.545712 13869 layer_factory.hpp:77] Creating layer conv4_5/relu
I1214 16:04:11.545723 13869 net.cpp:106] Creating Layer conv4_5/relu
I1214 16:04:11.545733 13869 net.cpp:454] conv4_5/relu <- conv4_5
I1214 16:04:11.545747 13869 net.cpp:397] conv4_5/relu -> conv4_5 (in-place)
I1214 16:04:11.545761 13869 net.cpp:150] Setting up conv4_5/relu
I1214 16:04:11.545773 13869 net.cpp:157] Top shape: 1 1024 60 60 (3686400)
I1214 16:04:11.545783 13869 net.cpp:165] Memory required for data: 1343832736
I1214 16:04:11.545791 13869 layer_factory.hpp:77] Creating layer conv4_5_conv4_5/relu_0_split
I1214 16:04:11.545804 13869 net.cpp:106] Creating Layer conv4_5_conv4_5/relu_0_split
I1214 16:04:11.545814 13869 net.cpp:454] conv4_5_conv4_5/relu_0_split <- conv4_5
I1214 16:04:11.545830 13869 net.cpp:411] conv4_5_conv4_5/relu_0_split -> conv4_5_conv4_5/relu_0_split_0
I1214 16:04:11.545845 13869 net.cpp:411] conv4_5_conv4_5/relu_0_split -> conv4_5_conv4_5/relu_0_split_1
I1214 16:04:11.545899 13869 net.cpp:150] Setting up conv4_5_conv4_5/relu_0_split
I1214 16:04:11.545914 13869 net.cpp:157] Top shape: 1 1024 60 60 (3686400)
I1214 16:04:11.545925 13869 net.cpp:157] Top shape: 1 1024 60 60 (3686400)
I1214 16:04:11.545934 13869 net.cpp:165] Memory required for data: 1373323936
I1214 16:04:11.545944 13869 layer_factory.hpp:77] Creating layer conv4_6_1x1_reduce
I1214 16:04:11.545964 13869 net.cpp:106] Creating Layer conv4_6_1x1_reduce
I1214 16:04:11.545976 13869 net.cpp:454] conv4_6_1x1_reduce <- conv4_5_conv4_5/relu_0_split_0
I1214 16:04:11.545991 13869 net.cpp:411] conv4_6_1x1_reduce -> conv4_6_1x1_reduce
I1214 16:04:11.561862 13869 net.cpp:150] Setting up conv4_6_1x1_reduce
I1214 16:04:11.561888 13869 net.cpp:157] Top shape: 1 256 60 60 (921600)
I1214 16:04:11.561906 13869 net.cpp:165] Memory required for data: 1377010336
I1214 16:04:11.561919 13869 layer_factory.hpp:77] Creating layer conv4_6_1x1_reduce/bn
I1214 16:04:11.561939 13869 net.cpp:106] Creating Layer conv4_6_1x1_reduce/bn
I1214 16:04:11.561950 13869 net.cpp:454] conv4_6_1x1_reduce/bn <- conv4_6_1x1_reduce
I1214 16:04:11.561964 13869 net.cpp:397] conv4_6_1x1_reduce/bn -> conv4_6_1x1_reduce (in-place)
I1214 16:04:11.562249 13869 net.cpp:150] Setting up conv4_6_1x1_reduce/bn
I1214 16:04:11.562266 13869 net.cpp:157] Top shape: 1 256 60 60 (921600)
I1214 16:04:11.562275 13869 net.cpp:165] Memory required for data: 1380696736
I1214 16:04:11.562291 13869 layer_factory.hpp:77] Creating layer conv4_6_1x1_reduce/relu
I1214 16:04:11.562304 13869 net.cpp:106] Creating Layer conv4_6_1x1_reduce/relu
I1214 16:04:11.562314 13869 net.cpp:454] conv4_6_1x1_reduce/relu <- conv4_6_1x1_reduce
I1214 16:04:11.562325 13869 net.cpp:397] conv4_6_1x1_reduce/relu -> conv4_6_1x1_reduce (in-place)
I1214 16:04:11.562340 13869 net.cpp:150] Setting up conv4_6_1x1_reduce/relu
I1214 16:04:11.562350 13869 net.cpp:157] Top shape: 1 256 60 60 (921600)
I1214 16:04:11.562360 13869 net.cpp:165] Memory required for data: 1384383136
I1214 16:04:11.562368 13869 layer_factory.hpp:77] Creating layer conv4_6_3x3
I1214 16:04:11.562387 13869 net.cpp:106] Creating Layer conv4_6_3x3
I1214 16:04:11.562399 13869 net.cpp:454] conv4_6_3x3 <- conv4_6_1x1_reduce
I1214 16:04:11.562414 13869 net.cpp:411] conv4_6_3x3 -> conv4_6_3x3
I1214 16:04:11.598413 13869 net.cpp:150] Setting up conv4_6_3x3
I1214 16:04:11.598434 13869 net.cpp:157] Top shape: 1 256 60 60 (921600)
I1214 16:04:11.598444 13869 net.cpp:165] Memory required for data: 1388069536
I1214 16:04:11.598456 13869 layer_factory.hpp:77] Creating layer conv4_6_3x3/bn
I1214 16:04:11.598477 13869 net.cpp:106] Creating Layer conv4_6_3x3/bn
I1214 16:04:11.598489 13869 net.cpp:454] conv4_6_3x3/bn <- conv4_6_3x3
I1214 16:04:11.598503 13869 net.cpp:397] conv4_6_3x3/bn -> conv4_6_3x3 (in-place)
I1214 16:04:11.598781 13869 net.cpp:150] Setting up conv4_6_3x3/bn
I1214 16:04:11.598801 13869 net.cpp:157] Top shape: 1 256 60 60 (921600)
I1214 16:04:11.598810 13869 net.cpp:165] Memory required for data: 1391755936
I1214 16:04:11.598829 13869 layer_factory.hpp:77] Creating layer conv4_6_3x3/relu
I1214 16:04:11.598840 13869 net.cpp:106] Creating Layer conv4_6_3x3/relu
I1214 16:04:11.598850 13869 net.cpp:454] conv4_6_3x3/relu <- conv4_6_3x3
I1214 16:04:11.598861 13869 net.cpp:397] conv4_6_3x3/relu -> conv4_6_3x3 (in-place)
I1214 16:04:11.598875 13869 net.cpp:150] Setting up conv4_6_3x3/relu
I1214 16:04:11.598886 13869 net.cpp:157] Top shape: 1 256 60 60 (921600)
I1214 16:04:11.598896 13869 net.cpp:165] Memory required for data: 1395442336
I1214 16:04:11.598906 13869 layer_factory.hpp:77] Creating layer conv4_6_1x1_increase
I1214 16:04:11.598924 13869 net.cpp:106] Creating Layer conv4_6_1x1_increase
I1214 16:04:11.598937 13869 net.cpp:454] conv4_6_1x1_increase <- conv4_6_3x3
I1214 16:04:11.598949 13869 net.cpp:411] conv4_6_1x1_increase -> conv4_6_1x1_increase
I1214 16:04:11.615104 13869 net.cpp:150] Setting up conv4_6_1x1_increase
I1214 16:04:11.615125 13869 net.cpp:157] Top shape: 1 1024 60 60 (3686400)
I1214 16:04:11.615134 13869 net.cpp:165] Memory required for data: 1410187936
I1214 16:04:11.615147 13869 layer_factory.hpp:77] Creating layer conv4_6_1x1_increase/bn
I1214 16:04:11.615161 13869 net.cpp:106] Creating Layer conv4_6_1x1_increase/bn
I1214 16:04:11.615172 13869 net.cpp:454] conv4_6_1x1_increase/bn <- conv4_6_1x1_increase
I1214 16:04:11.615190 13869 net.cpp:397] conv4_6_1x1_increase/bn -> conv4_6_1x1_increase (in-place)
I1214 16:04:11.615504 13869 net.cpp:150] Setting up conv4_6_1x1_increase/bn
I1214 16:04:11.615521 13869 net.cpp:157] Top shape: 1 1024 60 60 (3686400)
I1214 16:04:11.615530 13869 net.cpp:165] Memory required for data: 1424933536
I1214 16:04:11.615547 13869 layer_factory.hpp:77] Creating layer conv4_6
I1214 16:04:11.615572 13869 net.cpp:106] Creating Layer conv4_6
I1214 16:04:11.615592 13869 net.cpp:454] conv4_6 <- conv4_5_conv4_5/relu_0_split_1
I1214 16:04:11.615604 13869 net.cpp:454] conv4_6 <- conv4_6_1x1_increase
I1214 16:04:11.615617 13869 net.cpp:411] conv4_6 -> conv4_6
I1214 16:04:11.615658 13869 net.cpp:150] Setting up conv4_6
I1214 16:04:11.615674 13869 net.cpp:157] Top shape: 1 1024 60 60 (3686400)
I1214 16:04:11.615682 13869 net.cpp:165] Memory required for data: 1439679136
I1214 16:04:11.615691 13869 layer_factory.hpp:77] Creating layer conv4_6/relu
I1214 16:04:11.615708 13869 net.cpp:106] Creating Layer conv4_6/relu
I1214 16:04:11.615720 13869 net.cpp:454] conv4_6/relu <- conv4_6
I1214 16:04:11.615731 13869 net.cpp:397] conv4_6/relu -> conv4_6 (in-place)
I1214 16:04:11.615744 13869 net.cpp:150] Setting up conv4_6/relu
I1214 16:04:11.615756 13869 net.cpp:157] Top shape: 1 1024 60 60 (3686400)
I1214 16:04:11.615766 13869 net.cpp:165] Memory required for data: 1454424736
I1214 16:04:11.615774 13869 layer_factory.hpp:77] Creating layer conv4_6_conv4_6/relu_0_split
I1214 16:04:11.615787 13869 net.cpp:106] Creating Layer conv4_6_conv4_6/relu_0_split
I1214 16:04:11.615797 13869 net.cpp:454] conv4_6_conv4_6/relu_0_split <- conv4_6
I1214 16:04:11.615809 13869 net.cpp:411] conv4_6_conv4_6/relu_0_split -> conv4_6_conv4_6/relu_0_split_0
I1214 16:04:11.615823 13869 net.cpp:411] conv4_6_conv4_6/relu_0_split -> conv4_6_conv4_6/relu_0_split_1
I1214 16:04:11.615883 13869 net.cpp:150] Setting up conv4_6_conv4_6/relu_0_split
I1214 16:04:11.615900 13869 net.cpp:157] Top shape: 1 1024 60 60 (3686400)
I1214 16:04:11.615911 13869 net.cpp:157] Top shape: 1 1024 60 60 (3686400)
I1214 16:04:11.615918 13869 net.cpp:165] Memory required for data: 1483915936
I1214 16:04:11.615928 13869 layer_factory.hpp:77] Creating layer conv5_1_1x1_reduce
I1214 16:04:11.615947 13869 net.cpp:106] Creating Layer conv5_1_1x1_reduce
I1214 16:04:11.615958 13869 net.cpp:454] conv5_1_1x1_reduce <- conv4_6_conv4_6/relu_0_split_0
I1214 16:04:11.615975 13869 net.cpp:411] conv5_1_1x1_reduce -> conv5_1_1x1_reduce
I1214 16:04:11.648304 13869 net.cpp:150] Setting up conv5_1_1x1_reduce
I1214 16:04:11.648325 13869 net.cpp:157] Top shape: 1 512 60 60 (1843200)
I1214 16:04:11.648335 13869 net.cpp:165] Memory required for data: 1491288736
I1214 16:04:11.648349 13869 layer_factory.hpp:77] Creating layer conv5_1_1x1_reduce/bn
I1214 16:04:11.648362 13869 net.cpp:106] Creating Layer conv5_1_1x1_reduce/bn
I1214 16:04:11.648373 13869 net.cpp:454] conv5_1_1x1_reduce/bn <- conv5_1_1x1_reduce
I1214 16:04:11.648391 13869 net.cpp:397] conv5_1_1x1_reduce/bn -> conv5_1_1x1_reduce (in-place)
I1214 16:04:11.648702 13869 net.cpp:150] Setting up conv5_1_1x1_reduce/bn
I1214 16:04:11.648720 13869 net.cpp:157] Top shape: 1 512 60 60 (1843200)
I1214 16:04:11.648730 13869 net.cpp:165] Memory required for data: 1498661536
I1214 16:04:11.648746 13869 layer_factory.hpp:77] Creating layer conv5_1_1x1_reduce/relu
I1214 16:04:11.648758 13869 net.cpp:106] Creating Layer conv5_1_1x1_reduce/relu
I1214 16:04:11.648768 13869 net.cpp:454] conv5_1_1x1_reduce/relu <- conv5_1_1x1_reduce
I1214 16:04:11.648780 13869 net.cpp:397] conv5_1_1x1_reduce/relu -> conv5_1_1x1_reduce (in-place)
I1214 16:04:11.648794 13869 net.cpp:150] Setting up conv5_1_1x1_reduce/relu
I1214 16:04:11.648807 13869 net.cpp:157] Top shape: 1 512 60 60 (1843200)
I1214 16:04:11.648815 13869 net.cpp:165] Memory required for data: 1506034336
I1214 16:04:11.648824 13869 layer_factory.hpp:77] Creating layer conv5_1_3x3
I1214 16:04:11.648838 13869 net.cpp:106] Creating Layer conv5_1_3x3
I1214 16:04:11.648849 13869 net.cpp:454] conv5_1_3x3 <- conv5_1_1x1_reduce
I1214 16:04:11.648865 13869 net.cpp:411] conv5_1_3x3 -> conv5_1_3x3
I1214 16:04:11.792912 13869 net.cpp:150] Setting up conv5_1_3x3
I1214 16:04:11.792937 13869 net.cpp:157] Top shape: 1 512 60 60 (1843200)
I1214 16:04:11.792946 13869 net.cpp:165] Memory required for data: 1513407136
I1214 16:04:11.792958 13869 layer_factory.hpp:77] Creating layer conv5_1_3x3/bn
I1214 16:04:11.792974 13869 net.cpp:106] Creating Layer conv5_1_3x3/bn
I1214 16:04:11.792999 13869 net.cpp:454] conv5_1_3x3/bn <- conv5_1_3x3
I1214 16:04:11.793017 13869 net.cpp:397] conv5_1_3x3/bn -> conv5_1_3x3 (in-place)
I1214 16:04:11.793339 13869 net.cpp:150] Setting up conv5_1_3x3/bn
I1214 16:04:11.793355 13869 net.cpp:157] Top shape: 1 512 60 60 (1843200)
I1214 16:04:11.793365 13869 net.cpp:165] Memory required for data: 1520779936
I1214 16:04:11.793381 13869 layer_factory.hpp:77] Creating layer conv5_1_3x3/relu
I1214 16:04:11.793398 13869 net.cpp:106] Creating Layer conv5_1_3x3/relu
I1214 16:04:11.793409 13869 net.cpp:454] conv5_1_3x3/relu <- conv5_1_3x3
I1214 16:04:11.793421 13869 net.cpp:397] conv5_1_3x3/relu -> conv5_1_3x3 (in-place)
I1214 16:04:11.793436 13869 net.cpp:150] Setting up conv5_1_3x3/relu
I1214 16:04:11.793447 13869 net.cpp:157] Top shape: 1 512 60 60 (1843200)
I1214 16:04:11.793455 13869 net.cpp:165] Memory required for data: 1528152736
I1214 16:04:11.793464 13869 layer_factory.hpp:77] Creating layer conv5_1_1x1_increase
I1214 16:04:11.793478 13869 net.cpp:106] Creating Layer conv5_1_1x1_increase
I1214 16:04:11.793488 13869 net.cpp:454] conv5_1_1x1_increase <- conv5_1_3x3
I1214 16:04:11.793509 13869 net.cpp:411] conv5_1_1x1_increase -> conv5_1_1x1_increase
I1214 16:04:11.857138 13869 net.cpp:150] Setting up conv5_1_1x1_increase
I1214 16:04:11.857161 13869 net.cpp:157] Top shape: 1 2048 60 60 (7372800)
I1214 16:04:11.857170 13869 net.cpp:165] Memory required for data: 1557643936
I1214 16:04:11.857182 13869 layer_factory.hpp:77] Creating layer conv5_1_1x1_increase/bn
I1214 16:04:11.857197 13869 net.cpp:106] Creating Layer conv5_1_1x1_increase/bn
I1214 16:04:11.857208 13869 net.cpp:454] conv5_1_1x1_increase/bn <- conv5_1_1x1_increase
I1214 16:04:11.857225 13869 net.cpp:397] conv5_1_1x1_increase/bn -> conv5_1_1x1_increase (in-place)
I1214 16:04:11.857522 13869 net.cpp:150] Setting up conv5_1_1x1_increase/bn
I1214 16:04:11.857540 13869 net.cpp:157] Top shape: 1 2048 60 60 (7372800)
I1214 16:04:11.857549 13869 net.cpp:165] Memory required for data: 1587135136
I1214 16:04:11.857566 13869 layer_factory.hpp:77] Creating layer conv5_1_1x1_proj
I1214 16:04:11.857585 13869 net.cpp:106] Creating Layer conv5_1_1x1_proj
I1214 16:04:11.857597 13869 net.cpp:454] conv5_1_1x1_proj <- conv4_6_conv4_6/relu_0_split_1
I1214 16:04:11.857611 13869 net.cpp:411] conv5_1_1x1_proj -> conv5_1_1x1_proj
I1214 16:04:11.984521 13869 net.cpp:150] Setting up conv5_1_1x1_proj
I1214 16:04:11.984549 13869 net.cpp:157] Top shape: 1 2048 60 60 (7372800)
I1214 16:04:11.984557 13869 net.cpp:165] Memory required for data: 1616626336
I1214 16:04:11.984571 13869 layer_factory.hpp:77] Creating layer conv5_1_1x1_proj/bn
I1214 16:04:11.984591 13869 net.cpp:106] Creating Layer conv5_1_1x1_proj/bn
I1214 16:04:11.984603 13869 net.cpp:454] conv5_1_1x1_proj/bn <- conv5_1_1x1_proj
I1214 16:04:11.984617 13869 net.cpp:397] conv5_1_1x1_proj/bn -> conv5_1_1x1_proj (in-place)
I1214 16:04:11.984921 13869 net.cpp:150] Setting up conv5_1_1x1_proj/bn
I1214 16:04:11.984946 13869 net.cpp:157] Top shape: 1 2048 60 60 (7372800)
I1214 16:04:11.984956 13869 net.cpp:165] Memory required for data: 1646117536
I1214 16:04:11.984973 13869 layer_factory.hpp:77] Creating layer conv5_1
I1214 16:04:11.984988 13869 net.cpp:106] Creating Layer conv5_1
I1214 16:04:11.984998 13869 net.cpp:454] conv5_1 <- conv5_1_1x1_proj
I1214 16:04:11.985009 13869 net.cpp:454] conv5_1 <- conv5_1_1x1_increase
I1214 16:04:11.985021 13869 net.cpp:411] conv5_1 -> conv5_1
I1214 16:04:11.985065 13869 net.cpp:150] Setting up conv5_1
I1214 16:04:11.985081 13869 net.cpp:157] Top shape: 1 2048 60 60 (7372800)
I1214 16:04:11.985090 13869 net.cpp:165] Memory required for data: 1675608736
I1214 16:04:11.985100 13869 layer_factory.hpp:77] Creating layer conv5_1/relu
I1214 16:04:11.985117 13869 net.cpp:106] Creating Layer conv5_1/relu
I1214 16:04:11.985128 13869 net.cpp:454] conv5_1/relu <- conv5_1
I1214 16:04:11.985142 13869 net.cpp:397] conv5_1/relu -> conv5_1 (in-place)
I1214 16:04:11.985157 13869 net.cpp:150] Setting up conv5_1/relu
I1214 16:04:11.985177 13869 net.cpp:157] Top shape: 1 2048 60 60 (7372800)
I1214 16:04:11.985198 13869 net.cpp:165] Memory required for data: 1705099936
I1214 16:04:11.985208 13869 layer_factory.hpp:77] Creating layer conv5_1_conv5_1/relu_0_split
I1214 16:04:11.985219 13869 net.cpp:106] Creating Layer conv5_1_conv5_1/relu_0_split
I1214 16:04:11.985229 13869 net.cpp:454] conv5_1_conv5_1/relu_0_split <- conv5_1
I1214 16:04:11.985249 13869 net.cpp:411] conv5_1_conv5_1/relu_0_split -> conv5_1_conv5_1/relu_0_split_0
I1214 16:04:11.985265 13869 net.cpp:411] conv5_1_conv5_1/relu_0_split -> conv5_1_conv5_1/relu_0_split_1
I1214 16:04:11.985321 13869 net.cpp:150] Setting up conv5_1_conv5_1/relu_0_split
I1214 16:04:11.985337 13869 net.cpp:157] Top shape: 1 2048 60 60 (7372800)
I1214 16:04:11.985348 13869 net.cpp:157] Top shape: 1 2048 60 60 (7372800)
I1214 16:04:11.985357 13869 net.cpp:165] Memory required for data: 1764082336
I1214 16:04:11.985366 13869 layer_factory.hpp:77] Creating layer conv5_2_1x1_reduce
I1214 16:04:11.985386 13869 net.cpp:106] Creating Layer conv5_2_1x1_reduce
I1214 16:04:11.985397 13869 net.cpp:454] conv5_2_1x1_reduce <- conv5_1_conv5_1/relu_0_split_0
I1214 16:04:11.985414 13869 net.cpp:411] conv5_2_1x1_reduce -> conv5_2_1x1_reduce
I1214 16:04:12.049068 13869 net.cpp:150] Setting up conv5_2_1x1_reduce
I1214 16:04:12.049089 13869 net.cpp:157] Top shape: 1 512 60 60 (1843200)
I1214 16:04:12.049099 13869 net.cpp:165] Memory required for data: 1771455136
I1214 16:04:12.049113 13869 layer_factory.hpp:77] Creating layer conv5_2_1x1_reduce/bn
I1214 16:04:12.049131 13869 net.cpp:106] Creating Layer conv5_2_1x1_reduce/bn
I1214 16:04:12.049144 13869 net.cpp:454] conv5_2_1x1_reduce/bn <- conv5_2_1x1_reduce
I1214 16:04:12.049157 13869 net.cpp:397] conv5_2_1x1_reduce/bn -> conv5_2_1x1_reduce (in-place)
I1214 16:04:12.049479 13869 net.cpp:150] Setting up conv5_2_1x1_reduce/bn
I1214 16:04:12.049495 13869 net.cpp:157] Top shape: 1 512 60 60 (1843200)
I1214 16:04:12.049505 13869 net.cpp:165] Memory required for data: 1778827936
I1214 16:04:12.049522 13869 layer_factory.hpp:77] Creating layer conv5_2_1x1_reduce/relu
I1214 16:04:12.049535 13869 net.cpp:106] Creating Layer conv5_2_1x1_reduce/relu
I1214 16:04:12.049545 13869 net.cpp:454] conv5_2_1x1_reduce/relu <- conv5_2_1x1_reduce
I1214 16:04:12.049556 13869 net.cpp:397] conv5_2_1x1_reduce/relu -> conv5_2_1x1_reduce (in-place)
I1214 16:04:12.049571 13869 net.cpp:150] Setting up conv5_2_1x1_reduce/relu
I1214 16:04:12.049582 13869 net.cpp:157] Top shape: 1 512 60 60 (1843200)
I1214 16:04:12.049592 13869 net.cpp:165] Memory required for data: 1786200736
I1214 16:04:12.049600 13869 layer_factory.hpp:77] Creating layer conv5_2_3x3
I1214 16:04:12.049619 13869 net.cpp:106] Creating Layer conv5_2_3x3
I1214 16:04:12.049636 13869 net.cpp:454] conv5_2_3x3 <- conv5_2_1x1_reduce
I1214 16:04:12.049654 13869 net.cpp:411] conv5_2_3x3 -> conv5_2_3x3
I1214 16:04:12.192731 13869 net.cpp:150] Setting up conv5_2_3x3
I1214 16:04:12.192757 13869 net.cpp:157] Top shape: 1 512 60 60 (1843200)
I1214 16:04:12.192766 13869 net.cpp:165] Memory required for data: 1793573536
I1214 16:04:12.192780 13869 layer_factory.hpp:77] Creating layer conv5_2_3x3/bn
I1214 16:04:12.192795 13869 net.cpp:106] Creating Layer conv5_2_3x3/bn
I1214 16:04:12.192806 13869 net.cpp:454] conv5_2_3x3/bn <- conv5_2_3x3
I1214 16:04:12.192824 13869 net.cpp:397] conv5_2_3x3/bn -> conv5_2_3x3 (in-place)
I1214 16:04:12.193147 13869 net.cpp:150] Setting up conv5_2_3x3/bn
I1214 16:04:12.193164 13869 net.cpp:157] Top shape: 1 512 60 60 (1843200)
I1214 16:04:12.193174 13869 net.cpp:165] Memory required for data: 1800946336
I1214 16:04:12.193192 13869 layer_factory.hpp:77] Creating layer conv5_2_3x3/relu
I1214 16:04:12.193204 13869 net.cpp:106] Creating Layer conv5_2_3x3/relu
I1214 16:04:12.193214 13869 net.cpp:454] conv5_2_3x3/relu <- conv5_2_3x3
I1214 16:04:12.193226 13869 net.cpp:397] conv5_2_3x3/relu -> conv5_2_3x3 (in-place)
I1214 16:04:12.193239 13869 net.cpp:150] Setting up conv5_2_3x3/relu
I1214 16:04:12.193251 13869 net.cpp:157] Top shape: 1 512 60 60 (1843200)
I1214 16:04:12.193266 13869 net.cpp:165] Memory required for data: 1808319136
I1214 16:04:12.193286 13869 layer_factory.hpp:77] Creating layer conv5_2_1x1_increase
I1214 16:04:12.193302 13869 net.cpp:106] Creating Layer conv5_2_1x1_increase
I1214 16:04:12.193312 13869 net.cpp:454] conv5_2_1x1_increase <- conv5_2_3x3
I1214 16:04:12.193330 13869 net.cpp:411] conv5_2_1x1_increase -> conv5_2_1x1_increase
I1214 16:04:12.256589 13869 net.cpp:150] Setting up conv5_2_1x1_increase
I1214 16:04:12.256611 13869 net.cpp:157] Top shape: 1 2048 60 60 (7372800)
I1214 16:04:12.256621 13869 net.cpp:165] Memory required for data: 1837810336
I1214 16:04:12.256634 13869 layer_factory.hpp:77] Creating layer conv5_2_1x1_increase/bn
I1214 16:04:12.256649 13869 net.cpp:106] Creating Layer conv5_2_1x1_increase/bn
I1214 16:04:12.256659 13869 net.cpp:454] conv5_2_1x1_increase/bn <- conv5_2_1x1_increase
I1214 16:04:12.256678 13869 net.cpp:397] conv5_2_1x1_increase/bn -> conv5_2_1x1_increase (in-place)
I1214 16:04:12.256985 13869 net.cpp:150] Setting up conv5_2_1x1_increase/bn
I1214 16:04:12.257002 13869 net.cpp:157] Top shape: 1 2048 60 60 (7372800)
I1214 16:04:12.257012 13869 net.cpp:165] Memory required for data: 1867301536
I1214 16:04:12.257066 13869 layer_factory.hpp:77] Creating layer conv5_2
I1214 16:04:12.257088 13869 net.cpp:106] Creating Layer conv5_2
I1214 16:04:12.257100 13869 net.cpp:454] conv5_2 <- conv5_1_conv5_1/relu_0_split_1
I1214 16:04:12.257112 13869 net.cpp:454] conv5_2 <- conv5_2_1x1_increase
I1214 16:04:12.257125 13869 net.cpp:411] conv5_2 -> conv5_2
I1214 16:04:12.257166 13869 net.cpp:150] Setting up conv5_2
I1214 16:04:12.257181 13869 net.cpp:157] Top shape: 1 2048 60 60 (7372800)
I1214 16:04:12.257190 13869 net.cpp:165] Memory required for data: 1896792736
I1214 16:04:12.257200 13869 layer_factory.hpp:77] Creating layer conv5_2/relu
I1214 16:04:12.257215 13869 net.cpp:106] Creating Layer conv5_2/relu
I1214 16:04:12.257225 13869 net.cpp:454] conv5_2/relu <- conv5_2
I1214 16:04:12.257236 13869 net.cpp:397] conv5_2/relu -> conv5_2 (in-place)
I1214 16:04:12.257251 13869 net.cpp:150] Setting up conv5_2/relu
I1214 16:04:12.257261 13869 net.cpp:157] Top shape: 1 2048 60 60 (7372800)
I1214 16:04:12.257271 13869 net.cpp:165] Memory required for data: 1926283936
I1214 16:04:12.257279 13869 layer_factory.hpp:77] Creating layer conv5_2_conv5_2/relu_0_split
I1214 16:04:12.257292 13869 net.cpp:106] Creating Layer conv5_2_conv5_2/relu_0_split
I1214 16:04:12.257302 13869 net.cpp:454] conv5_2_conv5_2/relu_0_split <- conv5_2
I1214 16:04:12.257318 13869 net.cpp:411] conv5_2_conv5_2/relu_0_split -> conv5_2_conv5_2/relu_0_split_0
I1214 16:04:12.257334 13869 net.cpp:411] conv5_2_conv5_2/relu_0_split -> conv5_2_conv5_2/relu_0_split_1
I1214 16:04:12.257391 13869 net.cpp:150] Setting up conv5_2_conv5_2/relu_0_split
I1214 16:04:12.257406 13869 net.cpp:157] Top shape: 1 2048 60 60 (7372800)
I1214 16:04:12.257418 13869 net.cpp:157] Top shape: 1 2048 60 60 (7372800)
I1214 16:04:12.257426 13869 net.cpp:165] Memory required for data: 1985266336
I1214 16:04:12.257436 13869 layer_factory.hpp:77] Creating layer conv5_3_1x1_reduce
I1214 16:04:12.257455 13869 net.cpp:106] Creating Layer conv5_3_1x1_reduce
I1214 16:04:12.257467 13869 net.cpp:454] conv5_3_1x1_reduce <- conv5_2_conv5_2/relu_0_split_0
I1214 16:04:12.257482 13869 net.cpp:411] conv5_3_1x1_reduce -> conv5_3_1x1_reduce
I1214 16:04:12.320904 13869 net.cpp:150] Setting up conv5_3_1x1_reduce
I1214 16:04:12.320926 13869 net.cpp:157] Top shape: 1 512 60 60 (1843200)
I1214 16:04:12.320936 13869 net.cpp:165] Memory required for data: 1992639136
I1214 16:04:12.320950 13869 layer_factory.hpp:77] Creating layer conv5_3_1x1_reduce/bn
I1214 16:04:12.320968 13869 net.cpp:106] Creating Layer conv5_3_1x1_reduce/bn
I1214 16:04:12.320981 13869 net.cpp:454] conv5_3_1x1_reduce/bn <- conv5_3_1x1_reduce
I1214 16:04:12.320993 13869 net.cpp:397] conv5_3_1x1_reduce/bn -> conv5_3_1x1_reduce (in-place)
I1214 16:04:12.321318 13869 net.cpp:150] Setting up conv5_3_1x1_reduce/bn
I1214 16:04:12.321336 13869 net.cpp:157] Top shape: 1 512 60 60 (1843200)
I1214 16:04:12.321359 13869 net.cpp:165] Memory required for data: 2000011936
I1214 16:04:12.321377 13869 layer_factory.hpp:77] Creating layer conv5_3_1x1_reduce/relu
I1214 16:04:12.321389 13869 net.cpp:106] Creating Layer conv5_3_1x1_reduce/relu
I1214 16:04:12.321399 13869 net.cpp:454] conv5_3_1x1_reduce/relu <- conv5_3_1x1_reduce
I1214 16:04:12.321413 13869 net.cpp:397] conv5_3_1x1_reduce/relu -> conv5_3_1x1_reduce (in-place)
I1214 16:04:12.321429 13869 net.cpp:150] Setting up conv5_3_1x1_reduce/relu
I1214 16:04:12.321440 13869 net.cpp:157] Top shape: 1 512 60 60 (1843200)
I1214 16:04:12.321449 13869 net.cpp:165] Memory required for data: 2007384736
I1214 16:04:12.321458 13869 layer_factory.hpp:77] Creating layer conv5_3_3x3
I1214 16:04:12.321475 13869 net.cpp:106] Creating Layer conv5_3_3x3
I1214 16:04:12.321485 13869 net.cpp:454] conv5_3_3x3 <- conv5_3_1x1_reduce
I1214 16:04:12.321501 13869 net.cpp:411] conv5_3_3x3 -> conv5_3_3x3
I1214 16:04:12.464241 13869 net.cpp:150] Setting up conv5_3_3x3
I1214 16:04:12.464267 13869 net.cpp:157] Top shape: 1 512 60 60 (1843200)
I1214 16:04:12.464277 13869 net.cpp:165] Memory required for data: 2014757536
I1214 16:04:12.464289 13869 layer_factory.hpp:77] Creating layer conv5_3_3x3/bn
I1214 16:04:12.464310 13869 net.cpp:106] Creating Layer conv5_3_3x3/bn
I1214 16:04:12.464323 13869 net.cpp:454] conv5_3_3x3/bn <- conv5_3_3x3
I1214 16:04:12.464339 13869 net.cpp:397] conv5_3_3x3/bn -> conv5_3_3x3 (in-place)
I1214 16:04:12.464668 13869 net.cpp:150] Setting up conv5_3_3x3/bn
I1214 16:04:12.464685 13869 net.cpp:157] Top shape: 1 512 60 60 (1843200)
I1214 16:04:12.464695 13869 net.cpp:165] Memory required for data: 2022130336
I1214 16:04:12.464712 13869 layer_factory.hpp:77] Creating layer conv5_3_3x3/relu
I1214 16:04:12.464725 13869 net.cpp:106] Creating Layer conv5_3_3x3/relu
I1214 16:04:12.464735 13869 net.cpp:454] conv5_3_3x3/relu <- conv5_3_3x3
I1214 16:04:12.464747 13869 net.cpp:397] conv5_3_3x3/relu -> conv5_3_3x3 (in-place)
I1214 16:04:12.464761 13869 net.cpp:150] Setting up conv5_3_3x3/relu
I1214 16:04:12.464772 13869 net.cpp:157] Top shape: 1 512 60 60 (1843200)
I1214 16:04:12.464781 13869 net.cpp:165] Memory required for data: 2029503136
I1214 16:04:12.464792 13869 layer_factory.hpp:77] Creating layer conv5_3_1x1_increase
I1214 16:04:12.464810 13869 net.cpp:106] Creating Layer conv5_3_1x1_increase
I1214 16:04:12.464821 13869 net.cpp:454] conv5_3_1x1_increase <- conv5_3_3x3
I1214 16:04:12.464838 13869 net.cpp:411] conv5_3_1x1_increase -> conv5_3_1x1_increase
I1214 16:04:12.528432 13869 net.cpp:150] Setting up conv5_3_1x1_increase
I1214 16:04:12.528455 13869 net.cpp:157] Top shape: 1 2048 60 60 (7372800)
I1214 16:04:12.528463 13869 net.cpp:165] Memory required for data: 2058994336
I1214 16:04:12.528476 13869 layer_factory.hpp:77] Creating layer conv5_3_1x1_increase/bn
I1214 16:04:12.528496 13869 net.cpp:106] Creating Layer conv5_3_1x1_increase/bn
I1214 16:04:12.528508 13869 net.cpp:454] conv5_3_1x1_increase/bn <- conv5_3_1x1_increase
I1214 16:04:12.528522 13869 net.cpp:397] conv5_3_1x1_increase/bn -> conv5_3_1x1_increase (in-place)
I1214 16:04:12.528832 13869 net.cpp:150] Setting up conv5_3_1x1_increase/bn
I1214 16:04:12.528851 13869 net.cpp:157] Top shape: 1 2048 60 60 (7372800)
I1214 16:04:12.528861 13869 net.cpp:165] Memory required for data: 2088485536
I1214 16:04:12.528878 13869 layer_factory.hpp:77] Creating layer conv5_3
I1214 16:04:12.528892 13869 net.cpp:106] Creating Layer conv5_3
I1214 16:04:12.528903 13869 net.cpp:454] conv5_3 <- conv5_2_conv5_2/relu_0_split_1
I1214 16:04:12.528914 13869 net.cpp:454] conv5_3 <- conv5_3_1x1_increase
I1214 16:04:12.528926 13869 net.cpp:411] conv5_3 -> conv5_3
I1214 16:04:12.528965 13869 net.cpp:150] Setting up conv5_3
I1214 16:04:12.528980 13869 net.cpp:157] Top shape: 1 2048 60 60 (7372800)
I1214 16:04:12.528990 13869 net.cpp:165] Memory required for data: 2117976736
I1214 16:04:12.528998 13869 layer_factory.hpp:77] Creating layer conv5_3/relu
I1214 16:04:12.529016 13869 net.cpp:106] Creating Layer conv5_3/relu
I1214 16:04:12.529032 13869 net.cpp:454] conv5_3/relu <- conv5_3
I1214 16:04:12.529057 13869 net.cpp:397] conv5_3/relu -> conv5_3 (in-place)
I1214 16:04:12.529072 13869 net.cpp:150] Setting up conv5_3/relu
I1214 16:04:12.529083 13869 net.cpp:157] Top shape: 1 2048 60 60 (7372800)
I1214 16:04:12.529091 13869 net.cpp:165] Memory required for data: 2147467936
I1214 16:04:12.529100 13869 layer_factory.hpp:77] Creating layer conv5_3_conv5_3/relu_0_split
I1214 16:04:12.529114 13869 net.cpp:106] Creating Layer conv5_3_conv5_3/relu_0_split
I1214 16:04:12.529124 13869 net.cpp:454] conv5_3_conv5_3/relu_0_split <- conv5_3
I1214 16:04:12.529141 13869 net.cpp:411] conv5_3_conv5_3/relu_0_split -> conv5_3_conv5_3/relu_0_split_0
I1214 16:04:12.529157 13869 net.cpp:411] conv5_3_conv5_3/relu_0_split -> conv5_3_conv5_3/relu_0_split_1
I1214 16:04:12.529172 13869 net.cpp:411] conv5_3_conv5_3/relu_0_split -> conv5_3_conv5_3/relu_0_split_2
I1214 16:04:12.529186 13869 net.cpp:411] conv5_3_conv5_3/relu_0_split -> conv5_3_conv5_3/relu_0_split_3
I1214 16:04:12.529201 13869 net.cpp:411] conv5_3_conv5_3/relu_0_split -> conv5_3_conv5_3/relu_0_split_4
I1214 16:04:12.529306 13869 net.cpp:150] Setting up conv5_3_conv5_3/relu_0_split
I1214 16:04:12.529323 13869 net.cpp:157] Top shape: 1 2048 60 60 (7372800)
I1214 16:04:12.529335 13869 net.cpp:157] Top shape: 1 2048 60 60 (7372800)
I1214 16:04:12.529347 13869 net.cpp:157] Top shape: 1 2048 60 60 (7372800)
I1214 16:04:12.529358 13869 net.cpp:157] Top shape: 1 2048 60 60 (7372800)
I1214 16:04:12.529369 13869 net.cpp:157] Top shape: 1 2048 60 60 (7372800)
I1214 16:04:12.529377 13869 net.cpp:165] Memory required for data: 2294923936
I1214 16:04:12.529386 13869 layer_factory.hpp:77] Creating layer conv5_3_pool1
I1214 16:04:12.529399 13869 net.cpp:106] Creating Layer conv5_3_pool1
I1214 16:04:12.529409 13869 net.cpp:454] conv5_3_pool1 <- conv5_3_conv5_3/relu_0_split_0
I1214 16:04:12.529422 13869 net.cpp:411] conv5_3_pool1 -> conv5_3_pool1
I1214 16:04:12.529469 13869 net.cpp:150] Setting up conv5_3_pool1
I1214 16:04:12.529484 13869 net.cpp:157] Top shape: 1 2048 1 1 (2048)
I1214 16:04:12.529494 13869 net.cpp:165] Memory required for data: 2294932128
I1214 16:04:12.529502 13869 layer_factory.hpp:77] Creating layer conv5_3_pool1_conv
I1214 16:04:12.529520 13869 net.cpp:106] Creating Layer conv5_3_pool1_conv
I1214 16:04:12.529531 13869 net.cpp:454] conv5_3_pool1_conv <- conv5_3_pool1
I1214 16:04:12.529547 13869 net.cpp:411] conv5_3_pool1_conv -> conv5_3_pool1_conv
I1214 16:04:12.592835 13869 net.cpp:150] Setting up conv5_3_pool1_conv
I1214 16:04:12.592857 13869 net.cpp:157] Top shape: 1 512 1 1 (512)
I1214 16:04:12.592867 13869 net.cpp:165] Memory required for data: 2294934176
I1214 16:04:12.592880 13869 layer_factory.hpp:77] Creating layer conv5_3_pool1_conv/bn
I1214 16:04:12.592895 13869 net.cpp:106] Creating Layer conv5_3_pool1_conv/bn
I1214 16:04:12.592905 13869 net.cpp:454] conv5_3_pool1_conv/bn <- conv5_3_pool1_conv
I1214 16:04:12.592923 13869 net.cpp:397] conv5_3_pool1_conv/bn -> conv5_3_pool1_conv (in-place)
I1214 16:04:12.593241 13869 net.cpp:150] Setting up conv5_3_pool1_conv/bn
I1214 16:04:12.593260 13869 net.cpp:157] Top shape: 1 512 1 1 (512)
I1214 16:04:12.593268 13869 net.cpp:165] Memory required for data: 2294936224
I1214 16:04:12.593286 13869 layer_factory.hpp:77] Creating layer conv5_3_pool1_conv/relu
I1214 16:04:12.593300 13869 net.cpp:106] Creating Layer conv5_3_pool1_conv/relu
I1214 16:04:12.593312 13869 net.cpp:454] conv5_3_pool1_conv/relu <- conv5_3_pool1_conv
I1214 16:04:12.593325 13869 net.cpp:397] conv5_3_pool1_conv/relu -> conv5_3_pool1_conv (in-place)
I1214 16:04:12.593340 13869 net.cpp:150] Setting up conv5_3_pool1_conv/relu
I1214 16:04:12.593353 13869 net.cpp:157] Top shape: 1 512 1 1 (512)
I1214 16:04:12.593361 13869 net.cpp:165] Memory required for data: 2294938272
I1214 16:04:12.593369 13869 layer_factory.hpp:77] Creating layer conv5_3_pool1_interp
I1214 16:04:12.593382 13869 net.cpp:106] Creating Layer conv5_3_pool1_interp
I1214 16:04:12.593392 13869 net.cpp:454] conv5_3_pool1_interp <- conv5_3_pool1_conv
I1214 16:04:12.593417 13869 net.cpp:411] conv5_3_pool1_interp -> conv5_3_pool1_interp
I1214 16:04:12.593459 13869 net.cpp:150] Setting up conv5_3_pool1_interp
I1214 16:04:12.593475 13869 net.cpp:157] Top shape: 1 512 60 60 (1843200)
I1214 16:04:12.593484 13869 net.cpp:165] Memory required for data: 2302311072
I1214 16:04:12.593493 13869 layer_factory.hpp:77] Creating layer conv5_3_pool2
I1214 16:04:12.593510 13869 net.cpp:106] Creating Layer conv5_3_pool2
I1214 16:04:12.593521 13869 net.cpp:454] conv5_3_pool2 <- conv5_3_conv5_3/relu_0_split_1
I1214 16:04:12.593538 13869 net.cpp:411] conv5_3_pool2 -> conv5_3_pool2
I1214 16:04:12.593577 13869 net.cpp:150] Setting up conv5_3_pool2
I1214 16:04:12.593592 13869 net.cpp:157] Top shape: 1 2048 2 2 (8192)
I1214 16:04:12.593600 13869 net.cpp:165] Memory required for data: 2302343840
I1214 16:04:12.593610 13869 layer_factory.hpp:77] Creating layer conv5_3_pool2_conv
I1214 16:04:12.593634 13869 net.cpp:106] Creating Layer conv5_3_pool2_conv
I1214 16:04:12.593647 13869 net.cpp:454] conv5_3_pool2_conv <- conv5_3_pool2
I1214 16:04:12.593660 13869 net.cpp:411] conv5_3_pool2_conv -> conv5_3_pool2_conv
I1214 16:04:12.657414 13869 net.cpp:150] Setting up conv5_3_pool2_conv
I1214 16:04:12.657436 13869 net.cpp:157] Top shape: 1 512 2 2 (2048)
I1214 16:04:12.657446 13869 net.cpp:165] Memory required for data: 2302352032
I1214 16:04:12.657459 13869 layer_factory.hpp:77] Creating layer conv5_3_pool2_conv/bn
I1214 16:04:12.657480 13869 net.cpp:106] Creating Layer conv5_3_pool2_conv/bn
I1214 16:04:12.657491 13869 net.cpp:454] conv5_3_pool2_conv/bn <- conv5_3_pool2_conv
I1214 16:04:12.657505 13869 net.cpp:397] conv5_3_pool2_conv/bn -> conv5_3_pool2_conv (in-place)
I1214 16:04:12.657817 13869 net.cpp:150] Setting up conv5_3_pool2_conv/bn
I1214 16:04:12.657835 13869 net.cpp:157] Top shape: 1 512 2 2 (2048)
I1214 16:04:12.657845 13869 net.cpp:165] Memory required for data: 2302360224
I1214 16:04:12.657861 13869 layer_factory.hpp:77] Creating layer conv5_3_pool2_conv/relu
I1214 16:04:12.657874 13869 net.cpp:106] Creating Layer conv5_3_pool2_conv/relu
I1214 16:04:12.657883 13869 net.cpp:454] conv5_3_pool2_conv/relu <- conv5_3_pool2_conv
I1214 16:04:12.657896 13869 net.cpp:397] conv5_3_pool2_conv/relu -> conv5_3_pool2_conv (in-place)
I1214 16:04:12.657909 13869 net.cpp:150] Setting up conv5_3_pool2_conv/relu
I1214 16:04:12.657922 13869 net.cpp:157] Top shape: 1 512 2 2 (2048)
I1214 16:04:12.657930 13869 net.cpp:165] Memory required for data: 2302368416
I1214 16:04:12.657939 13869 layer_factory.hpp:77] Creating layer conv5_3_pool2_interp
I1214 16:04:12.657956 13869 net.cpp:106] Creating Layer conv5_3_pool2_interp
I1214 16:04:12.657968 13869 net.cpp:454] conv5_3_pool2_interp <- conv5_3_pool2_conv
I1214 16:04:12.657981 13869 net.cpp:411] conv5_3_pool2_interp -> conv5_3_pool2_interp
I1214 16:04:12.658023 13869 net.cpp:150] Setting up conv5_3_pool2_interp
I1214 16:04:12.658040 13869 net.cpp:157] Top shape: 1 512 60 60 (1843200)
I1214 16:04:12.658048 13869 net.cpp:165] Memory required for data: 2309741216
I1214 16:04:12.658057 13869 layer_factory.hpp:77] Creating layer conv5_3_pool3
I1214 16:04:12.658069 13869 net.cpp:106] Creating Layer conv5_3_pool3
I1214 16:04:12.658079 13869 net.cpp:454] conv5_3_pool3 <- conv5_3_conv5_3/relu_0_split_2
I1214 16:04:12.658097 13869 net.cpp:411] conv5_3_pool3 -> conv5_3_pool3
I1214 16:04:12.658141 13869 net.cpp:150] Setting up conv5_3_pool3
I1214 16:04:12.658156 13869 net.cpp:157] Top shape: 1 2048 3 3 (18432)
I1214 16:04:12.658165 13869 net.cpp:165] Memory required for data: 2309814944
I1214 16:04:12.658175 13869 layer_factory.hpp:77] Creating layer conv5_3_pool3_conv
I1214 16:04:12.658195 13869 net.cpp:106] Creating Layer conv5_3_pool3_conv
I1214 16:04:12.658205 13869 net.cpp:454] conv5_3_pool3_conv <- conv5_3_pool3
I1214 16:04:12.658219 13869 net.cpp:411] conv5_3_pool3_conv -> conv5_3_pool3_conv
I1214 16:04:12.721472 13869 net.cpp:150] Setting up conv5_3_pool3_conv
I1214 16:04:12.721498 13869 net.cpp:157] Top shape: 1 512 3 3 (4608)
I1214 16:04:12.721518 13869 net.cpp:165] Memory required for data: 2309833376
I1214 16:04:12.721540 13869 layer_factory.hpp:77] Creating layer conv5_3_pool3_conv/bn
I1214 16:04:12.721555 13869 net.cpp:106] Creating Layer conv5_3_pool3_conv/bn
I1214 16:04:12.721566 13869 net.cpp:454] conv5_3_pool3_conv/bn <- conv5_3_pool3_conv
I1214 16:04:12.721585 13869 net.cpp:397] conv5_3_pool3_conv/bn -> conv5_3_pool3_conv (in-place)
I1214 16:04:12.721911 13869 net.cpp:150] Setting up conv5_3_pool3_conv/bn
I1214 16:04:12.721930 13869 net.cpp:157] Top shape: 1 512 3 3 (4608)
I1214 16:04:12.721938 13869 net.cpp:165] Memory required for data: 2309851808
I1214 16:04:12.721956 13869 layer_factory.hpp:77] Creating layer conv5_3_pool3_conv/relu
I1214 16:04:12.721972 13869 net.cpp:106] Creating Layer conv5_3_pool3_conv/relu
I1214 16:04:12.721983 13869 net.cpp:454] conv5_3_pool3_conv/relu <- conv5_3_pool3_conv
I1214 16:04:12.721995 13869 net.cpp:397] conv5_3_pool3_conv/relu -> conv5_3_pool3_conv (in-place)
I1214 16:04:12.722009 13869 net.cpp:150] Setting up conv5_3_pool3_conv/relu
I1214 16:04:12.722021 13869 net.cpp:157] Top shape: 1 512 3 3 (4608)
I1214 16:04:12.722030 13869 net.cpp:165] Memory required for data: 2309870240
I1214 16:04:12.722039 13869 layer_factory.hpp:77] Creating layer conv5_3_pool3_interp
I1214 16:04:12.722051 13869 net.cpp:106] Creating Layer conv5_3_pool3_interp
I1214 16:04:12.722061 13869 net.cpp:454] conv5_3_pool3_interp <- conv5_3_pool3_conv
I1214 16:04:12.722074 13869 net.cpp:411] conv5_3_pool3_interp -> conv5_3_pool3_interp
I1214 16:04:12.722117 13869 net.cpp:150] Setting up conv5_3_pool3_interp
I1214 16:04:12.722133 13869 net.cpp:157] Top shape: 1 512 60 60 (1843200)
I1214 16:04:12.722141 13869 net.cpp:165] Memory required for data: 2317243040
I1214 16:04:12.722151 13869 layer_factory.hpp:77] Creating layer conv5_3_pool6
I1214 16:04:12.722165 13869 net.cpp:106] Creating Layer conv5_3_pool6
I1214 16:04:12.722177 13869 net.cpp:454] conv5_3_pool6 <- conv5_3_conv5_3/relu_0_split_3
I1214 16:04:12.722189 13869 net.cpp:411] conv5_3_pool6 -> conv5_3_pool6
I1214 16:04:12.722234 13869 net.cpp:150] Setting up conv5_3_pool6
I1214 16:04:12.722249 13869 net.cpp:157] Top shape: 1 2048 6 6 (73728)
I1214 16:04:12.722259 13869 net.cpp:165] Memory required for data: 2317537952
I1214 16:04:12.722267 13869 layer_factory.hpp:77] Creating layer conv5_3_pool6_conv
I1214 16:04:12.722285 13869 net.cpp:106] Creating Layer conv5_3_pool6_conv
I1214 16:04:12.722295 13869 net.cpp:454] conv5_3_pool6_conv <- conv5_3_pool6
I1214 16:04:12.722313 13869 net.cpp:411] conv5_3_pool6_conv -> conv5_3_pool6_conv
I1214 16:04:12.785675 13869 net.cpp:150] Setting up conv5_3_pool6_conv
I1214 16:04:12.785697 13869 net.cpp:157] Top shape: 1 512 6 6 (18432)
I1214 16:04:12.785706 13869 net.cpp:165] Memory required for data: 2317611680
I1214 16:04:12.785719 13869 layer_factory.hpp:77] Creating layer conv5_3_pool6_conv/bn
I1214 16:04:12.785739 13869 net.cpp:106] Creating Layer conv5_3_pool6_conv/bn
I1214 16:04:12.785751 13869 net.cpp:454] conv5_3_pool6_conv/bn <- conv5_3_pool6_conv
I1214 16:04:12.785764 13869 net.cpp:397] conv5_3_pool6_conv/bn -> conv5_3_pool6_conv (in-place)
I1214 16:04:12.786087 13869 net.cpp:150] Setting up conv5_3_pool6_conv/bn
I1214 16:04:12.786104 13869 net.cpp:157] Top shape: 1 512 6 6 (18432)
I1214 16:04:12.786114 13869 net.cpp:165] Memory required for data: 2317685408
I1214 16:04:12.786131 13869 layer_factory.hpp:77] Creating layer conv5_3_pool6_conv/relu
I1214 16:04:12.786144 13869 net.cpp:106] Creating Layer conv5_3_pool6_conv/relu
I1214 16:04:12.786154 13869 net.cpp:454] conv5_3_pool6_conv/relu <- conv5_3_pool6_conv
I1214 16:04:12.786170 13869 net.cpp:397] conv5_3_pool6_conv/relu -> conv5_3_pool6_conv (in-place)
I1214 16:04:12.786186 13869 net.cpp:150] Setting up conv5_3_pool6_conv/relu
I1214 16:04:12.786200 13869 net.cpp:157] Top shape: 1 512 6 6 (18432)
I1214 16:04:12.786208 13869 net.cpp:165] Memory required for data: 2317759136
I1214 16:04:12.786217 13869 layer_factory.hpp:77] Creating layer conv5_3_pool6_interp
I1214 16:04:12.786234 13869 net.cpp:106] Creating Layer conv5_3_pool6_interp
I1214 16:04:12.786252 13869 net.cpp:454] conv5_3_pool6_interp <- conv5_3_pool6_conv
I1214 16:04:12.786267 13869 net.cpp:411] conv5_3_pool6_interp -> conv5_3_pool6_interp
I1214 16:04:12.786308 13869 net.cpp:150] Setting up conv5_3_pool6_interp
I1214 16:04:12.786324 13869 net.cpp:157] Top shape: 1 512 60 60 (1843200)
I1214 16:04:12.786332 13869 net.cpp:165] Memory required for data: 2325131936
I1214 16:04:12.786341 13869 layer_factory.hpp:77] Creating layer conv5_3_concat
I1214 16:04:12.786360 13869 net.cpp:106] Creating Layer conv5_3_concat
I1214 16:04:12.786370 13869 net.cpp:454] conv5_3_concat <- conv5_3_conv5_3/relu_0_split_4
I1214 16:04:12.786382 13869 net.cpp:454] conv5_3_concat <- conv5_3_pool6_interp
I1214 16:04:12.786393 13869 net.cpp:454] conv5_3_concat <- conv5_3_pool3_interp
I1214 16:04:12.786404 13869 net.cpp:454] conv5_3_concat <- conv5_3_pool2_interp
I1214 16:04:12.786414 13869 net.cpp:454] conv5_3_concat <- conv5_3_pool1_interp
I1214 16:04:12.786429 13869 net.cpp:411] conv5_3_concat -> conv5_3_concat
I1214 16:04:12.786473 13869 net.cpp:150] Setting up conv5_3_concat
I1214 16:04:12.786487 13869 net.cpp:157] Top shape: 1 4096 60 60 (14745600)
I1214 16:04:12.786496 13869 net.cpp:165] Memory required for data: 2384114336
I1214 16:04:12.786505 13869 layer_factory.hpp:77] Creating layer conv5_4
I1214 16:04:12.786525 13869 net.cpp:106] Creating Layer conv5_4
I1214 16:04:12.786537 13869 net.cpp:454] conv5_4 <- conv5_3_concat
I1214 16:04:12.786553 13869 net.cpp:411] conv5_4 -> conv5_4
I1214 16:04:13.925940 13869 net.cpp:150] Setting up conv5_4
I1214 16:04:13.925999 13869 net.cpp:157] Top shape: 1 512 60 60 (1843200)
I1214 16:04:13.926009 13869 net.cpp:165] Memory required for data: 2391487136
I1214 16:04:13.926029 13869 layer_factory.hpp:77] Creating layer conv5_4/bn
I1214 16:04:13.926059 13869 net.cpp:106] Creating Layer conv5_4/bn
I1214 16:04:13.926074 13869 net.cpp:454] conv5_4/bn <- conv5_4
I1214 16:04:13.926093 13869 net.cpp:397] conv5_4/bn -> conv5_4 (in-place)
I1214 16:04:13.926467 13869 net.cpp:150] Setting up conv5_4/bn
I1214 16:04:13.926486 13869 net.cpp:157] Top shape: 1 512 60 60 (1843200)
I1214 16:04:13.926494 13869 net.cpp:165] Memory required for data: 2398859936
I1214 16:04:13.926512 13869 layer_factory.hpp:77] Creating layer conv5_4/relu
I1214 16:04:13.926525 13869 net.cpp:106] Creating Layer conv5_4/relu
I1214 16:04:13.926535 13869 net.cpp:454] conv5_4/relu <- conv5_4
I1214 16:04:13.926548 13869 net.cpp:397] conv5_4/relu -> conv5_4 (in-place)
I1214 16:04:13.926561 13869 net.cpp:150] Setting up conv5_4/relu
I1214 16:04:13.926573 13869 net.cpp:157] Top shape: 1 512 60 60 (1843200)
I1214 16:04:13.926583 13869 net.cpp:165] Memory required for data: 2406232736
I1214 16:04:13.926591 13869 layer_factory.hpp:77] Creating layer conv5_4/dropout
I1214 16:04:13.926605 13869 net.cpp:106] Creating Layer conv5_4/dropout
I1214 16:04:13.926614 13869 net.cpp:454] conv5_4/dropout <- conv5_4
I1214 16:04:13.926630 13869 net.cpp:397] conv5_4/dropout -> conv5_4 (in-place)
I1214 16:04:13.926674 13869 net.cpp:150] Setting up conv5_4/dropout
I1214 16:04:13.926689 13869 net.cpp:157] Top shape: 1 512 60 60 (1843200)
I1214 16:04:13.926702 13869 net.cpp:165] Memory required for data: 2413605536
I1214 16:04:13.926712 13869 layer_factory.hpp:77] Creating layer conv6_nyuv2
I1214 16:04:13.926728 13869 net.cpp:106] Creating Layer conv6_nyuv2
I1214 16:04:13.926739 13869 net.cpp:454] conv6_nyuv2 <- conv5_4
I1214 16:04:13.926759 13869 net.cpp:411] conv6_nyuv2 -> conv6_nyuv2
I1214 16:04:13.928331 13869 net.cpp:150] Setting up conv6_nyuv2
I1214 16:04:13.928352 13869 net.cpp:157] Top shape: 1 40 60 60 (144000)
I1214 16:04:13.928362 13869 net.cpp:165] Memory required for data: 2414181536
I1214 16:04:13.928376 13869 layer_factory.hpp:77] Creating layer conv6_interp
I1214 16:04:13.928391 13869 net.cpp:106] Creating Layer conv6_interp
I1214 16:04:13.928401 13869 net.cpp:454] conv6_interp <- conv6_nyuv2
I1214 16:04:13.928418 13869 net.cpp:411] conv6_interp -> conv6_interp
I1214 16:04:13.928472 13869 net.cpp:150] Setting up conv6_interp
I1214 16:04:13.928505 13869 net.cpp:157] Top shape: 1 40 473 473 (8949160)
I1214 16:04:13.928516 13869 net.cpp:165] Memory required for data: 2449978176
I1214 16:04:13.928524 13869 layer_factory.hpp:77] Creating layer conv6_interp_conv6_interp_0_split
I1214 16:04:13.928537 13869 net.cpp:106] Creating Layer conv6_interp_conv6_interp_0_split
I1214 16:04:13.928546 13869 net.cpp:454] conv6_interp_conv6_interp_0_split <- conv6_interp
I1214 16:04:13.928558 13869 net.cpp:411] conv6_interp_conv6_interp_0_split -> conv6_interp_conv6_interp_0_split_0
I1214 16:04:13.928578 13869 net.cpp:411] conv6_interp_conv6_interp_0_split -> conv6_interp_conv6_interp_0_split_1
I1214 16:04:13.928638 13869 net.cpp:150] Setting up conv6_interp_conv6_interp_0_split
I1214 16:04:13.928653 13869 net.cpp:157] Top shape: 1 40 473 473 (8949160)
I1214 16:04:13.928665 13869 net.cpp:157] Top shape: 1 40 473 473 (8949160)
I1214 16:04:13.928673 13869 net.cpp:165] Memory required for data: 2521571456
I1214 16:04:13.928683 13869 layer_factory.hpp:77] Creating layer loss
I1214 16:04:13.928701 13869 net.cpp:106] Creating Layer loss
I1214 16:04:13.928712 13869 net.cpp:454] loss <- conv6_interp_conv6_interp_0_split_0
I1214 16:04:13.928724 13869 net.cpp:454] loss <- label_data_1_split_0
I1214 16:04:13.928736 13869 net.cpp:411] loss -> (automatic)
I1214 16:04:13.928753 13869 layer_factory.hpp:77] Creating layer loss
I1214 16:04:13.956259 13869 net.cpp:150] Setting up loss
I1214 16:04:13.956320 13869 net.cpp:157] Top shape: (1)
I1214 16:04:13.956331 13869 net.cpp:160]     with loss weight 1
I1214 16:04:13.956351 13869 net.cpp:165] Memory required for data: 2521571460
I1214 16:04:13.956364 13869 layer_factory.hpp:77] Creating layer accuracy
I1214 16:04:13.956400 13869 net.cpp:106] Creating Layer accuracy
I1214 16:04:13.956415 13869 net.cpp:454] accuracy <- conv6_interp_conv6_interp_0_split_1
I1214 16:04:13.956431 13869 net.cpp:454] accuracy <- label_data_1_split_1
I1214 16:04:13.956451 13869 net.cpp:411] accuracy -> accuracy
I1214 16:04:13.956534 13869 net.cpp:150] Setting up accuracy
I1214 16:04:13.956552 13869 net.cpp:157] Top shape: 1 1 1 3 (3)
I1214 16:04:13.956560 13869 net.cpp:165] Memory required for data: 2521571472
I1214 16:04:13.956570 13869 net.cpp:228] accuracy does not need backward computation.
I1214 16:04:13.956581 13869 net.cpp:226] loss needs backward computation.
I1214 16:04:13.956591 13869 net.cpp:226] conv6_interp_conv6_interp_0_split needs backward computation.
I1214 16:04:13.956601 13869 net.cpp:226] conv6_interp needs backward computation.
…
