…
I1212 10:06:49.383903 14712 solver.cpp:81] Creating training net from train_net file: ./train.prototxt
I1212 10:06:49.386404 14712 net.cpp:49] Initializing net from parameters: 
name: "${NET_ID}"
state {
  phase: TRAIN
}
layer {
  name: "data"
  type: "ImageSegData"
  top: "data"
  top: "label"
  include {
    phase: TRAIN
  }
  transform_param {
    mirror: true
    crop_size: 321
    mean_value: 104.008
    mean_value: 116.669
    mean_value: 122.675
  }
  image_data_param {
    source: "./VOC2012/voc2012.deeplablist"
    batch_size: 10
    shuffle: true
    root_folder: "./VOC2012/"
    label_type: PIXEL
  }
}
layer {
  name: "data_conv"
  type: "Convolution"
  bottom: "data"
  top: "data_conv"
  convolution_param {
    num_output: 128
    pad: 1
    kernel_size: 3
    stride: 8
    weight_filler {
      type: "gaussian"
      std: 0.001
    }
    bias_filler {
      type: "constant"
      value: 0
    }
  }
}
layer {
  name: "relu_data_conv"
  type: "ReLU"
  bottom: "data_conv"
  top: "data_conv"
}
layer {
  name: "drop_data_conv"
  type: "Dropout"
  bottom: "data_conv"
  top: "data_conv"
  dropout_param {
    dropout_ratio: 0.5
  }
}
layer {
  name: "data_fc"
  type: "Convolution"
  bottom: "data_conv"
  top: "data_fc"
  convolution_param {
    num_output: 128
    kernel_size: 1
    stride: 1
    weight_filler {
      type: "gaussian"
      std: 0.001
    }
    bias_filler {
      type: "constant"
      value: 0
    }
  }
}
layer {
  name: "relu_data_fc"
  type: "ReLU"
  bottom: "data_fc"
  top: "data_fc"
}
layer {
  name: "drop_data_fc"
  type: "Dropout"
  bottom: "data_fc"
  top: "data_fc"
  dropout_param {
    dropout_ratio: 0.5
  }
}
layer {
  name: "data_ms"
  type: "Convolution"
  bottom: "data_fc"
  top: "data_ms"
  convolution_param {
    num_output: 21
    kernel_size: 1
    weight_filler {
      type: "gaussian"
      std: 0.01
    }
    bias_filler {
      type: "constant"
      value: 0
    }
  }
}
layer {
  name: "conv1_1"
  type: "Convolution"
  bottom: "data"
  top: "conv1_1"
  convolution_param {
    num_output: 64
    pad: 1
    kernel_size: 3
  }
}
layer {
  name: "relu1_1"
  type: "ReLU"
  bottom: "conv1_1"
  top: "conv1_1"
}
layer {
  name: "conv1_2"
  type: "Convolution"
  bottom: "conv1_1"
  top: "conv1_2"
  convolution_param {
    num_output: 64
    pad: 1
    kernel_size: 3
  }
}
layer {
  name: "relu1_2"
  type: "ReLU"
  bottom: "conv1_2"
  top: "conv1_2"
}
layer {
  name: "pool1"
  type: "Pooling"
  bottom: "conv1_2"
  top: "pool1"
  pooling_param {
    pool: MAX
    kernel_size: 3
    stride: 2
    pad: 1
  }
}
layer {
  name: "pool1_conv"
  type: "Convolution"
  bottom: "pool1"
  top: "pool1_conv"
  convolution_param {
    num_output: 128
    pad: 1
    kernel_size: 3
    stride: 4
    weight_filler {
      type: "gaussian"
      std: 0.001
    }
    bias_filler {
      type: "constant"
      value: 0
    }
  }
}
layer {
  name: "relu_pool1_conv"
  type: "ReLU"
  bottom: "pool1_conv"
  top: "pool1_conv"
}
layer {
  name: "drop_pool1_conv"
  type: "Dropout"
  bottom: "pool1_conv"
  top: "pool1_conv"
  dropout_param {
    dropout_ratio: 0.5
  }
}
layer {
  name: "pool1_fc"
  type: "Convolution"
  bottom: "pool1_conv"
  top: "pool1_fc"
  convolution_param {
    num_output: 128
    kernel_size: 1
    weight_filler {
      type: "gaussian"
      std: 0.001
    }
    bias_filler {
      type: "constant"
      value: 0
    }
  }
}
layer {
  name: "relu_pool1_fc"
  type: "ReLU"
  bottom: "pool1_fc"
  top: "pool1_fc"
}
layer {
  name: "drop_pool1_fc"
  type: "Dropout"
  bottom: "pool1_fc"
  top: "pool1_fc"
  dropout_param {
    dropout_ratio: 0.5
  }
}
layer {
  name: "pool1_ms"
  type: "Convolution"
  bottom: "pool1_fc"
  top: "pool1_ms"
  convolution_param {
    num_output: 21
    kernel_size: 1
    weight_filler {
      type: "gaussian"
      std: 0.01
    }
    bias_filler {
      type: "constant"
      value: 0
    }
  }
}
layer {
  name: "conv2_1"
  type: "Convolution"
  bottom: "pool1"
  top: "conv2_1"
  convolution_param {
    num_output: 128
    pad: 1
    kernel_size: 3
  }
}
layer {
  name: "relu2_1"
  type: "ReLU"
  bottom: "conv2_1"
  top: "conv2_1"
}
layer {
  name: "conv2_2"
  type: "Convolution"
  bottom: "conv2_1"
  top: "conv2_2"
  convolution_param {
    num_output: 128
    pad: 1
    kernel_size: 3
  }
}
layer {
  name: "relu2_2"
  type: "ReLU"
  bottom: "conv2_2"
  top: "conv2_2"
}
layer {
  name: "pool2"
  type: "Pooling"
  bottom: "conv2_2"
  top: "pool2"
  pooling_param {
    pool: MAX
    kernel_size: 3
    stride: 2
    pad: 1
  }
}
layer {
  name: "pool2_conv"
  type: "Convolution"
  bottom: "pool2"
  top: "pool2_conv"
  convolution_param {
    num_output: 128
    pad: 1
    kernel_size: 3
    stride: 2
    weight_filler {
      type: "gaussian"
      std: 0.001
    }
    bias_filler {
      type: "constant"
      value: 0
    }
  }
}
layer {
  name: "relu_pool2_conv"
  type: "ReLU"
  bottom: "pool2_conv"
  top: "pool2_conv"
}
layer {
  name: "drop_pool2_conv"
  type: "Dropout"
  bottom: "pool2_conv"
  top: "pool2_conv"
  dropout_param {
    dropout_ratio: 0.5
  }
}
layer {
  name: "pool2_fc"
  type: "Convolution"
  bottom: "pool2_conv"
  top: "pool2_fc"
  convolution_param {
    num_output: 128
    kernel_size: 1
    weight_filler {
      type: "gaussian"
      std: 0.001
    }
    bias_filler {
      type: "constant"
      value: 0
    }
  }
}
layer {
  name: "relu_pool2_fc"
  type: "ReLU"
  bottom: "pool2_fc"
  top: "pool2_fc"
}
layer {
  name: "drop_pool2_fc"
  type: "Dropout"
  bottom: "pool2_fc"
  top: "pool2_fc"
  dropout_param {
    dropout_ratio: 0.5
  }
}
layer {
  name: "pool2_ms"
  type: "Convolution"
  bottom: "pool2_fc"
  top: "pool2_ms"
  convolution_param {
    num_output: 21
    kernel_size: 1
    weight_filler {
      type: "gaussian"
      std: 0.01
    }
    bias_filler {
      type: "constant"
      value: 0
    }
  }
}
layer {
  name: "conv3_1"
  type: "Convolution"
  bottom: "pool2"
  top: "conv3_1"
  convolution_param {
    num_output: 256
    pad: 1
    kernel_size: 3
  }
}
layer {
  name: "relu3_1"
  type: "ReLU"
  bottom: "conv3_1"
  top: "conv3_1"
}
layer {
  name: "conv3_2"
  type: "Convolution"
  bottom: "conv3_1"
  top: "conv3_2"
  convolution_param {
    num_output: 256
    pad: 1
    kernel_size: 3
  }
}
layer {
  name: "relu3_2"
  type: "ReLU"
  bottom: "conv3_2"
  top: "conv3_2"
}
layer {
  name: "conv3_3"
  type: "Convolution"
  bottom: "conv3_2"
  top: "conv3_3"
  convolution_param {
    num_output: 256
    pad: 1
    kernel_size: 3
  }
}
layer {
  name: "relu3_3"
  type: "ReLU"
  bottom: "conv3_3"
  top: "conv3_3"
}
layer {
  name: "pool3"
  type: "Pooling"
  bottom: "conv3_3"
  top: "pool3"
  pooling_param {
    pool: MAX
    kernel_size: 3
    stride: 2
    pad: 1
  }
}
layer {
  name: "pool3_conv"
  type: "Convolution"
  bottom: "pool3"
  top: "pool3_conv"
  convolution_param {
    num_output: 128
    pad: 1
    kernel_size: 3
    stride: 1
    weight_filler {
      type: "gaussian"
      std: 0.001
    }
    bias_filler {
      type: "constant"
      value: 0
    }
  }
}
layer {
  name: "relu_pool3_conv"
  type: "ReLU"
  bottom: "pool3_conv"
  top: "pool3_conv"
}
layer {
  name: "drop_pool3_conv"
  type: "Dropout"
  bottom: "pool3_conv"
  top: "pool3_conv"
  dropout_param {
    dropout_ratio: 0.5
  }
}
layer {
  name: "pool3_fc"
  type: "Convolution"
  bottom: "pool3_conv"
  top: "pool3_fc"
  convolution_param {
    num_output: 128
    kernel_size: 1
    stride: 1
    weight_filler {
      type: "gaussian"
      std: 0.001
    }
    bias_filler {
      type: "constant"
      value: 0
    }
  }
}
layer {
  name: "relu_pool3_fc"
  type: "ReLU"
  bottom: "pool3_fc"
  top: "pool3_fc"
}
layer {
  name: "drop_pool3_fc"
  type: "Dropout"
  bottom: "pool3_fc"
  top: "pool3_fc"
  dropout_param {
    dropout_ratio: 0.5
  }
}
layer {
  name: "pool3_ms"
  type: "Convolution"
  bottom: "pool3_fc"
  top: "pool3_ms"
  convolution_param {
    num_output: 21
    kernel_size: 1
  }
}
layer {
  name: "conv4_1"
  type: "Convolution"
  bottom: "pool3"
  top: "conv4_1"
  convolution_param {
    num_output: 512
    pad: 1
    kernel_size: 3
  }
}
layer {
  name: "relu4_1"
  type: "ReLU"
  bottom: "conv4_1"
  top: "conv4_1"
}
layer {
  name: "conv4_2"
  type: "Convolution"
  bottom: "conv4_1"
  top: "conv4_2"
  convolution_param {
    num_output: 512
    pad: 1
    kernel_size: 3
  }
}
layer {
  name: "relu4_2"
  type: "ReLU"
  bottom: "conv4_2"
  top: "conv4_2"
}
layer {
  name: "conv4_3"
  type: "Convolution"
  bottom: "conv4_2"
  top: "conv4_3"
  convolution_param {
    num_output: 512
    pad: 1
    kernel_size: 3
  }
}
layer {
  name: "relu4_3"
  type: "ReLU"
  bottom: "conv4_3"
  top: "conv4_3"
}
layer {
  name: "pool4"
  type: "Pooling"
  bottom: "conv4_3"
  top: "pool4"
  pooling_param {
    pool: MAX
    kernel_size: 3
    stride: 1
    pad: 1
  }
}
layer {
  name: "pool4_conv"
  type: "Convolution"
  bottom: "pool4"
  top: "pool4_conv"
  convolution_param {
    num_output: 128
    pad: 1
    kernel_size: 3
    stride: 1
    weight_filler {
      type: "gaussian"
      std: 0.001
    }
    bias_filler {
      type: "constant"
      value: 0
    }
  }
}
layer {
  name: "relu_pool4_conv"
  type: "ReLU"
  bottom: "pool4_conv"
  top: "pool4_conv"
}
layer {
  name: "drop_pool4_conv"
  type: "Dropout"
  bottom: "pool4_conv"
  top: "pool4_conv"
  dropout_param {
    dropout_ratio: 0.5
  }
}
layer {
  name: "pool4_fc"
  type: "Convolution"
  bottom: "pool4_conv"
  top: "pool4_fc"
  convolution_param {
    num_output: 128
    kernel_size: 1
    stride: 1
    weight_filler {
      type: "gaussian"
      std: 0.005
    }
    bias_filler {
      type: "constant"
      value: 0
    }
  }
}
layer {
  name: "relu_pool4_fc"
  type: "ReLU"
  bottom: "pool4_fc"
  top: "pool4_fc"
}
layer {
  name: "drop_pool4_fc"
  type: "Dropout"
  bottom: "pool4_fc"
  top: "pool4_fc"
  dropout_param {
    dropout_ratio: 0.5
  }
}
layer {
  name: "pool4_ms"
  type: "Convolution"
  bottom: "pool4_fc"
  top: "pool4_ms"
  convolution_param {
    num_output: 21
    kernel_size: 1
    weight_filler {
      type: "gaussian"
      std: 0.01
    }
    bias_filler {
      type: "constant"
      value: 0
    }
  }
}
layer {
  name: "conv5_1"
  type: "Convolution"
  bottom: "pool4"
  top: "conv5_1"
  convolution_param {
    num_output: 512
    pad: 2
    kernel_size: 3
    dilation: 2
  }
}
layer {
  name: "relu5_1"
  type: "ReLU"
  bottom: "conv5_1"
  top: "conv5_1"
}
layer {
  name: "conv5_2"
  type: "Convolution"
  bottom: "conv5_1"
  top: "conv5_2"
  convolution_param {
    num_output: 512
    pad: 2
    kernel_size: 3
    dilation: 2
  }
}
layer {
  name: "relu5_2"
  type: "ReLU"
  bottom: "conv5_2"
  top: "conv5_2"
}
layer {
  name: "conv5_3"
  type: "Convolution"
  bottom: "conv5_2"
  top: "conv5_3"
  convolution_param {
    num_output: 512
    pad: 2
    kernel_size: 3
    dilation: 2
  }
}
layer {
  name: "relu5_3"
  type: "ReLU"
  bottom: "conv5_3"
  top: "conv5_3"
}
layer {
  name: "pool5"
  type: "Pooling"
  bottom: "conv5_3"
  top: "pool5"
  pooling_param {
    pool: MAX
    kernel_size: 3
    stride: 1
    pad: 1
  }
}
layer {
  name: "pool5a"
  type: "Pooling"
  bottom: "pool5"
  top: "pool5a"
  pooling_param {
    pool: AVE
    kernel_size: 3
    stride: 1
    pad: 1
  }
}
layer {
  name: "fc6"
  type: "Convolution"
  bottom: "pool5a"
  top: "fc6"
  convolution_param {
    num_output: 1024
    pad: 12
    kernel_size: 3
    dilation: 12
  }
}
layer {
  name: "relu6"
  type: "ReLU"
  bottom: "fc6"
  top: "fc6"
}
layer {
  name: "drop6"
  type: "Dropout"
  bottom: "fc6"
  top: "fc6"
  dropout_param {
    dropout_ratio: 0.5
  }
}
layer {
  name: "fc7"
  type: "Convolution"
  bottom: "fc6"
  top: "fc7"
  convolution_param {
    num_output: 1024
    kernel_size: 1
  }
}
layer {
  name: "relu7"
  type: "ReLU"
  bottom: "fc7"
  top: "fc7"
}
layer {
  name: "drop7"
  type: "Dropout"
  bottom: "fc7"
  top: "fc7"
  dropout_param {
    dropout_ratio: 0.5
  }
}
layer {
  name: "fc8_indoor"
  type: "Convolution"
  bottom: "fc7"
  top: "fc8_indoor"
  param {
    lr_mult: 0
    decay_mult: 0
  }
  param {
    lr_mult: 1
    decay_mult: 0
  }
  convolution_param {
    num_output: 21
    kernel_size: 1
    weight_filler {
      type: "gaussian"
      std: 0.01
    }
    bias_filler {
      type: "constant"
      value: 0
    }
  }
}
layer {
  name: "fc_fusion"
  type: "Eltwise"
  bottom: "data_ms"
  bottom: "pool1_ms"
  bottom: "pool2_ms"
  bottom: "pool3_ms"
  bottom: "pool4_ms"
  bottom: "fc8_indoor"
  top: "fc_fusion"
  eltwise_param {
    operation: SUM
  }
}
layer {
  name: "label_shrink"
  type: "Interp"
  bottom: "label"
  top: "label_shrink"
  interp_param {
    shrink_factor: 8
    pad_beg: 0
    pad_end: 0
  }
}
layer {
  name: "loss"
  type: "SoftmaxWithLoss"
  bottom: "fc_fusion"
  bottom: "label_shrink"
  include {
    phase: TRAIN
  }
  loss_param {
    ignore_label: 255
  }
}
layer {
  name: "accuracy"
  type: "SegAccuracy"
  bottom: "fc_fusion"
  bottom: "label_shrink"
  top: "accuracy"
  seg_accuracy_param {
    ignore_label: 255
  }
}
I1212 10:06:49.386911 14712 layer_factory.hpp:77] Creating layer data
I1212 10:06:49.386976 14712 net.cpp:106] Creating Layer data
I1212 10:06:49.387001 14712 net.cpp:411] data -> data
I1212 10:06:49.387053 14712 net.cpp:411] data -> label
I1212 10:06:49.387079 14712 net.cpp:411] data -> (automatic)
I1212 10:06:49.387647 14712 image_seg_data_layer.cpp:46] Opening file ./VOC2012/voc2012.deeplablist
I1212 10:06:49.392120 14712 image_seg_data_layer.cpp:63] Shuffling data
I1212 10:06:49.392556 14712 image_seg_data_layer.cpp:68] A total of 2913 images.
I1212 10:06:49.416136 14712 image_seg_data_layer.cpp:137] output data size: 10,3,321,321
I1212 10:06:49.416177 14712 image_seg_data_layer.cpp:141] output label size: 10,1,321,321
I1212 10:06:49.416188 14712 image_seg_data_layer.cpp:145] output data_dim size: 10,1,1,2
I1212 10:06:49.477653 14712 net.cpp:150] Setting up data
I1212 10:06:49.477720 14712 net.cpp:157] Top shape: 10 3 321 321 (3091230)
I1212 10:06:49.477735 14712 net.cpp:157] Top shape: 10 1 321 321 (1030410)
I1212 10:06:49.477748 14712 net.cpp:157] Top shape: 10 1 1 2 (20)
I1212 10:06:49.477758 14712 net.cpp:165] Memory required for data: 16486640
I1212 10:06:49.477774 14712 layer_factory.hpp:77] Creating layer data_data_0_split
I1212 10:06:49.477799 14712 net.cpp:106] Creating Layer data_data_0_split
I1212 10:06:49.477815 14712 net.cpp:454] data_data_0_split <- data
I1212 10:06:49.477847 14712 net.cpp:411] data_data_0_split -> data_data_0_split_0
I1212 10:06:49.477869 14712 net.cpp:411] data_data_0_split -> data_data_0_split_1
I1212 10:06:49.477946 14712 net.cpp:150] Setting up data_data_0_split
I1212 10:06:49.477963 14712 net.cpp:157] Top shape: 10 3 321 321 (3091230)
I1212 10:06:49.477975 14712 net.cpp:157] Top shape: 10 3 321 321 (3091230)
I1212 10:06:49.477985 14712 net.cpp:165] Memory required for data: 41216480
I1212 10:06:49.477995 14712 layer_factory.hpp:77] Creating layer data_conv
I1212 10:06:49.478024 14712 net.cpp:106] Creating Layer data_conv
I1212 10:06:49.478036 14712 net.cpp:454] data_conv <- data_data_0_split_0
I1212 10:06:49.478050 14712 net.cpp:411] data_conv -> data_conv
I1212 10:06:49.480842 14712 net.cpp:150] Setting up data_conv
I1212 10:06:49.480867 14712 net.cpp:157] Top shape: 10 128 41 41 (2151680)
I1212 10:06:49.480880 14712 net.cpp:165] Memory required for data: 49823200
I1212 10:06:49.480908 14712 layer_factory.hpp:77] Creating layer relu_data_conv
I1212 10:06:49.480923 14712 net.cpp:106] Creating Layer relu_data_conv
I1212 10:06:49.480934 14712 net.cpp:454] relu_data_conv <- data_conv
I1212 10:06:49.480947 14712 net.cpp:397] relu_data_conv -> data_conv (in-place)
I1212 10:06:49.480965 14712 net.cpp:150] Setting up relu_data_conv
I1212 10:06:49.480978 14712 net.cpp:157] Top shape: 10 128 41 41 (2151680)
I1212 10:06:49.480998 14712 net.cpp:165] Memory required for data: 58429920
I1212 10:06:49.481021 14712 layer_factory.hpp:77] Creating layer drop_data_conv
I1212 10:06:49.481040 14712 net.cpp:106] Creating Layer drop_data_conv
I1212 10:06:49.481050 14712 net.cpp:454] drop_data_conv <- data_conv
I1212 10:06:49.481063 14712 net.cpp:397] drop_data_conv -> data_conv (in-place)
I1212 10:06:49.481109 14712 net.cpp:150] Setting up drop_data_conv
I1212 10:06:49.481125 14712 net.cpp:157] Top shape: 10 128 41 41 (2151680)
I1212 10:06:49.481135 14712 net.cpp:165] Memory required for data: 67036640
I1212 10:06:49.481145 14712 layer_factory.hpp:77] Creating layer data_fc
I1212 10:06:49.481161 14712 net.cpp:106] Creating Layer data_fc
I1212 10:06:49.481173 14712 net.cpp:454] data_fc <- data_conv
I1212 10:06:49.481187 14712 net.cpp:411] data_fc -> data_fc
I1212 10:06:49.483091 14712 net.cpp:150] Setting up data_fc
I1212 10:06:49.483114 14712 net.cpp:157] Top shape: 10 128 41 41 (2151680)
I1212 10:06:49.483124 14712 net.cpp:165] Memory required for data: 75643360
I1212 10:06:49.483141 14712 layer_factory.hpp:77] Creating layer relu_data_fc
I1212 10:06:49.483155 14712 net.cpp:106] Creating Layer relu_data_fc
I1212 10:06:49.483166 14712 net.cpp:454] relu_data_fc <- data_fc
I1212 10:06:49.483180 14712 net.cpp:397] relu_data_fc -> data_fc (in-place)
I1212 10:06:49.483193 14712 net.cpp:150] Setting up relu_data_fc
I1212 10:06:49.483206 14712 net.cpp:157] Top shape: 10 128 41 41 (2151680)
I1212 10:06:49.483216 14712 net.cpp:165] Memory required for data: 84250080
I1212 10:06:49.483224 14712 layer_factory.hpp:77] Creating layer drop_data_fc
I1212 10:06:49.483237 14712 net.cpp:106] Creating Layer drop_data_fc
I1212 10:06:49.483247 14712 net.cpp:454] drop_data_fc <- data_fc
I1212 10:06:49.483259 14712 net.cpp:397] drop_data_fc -> data_fc (in-place)
I1212 10:06:49.483294 14712 net.cpp:150] Setting up drop_data_fc
I1212 10:06:49.483309 14712 net.cpp:157] Top shape: 10 128 41 41 (2151680)
I1212 10:06:49.483319 14712 net.cpp:165] Memory required for data: 92856800
I1212 10:06:49.483328 14712 layer_factory.hpp:77] Creating layer data_ms
I1212 10:06:49.483346 14712 net.cpp:106] Creating Layer data_ms
I1212 10:06:49.483356 14712 net.cpp:454] data_ms <- data_fc
I1212 10:06:49.483371 14712 net.cpp:411] data_ms -> data_ms
I1212 10:06:49.483798 14712 net.cpp:150] Setting up data_ms
I1212 10:06:49.483814 14712 net.cpp:157] Top shape: 10 21 41 41 (353010)
I1212 10:06:49.483824 14712 net.cpp:165] Memory required for data: 94268840
I1212 10:06:49.483841 14712 layer_factory.hpp:77] Creating layer conv1_1
I1212 10:06:49.483856 14712 net.cpp:106] Creating Layer conv1_1
I1212 10:06:49.483866 14712 net.cpp:454] conv1_1 <- data_data_0_split_1
I1212 10:06:49.483881 14712 net.cpp:411] conv1_1 -> conv1_1
I1212 10:06:49.484858 14712 net.cpp:150] Setting up conv1_1
I1212 10:06:49.484881 14712 net.cpp:157] Top shape: 10 64 321 321 (65946240)
I1212 10:06:49.484891 14712 net.cpp:165] Memory required for data: 358053800
I1212 10:06:49.484906 14712 layer_factory.hpp:77] Creating layer relu1_1
I1212 10:06:49.484920 14712 net.cpp:106] Creating Layer relu1_1
I1212 10:06:49.484930 14712 net.cpp:454] relu1_1 <- conv1_1
I1212 10:06:49.484944 14712 net.cpp:397] relu1_1 -> conv1_1 (in-place)
I1212 10:06:49.484959 14712 net.cpp:150] Setting up relu1_1
I1212 10:06:49.484972 14712 net.cpp:157] Top shape: 10 64 321 321 (65946240)
I1212 10:06:49.484980 14712 net.cpp:165] Memory required for data: 621838760
I1212 10:06:49.484990 14712 layer_factory.hpp:77] Creating layer conv1_2
I1212 10:06:49.485003 14712 net.cpp:106] Creating Layer conv1_2
I1212 10:06:49.485014 14712 net.cpp:454] conv1_2 <- conv1_1
I1212 10:06:49.485028 14712 net.cpp:411] conv1_2 -> conv1_2
I1212 10:06:49.486034 14712 net.cpp:150] Setting up conv1_2
I1212 10:06:49.486055 14712 net.cpp:157] Top shape: 10 64 321 321 (65946240)
I1212 10:06:49.486065 14712 net.cpp:165] Memory required for data: 885623720
I1212 10:06:49.486084 14712 layer_factory.hpp:77] Creating layer relu1_2
I1212 10:06:49.486099 14712 net.cpp:106] Creating Layer relu1_2
I1212 10:06:49.486114 14712 net.cpp:454] relu1_2 <- conv1_2
I1212 10:06:49.486136 14712 net.cpp:397] relu1_2 -> conv1_2 (in-place)
I1212 10:06:49.486151 14712 net.cpp:150] Setting up relu1_2
I1212 10:06:49.486163 14712 net.cpp:157] Top shape: 10 64 321 321 (65946240)
I1212 10:06:49.486173 14712 net.cpp:165] Memory required for data: 1149408680
I1212 10:06:49.486182 14712 layer_factory.hpp:77] Creating layer pool1
I1212 10:06:49.486196 14712 net.cpp:106] Creating Layer pool1
I1212 10:06:49.486205 14712 net.cpp:454] pool1 <- conv1_2
I1212 10:06:49.486218 14712 net.cpp:411] pool1 -> pool1
I1212 10:06:49.486284 14712 net.cpp:150] Setting up pool1
I1212 10:06:49.486300 14712 net.cpp:157] Top shape: 10 64 161 161 (16589440)
I1212 10:06:49.486310 14712 net.cpp:165] Memory required for data: 1215766440
I1212 10:06:49.486320 14712 layer_factory.hpp:77] Creating layer pool1_pool1_0_split
I1212 10:06:49.486332 14712 net.cpp:106] Creating Layer pool1_pool1_0_split
I1212 10:06:49.486342 14712 net.cpp:454] pool1_pool1_0_split <- pool1
I1212 10:06:49.486356 14712 net.cpp:411] pool1_pool1_0_split -> pool1_pool1_0_split_0
I1212 10:06:49.486371 14712 net.cpp:411] pool1_pool1_0_split -> pool1_pool1_0_split_1
I1212 10:06:49.486418 14712 net.cpp:150] Setting up pool1_pool1_0_split
I1212 10:06:49.486433 14712 net.cpp:157] Top shape: 10 64 161 161 (16589440)
I1212 10:06:49.486443 14712 net.cpp:157] Top shape: 10 64 161 161 (16589440)
I1212 10:06:49.486452 14712 net.cpp:165] Memory required for data: 1348481960
I1212 10:06:49.486462 14712 layer_factory.hpp:77] Creating layer pool1_conv
I1212 10:06:49.486479 14712 net.cpp:106] Creating Layer pool1_conv
I1212 10:06:49.486490 14712 net.cpp:454] pool1_conv <- pool1_pool1_0_split_0
I1212 10:06:49.486502 14712 net.cpp:411] pool1_conv -> pool1_conv
I1212 10:06:49.491663 14712 net.cpp:150] Setting up pool1_conv
I1212 10:06:49.491685 14712 net.cpp:157] Top shape: 10 128 41 41 (2151680)
I1212 10:06:49.491696 14712 net.cpp:165] Memory required for data: 1357088680
I1212 10:06:49.491711 14712 layer_factory.hpp:77] Creating layer relu_pool1_conv
I1212 10:06:49.491727 14712 net.cpp:106] Creating Layer relu_pool1_conv
I1212 10:06:49.491739 14712 net.cpp:454] relu_pool1_conv <- pool1_conv
I1212 10:06:49.491752 14712 net.cpp:397] relu_pool1_conv -> pool1_conv (in-place)
I1212 10:06:49.491767 14712 net.cpp:150] Setting up relu_pool1_conv
I1212 10:06:49.491780 14712 net.cpp:157] Top shape: 10 128 41 41 (2151680)
I1212 10:06:49.491789 14712 net.cpp:165] Memory required for data: 1365695400
I1212 10:06:49.491798 14712 layer_factory.hpp:77] Creating layer drop_pool1_conv
I1212 10:06:49.491811 14712 net.cpp:106] Creating Layer drop_pool1_conv
I1212 10:06:49.491822 14712 net.cpp:454] drop_pool1_conv <- pool1_conv
I1212 10:06:49.491834 14712 net.cpp:397] drop_pool1_conv -> pool1_conv (in-place)
I1212 10:06:49.491870 14712 net.cpp:150] Setting up drop_pool1_conv
I1212 10:06:49.491886 14712 net.cpp:157] Top shape: 10 128 41 41 (2151680)
I1212 10:06:49.491895 14712 net.cpp:165] Memory required for data: 1374302120
I1212 10:06:49.491905 14712 layer_factory.hpp:77] Creating layer pool1_fc
I1212 10:06:49.491921 14712 net.cpp:106] Creating Layer pool1_fc
I1212 10:06:49.491932 14712 net.cpp:454] pool1_fc <- pool1_conv
I1212 10:06:49.491946 14712 net.cpp:411] pool1_fc -> pool1_fc
I1212 10:06:49.493160 14712 net.cpp:150] Setting up pool1_fc
I1212 10:06:49.493180 14712 net.cpp:157] Top shape: 10 128 41 41 (2151680)
I1212 10:06:49.493191 14712 net.cpp:165] Memory required for data: 1382908840
I1212 10:06:49.493204 14712 layer_factory.hpp:77] Creating layer relu_pool1_fc
I1212 10:06:49.493218 14712 net.cpp:106] Creating Layer relu_pool1_fc
I1212 10:06:49.493228 14712 net.cpp:454] relu_pool1_fc <- pool1_fc
I1212 10:06:49.493242 14712 net.cpp:397] relu_pool1_fc -> pool1_fc (in-place)
I1212 10:06:49.493257 14712 net.cpp:150] Setting up relu_pool1_fc
I1212 10:06:49.493270 14712 net.cpp:157] Top shape: 10 128 41 41 (2151680)
I1212 10:06:49.493279 14712 net.cpp:165] Memory required for data: 1391515560
I1212 10:06:49.493288 14712 layer_factory.hpp:77] Creating layer drop_pool1_fc
I1212 10:06:49.493314 14712 net.cpp:106] Creating Layer drop_pool1_fc
I1212 10:06:49.493324 14712 net.cpp:454] drop_pool1_fc <- pool1_fc
I1212 10:06:49.493337 14712 net.cpp:397] drop_pool1_fc -> pool1_fc (in-place)
I1212 10:06:49.493376 14712 net.cpp:150] Setting up drop_pool1_fc
I1212 10:06:49.493391 14712 net.cpp:157] Top shape: 10 128 41 41 (2151680)
I1212 10:06:49.493402 14712 net.cpp:165] Memory required for data: 1400122280
I1212 10:06:49.493412 14712 layer_factory.hpp:77] Creating layer pool1_ms
I1212 10:06:49.493429 14712 net.cpp:106] Creating Layer pool1_ms
I1212 10:06:49.493439 14712 net.cpp:454] pool1_ms <- pool1_fc
I1212 10:06:49.493453 14712 net.cpp:411] pool1_ms -> pool1_ms
I1212 10:06:49.493873 14712 net.cpp:150] Setting up pool1_ms
I1212 10:06:49.493891 14712 net.cpp:157] Top shape: 10 21 41 41 (353010)
I1212 10:06:49.493901 14712 net.cpp:165] Memory required for data: 1401534320
I1212 10:06:49.493916 14712 layer_factory.hpp:77] Creating layer conv2_1
I1212 10:06:49.493930 14712 net.cpp:106] Creating Layer conv2_1
I1212 10:06:49.493940 14712 net.cpp:454] conv2_1 <- pool1_pool1_0_split_1
I1212 10:06:49.493954 14712 net.cpp:411] conv2_1 -> conv2_1
I1212 10:06:49.494304 14712 net.cpp:150] Setting up conv2_1
I1212 10:06:49.494323 14712 net.cpp:157] Top shape: 10 128 161 161 (33178880)
I1212 10:06:49.494333 14712 net.cpp:165] Memory required for data: 1534249840
I1212 10:06:49.494354 14712 layer_factory.hpp:77] Creating layer relu2_1
I1212 10:06:49.494367 14712 net.cpp:106] Creating Layer relu2_1
I1212 10:06:49.494377 14712 net.cpp:454] relu2_1 <- conv2_1
I1212 10:06:49.494391 14712 net.cpp:397] relu2_1 -> conv2_1 (in-place)
I1212 10:06:49.494405 14712 net.cpp:150] Setting up relu2_1
I1212 10:06:49.494417 14712 net.cpp:157] Top shape: 10 128 161 161 (33178880)
I1212 10:06:49.494427 14712 net.cpp:165] Memory required for data: 1666965360
I1212 10:06:49.494436 14712 layer_factory.hpp:77] Creating layer conv2_2
I1212 10:06:49.494449 14712 net.cpp:106] Creating Layer conv2_2
I1212 10:06:49.494460 14712 net.cpp:454] conv2_2 <- conv2_1
I1212 10:06:49.494473 14712 net.cpp:411] conv2_2 -> conv2_2
I1212 10:06:49.495529 14712 net.cpp:150] Setting up conv2_2
I1212 10:06:49.495549 14712 net.cpp:157] Top shape: 10 128 161 161 (33178880)
I1212 10:06:49.495559 14712 net.cpp:165] Memory required for data: 1799680880
I1212 10:06:49.495574 14712 layer_factory.hpp:77] Creating layer relu2_2
I1212 10:06:49.495589 14712 net.cpp:106] Creating Layer relu2_2
I1212 10:06:49.495599 14712 net.cpp:454] relu2_2 <- conv2_2
I1212 10:06:49.495612 14712 net.cpp:397] relu2_2 -> conv2_2 (in-place)
I1212 10:06:49.495626 14712 net.cpp:150] Setting up relu2_2
I1212 10:06:49.495640 14712 net.cpp:157] Top shape: 10 128 161 161 (33178880)
I1212 10:06:49.495648 14712 net.cpp:165] Memory required for data: 1932396400
I1212 10:06:49.495658 14712 layer_factory.hpp:77] Creating layer pool2
I1212 10:06:49.495671 14712 net.cpp:106] Creating Layer pool2
I1212 10:06:49.495682 14712 net.cpp:454] pool2 <- conv2_2
I1212 10:06:49.495695 14712 net.cpp:411] pool2 -> pool2
I1212 10:06:49.495746 14712 net.cpp:150] Setting up pool2
I1212 10:06:49.495764 14712 net.cpp:157] Top shape: 10 128 81 81 (8398080)
I1212 10:06:49.495772 14712 net.cpp:165] Memory required for data: 1965988720
I1212 10:06:49.495782 14712 layer_factory.hpp:77] Creating layer pool2_pool2_0_split
I1212 10:06:49.495795 14712 net.cpp:106] Creating Layer pool2_pool2_0_split
I1212 10:06:49.495805 14712 net.cpp:454] pool2_pool2_0_split <- pool2
I1212 10:06:49.495820 14712 net.cpp:411] pool2_pool2_0_split -> pool2_pool2_0_split_0
I1212 10:06:49.495834 14712 net.cpp:411] pool2_pool2_0_split -> pool2_pool2_0_split_1
I1212 10:06:49.495880 14712 net.cpp:150] Setting up pool2_pool2_0_split
I1212 10:06:49.495895 14712 net.cpp:157] Top shape: 10 128 81 81 (8398080)
I1212 10:06:49.495908 14712 net.cpp:157] Top shape: 10 128 81 81 (8398080)
I1212 10:06:49.495916 14712 net.cpp:165] Memory required for data: 2033173360
I1212 10:06:49.495926 14712 layer_factory.hpp:77] Creating layer pool2_conv
I1212 10:06:49.495949 14712 net.cpp:106] Creating Layer pool2_conv
I1212 10:06:49.495967 14712 net.cpp:454] pool2_conv <- pool2_pool2_0_split_0
I1212 10:06:49.495982 14712 net.cpp:411] pool2_conv -> pool2_conv
I1212 10:06:49.505492 14712 net.cpp:150] Setting up pool2_conv
I1212 10:06:49.505513 14712 net.cpp:157] Top shape: 10 128 41 41 (2151680)
I1212 10:06:49.505523 14712 net.cpp:165] Memory required for data: 2041780080
I1212 10:06:49.505538 14712 layer_factory.hpp:77] Creating layer relu_pool2_conv
I1212 10:06:49.505553 14712 net.cpp:106] Creating Layer relu_pool2_conv
I1212 10:06:49.505563 14712 net.cpp:454] relu_pool2_conv <- pool2_conv
I1212 10:06:49.505575 14712 net.cpp:397] relu_pool2_conv -> pool2_conv (in-place)
I1212 10:06:49.505590 14712 net.cpp:150] Setting up relu_pool2_conv
I1212 10:06:49.505604 14712 net.cpp:157] Top shape: 10 128 41 41 (2151680)
I1212 10:06:49.505612 14712 net.cpp:165] Memory required for data: 2050386800
I1212 10:06:49.505621 14712 layer_factory.hpp:77] Creating layer drop_pool2_conv
I1212 10:06:49.505635 14712 net.cpp:106] Creating Layer drop_pool2_conv
I1212 10:06:49.505645 14712 net.cpp:454] drop_pool2_conv <- pool2_conv
I1212 10:06:49.505656 14712 net.cpp:397] drop_pool2_conv -> pool2_conv (in-place)
I1212 10:06:49.505692 14712 net.cpp:150] Setting up drop_pool2_conv
I1212 10:06:49.505708 14712 net.cpp:157] Top shape: 10 128 41 41 (2151680)
I1212 10:06:49.505717 14712 net.cpp:165] Memory required for data: 2058993520
I1212 10:06:49.505728 14712 layer_factory.hpp:77] Creating layer pool2_fc
I1212 10:06:49.505748 14712 net.cpp:106] Creating Layer pool2_fc
I1212 10:06:49.505760 14712 net.cpp:454] pool2_fc <- pool2_conv
I1212 10:06:49.505774 14712 net.cpp:411] pool2_fc -> pool2_fc
I1212 10:06:49.506989 14712 net.cpp:150] Setting up pool2_fc
I1212 10:06:49.507007 14712 net.cpp:157] Top shape: 10 128 41 41 (2151680)
I1212 10:06:49.507017 14712 net.cpp:165] Memory required for data: 2067600240
I1212 10:06:49.507032 14712 layer_factory.hpp:77] Creating layer relu_pool2_fc
I1212 10:06:49.507050 14712 net.cpp:106] Creating Layer relu_pool2_fc
I1212 10:06:49.507062 14712 net.cpp:454] relu_pool2_fc <- pool2_fc
I1212 10:06:49.507076 14712 net.cpp:397] relu_pool2_fc -> pool2_fc (in-place)
I1212 10:06:49.507091 14712 net.cpp:150] Setting up relu_pool2_fc
I1212 10:06:49.507102 14712 net.cpp:157] Top shape: 10 128 41 41 (2151680)
I1212 10:06:49.507112 14712 net.cpp:165] Memory required for data: 2076206960
I1212 10:06:49.507120 14712 layer_factory.hpp:77] Creating layer drop_pool2_fc
I1212 10:06:49.507133 14712 net.cpp:106] Creating Layer drop_pool2_fc
I1212 10:06:49.507143 14712 net.cpp:454] drop_pool2_fc <- pool2_fc
I1212 10:06:49.507158 14712 net.cpp:397] drop_pool2_fc -> pool2_fc (in-place)
I1212 10:06:49.507192 14712 net.cpp:150] Setting up drop_pool2_fc
I1212 10:06:49.507210 14712 net.cpp:157] Top shape: 10 128 41 41 (2151680)
I1212 10:06:49.507221 14712 net.cpp:165] Memory required for data: 2084813680
I1212 10:06:49.507230 14712 layer_factory.hpp:77] Creating layer pool2_ms
I1212 10:06:49.507246 14712 net.cpp:106] Creating Layer pool2_ms
I1212 10:06:49.507256 14712 net.cpp:454] pool2_ms <- pool2_fc
I1212 10:06:49.507272 14712 net.cpp:411] pool2_ms -> pool2_ms
I1212 10:06:49.507706 14712 net.cpp:150] Setting up pool2_ms
I1212 10:06:49.507725 14712 net.cpp:157] Top shape: 10 21 41 41 (353010)
I1212 10:06:49.507733 14712 net.cpp:165] Memory required for data: 2086225720
I1212 10:06:49.507747 14712 layer_factory.hpp:77] Creating layer conv3_1
I1212 10:06:49.507767 14712 net.cpp:106] Creating Layer conv3_1
I1212 10:06:49.507778 14712 net.cpp:454] conv3_1 <- pool2_pool2_0_split_1
I1212 10:06:49.507794 14712 net.cpp:411] conv3_1 -> conv3_1
I1212 10:06:49.509047 14712 net.cpp:150] Setting up conv3_1
I1212 10:06:49.509068 14712 net.cpp:157] Top shape: 10 256 81 81 (16796160)
I1212 10:06:49.509078 14712 net.cpp:165] Memory required for data: 2153410360
I1212 10:06:49.509093 14712 layer_factory.hpp:77] Creating layer relu3_1
I1212 10:06:49.509105 14712 net.cpp:106] Creating Layer relu3_1
I1212 10:06:49.509124 14712 net.cpp:454] relu3_1 <- conv3_1
I1212 10:06:49.509147 14712 net.cpp:397] relu3_1 -> conv3_1 (in-place)
I1212 10:06:49.509162 14712 net.cpp:150] Setting up relu3_1
I1212 10:06:49.509176 14712 net.cpp:157] Top shape: 10 256 81 81 (16796160)
I1212 10:06:49.509186 14712 net.cpp:165] Memory required for data: 2220595000
I1212 10:06:49.509194 14712 layer_factory.hpp:77] Creating layer conv3_2
I1212 10:06:49.509207 14712 net.cpp:106] Creating Layer conv3_2
I1212 10:06:49.509217 14712 net.cpp:454] conv3_2 <- conv3_1
I1212 10:06:49.509233 14712 net.cpp:411] conv3_2 -> conv3_2
I1212 10:06:49.511409 14712 net.cpp:150] Setting up conv3_2
I1212 10:06:49.511430 14712 net.cpp:157] Top shape: 10 256 81 81 (16796160)
I1212 10:06:49.511440 14712 net.cpp:165] Memory required for data: 2287779640
I1212 10:06:49.511456 14712 layer_factory.hpp:77] Creating layer relu3_2
I1212 10:06:49.511471 14712 net.cpp:106] Creating Layer relu3_2
I1212 10:06:49.511482 14712 net.cpp:454] relu3_2 <- conv3_2
I1212 10:06:49.511493 14712 net.cpp:397] relu3_2 -> conv3_2 (in-place)
I1212 10:06:49.511508 14712 net.cpp:150] Setting up relu3_2
I1212 10:06:49.511520 14712 net.cpp:157] Top shape: 10 256 81 81 (16796160)
I1212 10:06:49.511530 14712 net.cpp:165] Memory required for data: 2354964280
I1212 10:06:49.511539 14712 layer_factory.hpp:77] Creating layer conv3_3
I1212 10:06:49.511555 14712 net.cpp:106] Creating Layer conv3_3
I1212 10:06:49.511566 14712 net.cpp:454] conv3_3 <- conv3_2
I1212 10:06:49.511579 14712 net.cpp:411] conv3_3 -> conv3_3
I1212 10:06:49.513810 14712 net.cpp:150] Setting up conv3_3
I1212 10:06:49.513833 14712 net.cpp:157] Top shape: 10 256 81 81 (16796160)
I1212 10:06:49.513842 14712 net.cpp:165] Memory required for data: 2422148920
I1212 10:06:49.513856 14712 layer_factory.hpp:77] Creating layer relu3_3
I1212 10:06:49.513870 14712 net.cpp:106] Creating Layer relu3_3
I1212 10:06:49.513880 14712 net.cpp:454] relu3_3 <- conv3_3
I1212 10:06:49.513895 14712 net.cpp:397] relu3_3 -> conv3_3 (in-place)
I1212 10:06:49.513911 14712 net.cpp:150] Setting up relu3_3
I1212 10:06:49.513922 14712 net.cpp:157] Top shape: 10 256 81 81 (16796160)
I1212 10:06:49.513932 14712 net.cpp:165] Memory required for data: 2489333560
I1212 10:06:49.513942 14712 layer_factory.hpp:77] Creating layer pool3
I1212 10:06:49.513954 14712 net.cpp:106] Creating Layer pool3
I1212 10:06:49.513963 14712 net.cpp:454] pool3 <- conv3_3
I1212 10:06:49.513978 14712 net.cpp:411] pool3 -> pool3
I1212 10:06:49.514034 14712 net.cpp:150] Setting up pool3
I1212 10:06:49.514050 14712 net.cpp:157] Top shape: 10 256 41 41 (4303360)
I1212 10:06:49.514058 14712 net.cpp:165] Memory required for data: 2506547000
I1212 10:06:49.514068 14712 layer_factory.hpp:77] Creating layer pool3_pool3_0_split
I1212 10:06:49.514082 14712 net.cpp:106] Creating Layer pool3_pool3_0_split
I1212 10:06:49.514093 14712 net.cpp:454] pool3_pool3_0_split <- pool3
I1212 10:06:49.514106 14712 net.cpp:411] pool3_pool3_0_split -> pool3_pool3_0_split_0
I1212 10:06:49.514119 14712 net.cpp:411] pool3_pool3_0_split -> pool3_pool3_0_split_1
I1212 10:06:49.514169 14712 net.cpp:150] Setting up pool3_pool3_0_split
I1212 10:06:49.514184 14712 net.cpp:157] Top shape: 10 256 41 41 (4303360)
I1212 10:06:49.514196 14712 net.cpp:157] Top shape: 10 256 41 41 (4303360)
I1212 10:06:49.514205 14712 net.cpp:165] Memory required for data: 2540973880
I1212 10:06:49.514215 14712 layer_factory.hpp:77] Creating layer pool3_conv
I1212 10:06:49.514232 14712 net.cpp:106] Creating Layer pool3_conv
I1212 10:06:49.514243 14712 net.cpp:454] pool3_conv <- pool3_pool3_0_split_0
I1212 10:06:49.514259 14712 net.cpp:411] pool3_conv -> pool3_conv
I1212 10:06:49.532132 14712 net.cpp:150] Setting up pool3_conv
I1212 10:06:49.532160 14712 net.cpp:157] Top shape: 10 128 41 41 (2151680)
I1212 10:06:49.532171 14712 net.cpp:165] Memory required for data: 2549580600
I1212 10:06:49.532194 14712 layer_factory.hpp:77] Creating layer relu_pool3_conv
I1212 10:06:49.532208 14712 net.cpp:106] Creating Layer relu_pool3_conv
I1212 10:06:49.532219 14712 net.cpp:454] relu_pool3_conv <- pool3_conv
I1212 10:06:49.532248 14712 net.cpp:397] relu_pool3_conv -> pool3_conv (in-place)
I1212 10:06:49.532264 14712 net.cpp:150] Setting up relu_pool3_conv
I1212 10:06:49.532277 14712 net.cpp:157] Top shape: 10 128 41 41 (2151680)
I1212 10:06:49.532286 14712 net.cpp:165] Memory required for data: 2558187320
I1212 10:06:49.532295 14712 layer_factory.hpp:77] Creating layer drop_pool3_conv
I1212 10:06:49.532307 14712 net.cpp:106] Creating Layer drop_pool3_conv
I1212 10:06:49.532316 14712 net.cpp:454] drop_pool3_conv <- pool3_conv
I1212 10:06:49.532328 14712 net.cpp:397] drop_pool3_conv -> pool3_conv (in-place)
I1212 10:06:49.532368 14712 net.cpp:150] Setting up drop_pool3_conv
I1212 10:06:49.532383 14712 net.cpp:157] Top shape: 10 128 41 41 (2151680)
I1212 10:06:49.532393 14712 net.cpp:165] Memory required for data: 2566794040
I1212 10:06:49.532402 14712 layer_factory.hpp:77] Creating layer pool3_fc
I1212 10:06:49.532420 14712 net.cpp:106] Creating Layer pool3_fc
I1212 10:06:49.532431 14712 net.cpp:454] pool3_fc <- pool3_conv
I1212 10:06:49.532447 14712 net.cpp:411] pool3_fc -> pool3_fc
I1212 10:06:49.533725 14712 net.cpp:150] Setting up pool3_fc
I1212 10:06:49.533743 14712 net.cpp:157] Top shape: 10 128 41 41 (2151680)
I1212 10:06:49.533752 14712 net.cpp:165] Memory required for data: 2575400760
I1212 10:06:49.533767 14712 layer_factory.hpp:77] Creating layer relu_pool3_fc
I1212 10:06:49.533782 14712 net.cpp:106] Creating Layer relu_pool3_fc
I1212 10:06:49.533793 14712 net.cpp:454] relu_pool3_fc <- pool3_fc
I1212 10:06:49.533805 14712 net.cpp:397] relu_pool3_fc -> pool3_fc (in-place)
I1212 10:06:49.533823 14712 net.cpp:150] Setting up relu_pool3_fc
I1212 10:06:49.533835 14712 net.cpp:157] Top shape: 10 128 41 41 (2151680)
I1212 10:06:49.533844 14712 net.cpp:165] Memory required for data: 2584007480
I1212 10:06:49.533854 14712 layer_factory.hpp:77] Creating layer drop_pool3_fc
I1212 10:06:49.533866 14712 net.cpp:106] Creating Layer drop_pool3_fc
I1212 10:06:49.533876 14712 net.cpp:454] drop_pool3_fc <- pool3_fc
I1212 10:06:49.533888 14712 net.cpp:397] drop_pool3_fc -> pool3_fc (in-place)
I1212 10:06:49.533928 14712 net.cpp:150] Setting up drop_pool3_fc
I1212 10:06:49.533944 14712 net.cpp:157] Top shape: 10 128 41 41 (2151680)
I1212 10:06:49.533953 14712 net.cpp:165] Memory required for data: 2592614200
I1212 10:06:49.533963 14712 layer_factory.hpp:77] Creating layer pool3_ms
I1212 10:06:49.533978 14712 net.cpp:106] Creating Layer pool3_ms
I1212 10:06:49.533989 14712 net.cpp:454] pool3_ms <- pool3_fc
I1212 10:06:49.534003 14712 net.cpp:411] pool3_ms -> pool3_ms
I1212 10:06:49.534291 14712 net.cpp:150] Setting up pool3_ms
I1212 10:06:49.534308 14712 net.cpp:157] Top shape: 10 21 41 41 (353010)
I1212 10:06:49.534318 14712 net.cpp:165] Memory required for data: 2594026240
I1212 10:06:49.534332 14712 layer_factory.hpp:77] Creating layer conv4_1
I1212 10:06:49.534348 14712 net.cpp:106] Creating Layer conv4_1
I1212 10:06:49.534360 14712 net.cpp:454] conv4_1 <- pool3_pool3_0_split_1
I1212 10:06:49.534374 14712 net.cpp:411] conv4_1 -> conv4_1
I1212 10:06:49.539119 14712 net.cpp:150] Setting up conv4_1
I1212 10:06:49.539152 14712 net.cpp:157] Top shape: 10 512 41 41 (8606720)
I1212 10:06:49.539162 14712 net.cpp:165] Memory required for data: 2628453120
I1212 10:06:49.539177 14712 layer_factory.hpp:77] Creating layer relu4_1
I1212 10:06:49.539194 14712 net.cpp:106] Creating Layer relu4_1
I1212 10:06:49.539206 14712 net.cpp:454] relu4_1 <- conv4_1
I1212 10:06:49.539221 14712 net.cpp:397] relu4_1 -> conv4_1 (in-place)
I1212 10:06:49.539237 14712 net.cpp:150] Setting up relu4_1
I1212 10:06:49.539250 14712 net.cpp:157] Top shape: 10 512 41 41 (8606720)
I1212 10:06:49.539259 14712 net.cpp:165] Memory required for data: 2662880000
I1212 10:06:49.539268 14712 layer_factory.hpp:77] Creating layer conv4_2
I1212 10:06:49.539285 14712 net.cpp:106] Creating Layer conv4_2
I1212 10:06:49.539296 14712 net.cpp:454] conv4_2 <- conv4_1
I1212 10:06:49.539309 14712 net.cpp:411] conv4_2 -> conv4_2
I1212 10:06:49.547152 14712 net.cpp:150] Setting up conv4_2
I1212 10:06:49.547195 14712 net.cpp:157] Top shape: 10 512 41 41 (8606720)
I1212 10:06:49.547205 14712 net.cpp:165] Memory required for data: 2697306880
I1212 10:06:49.547220 14712 layer_factory.hpp:77] Creating layer relu4_2
I1212 10:06:49.547235 14712 net.cpp:106] Creating Layer relu4_2
I1212 10:06:49.547245 14712 net.cpp:454] relu4_2 <- conv4_2
I1212 10:06:49.547262 14712 net.cpp:397] relu4_2 -> conv4_2 (in-place)
I1212 10:06:49.547278 14712 net.cpp:150] Setting up relu4_2
I1212 10:06:49.547291 14712 net.cpp:157] Top shape: 10 512 41 41 (8606720)
I1212 10:06:49.547300 14712 net.cpp:165] Memory required for data: 2731733760
I1212 10:06:49.547309 14712 layer_factory.hpp:77] Creating layer conv4_3
I1212 10:06:49.547322 14712 net.cpp:106] Creating Layer conv4_3
I1212 10:06:49.547333 14712 net.cpp:454] conv4_3 <- conv4_2
I1212 10:06:49.547348 14712 net.cpp:411] conv4_3 -> conv4_3
I1212 10:06:49.555073 14712 net.cpp:150] Setting up conv4_3
I1212 10:06:49.555105 14712 net.cpp:157] Top shape: 10 512 41 41 (8606720)
I1212 10:06:49.555115 14712 net.cpp:165] Memory required for data: 2766160640
I1212 10:06:49.555130 14712 layer_factory.hpp:77] Creating layer relu4_3
I1212 10:06:49.555147 14712 net.cpp:106] Creating Layer relu4_3
I1212 10:06:49.555160 14712 net.cpp:454] relu4_3 <- conv4_3
I1212 10:06:49.555173 14712 net.cpp:397] relu4_3 -> conv4_3 (in-place)
I1212 10:06:49.555189 14712 net.cpp:150] Setting up relu4_3
I1212 10:06:49.555202 14712 net.cpp:157] Top shape: 10 512 41 41 (8606720)
I1212 10:06:49.555210 14712 net.cpp:165] Memory required for data: 2800587520
I1212 10:06:49.555220 14712 layer_factory.hpp:77] Creating layer pool4
I1212 10:06:49.555235 14712 net.cpp:106] Creating Layer pool4
I1212 10:06:49.555245 14712 net.cpp:454] pool4 <- conv4_3
I1212 10:06:49.555258 14712 net.cpp:411] pool4 -> pool4
I1212 10:06:49.555317 14712 net.cpp:150] Setting up pool4
I1212 10:06:49.555333 14712 net.cpp:157] Top shape: 10 512 41 41 (8606720)
I1212 10:06:49.555343 14712 net.cpp:165] Memory required for data: 2835014400
I1212 10:06:49.555352 14712 layer_factory.hpp:77] Creating layer pool4_pool4_0_split
I1212 10:06:49.555364 14712 net.cpp:106] Creating Layer pool4_pool4_0_split
I1212 10:06:49.555374 14712 net.cpp:454] pool4_pool4_0_split <- pool4
I1212 10:06:49.555389 14712 net.cpp:411] pool4_pool4_0_split -> pool4_pool4_0_split_0
I1212 10:06:49.555404 14712 net.cpp:411] pool4_pool4_0_split -> pool4_pool4_0_split_1
I1212 10:06:49.555454 14712 net.cpp:150] Setting up pool4_pool4_0_split
I1212 10:06:49.555469 14712 net.cpp:157] Top shape: 10 512 41 41 (8606720)
I1212 10:06:49.555481 14712 net.cpp:157] Top shape: 10 512 41 41 (8606720)
I1212 10:06:49.555490 14712 net.cpp:165] Memory required for data: 2903868160
I1212 10:06:49.555500 14712 layer_factory.hpp:77] Creating layer pool4_conv
I1212 10:06:49.555521 14712 net.cpp:106] Creating Layer pool4_conv
I1212 10:06:49.555532 14712 net.cpp:454] pool4_conv <- pool4_pool4_0_split_0
I1212 10:06:49.555546 14712 net.cpp:411] pool4_conv -> pool4_conv
I1212 10:06:49.591619 14712 net.cpp:150] Setting up pool4_conv
I1212 10:06:49.591645 14712 net.cpp:157] Top shape: 10 128 41 41 (2151680)
I1212 10:06:49.591656 14712 net.cpp:165] Memory required for data: 2912474880
I1212 10:06:49.591670 14712 layer_factory.hpp:77] Creating layer relu_pool4_conv
I1212 10:06:49.591684 14712 net.cpp:106] Creating Layer relu_pool4_conv
I1212 10:06:49.591694 14712 net.cpp:454] relu_pool4_conv <- pool4_conv
I1212 10:06:49.591707 14712 net.cpp:397] relu_pool4_conv -> pool4_conv (in-place)
I1212 10:06:49.591722 14712 net.cpp:150] Setting up relu_pool4_conv
I1212 10:06:49.591734 14712 net.cpp:157] Top shape: 10 128 41 41 (2151680)
I1212 10:06:49.591743 14712 net.cpp:165] Memory required for data: 2921081600
I1212 10:06:49.591753 14712 layer_factory.hpp:77] Creating layer drop_pool4_conv
I1212 10:06:49.591766 14712 net.cpp:106] Creating Layer drop_pool4_conv
I1212 10:06:49.591776 14712 net.cpp:454] drop_pool4_conv <- pool4_conv
I1212 10:06:49.591790 14712 net.cpp:397] drop_pool4_conv -> pool4_conv (in-place)
I1212 10:06:49.591836 14712 net.cpp:150] Setting up drop_pool4_conv
I1212 10:06:49.591862 14712 net.cpp:157] Top shape: 10 128 41 41 (2151680)
I1212 10:06:49.591871 14712 net.cpp:165] Memory required for data: 2929688320
I1212 10:06:49.591881 14712 layer_factory.hpp:77] Creating layer pool4_fc
I1212 10:06:49.591899 14712 net.cpp:106] Creating Layer pool4_fc
I1212 10:06:49.591910 14712 net.cpp:454] pool4_fc <- pool4_conv
I1212 10:06:49.591923 14712 net.cpp:411] pool4_fc -> pool4_fc
I1212 10:06:49.593178 14712 net.cpp:150] Setting up pool4_fc
I1212 10:06:49.593199 14712 net.cpp:157] Top shape: 10 128 41 41 (2151680)
I1212 10:06:49.593209 14712 net.cpp:165] Memory required for data: 2938295040
I1212 10:06:49.593221 14712 layer_factory.hpp:77] Creating layer relu_pool4_fc
I1212 10:06:49.593235 14712 net.cpp:106] Creating Layer relu_pool4_fc
I1212 10:06:49.593245 14712 net.cpp:454] relu_pool4_fc <- pool4_fc
I1212 10:06:49.593262 14712 net.cpp:397] relu_pool4_fc -> pool4_fc (in-place)
I1212 10:06:49.593277 14712 net.cpp:150] Setting up relu_pool4_fc
I1212 10:06:49.593291 14712 net.cpp:157] Top shape: 10 128 41 41 (2151680)
I1212 10:06:49.593299 14712 net.cpp:165] Memory required for data: 2946901760
I1212 10:06:49.593309 14712 layer_factory.hpp:77] Creating layer drop_pool4_fc
I1212 10:06:49.593322 14712 net.cpp:106] Creating Layer drop_pool4_fc
I1212 10:06:49.593331 14712 net.cpp:454] drop_pool4_fc <- pool4_fc
I1212 10:06:49.593346 14712 net.cpp:397] drop_pool4_fc -> pool4_fc (in-place)
I1212 10:06:49.593382 14712 net.cpp:150] Setting up drop_pool4_fc
I1212 10:06:49.593397 14712 net.cpp:157] Top shape: 10 128 41 41 (2151680)
I1212 10:06:49.593407 14712 net.cpp:165] Memory required for data: 2955508480
I1212 10:06:49.593416 14712 layer_factory.hpp:77] Creating layer pool4_ms
I1212 10:06:49.593446 14712 net.cpp:106] Creating Layer pool4_ms
I1212 10:06:49.593456 14712 net.cpp:454] pool4_ms <- pool4_fc
I1212 10:06:49.593473 14712 net.cpp:411] pool4_ms -> pool4_ms
I1212 10:06:49.593921 14712 net.cpp:150] Setting up pool4_ms
I1212 10:06:49.593940 14712 net.cpp:157] Top shape: 10 21 41 41 (353010)
I1212 10:06:49.593950 14712 net.cpp:165] Memory required for data: 2956920520
I1212 10:06:49.593963 14712 layer_factory.hpp:77] Creating layer conv5_1
I1212 10:06:49.593978 14712 net.cpp:106] Creating Layer conv5_1
I1212 10:06:49.593988 14712 net.cpp:454] conv5_1 <- pool4_pool4_0_split_1
I1212 10:06:49.594003 14712 net.cpp:411] conv5_1 -> conv5_1
I1212 10:06:49.601320 14712 net.cpp:150] Setting up conv5_1
I1212 10:06:49.601348 14712 net.cpp:157] Top shape: 10 512 41 41 (8606720)
I1212 10:06:49.601358 14712 net.cpp:165] Memory required for data: 2991347400
I1212 10:06:49.601373 14712 layer_factory.hpp:77] Creating layer relu5_1
I1212 10:06:49.601390 14712 net.cpp:106] Creating Layer relu5_1
I1212 10:06:49.601402 14712 net.cpp:454] relu5_1 <- conv5_1
I1212 10:06:49.601415 14712 net.cpp:397] relu5_1 -> conv5_1 (in-place)
I1212 10:06:49.601430 14712 net.cpp:150] Setting up relu5_1
I1212 10:06:49.601442 14712 net.cpp:157] Top shape: 10 512 41 41 (8606720)
I1212 10:06:49.601451 14712 net.cpp:165] Memory required for data: 3025774280
I1212 10:06:49.601461 14712 layer_factory.hpp:77] Creating layer conv5_2
I1212 10:06:49.601476 14712 net.cpp:106] Creating Layer conv5_2
I1212 10:06:49.601487 14712 net.cpp:454] conv5_2 <- conv5_1
I1212 10:06:49.601503 14712 net.cpp:411] conv5_2 -> conv5_2
I1212 10:06:49.608839 14712 net.cpp:150] Setting up conv5_2
I1212 10:06:49.608868 14712 net.cpp:157] Top shape: 10 512 41 41 (8606720)
I1212 10:06:49.608877 14712 net.cpp:165] Memory required for data: 3060201160
I1212 10:06:49.608893 14712 layer_factory.hpp:77] Creating layer relu5_2
I1212 10:06:49.608907 14712 net.cpp:106] Creating Layer relu5_2
I1212 10:06:49.608917 14712 net.cpp:454] relu5_2 <- conv5_2
I1212 10:06:49.608933 14712 net.cpp:397] relu5_2 -> conv5_2 (in-place)
I1212 10:06:49.608949 14712 net.cpp:150] Setting up relu5_2
I1212 10:06:49.608961 14712 net.cpp:157] Top shape: 10 512 41 41 (8606720)
I1212 10:06:49.608970 14712 net.cpp:165] Memory required for data: 3094628040
I1212 10:06:49.608997 14712 layer_factory.hpp:77] Creating layer conv5_3
I1212 10:06:49.609015 14712 net.cpp:106] Creating Layer conv5_3
I1212 10:06:49.609026 14712 net.cpp:454] conv5_3 <- conv5_2
I1212 10:06:49.609040 14712 net.cpp:411] conv5_3 -> conv5_3
I1212 10:06:49.616520 14712 net.cpp:150] Setting up conv5_3
I1212 10:06:49.616554 14712 net.cpp:157] Top shape: 10 512 41 41 (8606720)
I1212 10:06:49.616564 14712 net.cpp:165] Memory required for data: 3129054920
I1212 10:06:49.616578 14712 layer_factory.hpp:77] Creating layer relu5_3
I1212 10:06:49.616595 14712 net.cpp:106] Creating Layer relu5_3
I1212 10:06:49.616606 14712 net.cpp:454] relu5_3 <- conv5_3
I1212 10:06:49.616621 14712 net.cpp:397] relu5_3 -> conv5_3 (in-place)
I1212 10:06:49.616636 14712 net.cpp:150] Setting up relu5_3
I1212 10:06:49.616648 14712 net.cpp:157] Top shape: 10 512 41 41 (8606720)
I1212 10:06:49.616657 14712 net.cpp:165] Memory required for data: 3163481800
I1212 10:06:49.616667 14712 layer_factory.hpp:77] Creating layer pool5
I1212 10:06:49.616679 14712 net.cpp:106] Creating Layer pool5
I1212 10:06:49.616689 14712 net.cpp:454] pool5 <- conv5_3
I1212 10:06:49.616705 14712 net.cpp:411] pool5 -> pool5
I1212 10:06:49.616762 14712 net.cpp:150] Setting up pool5
I1212 10:06:49.616778 14712 net.cpp:157] Top shape: 10 512 41 41 (8606720)
I1212 10:06:49.616788 14712 net.cpp:165] Memory required for data: 3197908680
I1212 10:06:49.616797 14712 layer_factory.hpp:77] Creating layer pool5a
I1212 10:06:49.616812 14712 net.cpp:106] Creating Layer pool5a
I1212 10:06:49.616823 14712 net.cpp:454] pool5a <- pool5
I1212 10:06:49.616838 14712 net.cpp:411] pool5a -> pool5a
I1212 10:06:49.616874 14712 net.cpp:150] Setting up pool5a
I1212 10:06:49.616889 14712 net.cpp:157] Top shape: 10 512 41 41 (8606720)
I1212 10:06:49.616899 14712 net.cpp:165] Memory required for data: 3232335560
I1212 10:06:49.616909 14712 layer_factory.hpp:77] Creating layer fc6
I1212 10:06:49.616925 14712 net.cpp:106] Creating Layer fc6
I1212 10:06:49.616936 14712 net.cpp:454] fc6 <- pool5a
I1212 10:06:49.616952 14712 net.cpp:411] fc6 -> fc6
I1212 10:06:49.631541 14712 net.cpp:150] Setting up fc6
I1212 10:06:49.631587 14712 net.cpp:157] Top shape: 10 1024 41 41 (17213440)
I1212 10:06:49.631597 14712 net.cpp:165] Memory required for data: 3301189320
I1212 10:06:49.631613 14712 layer_factory.hpp:77] Creating layer relu6
I1212 10:06:49.631631 14712 net.cpp:106] Creating Layer relu6
I1212 10:06:49.631644 14712 net.cpp:454] relu6 <- fc6
I1212 10:06:49.631659 14712 net.cpp:397] relu6 -> fc6 (in-place)
I1212 10:06:49.631675 14712 net.cpp:150] Setting up relu6
I1212 10:06:49.631687 14712 net.cpp:157] Top shape: 10 1024 41 41 (17213440)
I1212 10:06:49.631696 14712 net.cpp:165] Memory required for data: 3370043080
I1212 10:06:49.631706 14712 layer_factory.hpp:77] Creating layer drop6
I1212 10:06:49.631719 14712 net.cpp:106] Creating Layer drop6
I1212 10:06:49.631729 14712 net.cpp:454] drop6 <- fc6
I1212 10:06:49.631744 14712 net.cpp:397] drop6 -> fc6 (in-place)
I1212 10:06:49.631784 14712 net.cpp:150] Setting up drop6
I1212 10:06:49.631800 14712 net.cpp:157] Top shape: 10 1024 41 41 (17213440)
I1212 10:06:49.631809 14712 net.cpp:165] Memory required for data: 3438896840
I1212 10:06:49.631819 14712 layer_factory.hpp:77] Creating layer fc7
I1212 10:06:49.631834 14712 net.cpp:106] Creating Layer fc7
I1212 10:06:49.631844 14712 net.cpp:454] fc7 <- fc6
I1212 10:06:49.631858 14712 net.cpp:411] fc7 -> fc7
I1212 10:06:49.635455 14712 net.cpp:150] Setting up fc7
I1212 10:06:49.635484 14712 net.cpp:157] Top shape: 10 1024 41 41 (17213440)
I1212 10:06:49.635493 14712 net.cpp:165] Memory required for data: 3507750600
I1212 10:06:49.635509 14712 layer_factory.hpp:77] Creating layer relu7
I1212 10:06:49.635525 14712 net.cpp:106] Creating Layer relu7
I1212 10:06:49.635537 14712 net.cpp:454] relu7 <- fc7
I1212 10:06:49.635550 14712 net.cpp:397] relu7 -> fc7 (in-place)
I1212 10:06:49.635565 14712 net.cpp:150] Setting up relu7
I1212 10:06:49.635577 14712 net.cpp:157] Top shape: 10 1024 41 41 (17213440)
I1212 10:06:49.635596 14712 net.cpp:165] Memory required for data: 3576604360
I1212 10:06:49.635615 14712 layer_factory.hpp:77] Creating layer drop7
I1212 10:06:49.635632 14712 net.cpp:106] Creating Layer drop7
I1212 10:06:49.635643 14712 net.cpp:454] drop7 <- fc7
I1212 10:06:49.635654 14712 net.cpp:397] drop7 -> fc7 (in-place)
I1212 10:06:49.635691 14712 net.cpp:150] Setting up drop7
I1212 10:06:49.635706 14712 net.cpp:157] Top shape: 10 1024 41 41 (17213440)
I1212 10:06:49.635716 14712 net.cpp:165] Memory required for data: 3645458120
I1212 10:06:49.635726 14712 layer_factory.hpp:77] Creating layer fc8_indoor
I1212 10:06:49.635746 14712 net.cpp:106] Creating Layer fc8_indoor
I1212 10:06:49.635758 14712 net.cpp:454] fc8_indoor <- fc7
I1212 10:06:49.635772 14712 net.cpp:411] fc8_indoor -> fc8_indoor
I1212 10:06:49.637405 14712 net.cpp:150] Setting up fc8_indoor
I1212 10:06:49.637424 14712 net.cpp:157] Top shape: 10 21 41 41 (353010)
I1212 10:06:49.637434 14712 net.cpp:165] Memory required for data: 3646870160
I1212 10:06:49.637449 14712 layer_factory.hpp:77] Creating layer fc_fusion
I1212 10:06:49.637470 14712 net.cpp:106] Creating Layer fc_fusion
I1212 10:06:49.637481 14712 net.cpp:454] fc_fusion <- data_ms
I1212 10:06:49.637493 14712 net.cpp:454] fc_fusion <- pool1_ms
I1212 10:06:49.637506 14712 net.cpp:454] fc_fusion <- pool2_ms
I1212 10:06:49.637517 14712 net.cpp:454] fc_fusion <- pool3_ms
I1212 10:06:49.637527 14712 net.cpp:454] fc_fusion <- pool4_ms
I1212 10:06:49.637538 14712 net.cpp:454] fc_fusion <- fc8_indoor
I1212 10:06:49.637553 14712 net.cpp:411] fc_fusion -> fc_fusion
I1212 10:06:49.637609 14712 net.cpp:150] Setting up fc_fusion
I1212 10:06:49.637630 14712 net.cpp:157] Top shape: 10 21 41 41 (353010)
I1212 10:06:49.637640 14712 net.cpp:165] Memory required for data: 3648282200
I1212 10:06:49.637650 14712 layer_factory.hpp:77] Creating layer fc_fusion_fc_fusion_0_split
I1212 10:06:49.637663 14712 net.cpp:106] Creating Layer fc_fusion_fc_fusion_0_split
I1212 10:06:49.637673 14712 net.cpp:454] fc_fusion_fc_fusion_0_split <- fc_fusion
I1212 10:06:49.637686 14712 net.cpp:411] fc_fusion_fc_fusion_0_split -> fc_fusion_fc_fusion_0_split_0
I1212 10:06:49.637701 14712 net.cpp:411] fc_fusion_fc_fusion_0_split -> fc_fusion_fc_fusion_0_split_1
I1212 10:06:49.637758 14712 net.cpp:150] Setting up fc_fusion_fc_fusion_0_split
I1212 10:06:49.637773 14712 net.cpp:157] Top shape: 10 21 41 41 (353010)
I1212 10:06:49.637785 14712 net.cpp:157] Top shape: 10 21 41 41 (353010)
I1212 10:06:49.637794 14712 net.cpp:165] Memory required for data: 3651106280
I1212 10:06:49.637804 14712 layer_factory.hpp:77] Creating layer label_shrink
I1212 10:06:49.637822 14712 net.cpp:106] Creating Layer label_shrink
I1212 10:06:49.637833 14712 net.cpp:454] label_shrink <- label
I1212 10:06:49.637846 14712 net.cpp:411] label_shrink -> label_shrink
I1212 10:06:49.637893 14712 net.cpp:150] Setting up label_shrink
I1212 10:06:49.637908 14712 net.cpp:157] Top shape: 10 1 41 41 (16810)
I1212 10:06:49.637918 14712 net.cpp:165] Memory required for data: 3651173520
I1212 10:06:49.637928 14712 layer_factory.hpp:77] Creating layer label_shrink_label_shrink_0_split
I1212 10:06:49.637939 14712 net.cpp:106] Creating Layer label_shrink_label_shrink_0_split
I1212 10:06:49.637949 14712 net.cpp:454] label_shrink_label_shrink_0_split <- label_shrink
I1212 10:06:49.637964 14712 net.cpp:411] label_shrink_label_shrink_0_split -> label_shrink_label_shrink_0_split_0
I1212 10:06:49.637979 14712 net.cpp:411] label_shrink_label_shrink_0_split -> label_shrink_label_shrink_0_split_1
I1212 10:06:49.638031 14712 net.cpp:150] Setting up label_shrink_label_shrink_0_split
I1212 10:06:49.638046 14712 net.cpp:157] Top shape: 10 1 41 41 (16810)
I1212 10:06:49.638057 14712 net.cpp:157] Top shape: 10 1 41 41 (16810)
I1212 10:06:49.638067 14712 net.cpp:165] Memory required for data: 3651308000
I1212 10:06:49.638075 14712 layer_factory.hpp:77] Creating layer loss
I1212 10:06:49.638094 14712 net.cpp:106] Creating Layer loss
I1212 10:06:49.638105 14712 net.cpp:454] loss <- fc_fusion_fc_fusion_0_split_0
I1212 10:06:49.638129 14712 net.cpp:454] loss <- label_shrink_label_shrink_0_split_0
I1212 10:06:49.638149 14712 net.cpp:411] loss -> (automatic)
I1212 10:06:49.638172 14712 layer_factory.hpp:77] Creating layer loss
I1212 10:06:49.639502 14712 net.cpp:150] Setting up loss
I1212 10:06:49.639521 14712 net.cpp:157] Top shape: (1)
I1212 10:06:49.639531 14712 net.cpp:160]     with loss weight 1
I1212 10:06:49.639577 14712 net.cpp:165] Memory required for data: 3651308004
I1212 10:06:49.639588 14712 layer_factory.hpp:77] Creating layer accuracy
I1212 10:06:49.639606 14712 net.cpp:106] Creating Layer accuracy
I1212 10:06:49.639618 14712 net.cpp:454] accuracy <- fc_fusion_fc_fusion_0_split_1
I1212 10:06:49.639631 14712 net.cpp:454] accuracy <- label_shrink_label_shrink_0_split_1
I1212 10:06:49.639648 14712 net.cpp:411] accuracy -> accuracy
I1212 10:06:49.639709 14712 net.cpp:150] Setting up accuracy
I1212 10:06:49.639726 14712 net.cpp:157] Top shape: 1 1 1 3 (3)
I1212 10:06:49.639735 14712 net.cpp:165] Memory required for data: 3651308016
I1212 10:06:49.639745 14712 net.cpp:228] accuracy does not need backward computation.
I1212 10:06:49.639756 14712 net.cpp:226] loss needs backward computation.
I1212 10:06:49.639766 14712 net.cpp:228] label_shrink_label_shrink_0_split does not need backward computation.
I1212 10:06:49.639777 14712 net.cpp:228] label_shrink does not need backward computation.
…
