…
I1214 15:37:37.794226  7500 net.cpp:322] The NetState phase (0) differed from the phase (1) specified by a rule in layer accuracy
I1214 15:37:37.798854  7500 net.cpp:49] Initializing net from parameters: 
name: "psp101_train"
state {
  phase: TRAIN
}
layer {
  name: "data"
  type: "ImageSegData"
  top: "data"
  top: "label"
  include {
    phase: TRAIN
  }
  transform_param {
    mirror: true
    crop_size: 473
    mean_value: 104.008
    mean_value: 116.669
    mean_value: 122.675
  }
  image_data_param {
    source: "./NYUv2_40cls/train.deeplablist"
    batch_size: 2
    shuffle: true
    root_folder: "./NYUv2_40cls/"
    label_type: PIXEL
  }
}
layer {
  name: "conv1_1_3x3_s2"
  type: "Convolution"
  bottom: "data"
  top: "conv1_1_3x3_s2"
  param {
    lr_mult: 1
    decay_mult: 1
  }
  convolution_param {
    num_output: 64
    bias_term: false
    pad: 1
    kernel_size: 3
    stride: 2
    weight_filler {
      type: "msra"
    }
  }
}
layer {
  name: "conv1_1_3x3_s2/bn"
  type: "BN"
  bottom: "conv1_1_3x3_s2"
  top: "conv1_1_3x3_s2"
  param {
    lr_mult: 1
    decay_mult: 0
  }
  param {
    lr_mult: 1
    decay_mult: 0
  }
  param {
    lr_mult: 0
    decay_mult: 0
  }
  param {
    lr_mult: 0
    decay_mult: 0
  }
  bn_param {
    slope_filler {
      type: "constant"
      value: 1
    }
    bias_filler {
      type: "constant"
      value: 0
    }
    momentum: 0.95
    frozen: true
  }
}
layer {
  name: "conv1_1_3x3_s2/relu"
  type: "ReLU"
  bottom: "conv1_1_3x3_s2"
  top: "conv1_1_3x3_s2"
}
layer {
  name: "conv1_2_3x3"
  type: "Convolution"
  bottom: "conv1_1_3x3_s2"
  top: "conv1_2_3x3"
  param {
    lr_mult: 1
    decay_mult: 1
  }
  convolution_param {
    num_output: 64
    bias_term: false
    pad: 1
    kernel_size: 3
    stride: 1
    weight_filler {
      type: "msra"
    }
  }
}
layer {
  name: "conv1_2_3x3/bn"
  type: "BN"
  bottom: "conv1_2_3x3"
  top: "conv1_2_3x3"
  param {
    lr_mult: 1
    decay_mult: 0
  }
  param {
    lr_mult: 1
    decay_mult: 0
  }
  param {
    lr_mult: 0
    decay_mult: 0
  }
  param {
    lr_mult: 0
    decay_mult: 0
  }
  bn_param {
    slope_filler {
      type: "constant"
      value: 1
    }
    bias_filler {
      type: "constant"
      value: 0
    }
    momentum: 0.95
    frozen: true
  }
}
layer {
  name: "conv1_2_3x3/relu"
  type: "ReLU"
  bottom: "conv1_2_3x3"
  top: "conv1_2_3x3"
}
layer {
  name: "conv1_3_3x3"
  type: "Convolution"
  bottom: "conv1_2_3x3"
  top: "conv1_3_3x3"
  param {
    lr_mult: 1
    decay_mult: 1
  }
  convolution_param {
    num_output: 128
    bias_term: false
    pad: 1
    kernel_size: 3
    stride: 1
    weight_filler {
      type: "msra"
    }
  }
}
layer {
  name: "conv1_3_3x3/bn"
  type: "BN"
  bottom: "conv1_3_3x3"
  top: "conv1_3_3x3"
  param {
    lr_mult: 1
    decay_mult: 0
  }
  param {
    lr_mult: 1
    decay_mult: 0
  }
  param {
    lr_mult: 0
    decay_mult: 0
  }
  param {
    lr_mult: 0
    decay_mult: 0
  }
  bn_param {
    slope_filler {
      type: "constant"
      value: 1
    }
    bias_filler {
      type: "constant"
      value: 0
    }
    momentum: 0.95
    frozen: true
  }
}
layer {
  name: "conv1_3_3x3/relu"
  type: "ReLU"
  bottom: "conv1_3_3x3"
  top: "conv1_3_3x3"
}
layer {
  name: "pool1_3x3_s2"
  type: "Pooling"
  bottom: "conv1_3_3x3"
  top: "pool1_3x3_s2"
  pooling_param {
    pool: MAX
    kernel_size: 3
    stride: 2
    pad: 1
  }
}
layer {
  name: "conv2_1_1x1_reduce"
  type: "Convolution"
  bottom: "pool1_3x3_s2"
  top: "conv2_1_1x1_reduce"
  param {
    lr_mult: 1
    decay_mult: 1
  }
  convolution_param {
    num_output: 64
    bias_term: false
    pad: 0
    kernel_size: 1
    stride: 1
    weight_filler {
      type: "msra"
    }
  }
}
layer {
  name: "conv2_1_1x1_reduce/bn"
  type: "BN"
  bottom: "conv2_1_1x1_reduce"
  top: "conv2_1_1x1_reduce"
  param {
    lr_mult: 1
    decay_mult: 0
  }
  param {
    lr_mult: 1
    decay_mult: 0
  }
  param {
    lr_mult: 0
    decay_mult: 0
  }
  param {
    lr_mult: 0
    decay_mult: 0
  }
  bn_param {
    slope_filler {
      type: "constant"
      value: 1
    }
    bias_filler {
      type: "constant"
      value: 0
    }
    momentum: 0.95
    frozen: true
  }
}
layer {
  name: "conv2_1_1x1_reduce/relu"
  type: "ReLU"
  bottom: "conv2_1_1x1_reduce"
  top: "conv2_1_1x1_reduce"
}
layer {
  name: "conv2_1_3x3"
  type: "Convolution"
  bottom: "conv2_1_1x1_reduce"
  top: "conv2_1_3x3"
  param {
    lr_mult: 1
    decay_mult: 1
  }
  convolution_param {
    num_output: 64
    bias_term: false
    pad: 1
    kernel_size: 3
    stride: 1
    weight_filler {
      type: "msra"
    }
  }
}
layer {
  name: "conv2_1_3x3/bn"
  type: "BN"
  bottom: "conv2_1_3x3"
  top: "conv2_1_3x3"
  param {
    lr_mult: 1
    decay_mult: 0
  }
  param {
    lr_mult: 1
    decay_mult: 0
  }
  param {
    lr_mult: 0
    decay_mult: 0
  }
  param {
    lr_mult: 0
    decay_mult: 0
  }
  bn_param {
    slope_filler {
      type: "constant"
      value: 1
    }
    bias_filler {
      type: "constant"
      value: 0
    }
    momentum: 0.95
    frozen: true
  }
}
layer {
  name: "conv2_1_3x3/relu"
  type: "ReLU"
  bottom: "conv2_1_3x3"
  top: "conv2_1_3x3"
}
layer {
  name: "conv2_1_1x1_increase"
  type: "Convolution"
  bottom: "conv2_1_3x3"
  top: "conv2_1_1x1_increase"
  param {
    lr_mult: 1
    decay_mult: 1
  }
  convolution_param {
    num_output: 256
    bias_term: false
    pad: 0
    kernel_size: 1
    stride: 1
    weight_filler {
      type: "msra"
    }
  }
}
layer {
  name: "conv2_1_1x1_increase/bn"
  type: "BN"
  bottom: "conv2_1_1x1_increase"
  top: "conv2_1_1x1_increase"
  param {
    lr_mult: 1
    decay_mult: 0
  }
  param {
    lr_mult: 1
    decay_mult: 0
  }
  param {
    lr_mult: 0
    decay_mult: 0
  }
  param {
    lr_mult: 0
    decay_mult: 0
  }
  bn_param {
    slope_filler {
      type: "constant"
      value: 1
    }
    bias_filler {
      type: "constant"
      value: 0
    }
    momentum: 0.95
    frozen: true
  }
}
layer {
  name: "conv2_1_1x1_proj"
  type: "Convolution"
  bottom: "pool1_3x3_s2"
  top: "conv2_1_1x1_proj"
  param {
    lr_mult: 1
    decay_mult: 1
  }
  convolution_param {
    num_output: 256
    bias_term: false
    pad: 0
    kernel_size: 1
    stride: 1
    weight_filler {
      type: "msra"
    }
  }
}
layer {
  name: "conv2_1_1x1_proj/bn"
  type: "BN"
  bottom: "conv2_1_1x1_proj"
  top: "conv2_1_1x1_proj"
  param {
    lr_mult: 1
    decay_mult: 0
  }
  param {
    lr_mult: 1
    decay_mult: 0
  }
  param {
    lr_mult: 0
    decay_mult: 0
  }
  param {
    lr_mult: 0
    decay_mult: 0
  }
  bn_param {
    slope_filler {
      type: "constant"
      value: 1
    }
    bias_filler {
      type: "constant"
      value: 0
    }
    momentum: 0.95
    frozen: true
  }
}
layer {
  name: "conv2_1"
  type: "Eltwise"
  bottom: "conv2_1_1x1_proj"
  bottom: "conv2_1_1x1_increase"
  top: "conv2_1"
  eltwise_param {
    operation: SUM
  }
}
layer {
  name: "conv2_1/relu"
  type: "ReLU"
  bottom: "conv2_1"
  top: "conv2_1"
}
layer {
  name: "conv2_2_1x1_reduce"
  type: "Convolution"
  bottom: "conv2_1"
  top: "conv2_2_1x1_reduce"
  param {
    lr_mult: 1
    decay_mult: 1
  }
  convolution_param {
    num_output: 64
    bias_term: false
    pad: 0
    kernel_size: 1
    stride: 1
    weight_filler {
      type: "msra"
    }
  }
}
layer {
  name: "conv2_2_1x1_reduce/bn"
  type: "BN"
  bottom: "conv2_2_1x1_reduce"
  top: "conv2_2_1x1_reduce"
  param {
    lr_mult: 1
    decay_mult: 0
  }
  param {
    lr_mult: 1
    decay_mult: 0
  }
  param {
    lr_mult: 0
    decay_mult: 0
  }
  param {
    lr_mult: 0
    decay_mult: 0
  }
  bn_param {
    slope_filler {
      type: "constant"
      value: 1
    }
    bias_filler {
      type: "constant"
      value: 0
    }
    momentum: 0.95
    frozen: true
  }
}
layer {
  name: "conv2_2_1x1_reduce/relu"
  type: "ReLU"
  bottom: "conv2_2_1x1_reduce"
  top: "conv2_2_1x1_reduce"
}
layer {
  name: "conv2_2_3x3"
  type: "Convolution"
  bottom: "conv2_2_1x1_reduce"
  top: "conv2_2_3x3"
  param {
    lr_mult: 1
    decay_mult: 1
  }
  convolution_param {
    num_output: 64
    bias_term: false
    pad: 1
    kernel_size: 3
    stride: 1
    weight_filler {
      type: "msra"
    }
  }
}
layer {
  name: "conv2_2_3x3/bn"
  type: "BN"
  bottom: "conv2_2_3x3"
  top: "conv2_2_3x3"
  param {
    lr_mult: 1
    decay_mult: 0
  }
  param {
    lr_mult: 1
    decay_mult: 0
  }
  param {
    lr_mult: 0
    decay_mult: 0
  }
  param {
    lr_mult: 0
    decay_mult: 0
  }
  bn_param {
    slope_filler {
      type: "constant"
      value: 1
    }
    bias_filler {
      type: "constant"
      value: 0
    }
    momentum: 0.95
    frozen: true
  }
}
layer {
  name: "conv2_2_3x3/relu"
  type: "ReLU"
  bottom: "conv2_2_3x3"
  top: "conv2_2_3x3"
}
layer {
  name: "conv2_2_1x1_increase"
  type: "Convolution"
  bottom: "conv2_2_3x3"
  top: "conv2_2_1x1_increase"
  param {
    lr_mult: 1
    decay_mult: 1
  }
  convolution_param {
    num_output: 256
    bias_term: false
    pad: 0
    kernel_size: 1
    stride: 1
    weight_filler {
      type: "msra"
    }
  }
}
layer {
  name: "conv2_2_1x1_increase/bn"
  type: "BN"
  bottom: "conv2_2_1x1_increase"
  top: "conv2_2_1x1_increase"
  param {
    lr_mult: 1
    decay_mult: 0
  }
  param {
    lr_mult: 1
    decay_mult: 0
  }
  param {
    lr_mult: 0
    decay_mult: 0
  }
  param {
    lr_mult: 0
    decay_mult: 0
  }
  bn_param {
    slope_filler {
      type: "constant"
      value: 1
    }
    bias_filler {
      type: "constant"
      value: 0
    }
    momentum: 0.95
    frozen: true
  }
}
layer {
  name: "conv2_2"
  type: "Eltwise"
  bottom: "conv2_1"
  bottom: "conv2_2_1x1_increase"
  top: "conv2_2"
  eltwise_param {
    operation: SUM
  }
}
layer {
  name: "conv2_2/relu"
  type: "ReLU"
  bottom: "conv2_2"
  top: "conv2_2"
}
layer {
  name: "conv2_3_1x1_reduce"
  type: "Convolution"
  bottom: "conv2_2"
  top: "conv2_3_1x1_reduce"
  param {
    lr_mult: 1
    decay_mult: 1
  }
  convolution_param {
    num_output: 64
    bias_term: false
    pad: 0
    kernel_size: 1
    stride: 1
    weight_filler {
      type: "msra"
    }
  }
}
layer {
  name: "conv2_3_1x1_reduce/bn"
  type: "BN"
  bottom: "conv2_3_1x1_reduce"
  top: "conv2_3_1x1_reduce"
  param {
    lr_mult: 1
    decay_mult: 0
  }
  param {
    lr_mult: 1
    decay_mult: 0
  }
  param {
    lr_mult: 0
    decay_mult: 0
  }
  param {
    lr_mult: 0
    decay_mult: 0
  }
  bn_param {
    slope_filler {
      type: "constant"
      value: 1
    }
    bias_filler {
      type: "constant"
      value: 0
    }
    momentum: 0.95
    frozen: true
  }
}
layer {
  name: "conv2_3_1x1_reduce/relu"
  type: "ReLU"
  bottom: "conv2_3_1x1_reduce"
  top: "conv2_3_1x1_reduce"
}
layer {
  name: "conv2_3_3x3"
  type: "Convolution"
  bottom: "conv2_3_1x1_reduce"
  top: "conv2_3_3x3"
  param {
    lr_mult: 1
    decay_mult: 1
  }
  convolution_param {
    num_output: 64
    bias_term: false
    pad: 1
    kernel_size: 3
    stride: 1
    weight_filler {
      type: "msra"
    }
  }
}
layer {
  name: "conv2_3_3x3/bn"
  type: "BN"
  bottom: "conv2_3_3x3"
  top: "conv2_3_3x3"
  param {
    lr_mult: 1
    decay_mult: 0
  }
  param {
    lr_mult: 1
    decay_mult: 0
  }
  param {
    lr_mult: 0
    decay_mult: 0
  }
  param {
    lr_mult: 0
    decay_mult: 0
  }
  bn_param {
    slope_filler {
      type: "constant"
      value: 1
    }
    bias_filler {
      type: "constant"
      value: 0
    }
    momentum: 0.95
    frozen: true
  }
}
layer {
  name: "conv2_3_3x3/relu"
  type: "ReLU"
  bottom: "conv2_3_3x3"
  top: "conv2_3_3x3"
}
layer {
  name: "conv2_3_1x1_increase"
  type: "Convolution"
  bottom: "conv2_3_3x3"
  top: "conv2_3_1x1_increase"
  param {
    lr_mult: 1
    decay_mult: 1
  }
  convolution_param {
    num_output: 256
    bias_term: false
    pad: 0
    kernel_size: 1
    stride: 1
    weight_filler {
      type: "msra"
    }
  }
}
layer {
  name: "conv2_3_1x1_increase/bn"
  type: "BN"
  bottom: "conv2_3_1x1_increase"
  top: "conv2_3_1x1_increase"
  param {
    lr_mult: 1
    decay_mult: 0
  }
  param {
    lr_mult: 1
    decay_mult: 0
  }
  param {
    lr_mult: 0
    decay_mult: 0
  }
  param {
    lr_mult: 0
    decay_mult: 0
  }
  bn_param {
    slope_filler {
      type: "constant"
      value: 1
    }
    bias_filler {
      type: "constant"
      value: 0
    }
    momentum: 0.95
    frozen: true
  }
}
layer {
  name: "conv2_3"
  type: "Eltwise"
  bottom: "conv2_2"
  bottom: "conv2_3_1x1_increase"
  top: "conv2_3"
  eltwise_param {
    operation: SUM
  }
}
layer {
  name: "conv2_3/relu"
  type: "ReLU"
  bottom: "conv2_3"
  top: "conv2_3"
}
layer {
  name: "conv3_1_1x1_reduce"
  type: "Convolution"
  bottom: "conv2_3"
  top: "conv3_1_1x1_reduce"
  param {
    lr_mult: 1
    decay_mult: 1
  }
  convolution_param {
    num_output: 128
    bias_term: false
    pad: 0
    kernel_size: 1
    stride: 1
    weight_filler {
      type: "msra"
    }
  }
}
layer {
  name: "conv3_1_1x1_reduce/bn"
  type: "BN"
  bottom: "conv3_1_1x1_reduce"
  top: "conv3_1_1x1_reduce"
  param {
    lr_mult: 1
    decay_mult: 0
  }
  param {
    lr_mult: 1
    decay_mult: 0
  }
  param {
    lr_mult: 0
    decay_mult: 0
  }
  param {
    lr_mult: 0
    decay_mult: 0
  }
  bn_param {
    slope_filler {
      type: "constant"
      value: 1
    }
    bias_filler {
      type: "constant"
      value: 0
    }
    momentum: 0.95
    frozen: true
  }
}
layer {
  name: "conv3_1_1x1_reduce/relu"
  type: "ReLU"
  bottom: "conv3_1_1x1_reduce"
  top: "conv3_1_1x1_reduce"
}
layer {
  name: "conv3_1_3x3"
  type: "Convolution"
  bottom: "conv3_1_1x1_reduce"
  top: "conv3_1_3x3"
  param {
    lr_mult: 1
    decay_mult: 1
  }
  convolution_param {
    num_output: 128
    bias_term: false
    pad: 1
    kernel_size: 3
    stride: 2
    weight_filler {
      type: "msra"
    }
  }
}
layer {
  name: "conv3_1_3x3/bn"
  type: "BN"
  bottom: "conv3_1_3x3"
  top: "conv3_1_3x3"
  param {
    lr_mult: 1
    decay_mult: 0
  }
  param {
    lr_mult: 1
    decay_mult: 0
  }
  param {
    lr_mult: 0
    decay_mult: 0
  }
  param {
    lr_mult: 0
    decay_mult: 0
  }
  bn_param {
    slope_filler {
      type: "constant"
      value: 1
    }
    bias_filler {
      type: "constant"
      value: 0
    }
    momentum: 0.95
    frozen: true
  }
}
layer {
  name: "conv3_1_3x3/relu"
  type: "ReLU"
  bottom: "conv3_1_3x3"
  top: "conv3_1_3x3"
}
layer {
  name: "conv3_1_1x1_increase"
  type: "Convolution"
  bottom: "conv3_1_3x3"
  top: "conv3_1_1x1_increase"
  param {
    lr_mult: 1
    decay_mult: 1
  }
  convolution_param {
    num_output: 512
    bias_term: false
    pad: 0
    kernel_size: 1
    stride: 1
    weight_filler {
      type: "msra"
    }
  }
}
layer {
  name: "conv3_1_1x1_increase/bn"
  type: "BN"
  bottom: "conv3_1_1x1_increase"
  top: "conv3_1_1x1_increase"
  param {
    lr_mult: 1
    decay_mult: 0
  }
  param {
    lr_mult: 1
    decay_mult: 0
  }
  param {
    lr_mult: 0
    decay_mult: 0
  }
  param {
    lr_mult: 0
    decay_mult: 0
  }
  bn_param {
    slope_filler {
      type: "constant"
      value: 1
    }
    bias_filler {
      type: "constant"
      value: 0
    }
    momentum: 0.95
    frozen: true
  }
}
layer {
  name: "conv3_1_1x1_proj"
  type: "Convolution"
  bottom: "conv2_3"
  top: "conv3_1_1x1_proj"
  param {
    lr_mult: 1
    decay_mult: 1
  }
  convolution_param {
    num_output: 512
    bias_term: false
    pad: 0
    kernel_size: 1
    stride: 2
    weight_filler {
      type: "msra"
    }
  }
}
layer {
  name: "conv3_1_1x1_proj/bn"
  type: "BN"
  bottom: "conv3_1_1x1_proj"
  top: "conv3_1_1x1_proj"
  param {
    lr_mult: 1
    decay_mult: 0
  }
  param {
    lr_mult: 1
    decay_mult: 0
  }
  param {
    lr_mult: 0
    decay_mult: 0
  }
  param {
    lr_mult: 0
    decay_mult: 0
  }
  bn_param {
    slope_filler {
      type: "constant"
      value: 1
    }
    bias_filler {
      type: "constant"
      value: 0
    }
    momentum: 0.95
    frozen: true
  }
}
layer {
  name: "conv3_1"
  type: "Eltwise"
  bottom: "conv3_1_1x1_proj"
  bottom: "conv3_1_1x1_increase"
  top: "conv3_1"
  eltwise_param {
    operation: SUM
  }
}
layer {
  name: "conv3_1/relu"
  type: "ReLU"
  bottom: "conv3_1"
  top: "conv3_1"
}
layer {
  name: "conv3_2_1x1_reduce"
  type: "Convolution"
  bottom: "conv3_1"
  top: "conv3_2_1x1_reduce"
  param {
    lr_mult: 1
    decay_mult: 1
  }
  convolution_param {
    num_output: 128
    bias_term: false
    pad: 0
    kernel_size: 1
    stride: 1
    weight_filler {
      type: "msra"
    }
  }
}
layer {
  name: "conv3_2_1x1_reduce/bn"
  type: "BN"
  bottom: "conv3_2_1x1_reduce"
  top: "conv3_2_1x1_reduce"
  param {
    lr_mult: 1
    decay_mult: 0
  }
  param {
    lr_mult: 1
    decay_mult: 0
  }
  param {
    lr_mult: 0
    decay_mult: 0
  }
  param {
    lr_mult: 0
    decay_mult: 0
  }
  bn_param {
    slope_filler {
      type: "constant"
      value: 1
    }
    bias_filler {
      type: "constant"
      value: 0
    }
    momentum: 0.95
    frozen: true
  }
}
layer {
  name: "conv3_2_1x1_reduce/relu"
  type: "ReLU"
  bottom: "conv3_2_1x1_reduce"
  top: "conv3_2_1x1_reduce"
}
layer {
  name: "conv3_2_3x3"
  type: "Convolution"
  bottom: "conv3_2_1x1_reduce"
  top: "conv3_2_3x3"
  param {
    lr_mult: 1
    decay_mult: 1
  }
  convolution_param {
    num_output: 128
    bias_term: false
    pad: 1
    kernel_size: 3
    stride: 1
    weight_filler {
      type: "msra"
    }
  }
}
layer {
  name: "conv3_2_3x3/bn"
  type: "BN"
  bottom: "conv3_2_3x3"
  top: "conv3_2_3x3"
  param {
    lr_mult: 1
    decay_mult: 0
  }
  param {
    lr_mult: 1
    decay_mult: 0
  }
  param {
    lr_mult: 0
    decay_mult: 0
  }
  param {
    lr_mult: 0
    decay_mult: 0
  }
  bn_param {
    slope_filler {
      type: "constant"
      value: 1
    }
    bias_filler {
      type: "constant"
      value: 0
    }
    momentum: 0.95
    frozen: true
  }
}
layer {
  name: "conv3_2_3x3/relu"
  type: "ReLU"
  bottom: "conv3_2_3x3"
  top: "conv3_2_3x3"
}
layer {
  name: "conv3_2_1x1_increase"
  type: "Convolution"
  bottom: "conv3_2_3x3"
  top: "conv3_2_1x1_increase"
  param {
    lr_mult: 1
    decay_mult: 1
  }
  convolution_param {
    num_output: 512
    bias_term: false
    pad: 0
    kernel_size: 1
    stride: 1
    weight_filler {
      type: "msra"
    }
  }
}
layer {
  name: "conv3_2_1x1_increase/bn"
  type: "BN"
  bottom: "conv3_2_1x1_increase"
  top: "conv3_2_1x1_increase"
  param {
    lr_mult: 1
    decay_mult: 0
  }
  param {
    lr_mult: 1
    decay_mult: 0
  }
  param {
    lr_mult: 0
    decay_mult: 0
  }
  param {
    lr_mult: 0
    decay_mult: 0
  }
  bn_param {
    slope_filler {
      type: "constant"
      value: 1
    }
    bias_filler {
      type: "constant"
      value: 0
    }
    momentum: 0.95
    frozen: true
  }
}
layer {
  name: "conv3_2"
  type: "Eltwise"
  bottom: "conv3_1"
  bottom: "conv3_2_1x1_increase"
  top: "conv3_2"
  eltwise_param {
    operation: SUM
  }
}
layer {
  name: "conv3_2/relu"
  type: "ReLU"
  bottom: "conv3_2"
  top: "conv3_2"
}
layer {
  name: "conv3_3_1x1_reduce"
  type: "Convolution"
  bottom: "conv3_2"
  top: "conv3_3_1x1_reduce"
  param {
    lr_mult: 1
    decay_mult: 1
  }
  convolution_param {
    num_output: 128
    bias_term: false
    pad: 0
    kernel_size: 1
    stride: 1
    weight_filler {
      type: "msra"
    }
  }
}
layer {
  name: "conv3_3_1x1_reduce/bn"
  type: "BN"
  bottom: "conv3_3_1x1_reduce"
  top: "conv3_3_1x1_reduce"
  param {
    lr_mult: 1
    decay_mult: 0
  }
  param {
    lr_mult: 1
    decay_mult: 0
  }
  param {
    lr_mult: 0
    decay_mult: 0
  }
  param {
    lr_mult: 0
    decay_mult: 0
  }
  bn_param {
    slope_filler {
      type: "constant"
      value: 1
    }
    bias_filler {
      type: "constant"
      value: 0
    }
    momentum: 0.95
    frozen: true
  }
}
layer {
  name: "conv3_3_1x1_reduce/relu"
  type: "ReLU"
  bottom: "conv3_3_1x1_reduce"
  top: "conv3_3_1x1_reduce"
}
layer {
  name: "conv3_3_3x3"
  type: "Convolution"
  bottom: "conv3_3_1x1_reduce"
  top: "conv3_3_3x3"
  param {
    lr_mult: 1
    decay_mult: 1
  }
  convolution_param {
    num_output: 128
    bias_term: false
    pad: 1
    kernel_size: 3
    stride: 1
    weight_filler {
      type: "msra"
    }
  }
}
layer {
  name: "conv3_3_3x3/bn"
  type: "BN"
  bottom: "conv3_3_3x3"
  top: "conv3_3_3x3"
  param {
    lr_mult: 1
    decay_mult: 0
  }
  param {
    lr_mult: 1
    decay_mult: 0
  }
  param {
    lr_mult: 0
    decay_mult: 0
  }
  param {
    lr_mult: 0
    decay_mult: 0
  }
  bn_param {
    slope_filler {
      type: "constant"
      value: 1
    }
    bias_filler {
      type: "constant"
      value: 0
    }
    momentum: 0.95
    frozen: true
  }
}
layer {
  name: "conv3_3_3x3/relu"
  type: "ReLU"
  bottom: "conv3_3_3x3"
  top: "conv3_3_3x3"
}
layer {
  name: "conv3_3_1x1_increase"
  type: "Convolution"
  bottom: "conv3_3_3x3"
  top: "conv3_3_1x1_increase"
  param {
    lr_mult: 1
    decay_mult: 1
  }
  convolution_param {
    num_output: 512
    bias_term: false
    pad: 0
    kernel_size: 1
    stride: 1
    weight_filler {
      type: "msra"
    }
  }
}
layer {
  name: "conv3_3_1x1_increase/bn"
  type: "BN"
  bottom: "conv3_3_1x1_increase"
  top: "conv3_3_1x1_increase"
  param {
    lr_mult: 1
    decay_mult: 0
  }
  param {
    lr_mult: 1
    decay_mult: 0
  }
  param {
    lr_mult: 0
    decay_mult: 0
  }
  param {
    lr_mult: 0
    decay_mult: 0
  }
  bn_param {
    slope_filler {
      type: "constant"
      value: 1
    }
    bias_filler {
      type: "constant"
      value: 0
    }
    momentum: 0.95
    frozen: true
  }
}
layer {
  name: "conv3_3"
  type: "Eltwise"
  bottom: "conv3_2"
  bottom: "conv3_3_1x1_increase"
  top: "conv3_3"
  eltwise_param {
    operation: SUM
  }
}
layer {
  name: "conv3_3/relu"
  type: "ReLU"
  bottom: "conv3_3"
  top: "conv3_3"
}
layer {
  name: "conv3_4_1x1_reduce"
  type: "Convolution"
  bottom: "conv3_3"
  top: "conv3_4_1x1_reduce"
  param {
    lr_mult: 1
    decay_mult: 1
  }
  convolution_param {
    num_output: 128
    bias_term: false
    pad: 0
    kernel_size: 1
    stride: 1
    weight_filler {
      type: "msra"
    }
  }
}
layer {
  name: "conv3_4_1x1_reduce/bn"
  type: "BN"
  bottom: "conv3_4_1x1_reduce"
  top: "conv3_4_1x1_reduce"
  param {
    lr_mult: 1
    decay_mult: 0
  }
  param {
    lr_mult: 1
    decay_mult: 0
  }
  param {
    lr_mult: 0
    decay_mult: 0
  }
  param {
    lr_mult: 0
    decay_mult: 0
  }
  bn_param {
    slope_filler {
      type: "constant"
      value: 1
    }
    bias_filler {
      type: "constant"
      value: 0
    }
    momentum: 0.95
    frozen: true
  }
}
layer {
  name: "conv3_4_1x1_reduce/relu"
  type: "ReLU"
  bottom: "conv3_4_1x1_reduce"
  top: "conv3_4_1x1_reduce"
}
layer {
  name: "conv3_4_3x3"
  type: "Convolution"
  bottom: "conv3_4_1x1_reduce"
  top: "conv3_4_3x3"
  param {
    lr_mult: 1
    decay_mult: 1
  }
  convolution_param {
    num_output: 128
    bias_term: false
    pad: 1
    kernel_size: 3
    stride: 1
    weight_filler {
      type: "msra"
    }
  }
}
layer {
  name: "conv3_4_3x3/bn"
  type: "BN"
  bottom: "conv3_4_3x3"
  top: "conv3_4_3x3"
  param {
    lr_mult: 1
    decay_mult: 0
  }
  param {
    lr_mult: 1
    decay_mult: 0
  }
  param {
    lr_mult: 0
    decay_mult: 0
  }
  param {
    lr_mult: 0
    decay_mult: 0
  }
  bn_param {
    slope_filler {
      type: "constant"
      value: 1
    }
    bias_filler {
      type: "constant"
      value: 0
    }
    momentum: 0.95
    frozen: true
  }
}
layer {
  name: "conv3_4_3x3/relu"
  type: "ReLU"
  bottom: "conv3_4_3x3"
  top: "conv3_4_3x3"
}
layer {
  name: "conv3_4_1x1_increase"
  type: "Convolution"
  bottom: "conv3_4_3x3"
  top: "conv3_4_1x1_increase"
  param {
    lr_mult: 1
    decay_mult: 1
  }
  convolution_param {
    num_output: 512
    bias_term: false
    pad: 0
    kernel_size: 1
    stride: 1
    weight_filler {
      type: "msra"
    }
  }
}
layer {
  name: "conv3_4_1x1_increase/bn"
  type: "BN"
  bottom: "conv3_4_1x1_increase"
  top: "conv3_4_1x1_increase"
  param {
    lr_mult: 1
    decay_mult: 0
  }
  param {
    lr_mult: 1
    decay_mult: 0
  }
  param {
    lr_mult: 0
    decay_mult: 0
  }
  param {
    lr_mult: 0
    decay_mult: 0
  }
  bn_param {
    slope_filler {
      type: "constant"
      value: 1
    }
    bias_filler {
      type: "constant"
      value: 0
    }
    momentum: 0.95
    frozen: true
  }
}
layer {
  name: "conv3_4"
  type: "Eltwise"
  bottom: "conv3_3"
  bottom: "conv3_4_1x1_increase"
  top: "conv3_4"
  eltwise_param {
    operation: SUM
  }
}
layer {
  name: "conv3_4/relu"
  type: "ReLU"
  bottom: "conv3_4"
  top: "conv3_4"
}
layer {
  name: "conv4_1_1x1_reduce"
  type: "Convolution"
  bottom: "conv3_4"
  top: "conv4_1_1x1_reduce"
  param {
    lr_mult: 1
    decay_mult: 1
  }
  convolution_param {
    num_output: 256
    bias_term: false
    pad: 0
    kernel_size: 1
    stride: 1
    weight_filler {
      type: "msra"
    }
  }
}
layer {
  name: "conv4_1_1x1_reduce/bn"
  type: "BN"
  bottom: "conv4_1_1x1_reduce"
  top: "conv4_1_1x1_reduce"
  param {
    lr_mult: 1
    decay_mult: 0
  }
  param {
    lr_mult: 1
    decay_mult: 0
  }
  param {
    lr_mult: 0
    decay_mult: 0
  }
  param {
    lr_mult: 0
    decay_mult: 0
  }
  bn_param {
    slope_filler {
      type: "constant"
      value: 1
    }
    bias_filler {
      type: "constant"
      value: 0
    }
    momentum: 0.95
    frozen: true
  }
}
layer {
  name: "conv4_1_1x1_reduce/relu"
  type: "ReLU"
  bottom: "conv4_1_1x1_reduce"
  top: "conv4_1_1x1_reduce"
}
layer {
  name: "conv4_1_3x3"
  type: "Convolution"
  bottom: "conv4_1_1x1_reduce"
  top: "conv4_1_3x3"
  param {
    lr_mult: 1
    decay_mult: 1
  }
  convolution_param {
    num_output: 256
    bias_term: false
    pad: 2
    kernel_size: 3
    stride: 1
    weight_filler {
      type: "msra"
    }
    dilation: 2
  }
}
layer {
  name: "conv4_1_3x3/bn"
  type: "BN"
  bottom: "conv4_1_3x3"
  top: "conv4_1_3x3"
  param {
    lr_mult: 1
    decay_mult: 0
  }
  param {
    lr_mult: 1
    decay_mult: 0
  }
  param {
    lr_mult: 0
    decay_mult: 0
  }
  param {
    lr_mult: 0
    decay_mult: 0
  }
  bn_param {
    slope_filler {
      type: "constant"
      value: 1
    }
    bias_filler {
      type: "constant"
      value: 0
    }
    momentum: 0.95
    frozen: true
  }
}
layer {
  name: "conv4_1_3x3/relu"
  type: "ReLU"
  bottom: "conv4_1_3x3"
  top: "conv4_1_3x3"
}
layer {
  name: "conv4_1_1x1_increase"
  type: "Convolution"
  bottom: "conv4_1_3x3"
  top: "conv4_1_1x1_increase"
  param {
    lr_mult: 1
    decay_mult: 1
  }
  convolution_param {
    num_output: 1024
    bias_term: false
    pad: 0
    kernel_size: 1
    stride: 1
    weight_filler {
      type: "msra"
    }
  }
}
layer {
  name: "conv4_1_1x1_increase/bn"
  type: "BN"
  bottom: "conv4_1_1x1_increase"
  top: "conv4_1_1x1_increase"
  param {
    lr_mult: 1
    decay_mult: 0
  }
  param {
    lr_mult: 1
    decay_mult: 0
  }
  param {
    lr_mult: 0
    decay_mult: 0
  }
  param {
    lr_mult: 0
    decay_mult: 0
  }
  bn_param {
    slope_filler {
      type: "constant"
      value: 1
    }
    bias_filler {
      type: "constant"
      value: 0
    }
    momentum: 0.95
    frozen: true
  }
}
layer {
  name: "conv4_1_1x1_proj"
  type: "Convolution"
  bottom: "conv3_4"
  top: "conv4_1_1x1_proj"
  param {
    lr_mult: 1
    decay_mult: 1
  }
  convolution_param {
    num_output: 1024
    bias_term: false
    pad: 0
    kernel_size: 1
    stride: 1
    weight_filler {
      type: "msra"
    }
  }
}
layer {
  name: "conv4_1_1x1_proj/bn"
  type: "BN"
  bottom: "conv4_1_1x1_proj"
  top: "conv4_1_1x1_proj"
  param {
    lr_mult: 1
    decay_mult: 0
  }
  param {
    lr_mult: 1
    decay_mult: 0
  }
  param {
    lr_mult: 0
    decay_mult: 0
  }
  param {
    lr_mult: 0
    decay_mult: 0
  }
  bn_param {
    slope_filler {
      type: "constant"
      value: 1
    }
    bias_filler {
      type: "constant"
      value: 0
    }
    momentum: 0.95
    frozen: true
  }
}
layer {
  name: "conv4_1"
  type: "Eltwise"
  bottom: "conv4_1_1x1_proj"
  bottom: "conv4_1_1x1_increase"
  top: "conv4_1"
  eltwise_param {
    operation: SUM
  }
}
layer {
  name: "conv4_1/relu"
  type: "ReLU"
  bottom: "conv4_1"
  top: "conv4_1"
}
layer {
  name: "conv4_2_1x1_reduce"
  type: "Convolution"
  bottom: "conv4_1"
  top: "conv4_2_1x1_reduce"
  param {
    lr_mult: 1
    decay_mult: 1
  }
  convolution_param {
    num_output: 256
    bias_term: false
    pad: 0
    kernel_size: 1
    stride: 1
    weight_filler {
      type: "msra"
    }
  }
}
layer {
  name: "conv4_2_1x1_reduce/bn"
  type: "BN"
  bottom: "conv4_2_1x1_reduce"
  top: "conv4_2_1x1_reduce"
  param {
    lr_mult: 1
    decay_mult: 0
  }
  param {
    lr_mult: 1
    decay_mult: 0
  }
  param {
    lr_mult: 0
    decay_mult: 0
  }
  param {
    lr_mult: 0
    decay_mult: 0
  }
  bn_param {
    slope_filler {
      type: "constant"
      value: 1
    }
    bias_filler {
      type: "constant"
      value: 0
    }
    momentum: 0.95
    frozen: true
  }
}
layer {
  name: "conv4_2_1x1_reduce/relu"
  type: "ReLU"
  bottom: "conv4_2_1x1_reduce"
  top: "conv4_2_1x1_reduce"
}
layer {
  name: "conv4_2_3x3"
  type: "Convolution"
  bottom: "conv4_2_1x1_reduce"
  top: "conv4_2_3x3"
  param {
    lr_mult: 1
    decay_mult: 1
  }
  convolution_param {
    num_output: 256
    bias_term: false
    pad: 2
    kernel_size: 3
    stride: 1
    weight_filler {
      type: "msra"
    }
    dilation: 2
  }
}
layer {
  name: "conv4_2_3x3/bn"
  type: "BN"
  bottom: "conv4_2_3x3"
  top: "conv4_2_3x3"
  param {
    lr_mult: 1
    decay_mult: 0
  }
  param {
    lr_mult: 1
    decay_mult: 0
  }
  param {
    lr_mult: 0
    decay_mult: 0
  }
  param {
    lr_mult: 0
    decay_mult: 0
  }
  bn_param {
    slope_filler {
      type: "constant"
      value: 1
    }
    bias_filler {
      type: "constant"
      value: 0
    }
    momentum: 0.95
    frozen: true
  }
}
layer {
  name: "conv4_2_3x3/r
I1214 15:37:37.801270  7500 layer_factory.hpp:77] Creating layer data
I1214 15:37:37.801344  7500 net.cpp:106] Creating Layer data
I1214 15:37:37.801368  7500 net.cpp:411] data -> data
I1214 15:37:37.801421  7500 net.cpp:411] data -> label
I1214 15:37:37.801446  7500 net.cpp:411] data -> (automatic)
I1214 15:37:37.802011  7500 image_seg_data_layer.cpp:46] Opening file ./NYUv2_40cls/train.deeplablist
I1214 15:37:37.808015  7500 image_seg_data_layer.cpp:63] Shuffling data
I1214 15:37:37.808223  7500 image_seg_data_layer.cpp:68] A total of 4247 images.
I1214 15:37:37.832047  7500 image_seg_data_layer.cpp:137] output data size: 2,3,473,473
I1214 15:37:37.832068  7500 image_seg_data_layer.cpp:141] output label size: 2,1,473,473
I1214 15:37:37.832078  7500 image_seg_data_layer.cpp:145] output data_dim size: 2,1,1,2
I1214 15:37:37.862242  7500 net.cpp:150] Setting up data
I1214 15:37:37.862280  7500 net.cpp:157] Top shape: 2 3 473 473 (1342374)
I1214 15:37:37.862301  7500 net.cpp:157] Top shape: 2 1 473 473 (447458)
I1214 15:37:37.862314  7500 net.cpp:157] Top shape: 2 1 1 2 (4)
I1214 15:37:37.862323  7500 net.cpp:165] Memory required for data: 7159344
I1214 15:37:37.862340  7500 layer_factory.hpp:77] Creating layer conv1_1_3x3_s2
I1214 15:37:37.862378  7500 net.cpp:106] Creating Layer conv1_1_3x3_s2
I1214 15:37:37.862393  7500 net.cpp:454] conv1_1_3x3_s2 <- data
I1214 15:37:37.862424  7500 net.cpp:411] conv1_1_3x3_s2 -> conv1_1_3x3_s2
I1214 15:37:37.863469  7500 net.cpp:150] Setting up conv1_1_3x3_s2
I1214 15:37:37.863489  7500 net.cpp:157] Top shape: 2 64 237 237 (7189632)
I1214 15:37:37.863499  7500 net.cpp:165] Memory required for data: 35917872
I1214 15:37:37.863533  7500 layer_factory.hpp:77] Creating layer conv1_1_3x3_s2/bn
I1214 15:37:37.863554  7500 net.cpp:106] Creating Layer conv1_1_3x3_s2/bn
I1214 15:37:37.863574  7500 net.cpp:454] conv1_1_3x3_s2/bn <- conv1_1_3x3_s2
I1214 15:37:37.863601  7500 net.cpp:397] conv1_1_3x3_s2/bn -> conv1_1_3x3_s2 (in-place)
I1214 15:37:37.865806  7500 net.cpp:150] Setting up conv1_1_3x3_s2/bn
I1214 15:37:37.865833  7500 net.cpp:157] Top shape: 2 64 237 237 (7189632)
I1214 15:37:37.865844  7500 net.cpp:165] Memory required for data: 64676400
I1214 15:37:37.865867  7500 layer_factory.hpp:77] Creating layer conv1_1_3x3_s2/relu
I1214 15:37:37.865881  7500 net.cpp:106] Creating Layer conv1_1_3x3_s2/relu
I1214 15:37:37.865891  7500 net.cpp:454] conv1_1_3x3_s2/relu <- conv1_1_3x3_s2
I1214 15:37:37.865905  7500 net.cpp:397] conv1_1_3x3_s2/relu -> conv1_1_3x3_s2 (in-place)
I1214 15:37:37.865923  7500 net.cpp:150] Setting up conv1_1_3x3_s2/relu
I1214 15:37:37.865936  7500 net.cpp:157] Top shape: 2 64 237 237 (7189632)
I1214 15:37:37.865944  7500 net.cpp:165] Memory required for data: 93434928
I1214 15:37:37.865953  7500 layer_factory.hpp:77] Creating layer conv1_2_3x3
I1214 15:37:37.865970  7500 net.cpp:106] Creating Layer conv1_2_3x3
I1214 15:37:37.865980  7500 net.cpp:454] conv1_2_3x3 <- conv1_1_3x3_s2
I1214 15:37:37.865993  7500 net.cpp:411] conv1_2_3x3 -> conv1_2_3x3
I1214 15:37:37.868333  7500 net.cpp:150] Setting up conv1_2_3x3
I1214 15:37:37.868353  7500 net.cpp:157] Top shape: 2 64 237 237 (7189632)
I1214 15:37:37.868362  7500 net.cpp:165] Memory required for data: 122193456
I1214 15:37:37.868376  7500 layer_factory.hpp:77] Creating layer conv1_2_3x3/bn
I1214 15:37:37.868391  7500 net.cpp:106] Creating Layer conv1_2_3x3/bn
I1214 15:37:37.868399  7500 net.cpp:454] conv1_2_3x3/bn <- conv1_2_3x3
I1214 15:37:37.868413  7500 net.cpp:397] conv1_2_3x3/bn -> conv1_2_3x3 (in-place)
I1214 15:37:37.868726  7500 net.cpp:150] Setting up conv1_2_3x3/bn
I1214 15:37:37.868743  7500 net.cpp:157] Top shape: 2 64 237 237 (7189632)
I1214 15:37:37.868753  7500 net.cpp:165] Memory required for data: 150951984
I1214 15:37:37.868772  7500 layer_factory.hpp:77] Creating layer conv1_2_3x3/relu
I1214 15:37:37.868785  7500 net.cpp:106] Creating Layer conv1_2_3x3/relu
I1214 15:37:37.868795  7500 net.cpp:454] conv1_2_3x3/relu <- conv1_2_3x3
I1214 15:37:37.868808  7500 net.cpp:397] conv1_2_3x3/relu -> conv1_2_3x3 (in-place)
I1214 15:37:37.868821  7500 net.cpp:150] Setting up conv1_2_3x3/relu
I1214 15:37:37.868834  7500 net.cpp:157] Top shape: 2 64 237 237 (7189632)
I1214 15:37:37.868842  7500 net.cpp:165] Memory required for data: 179710512
I1214 15:37:37.868851  7500 layer_factory.hpp:77] Creating layer conv1_3_3x3
I1214 15:37:37.868866  7500 net.cpp:106] Creating Layer conv1_3_3x3
I1214 15:37:37.868875  7500 net.cpp:454] conv1_3_3x3 <- conv1_2_3x3
I1214 15:37:37.868888  7500 net.cpp:411] conv1_3_3x3 -> conv1_3_3x3
I1214 15:37:37.873958  7500 net.cpp:150] Setting up conv1_3_3x3
I1214 15:37:37.873980  7500 net.cpp:157] Top shape: 2 128 237 237 (14379264)
I1214 15:37:37.873991  7500 net.cpp:165] Memory required for data: 237227568
I1214 15:37:37.874002  7500 layer_factory.hpp:77] Creating layer conv1_3_3x3/bn
I1214 15:37:37.874019  7500 net.cpp:106] Creating Layer conv1_3_3x3/bn
I1214 15:37:37.874029  7500 net.cpp:454] conv1_3_3x3/bn <- conv1_3_3x3
I1214 15:37:37.874043  7500 net.cpp:397] conv1_3_3x3/bn -> conv1_3_3x3 (in-place)
I1214 15:37:37.874352  7500 net.cpp:150] Setting up conv1_3_3x3/bn
I1214 15:37:37.874371  7500 net.cpp:157] Top shape: 2 128 237 237 (14379264)
I1214 15:37:37.874379  7500 net.cpp:165] Memory required for data: 294744624
I1214 15:37:37.874397  7500 layer_factory.hpp:77] Creating layer conv1_3_3x3/relu
I1214 15:37:37.874409  7500 net.cpp:106] Creating Layer conv1_3_3x3/relu
I1214 15:37:37.874419  7500 net.cpp:454] conv1_3_3x3/relu <- conv1_3_3x3
I1214 15:37:37.874431  7500 net.cpp:397] conv1_3_3x3/relu -> conv1_3_3x3 (in-place)
I1214 15:37:37.874444  7500 net.cpp:150] Setting up conv1_3_3x3/relu
I1214 15:37:37.874456  7500 net.cpp:157] Top shape: 2 128 237 237 (14379264)
I1214 15:37:37.874465  7500 net.cpp:165] Memory required for data: 352261680
I1214 15:37:37.874475  7500 layer_factory.hpp:77] Creating layer pool1_3x3_s2
I1214 15:37:37.874492  7500 net.cpp:106] Creating Layer pool1_3x3_s2
I1214 15:37:37.874511  7500 net.cpp:454] pool1_3x3_s2 <- conv1_3_3x3
I1214 15:37:37.874523  7500 net.cpp:411] pool1_3x3_s2 -> pool1_3x3_s2
I1214 15:37:37.874591  7500 net.cpp:150] Setting up pool1_3x3_s2
I1214 15:37:37.874608  7500 net.cpp:157] Top shape: 2 128 119 119 (3625216)
I1214 15:37:37.874616  7500 net.cpp:165] Memory required for data: 366762544
I1214 15:37:37.874625  7500 layer_factory.hpp:77] Creating layer pool1_3x3_s2_pool1_3x3_s2_0_split
I1214 15:37:37.874641  7500 net.cpp:106] Creating Layer pool1_3x3_s2_pool1_3x3_s2_0_split
I1214 15:37:37.874650  7500 net.cpp:454] pool1_3x3_s2_pool1_3x3_s2_0_split <- pool1_3x3_s2
I1214 15:37:37.874663  7500 net.cpp:411] pool1_3x3_s2_pool1_3x3_s2_0_split -> pool1_3x3_s2_pool1_3x3_s2_0_split_0
I1214 15:37:37.874676  7500 net.cpp:411] pool1_3x3_s2_pool1_3x3_s2_0_split -> pool1_3x3_s2_pool1_3x3_s2_0_split_1
I1214 15:37:37.874728  7500 net.cpp:150] Setting up pool1_3x3_s2_pool1_3x3_s2_0_split
I1214 15:37:37.874742  7500 net.cpp:157] Top shape: 2 128 119 119 (3625216)
I1214 15:37:37.874754  7500 net.cpp:157] Top shape: 2 128 119 119 (3625216)
I1214 15:37:37.874763  7500 net.cpp:165] Memory required for data: 395764272
I1214 15:37:37.874773  7500 layer_factory.hpp:77] Creating layer conv2_1_1x1_reduce
I1214 15:37:37.874788  7500 net.cpp:106] Creating Layer conv2_1_1x1_reduce
I1214 15:37:37.874797  7500 net.cpp:454] conv2_1_1x1_reduce <- pool1_3x3_s2_pool1_3x3_s2_0_split_0
I1214 15:37:37.874811  7500 net.cpp:411] conv2_1_1x1_reduce -> conv2_1_1x1_reduce
I1214 15:37:37.876137  7500 net.cpp:150] Setting up conv2_1_1x1_reduce
I1214 15:37:37.876164  7500 net.cpp:157] Top shape: 2 64 119 119 (1812608)
I1214 15:37:37.876176  7500 net.cpp:165] Memory required for data: 403014704
I1214 15:37:37.876189  7500 layer_factory.hpp:77] Creating layer conv2_1_1x1_reduce/bn
I1214 15:37:37.876204  7500 net.cpp:106] Creating Layer conv2_1_1x1_reduce/bn
I1214 15:37:37.876214  7500 net.cpp:454] conv2_1_1x1_reduce/bn <- conv2_1_1x1_reduce
I1214 15:37:37.876227  7500 net.cpp:397] conv2_1_1x1_reduce/bn -> conv2_1_1x1_reduce (in-place)
I1214 15:37:37.876489  7500 net.cpp:150] Setting up conv2_1_1x1_reduce/bn
I1214 15:37:37.876507  7500 net.cpp:157] Top shape: 2 64 119 119 (1812608)
I1214 15:37:37.876516  7500 net.cpp:165] Memory required for data: 410265136
I1214 15:37:37.876538  7500 layer_factory.hpp:77] Creating layer conv2_1_1x1_reduce/relu
I1214 15:37:37.876550  7500 net.cpp:106] Creating Layer conv2_1_1x1_reduce/relu
I1214 15:37:37.876559  7500 net.cpp:454] conv2_1_1x1_reduce/relu <- conv2_1_1x1_reduce
I1214 15:37:37.876571  7500 net.cpp:397] conv2_1_1x1_reduce/relu -> conv2_1_1x1_reduce (in-place)
I1214 15:37:37.876585  7500 net.cpp:150] Setting up conv2_1_1x1_reduce/relu
I1214 15:37:37.876596  7500 net.cpp:157] Top shape: 2 64 119 119 (1812608)
I1214 15:37:37.876605  7500 net.cpp:165] Memory required for data: 417515568
I1214 15:37:37.876615  7500 layer_factory.hpp:77] Creating layer conv2_1_3x3
I1214 15:37:37.876628  7500 net.cpp:106] Creating Layer conv2_1_3x3
I1214 15:37:37.876638  7500 net.cpp:454] conv2_1_3x3 <- conv2_1_1x1_reduce
I1214 15:37:37.876651  7500 net.cpp:411] conv2_1_3x3 -> conv2_1_3x3
I1214 15:37:37.878981  7500 net.cpp:150] Setting up conv2_1_3x3
I1214 15:37:37.878999  7500 net.cpp:157] Top shape: 2 64 119 119 (1812608)
I1214 15:37:37.879009  7500 net.cpp:165] Memory required for data: 424766000
I1214 15:37:37.879021  7500 layer_factory.hpp:77] Creating layer conv2_1_3x3/bn
I1214 15:37:37.879039  7500 net.cpp:106] Creating Layer conv2_1_3x3/bn
I1214 15:37:37.879048  7500 net.cpp:454] conv2_1_3x3/bn <- conv2_1_3x3
I1214 15:37:37.879065  7500 net.cpp:397] conv2_1_3x3/bn -> conv2_1_3x3 (in-place)
I1214 15:37:37.879328  7500 net.cpp:150] Setting up conv2_1_3x3/bn
I1214 15:37:37.879344  7500 net.cpp:157] Top shape: 2 64 119 119 (1812608)
I1214 15:37:37.879354  7500 net.cpp:165] Memory required for data: 432016432
I1214 15:37:37.879370  7500 layer_factory.hpp:77] Creating layer conv2_1_3x3/relu
I1214 15:37:37.879390  7500 net.cpp:106] Creating Layer conv2_1_3x3/relu
I1214 15:37:37.879407  7500 net.cpp:454] conv2_1_3x3/relu <- conv2_1_3x3
I1214 15:37:37.879420  7500 net.cpp:397] conv2_1_3x3/relu -> conv2_1_3x3 (in-place)
I1214 15:37:37.879433  7500 net.cpp:150] Setting up conv2_1_3x3/relu
I1214 15:37:37.879444  7500 net.cpp:157] Top shape: 2 64 119 119 (1812608)
I1214 15:37:37.879453  7500 net.cpp:165] Memory required for data: 439266864
I1214 15:37:37.879462  7500 layer_factory.hpp:77] Creating layer conv2_1_1x1_increase
I1214 15:37:37.879477  7500 net.cpp:106] Creating Layer conv2_1_1x1_increase
I1214 15:37:37.879487  7500 net.cpp:454] conv2_1_1x1_increase <- conv2_1_3x3
I1214 15:37:37.879499  7500 net.cpp:411] conv2_1_1x1_increase -> conv2_1_1x1_increase
I1214 15:37:37.880681  7500 net.cpp:150] Setting up conv2_1_1x1_increase
I1214 15:37:37.880699  7500 net.cpp:157] Top shape: 2 256 119 119 (7250432)
I1214 15:37:37.880709  7500 net.cpp:165] Memory required for data: 468268592
I1214 15:37:37.880722  7500 layer_factory.hpp:77] Creating layer conv2_1_1x1_increase/bn
I1214 15:37:37.880735  7500 net.cpp:106] Creating Layer conv2_1_1x1_increase/bn
I1214 15:37:37.880745  7500 net.cpp:454] conv2_1_1x1_increase/bn <- conv2_1_1x1_increase
I1214 15:37:37.880759  7500 net.cpp:397] conv2_1_1x1_increase/bn -> conv2_1_1x1_increase (in-place)
I1214 15:37:37.881005  7500 net.cpp:150] Setting up conv2_1_1x1_increase/bn
I1214 15:37:37.881021  7500 net.cpp:157] Top shape: 2 256 119 119 (7250432)
I1214 15:37:37.881031  7500 net.cpp:165] Memory required for data: 497270320
I1214 15:37:37.881048  7500 layer_factory.hpp:77] Creating layer conv2_1_1x1_proj
I1214 15:37:37.881063  7500 net.cpp:106] Creating Layer conv2_1_1x1_proj
I1214 15:37:37.881073  7500 net.cpp:454] conv2_1_1x1_proj <- pool1_3x3_s2_pool1_3x3_s2_0_split_1
I1214 15:37:37.881088  7500 net.cpp:411] conv2_1_1x1_proj -> conv2_1_1x1_proj
I1214 15:37:37.883816  7500 net.cpp:150] Setting up conv2_1_1x1_proj
I1214 15:37:37.883836  7500 net.cpp:157] Top shape: 2 256 119 119 (7250432)
I1214 15:37:37.883846  7500 net.cpp:165] Memory required for data: 526272048
I1214 15:37:37.883858  7500 layer_factory.hpp:77] Creating layer conv2_1_1x1_proj/bn
I1214 15:37:37.883873  7500 net.cpp:106] Creating Layer conv2_1_1x1_proj/bn
I1214 15:37:37.883883  7500 net.cpp:454] conv2_1_1x1_proj/bn <- conv2_1_1x1_proj
I1214 15:37:37.883898  7500 net.cpp:397] conv2_1_1x1_proj/bn -> conv2_1_1x1_proj (in-place)
I1214 15:37:37.884146  7500 net.cpp:150] Setting up conv2_1_1x1_proj/bn
I1214 15:37:37.884172  7500 net.cpp:157] Top shape: 2 256 119 119 (7250432)
I1214 15:37:37.884181  7500 net.cpp:165] Memory required for data: 555273776
I1214 15:37:37.884203  7500 layer_factory.hpp:77] Creating layer conv2_1
I1214 15:37:37.884219  7500 net.cpp:106] Creating Layer conv2_1
I1214 15:37:37.884228  7500 net.cpp:454] conv2_1 <- conv2_1_1x1_proj
I1214 15:37:37.884239  7500 net.cpp:454] conv2_1 <- conv2_1_1x1_increase
I1214 15:37:37.884253  7500 net.cpp:411] conv2_1 -> conv2_1
I1214 15:37:37.884297  7500 net.cpp:150] Setting up conv2_1
I1214 15:37:37.884313  7500 net.cpp:157] Top shape: 2 256 119 119 (7250432)
I1214 15:37:37.884322  7500 net.cpp:165] Memory required for data: 584275504
I1214 15:37:37.884331  7500 layer_factory.hpp:77] Creating layer conv2_1/relu
I1214 15:37:37.884344  7500 net.cpp:106] Creating Layer conv2_1/relu
I1214 15:37:37.884353  7500 net.cpp:454] conv2_1/relu <- conv2_1
I1214 15:37:37.884366  7500 net.cpp:397] conv2_1/relu -> conv2_1 (in-place)
I1214 15:37:37.884379  7500 net.cpp:150] Setting up conv2_1/relu
I1214 15:37:37.884390  7500 net.cpp:157] Top shape: 2 256 119 119 (7250432)
I1214 15:37:37.884399  7500 net.cpp:165] Memory required for data: 613277232
I1214 15:37:37.884408  7500 layer_factory.hpp:77] Creating layer conv2_1_conv2_1/relu_0_split
I1214 15:37:37.884420  7500 net.cpp:106] Creating Layer conv2_1_conv2_1/relu_0_split
I1214 15:37:37.884430  7500 net.cpp:454] conv2_1_conv2_1/relu_0_split <- conv2_1
I1214 15:37:37.884443  7500 net.cpp:411] conv2_1_conv2_1/relu_0_split -> conv2_1_conv2_1/relu_0_split_0
I1214 15:37:37.884461  7500 net.cpp:411] conv2_1_conv2_1/relu_0_split -> conv2_1_conv2_1/relu_0_split_1
I1214 15:37:37.884516  7500 net.cpp:150] Setting up conv2_1_conv2_1/relu_0_split
I1214 15:37:37.884532  7500 net.cpp:157] Top shape: 2 256 119 119 (7250432)
I1214 15:37:37.884543  7500 net.cpp:157] Top shape: 2 256 119 119 (7250432)
I1214 15:37:37.884552  7500 net.cpp:165] Memory required for data: 671280688
I1214 15:37:37.884562  7500 layer_factory.hpp:77] Creating layer conv2_2_1x1_reduce
I1214 15:37:37.884577  7500 net.cpp:106] Creating Layer conv2_2_1x1_reduce
I1214 15:37:37.884587  7500 net.cpp:454] conv2_2_1x1_reduce <- conv2_1_conv2_1/relu_0_split_0
I1214 15:37:37.884599  7500 net.cpp:411] conv2_2_1x1_reduce -> conv2_2_1x1_reduce
I1214 15:37:37.885809  7500 net.cpp:150] Setting up conv2_2_1x1_reduce
I1214 15:37:37.885829  7500 net.cpp:157] Top shape: 2 64 119 119 (1812608)
I1214 15:37:37.885838  7500 net.cpp:165] Memory required for data: 678531120
I1214 15:37:37.885851  7500 layer_factory.hpp:77] Creating layer conv2_2_1x1_reduce/bn
I1214 15:37:37.885866  7500 net.cpp:106] Creating Layer conv2_2_1x1_reduce/bn
I1214 15:37:37.885875  7500 net.cpp:454] conv2_2_1x1_reduce/bn <- conv2_2_1x1_reduce
I1214 15:37:37.885890  7500 net.cpp:397] conv2_2_1x1_reduce/bn -> conv2_2_1x1_reduce (in-place)
I1214 15:37:37.886149  7500 net.cpp:150] Setting up conv2_2_1x1_reduce/bn
I1214 15:37:37.886167  7500 net.cpp:157] Top shape: 2 64 119 119 (1812608)
I1214 15:37:37.886175  7500 net.cpp:165] Memory required for data: 685781552
I1214 15:37:37.886193  7500 layer_factory.hpp:77] Creating layer conv2_2_1x1_reduce/relu
I1214 15:37:37.886205  7500 net.cpp:106] Creating Layer conv2_2_1x1_reduce/relu
I1214 15:37:37.886214  7500 net.cpp:454] conv2_2_1x1_reduce/relu <- conv2_2_1x1_reduce
I1214 15:37:37.886227  7500 net.cpp:397] conv2_2_1x1_reduce/relu -> conv2_2_1x1_reduce (in-place)
I1214 15:37:37.886240  7500 net.cpp:150] Setting up conv2_2_1x1_reduce/relu
I1214 15:37:37.886251  7500 net.cpp:157] Top shape: 2 64 119 119 (1812608)
I1214 15:37:37.886260  7500 net.cpp:165] Memory required for data: 693031984
I1214 15:37:37.886270  7500 layer_factory.hpp:77] Creating layer conv2_2_3x3
I1214 15:37:37.886283  7500 net.cpp:106] Creating Layer conv2_2_3x3
I1214 15:37:37.886293  7500 net.cpp:454] conv2_2_3x3 <- conv2_2_1x1_reduce
I1214 15:37:37.886307  7500 net.cpp:411] conv2_2_3x3 -> conv2_2_3x3
I1214 15:37:37.888639  7500 net.cpp:150] Setting up conv2_2_3x3
I1214 15:37:37.888659  7500 net.cpp:157] Top shape: 2 64 119 119 (1812608)
I1214 15:37:37.888667  7500 net.cpp:165] Memory required for data: 700282416
I1214 15:37:37.888679  7500 layer_factory.hpp:77] Creating layer conv2_2_3x3/bn
I1214 15:37:37.888695  7500 net.cpp:106] Creating Layer conv2_2_3x3/bn
I1214 15:37:37.888705  7500 net.cpp:454] conv2_2_3x3/bn <- conv2_2_3x3
I1214 15:37:37.888718  7500 net.cpp:397] conv2_2_3x3/bn -> conv2_2_3x3 (in-place)
I1214 15:37:37.888981  7500 net.cpp:150] Setting up conv2_2_3x3/bn
I1214 15:37:37.888998  7500 net.cpp:157] Top shape: 2 64 119 119 (1812608)
I1214 15:37:37.889008  7500 net.cpp:165] Memory required for data: 707532848
I1214 15:37:37.889024  7500 layer_factory.hpp:77] Creating layer conv2_2_3x3/relu
I1214 15:37:37.889036  7500 net.cpp:106] Creating Layer conv2_2_3x3/relu
I1214 15:37:37.889046  7500 net.cpp:454] conv2_2_3x3/relu <- conv2_2_3x3
I1214 15:37:37.889058  7500 net.cpp:397] conv2_2_3x3/relu -> conv2_2_3x3 (in-place)
I1214 15:37:37.889071  7500 net.cpp:150] Setting up conv2_2_3x3/relu
I1214 15:37:37.889083  7500 net.cpp:157] Top shape: 2 64 119 119 (1812608)
I1214 15:37:37.889092  7500 net.cpp:165] Memory required for data: 714783280
I1214 15:37:37.889101  7500 layer_factory.hpp:77] Creating layer conv2_2_1x1_increase
I1214 15:37:37.889116  7500 net.cpp:106] Creating Layer conv2_2_1x1_increase
I1214 15:37:37.889124  7500 net.cpp:454] conv2_2_1x1_increase <- conv2_2_3x3
I1214 15:37:37.889137  7500 net.cpp:411] conv2_2_1x1_increase -> conv2_2_1x1_increase
I1214 15:37:37.890295  7500 net.cpp:150] Setting up conv2_2_1x1_increase
I1214 15:37:37.890317  7500 net.cpp:157] Top shape: 2 256 119 119 (7250432)
I1214 15:37:37.890336  7500 net.cpp:165] Memory required for data: 743785008
I1214 15:37:37.890348  7500 layer_factory.hpp:77] Creating layer conv2_2_1x1_increase/bn
I1214 15:37:37.890365  7500 net.cpp:106] Creating Layer conv2_2_1x1_increase/bn
I1214 15:37:37.890375  7500 net.cpp:454] conv2_2_1x1_increase/bn <- conv2_2_1x1_increase
I1214 15:37:37.890389  7500 net.cpp:397] conv2_2_1x1_increase/bn -> conv2_2_1x1_increase (in-place)
I1214 15:37:37.890633  7500 net.cpp:150] Setting up conv2_2_1x1_increase/bn
I1214 15:37:37.890650  7500 net.cpp:157] Top shape: 2 256 119 119 (7250432)
I1214 15:37:37.890660  7500 net.cpp:165] Memory required for data: 772786736
I1214 15:37:37.890676  7500 layer_factory.hpp:77] Creating layer conv2_2
I1214 15:37:37.890689  7500 net.cpp:106] Creating Layer conv2_2
I1214 15:37:37.890699  7500 net.cpp:454] conv2_2 <- conv2_1_conv2_1/relu_0_split_1
I1214 15:37:37.890709  7500 net.cpp:454] conv2_2 <- conv2_2_1x1_increase
I1214 15:37:37.890722  7500 net.cpp:411] conv2_2 -> conv2_2
I1214 15:37:37.890756  7500 net.cpp:150] Setting up conv2_2
I1214 15:37:37.890771  7500 net.cpp:157] Top shape: 2 256 119 119 (7250432)
I1214 15:37:37.890779  7500 net.cpp:165] Memory required for data: 801788464
I1214 15:37:37.890789  7500 layer_factory.hpp:77] Creating layer conv2_2/relu
I1214 15:37:37.890800  7500 net.cpp:106] Creating Layer conv2_2/relu
I1214 15:37:37.890810  7500 net.cpp:454] conv2_2/relu <- conv2_2
I1214 15:37:37.890821  7500 net.cpp:397] conv2_2/relu -> conv2_2 (in-place)
I1214 15:37:37.890833  7500 net.cpp:150] Setting up conv2_2/relu
I1214 15:37:37.890846  7500 net.cpp:157] Top shape: 2 256 119 119 (7250432)
I1214 15:37:37.890853  7500 net.cpp:165] Memory required for data: 830790192
I1214 15:37:37.890862  7500 layer_factory.hpp:77] Creating layer conv2_2_conv2_2/relu_0_split
I1214 15:37:37.890874  7500 net.cpp:106] Creating Layer conv2_2_conv2_2/relu_0_split
I1214 15:37:37.890883  7500 net.cpp:454] conv2_2_conv2_2/relu_0_split <- conv2_2
I1214 15:37:37.890894  7500 net.cpp:411] conv2_2_conv2_2/relu_0_split -> conv2_2_conv2_2/relu_0_split_0
I1214 15:37:37.890908  7500 net.cpp:411] conv2_2_conv2_2/relu_0_split -> conv2_2_conv2_2/relu_0_split_1
I1214 15:37:37.890954  7500 net.cpp:150] Setting up conv2_2_conv2_2/relu_0_split
I1214 15:37:37.890967  7500 net.cpp:157] Top shape: 2 256 119 119 (7250432)
I1214 15:37:37.890979  7500 net.cpp:157] Top shape: 2 256 119 119 (7250432)
I1214 15:37:37.890987  7500 net.cpp:165] Memory required for data: 888793648
I1214 15:37:37.890996  7500 layer_factory.hpp:77] Creating layer conv2_3_1x1_reduce
I1214 15:37:37.891014  7500 net.cpp:106] Creating Layer conv2_3_1x1_reduce
I1214 15:37:37.891026  7500 net.cpp:454] conv2_3_1x1_reduce <- conv2_2_conv2_2/relu_0_split_0
I1214 15:37:37.891041  7500 net.cpp:411] conv2_3_1x1_reduce -> conv2_3_1x1_reduce
I1214 15:37:37.892213  7500 net.cpp:150] Setting up conv2_3_1x1_reduce
I1214 15:37:37.892232  7500 net.cpp:157] Top shape: 2 64 119 119 (1812608)
I1214 15:37:37.892241  7500 net.cpp:165] Memory required for data: 896044080
I1214 15:37:37.892253  7500 layer_factory.hpp:77] Creating layer conv2_3_1x1_reduce/bn
I1214 15:37:37.892267  7500 net.cpp:106] Creating Layer conv2_3_1x1_reduce/bn
I1214 15:37:37.892277  7500 net.cpp:454] conv2_3_1x1_reduce/bn <- conv2_3_1x1_reduce
I1214 15:37:37.892292  7500 net.cpp:397] conv2_3_1x1_reduce/bn -> conv2_3_1x1_reduce (in-place)
I1214 15:37:37.892562  7500 net.cpp:150] Setting up conv2_3_1x1_reduce/bn
I1214 15:37:37.892578  7500 net.cpp:157] Top shape: 2 64 119 119 (1812608)
I1214 15:37:37.892588  7500 net.cpp:165] Memory required for data: 903294512
I1214 15:37:37.892604  7500 layer_factory.hpp:77] Creating layer conv2_3_1x1_reduce/relu
I1214 15:37:37.892617  7500 net.cpp:106] Creating Layer conv2_3_1x1_reduce/relu
I1214 15:37:37.892627  7500 net.cpp:454] conv2_3_1x1_reduce/relu <- conv2_3_1x1_reduce
I1214 15:37:37.892637  7500 net.cpp:397] conv2_3_1x1_reduce/relu -> conv2_3_1x1_reduce (in-place)
I1214 15:37:37.892655  7500 net.cpp:150] Setting up conv2_3_1x1_reduce/relu
I1214 15:37:37.892675  7500 net.cpp:157] Top shape: 2 64 119 119 (1812608)
I1214 15:37:37.892684  7500 net.cpp:165] Memory required for data: 910544944
I1214 15:37:37.892693  7500 layer_factory.hpp:77] Creating layer conv2_3_3x3
I1214 15:37:37.892712  7500 net.cpp:106] Creating Layer conv2_3_3x3
I1214 15:37:37.892722  7500 net.cpp:454] conv2_3_3x3 <- conv2_3_1x1_reduce
I1214 15:37:37.892737  7500 net.cpp:411] conv2_3_3x3 -> conv2_3_3x3
I1214 15:37:37.895179  7500 net.cpp:150] Setting up conv2_3_3x3
I1214 15:37:37.895197  7500 net.cpp:157] Top shape: 2 64 119 119 (1812608)
I1214 15:37:37.895206  7500 net.cpp:165] Memory required for data: 917795376
I1214 15:37:37.895218  7500 layer_factory.hpp:77] Creating layer conv2_3_3x3/bn
I1214 15:37:37.895232  7500 net.cpp:106] Creating Layer conv2_3_3x3/bn
I1214 15:37:37.895241  7500 net.cpp:454] conv2_3_3x3/bn <- conv2_3_3x3
I1214 15:37:37.895256  7500 net.cpp:397] conv2_3_3x3/bn -> conv2_3_3x3 (in-place)
I1214 15:37:37.895536  7500 net.cpp:150] Setting up conv2_3_3x3/bn
I1214 15:37:37.895553  7500 net.cpp:157] Top shape: 2 64 119 119 (1812608)
I1214 15:37:37.895562  7500 net.cpp:165] Memory required for data: 925045808
I1214 15:37:37.895578  7500 layer_factory.hpp:77] Creating layer conv2_3_3x3/relu
I1214 15:37:37.895591  7500 net.cpp:106] Creating Layer conv2_3_3x3/relu
I1214 15:37:37.895599  7500 net.cpp:454] conv2_3_3x3/relu <- conv2_3_3x3
I1214 15:37:37.895611  7500 net.cpp:397] conv2_3_3x3/relu -> conv2_3_3x3 (in-place)
I1214 15:37:37.895623  7500 net.cpp:150] Setting up conv2_3_3x3/relu
I1214 15:37:37.895635  7500 net.cpp:157] Top shape: 2 64 119 119 (1812608)
I1214 15:37:37.895643  7500 net.cpp:165] Memory required for data: 932296240
I1214 15:37:37.895653  7500 layer_factory.hpp:77] Creating layer conv2_3_1x1_increase
I1214 15:37:37.895669  7500 net.cpp:106] Creating Layer conv2_3_1x1_increase
I1214 15:37:37.895679  7500 net.cpp:454] conv2_3_1x1_increase <- conv2_3_3x3
I1214 15:37:37.895694  7500 net.cpp:411] conv2_3_1x1_increase -> conv2_3_1x1_increase
I1214 15:37:37.896886  7500 net.cpp:150] Setting up conv2_3_1x1_increase
I1214 15:37:37.896905  7500 net.cpp:157] Top shape: 2 256 119 119 (7250432)
I1214 15:37:37.896914  7500 net.cpp:165] Memory required for data: 961297968
I1214 15:37:37.896926  7500 layer_factory.hpp:77] Creating layer conv2_3_1x1_increase/bn
I1214 15:37:37.896939  7500 net.cpp:106] Creating Layer conv2_3_1x1_increase/bn
I1214 15:37:37.896950  7500 net.cpp:454] conv2_3_1x1_increase/bn <- conv2_3_1x1_increase
I1214 15:37:37.896965  7500 net.cpp:397] conv2_3_1x1_increase/bn -> conv2_3_1x1_increase (in-place)
I1214 15:37:37.897222  7500 net.cpp:150] Setting up conv2_3_1x1_increase/bn
I1214 15:37:37.897240  7500 net.cpp:157] Top shape: 2 256 119 119 (7250432)
I1214 15:37:37.897249  7500 net.cpp:165] Memory required for data: 990299696
I1214 15:37:37.897274  7500 layer_factory.hpp:77] Creating layer conv2_3
I1214 15:37:37.897291  7500 net.cpp:106] Creating Layer conv2_3
I1214 15:37:37.897301  7500 net.cpp:454] conv2_3 <- conv2_2_conv2_2/relu_0_split_1
I1214 15:37:37.897312  7500 net.cpp:454] conv2_3 <- conv2_3_1x1_increase
I1214 15:37:37.897327  7500 net.cpp:411] conv2_3 -> conv2_3
I1214 15:37:37.897362  7500 net.cpp:150] Setting up conv2_3
I1214 15:37:37.897377  7500 net.cpp:157] Top shape: 2 256 119 119 (7250432)
I1214 15:37:37.897385  7500 net.cpp:165] Memory required for data: 1019301424
I1214 15:37:37.897394  7500 layer_factory.hpp:77] Creating layer conv2_3/relu
I1214 15:37:37.897405  7500 net.cpp:106] Creating Layer conv2_3/relu
I1214 15:37:37.897414  7500 net.cpp:454] conv2_3/relu <- conv2_3
I1214 15:37:37.897428  7500 net.cpp:397] conv2_3/relu -> conv2_3 (in-place)
I1214 15:37:37.897442  7500 net.cpp:150] Setting up conv2_3/relu
I1214 15:37:37.897454  7500 net.cpp:157] Top shape: 2 256 119 119 (7250432)
I1214 15:37:37.897462  7500 net.cpp:165] Memory required for data: 1048303152
I1214 15:37:37.897471  7500 layer_factory.hpp:77] Creating layer conv2_3_conv2_3/relu_0_split
I1214 15:37:37.897490  7500 net.cpp:106] Creating Layer conv2_3_conv2_3/relu_0_split
I1214 15:37:37.897507  7500 net.cpp:454] conv2_3_conv2_3/relu_0_split <- conv2_3
I1214 15:37:37.897521  7500 net.cpp:411] conv2_3_conv2_3/relu_0_split -> conv2_3_conv2_3/relu_0_split_0
I1214 15:37:37.897533  7500 net.cpp:411] conv2_3_conv2_3/relu_0_split -> conv2_3_conv2_3/relu_0_split_1
I1214 15:37:37.897581  7500 net.cpp:150] Setting up conv2_3_conv2_3/relu_0_split
I1214 15:37:37.897601  7500 net.cpp:157] Top shape: 2 256 119 119 (7250432)
I1214 15:37:37.897613  7500 net.cpp:157] Top shape: 2 256 119 119 (7250432)
I1214 15:37:37.897621  7500 net.cpp:165] Memory required for data: 1106306608
I1214 15:37:37.897630  7500 layer_factory.hpp:77] Creating layer conv3_1_1x1_reduce
I1214 15:37:37.897644  7500 net.cpp:106] Creating Layer conv3_1_1x1_reduce
I1214 15:37:37.897655  7500 net.cpp:454] conv3_1_1x1_reduce <- conv2_3_conv2_3/relu_0_split_0
I1214 15:37:37.897675  7500 net.cpp:411] conv3_1_1x1_reduce -> conv3_1_1x1_reduce
I1214 15:37:37.899859  7500 net.cpp:150] Setting up conv3_1_1x1_reduce
I1214 15:37:37.899878  7500 net.cpp:157] Top shape: 2 128 119 119 (3625216)
I1214 15:37:37.899886  7500 net.cpp:165] Memory required for data: 1120807472
I1214 15:37:37.899899  7500 layer_factory.hpp:77] Creating layer conv3_1_1x1_reduce/bn
I1214 15:37:37.899911  7500 net.cpp:106] Creating Layer conv3_1_1x1_reduce/bn
I1214 15:37:37.899921  7500 net.cpp:454] conv3_1_1x1_reduce/bn <- conv3_1_1x1_reduce
I1214 15:37:37.899933  7500 net.cpp:397] conv3_1_1x1_reduce/bn -> conv3_1_1x1_reduce (in-place)
I1214 15:37:37.900207  7500 net.cpp:150] Setting up conv3_1_1x1_reduce/bn
I1214 15:37:37.900224  7500 net.cpp:157] Top shape: 2 128 119 119 (3625216)
I1214 15:37:37.900233  7500 net.cpp:165] Memory required for data: 1135308336
I1214 15:37:37.900250  7500 layer_factory.hpp:77] Creating layer conv3_1_1x1_reduce/relu
I1214 15:37:37.900262  7500 net.cpp:106] Creating Layer conv3_1_1x1_reduce/relu
I1214 15:37:37.900271  7500 net.cpp:454] conv3_1_1x1_reduce/relu <- conv3_1_1x1_reduce
I1214 15:37:37.900285  7500 net.cpp:397] conv3_1_1x1_reduce/relu -> conv3_1_1x1_reduce (in-place)
I1214 15:37:37.900300  7500 net.cpp:150] Setting up conv3_1_1x1_reduce/relu
I1214 15:37:37.900311  7500 net.cpp:157] Top shape: 2 128 119 119 (3625216)
I1214 15:37:37.900321  7500 net.cpp:165] Memory required for data: 1149809200
I1214 15:37:37.900329  7500 layer_factory.hpp:77] Creating layer conv3_1_3x3
I1214 15:37:37.900346  7500 net.cpp:106] Creating Layer conv3_1_3x3
I1214 15:37:37.900357  7500 net.cpp:454] conv3_1_3x3 <- conv3_1_1x1_reduce
I1214 15:37:37.900368  7500 net.cpp:411] conv3_1_3x3 -> conv3_1_3x3
I1214 15:37:37.909273  7500 net.cpp:150] Setting up conv3_1_3x3
I1214 15:37:37.909294  7500 net.cpp:157] Top shape: 2 128 60 60 (921600)
I1214 15:37:37.909304  7500 net.cpp:165] Memory required for data: 1153495600
I1214 15:37:37.909317  7500 layer_factory.hpp:77] Creating layer conv3_1_3x3/bn
I1214 15:37:37.909334  7500 net.cpp:106] Creating Layer conv3_1_3x3/bn
I1214 15:37:37.909345  7500 net.cpp:454] conv3_1_3x3/bn <- conv3_1_3x3
I1214 15:37:37.909358  7500 net.cpp:397] conv3_1_3x3/bn -> conv3_1_3x3 (in-place)
I1214 15:37:37.909605  7500 net.cpp:150] Setting up conv3_1_3x3/bn
I1214 15:37:37.909623  7500 net.cpp:157] Top shape: 2 128 60 60 (921600)
I1214 15:37:37.909632  7500 net.cpp:165] Memory required for data: 1157182000
I1214 15:37:37.909649  7500 layer_factory.hpp:77] Creating layer conv3_1_3x3/relu
I1214 15:37:37.909662  7500 net.cpp:106] Creating Layer conv3_1_3x3/relu
I1214 15:37:37.909670  7500 net.cpp:454] conv3_1_3x3/relu <- conv3_1_3x3
I1214 15:37:37.909682  7500 net.cpp:397] conv3_1_3x3/relu -> conv3_1_3x3 (in-place)
I1214 15:37:37.909694  7500 net.cpp:150] Setting up conv3_1_3x3/relu
I1214 15:37:37.909706  7500 net.cpp:157] Top shape: 2 128 60 60 (921600)
I1214 15:37:37.909714  7500 net.cpp:165] Memory required for data: 1160868400
I1214 15:37:37.909723  7500 layer_factory.hpp:77] Creating layer conv3_1_1x1_increase
I1214 15:37:37.909740  7500 net.cpp:106] Creating Layer conv3_1_1x1_increase
I1214 15:37:37.909755  7500 net.cpp:454] conv3_1_1x1_increase <- conv3_1_3x3
I1214 15:37:37.909776  7500 net.cpp:411] conv3_1_1x1_increase -> conv3_1_1x1_increase
I1214 15:37:37.913786  7500 net.cpp:150] Setting up conv3_1_1x1_increase
I1214 15:37:37.913805  7500 net.cpp:157] Top shape: 2 512 60 60 (3686400)
I1214 15:37:37.913815  7500 net.cpp:165] Memory required for data: 1175614000
I1214 15:37:37.913826  7500 layer_factory.hpp:77] Creating layer conv3_1_1x1_increase/bn
I1214 15:37:37.913839  7500 net.cpp:106] Creating Layer conv3_1_1x1_increase/bn
I1214 15:37:37.913849  7500 net.cpp:454] conv3_1_1x1_increase/bn <- conv3_1_1x1_increase
I1214 15:37:37.913861  7500 net.cpp:397] conv3_1_1x1_increase/bn -> conv3_1_1x1_increase (in-place)
I1214 15:37:37.914794  7500 net.cpp:150] Setting up conv3_1_1x1_increase/bn
I1214 15:37:37.914818  7500 net.cpp:157] Top shape: 2 512 60 60 (3686400)
I1214 15:37:37.914827  7500 net.cpp:165] Memory required for data: 1190359600
I1214 15:37:37.914845  7500 layer_factory.hpp:77] Creating layer conv3_1_1x1_proj
I1214 15:37:37.914863  7500 net.cpp:106] Creating Layer conv3_1_1x1_proj
I1214 15:37:37.914875  7500 net.cpp:454] conv3_1_1x1_proj <- conv2_3_conv2_3/relu_0_split_1
I1214 15:37:37.914886  7500 net.cpp:411] conv3_1_1x1_proj -> conv3_1_1x1_proj
I1214 15:37:37.923390  7500 net.cpp:150] Setting up conv3_1_1x1_proj
I1214 15:37:37.923411  7500 net.cpp:157] Top shape: 2 512 60 60 (3686400)
I1214 15:37:37.923420  7500 net.cpp:165] Memory required for data: 1205105200
I1214 15:37:37.923434  7500 layer_factory.hpp:77] Creating layer conv3_1_1x1_proj/bn
I1214 15:37:37.923447  7500 net.cpp:106] Creating Layer conv3_1_1x1_proj/bn
I1214 15:37:37.923457  7500 net.cpp:454] conv3_1_1x1_proj/bn <- conv3_1_1x1_proj
I1214 15:37:37.923472  7500 net.cpp:397] conv3_1_1x1_proj/bn -> conv3_1_1x1_proj (in-place)
I1214 15:37:37.923732  7500 net.cpp:150] Setting up conv3_1_1x1_proj/bn
I1214 15:37:37.923748  7500 net.cpp:157] Top shape: 2 512 60 60 (3686400)
I1214 15:37:37.923758  7500 net.cpp:165] Memory required for data: 1219850800
I1214 15:37:37.923774  7500 layer_factory.hpp:77] Creating layer conv3_1
I1214 15:37:37.923790  7500 net.cpp:106] Creating Layer conv3_1
I1214 15:37:37.923800  7500 net.cpp:454] conv3_1 <- conv3_1_1x1_proj
I1214 15:37:37.923811  7500 net.cpp:454] conv3_1 <- conv3_1_1x1_increase
I1214 15:37:37.923823  7500 net.cpp:411] conv3_1 -> conv3_1
I1214 15:37:37.923859  7500 net.cpp:150] Setting up conv3_1
I1214 15:37:37.923876  7500 net.cpp:157] Top shape: 2 512 60 60 (3686400)
I1214 15:37:37.923884  7500 net.cpp:165] Memory required for data: 1234596400
I1214 15:37:37.923893  7500 layer_factory.hpp:77] Creating layer conv3_1/relu
I1214 15:37:37.923907  7500 net.cpp:106] Creating Layer conv3_1/relu
I1214 15:37:37.923918  7500 net.cpp:454] conv3_1/relu <- conv3_1
I1214 15:37:37.923929  7500 net.cpp:397] conv3_1/relu -> conv3_1 (in-place)
I1214 15:37:37.923945  7500 net.cpp:150] Setting up conv3_1/relu
I1214 15:37:37.923957  7500 net.cpp:157] Top shape: 2 512 60 60 (3686400)
I1214 15:37:37.923965  7500 net.cpp:165] Memory required for data: 1249342000
I1214 15:37:37.923974  7500 layer_factory.hpp:77] Creating layer conv3_1_conv3_1/relu_0_split
I1214 15:37:37.923985  7500 net.cpp:106] Creating Layer conv3_1_conv3_1/relu_0_split
I1214 15:37:37.923995  7500 net.cpp:454] conv3_1_conv3_1/relu_0_split <- conv3_1
I1214 15:37:37.924006  7500 net.cpp:411] conv3_1_conv3_1/relu_0_split -> conv3_1_conv3_1/relu_0_split_0
I1214 15:37:37.924020  7500 net.cpp:411] conv3_1_conv3_1/relu_0_split -> conv3_1_conv3_1/relu_0_split_1
I1214 15:37:37.924072  7500 net.cpp:150] Setting up conv3_1_conv3_1/relu_0_split
I1214 15:37:37.924088  7500 net.cpp:157] Top shape: 2 512 60 60 (3686400)
I1214 15:37:37.924098  7500 net.cpp:157] Top shape: 2 512 60 60 (3686400)
I1214 15:37:37.924106  7500 net.cpp:165] Memory required for data: 1278833200
I1214 15:37:37.924115  7500 layer_factory.hpp:77] Creating layer conv3_2_1x1_reduce
I1214 15:37:37.924132  7500 net.cpp:106] Creating Layer conv3_2_1x1_reduce
I1214 15:37:37.924147  7500 net.cpp:454] conv3_2_1x1_reduce <- conv3_1_conv3_1/relu_0_split_0
I1214 15:37:37.924190  7500 net.cpp:411] conv3_2_1x1_reduce -> conv3_2_1x1_reduce
I1214 15:37:37.928830  7500 net.cpp:150] Setting up conv3_2_1x1_reduce
I1214 15:37:37.928851  7500 net.cpp:157] Top shape: 2 128 60 60 (921600)
I1214 15:37:37.928860  7500 net.cpp:165] Memory required for data: 1282519600
I1214 15:37:37.928874  7500 layer_factory.hpp:77] Creating layer conv3_2_1x1_reduce/bn
I1214 15:37:37.928890  7500 net.cpp:106] Creating Layer conv3_2_1x1_reduce/bn
I1214 15:37:37.928900  7500 net.cpp:454] conv3_2_1x1_reduce/bn <- conv3_2_1x1_reduce
I1214 15:37:37.928913  7500 net.cpp:397] conv3_2_1x1_reduce/bn -> conv3_2_1x1_reduce (in-place)
I1214 15:37:37.929169  7500 net.cpp:150] Setting up conv3_2_1x1_reduce/bn
I1214 15:37:37.929185  7500 net.cpp:157] Top shape: 2 128 60 60 (921600)
I1214 15:37:37.929195  7500 net.cpp:165] Memory required for data: 1286206000
I1214 15:37:37.929211  7500 layer_factory.hpp:77] Creating layer conv3_2_1x1_reduce/relu
I1214 15:37:37.929224  7500 net.cpp:106] Creating Layer conv3_2_1x1_reduce/relu
I1214 15:37:37.929234  7500 net.cpp:454] conv3_2_1x1_reduce/relu <- conv3_2_1x1_reduce
I1214 15:37:37.929244  7500 net.cpp:397] conv3_2_1x1_reduce/relu -> conv3_2_1x1_reduce (in-place)
I1214 15:37:37.929257  7500 net.cpp:150] Setting up conv3_2_1x1_reduce/relu
I1214 15:37:37.929270  7500 net.cpp:157] Top shape: 2 128 60 60 (921600)
I1214 15:37:37.929277  7500 net.cpp:165] Memory required for data: 1289892400
I1214 15:37:37.929286  7500 layer_factory.hpp:77] Creating layer conv3_2_3x3
I1214 15:37:37.929303  7500 net.cpp:106] Creating Layer conv3_2_3x3
I1214 15:37:37.929313  7500 net.cpp:454] conv3_2_3x3 <- conv3_2_1x1_reduce
I1214 15:37:37.929327  7500 net.cpp:411] conv3_2_3x3 -> conv3_2_3x3
I1214 15:37:37.938653  7500 net.cpp:150] Setting up conv3_2_3x3
I1214 15:37:37.938676  7500 net.cpp:157] Top shape: 2 128 60 60 (921600)
I1214 15:37:37.938685  7500 net.cpp:165] Memory required for data: 1293578800
I1214 15:37:37.938699  7500 layer_factory.hpp:77] Creating layer conv3_2_3x3/bn
I1214 15:37:37.938719  7500 net.cpp:106] Creating Layer conv3_2_3x3/bn
I1214 15:37:37.938730  7500 net.cpp:454] conv3_2_3x3/bn <- conv3_2_3x3
I1214 15:37:37.938743  7500 net.cpp:397] conv3_2_3x3/bn -> conv3_2_3x3 (in-place)
I1214 15:37:37.939004  7500 net.cpp:150] Setting up conv3_2_3x3/bn
I1214 15:37:37.939020  7500 net.cpp:157] Top shape: 2 128 60 60 (921600)
I1214 15:37:37.939030  7500 net.cpp:165] Memory required for data: 1297265200
I1214 15:37:37.939048  7500 layer_factory.hpp:77] Creating layer conv3_2_3x3/relu
I1214 15:37:37.939060  7500 net.cpp:106] Creating Layer conv3_2_3x3/relu
I1214 15:37:37.939069  7500 net.cpp:454] conv3_2_3x3/relu <- conv3_2_3x3
I1214 15:37:37.939086  7500 net.cpp:397] conv3_2_3x3/relu -> conv3_2_3x3 (in-place)
I1214 15:37:37.939100  7500 net.cpp:150] Setting up conv3_2_3x3/relu
I1214 15:37:37.939111  7500 net.cpp:157] Top shape: 2 128 60 60 (921600)
I1214 15:37:37.939121  7500 net.cpp:165] Memory required for data: 1300951600
I1214 15:37:37.939129  7500 layer_factory.hpp:77] Creating layer conv3_2_1x1_increase
I1214 15:37:37.939146  7500 net.cpp:106] Creating Layer conv3_2_1x1_increase
I1214 15:37:37.939157  7500 net.cpp:454] conv3_2_1x1_increase <- conv3_2_3x3
I1214 15:37:37.939168  7500 net.cpp:411] conv3_2_1x1_increase -> conv3_2_1x1_increase
I1214 15:37:37.943176  7500 net.cpp:150] Setting up conv3_2_1x1_increase
I1214 15:37:37.943195  7500 net.cpp:157] Top shape: 2 512 60 60 (3686400)
I1214 15:37:37.943204  7500 net.cpp:165] Memory required for data: 1315697200
I1214 15:37:37.943215  7500 layer_factory.hpp:77] Creating layer conv3_2_1x1_increase/bn
I1214 15:37:37.943233  7500 net.cpp:106] Creating Layer conv3_2_1x1_increase/bn
I1214 15:37:37.943243  7500 net.cpp:454] conv3_2_1x1_increase/bn <- conv3_2_1x1_increase
I1214 15:37:37.943255  7500 net.cpp:397] conv3_2_1x1_increase/bn -> conv3_2_1x1_increase (in-place)
I1214 15:37:37.943521  7500 net.cpp:150] Setting up conv3_2_1x1_increase/bn
I1214 15:37:37.943544  7500 net.cpp:157] Top shape: 2 512 60 60 (3686400)
I1214 15:37:37.943562  7500 net.cpp:165] Memory required for data: 1330442800
I1214 15:37:37.943579  7500 layer_factory.hpp:77] Creating layer conv3_2
I1214 15:37:37.943593  7500 net.cpp:106] Creating Layer conv3_2
I1214 15:37:37.943603  7500 net.cpp:454] conv3_2 <- conv3_1_conv3_1/relu_0_split_1
I1214 15:37:37.943614  7500 net.cpp:454] conv3_2 <- conv3_2_1x1_increase
I1214 15:37:37.943625  7500 net.cpp:411] conv3_2 -> conv3_2
I1214 15:37:37.943660  7500 net.cpp:150] Setting up conv3_2
I1214 15:37:37.943675  7500 net.cpp:157] Top shape: 2 512 60 60 (3686400)
I1214 15:37:37.943684  7500 net.cpp:165] Memory required for data: 1345188400
I1214 15:37:37.943692  7500 layer_factory.hpp:77] Creating layer conv3_2/relu
I1214 15:37:37.943706  7500 net.cpp:106] Creating Layer conv3_2/relu
I1214 15:37:37.943717  7500 net.cpp:454] conv3_2/relu <- conv3_2
I1214 15:37:37.943732  7500 net.cpp:397] conv3_2/relu -> conv3_2 (in-place)
I1214 15:37:37.943745  7500 net.cpp:150] Setting up conv3_2/relu
I1214 15:37:37.943758  7500 net.cpp:157] Top shape: 2 512 60 60 (3686400)
I1214 15:37:37.943765  7500 net.cpp:165] Memory required for data: 1359934000
I1214 15:37:37.943774  7500 layer_factory.hpp:77] Creating layer conv3_2_conv3_2/relu_0_split
I1214 15:37:37.943785  7500 net.cpp:106] Creating Layer conv3_2_conv3_2/relu_0_split
I1214 15:37:37.943794  7500 net.cpp:454] conv3_2_conv3_2/relu_0_split <- conv3_2
I1214 15:37:37.943809  7500 net.cpp:411] conv3_2_conv3_2/relu_0_split -> conv3_2_conv3_2/relu_0_split_0
I1214 15:37:37.943823  7500 net.cpp:411] conv3_2_conv3_2/relu_0_split -> conv3_2_conv3_2/relu_0_split_1
I1214 15:37:37.943873  7500 net.cpp:150] Setting up conv3_2_conv3_2/relu_0_split
I1214 15:37:37.943888  7500 net.cpp:157] Top shape: 2 512 60 60 (3686400)
I1214 15:37:37.943899  7500 net.cpp:157] Top shape: 2 512 60 60 (3686400)
I1214 15:37:37.943908  7500 net.cpp:165] Memory required for data: 1389425200
I1214 15:37:37.943917  7500 layer_factory.hpp:77] Creating layer conv3_3_1x1_reduce
I1214 15:37:37.943934  7500 net.cpp:106] Creating Layer conv3_3_1x1_reduce
I1214 15:37:37.943944  7500 net.cpp:454] conv3_3_1x1_reduce <- conv3_2_conv3_2/relu_0_split_0
I1214 15:37:37.943959  7500 net.cpp:411] conv3_3_1x1_reduce -> conv3_3_1x1_reduce
I1214 15:37:37.947964  7500 net.cpp:150] Setting up conv3_3_1x1_reduce
I1214 15:37:37.947983  7500 net.cpp:157] Top shape: 2 128 60 60 (921600)
I1214 15:37:37.947993  7500 net.cpp:165] Memory required for data: 1393111600
I1214 15:37:37.948005  7500 layer_factory.hpp:77] Creating layer conv3_3_1x1_reduce/bn
I1214 15:37:37.948019  7500 net.cpp:106] Creating Layer conv3_3_1x1_reduce/bn
I1214 15:37:37.948029  7500 net.cpp:454] conv3_3_1x1_reduce/bn <- conv3_3_1x1_reduce
I1214 15:37:37.948045  7500 net.cpp:397] conv3_3_1x1_reduce/bn -> conv3_3_1x1_reduce (in-place)
I1214 15:37:37.948314  7500 net.cpp:150] Setting up conv3_3_1x1_reduce/bn
I1214 15:37:37.948331  7500 net.cpp:157] Top shape: 2 128 60 60 (921600)
I1214 15:37:37.948340  7500 net.cpp:165] Memory required for data: 1396798000
I1214 15:37:37.948357  7500 layer_factory.hpp:77] Creating layer conv3_3_1x1_reduce/relu
I1214 15:37:37.948372  7500 net.cpp:106] Creating Layer conv3_3_1x1_reduce/relu
I1214 15:37:37.948382  7500 net.cpp:454] conv3_3_1x1_reduce/relu <- conv3_3_1x1_reduce
I1214 15:37:37.948395  7500 net.cpp:397] conv3_3_1x1_reduce/relu -> conv3_3_1x1_reduce (in-place)
I1214 15:37:37.948407  7500 net.cpp:150] Setting up conv3_3_1x1_reduce/relu
I1214 15:37:37.948420  7500 net.cpp:157] Top shape: 2 128 60 60 (921600)
I1214 15:37:37.948427  7500 net.cpp:165] Memory required for data: 1400484400
I1214 15:37:37.948436  7500 layer_factory.hpp:77] Creating layer conv3_3_3x3
I1214 15:37:37.948451  7500 net.cpp:106] Creating Layer conv3_3_3x3
I1214 15:37:37.948459  7500 net.cpp:454] conv3_3_3x3 <- conv3_3_1x1_reduce
I1214 15:37:37.948475  7500 net.cpp:411] conv3_3_3x3 -> conv3_3_3x3
I1214 15:37:37.957868  7500 net.cpp:150] Setting up conv3_3_3x3
I1214 15:37:37.957888  7500 net.cpp:157] Top shape: 2 128 60 60 (921600)
I1214 15:37:37.957903  7500 net.cpp:165] Memory required for data: 1404170800
I1214 15:37:37.957924  7500 layer_factory.hpp:77] Creating layer conv3_3_3x3/bn
I1214 15:37:37.957938  7500 net.cpp:106] Creating Layer conv3_3_3x3/bn
I1214 15:37:37.957949  7500 net.cpp:454] conv3_3_3x3/bn <- conv3_3_3x3
I1214 15:37:37.957964  7500 net.cpp:397] conv3_3_3x3/bn -> conv3_3_3x3 (in-place)
I1214 15:37:37.958235  7500 net.cpp:150] Setting up conv3_3_3x3/bn
I1214 15:37:37.958251  7500 net.cpp:157] Top shape: 2 128 60 60 (921600)
I1214 15:37:37.958261  7500 net.cpp:165] Memory required for data: 1407857200
I1214 15:37:37.958277  7500 layer_factory.hpp:77] Creating layer conv3_3_3x3/relu
I1214 15:37:37.958292  7500 net.cpp:106] Creating Layer conv3_3_3x3/relu
I1214 15:37:37.958302  7500 net.cpp:454] conv3_3_3x3/relu <- conv3_3_3x3
I1214 15:37:37.958313  7500 net.cpp:397] conv3_3_3x3/relu -> conv3_3_3x3 (in-place)
I1214 15:37:37.958326  7500 net.cpp:150] Setting up conv3_3_3x3/relu
I1214 15:37:37.958338  7500 net.cpp:157] Top shape: 2 128 60 60 (921600)
I1214 15:37:37.958348  7500 net.cpp:165] Memory required for data: 1411543600
I1214 15:37:37.958356  7500 layer_factory.hpp:77] Creating layer conv3_3_1x1_increase
I1214 15:37:37.958370  7500 net.cpp:106] Creating Layer conv3_3_1x1_increase
I1214 15:37:37.958379  7500 net.cpp:454] conv3_3_1x1_increase <- conv3_3_3x3
I1214 15:37:37.958398  7500 net.cpp:411] conv3_3_1x1_increase -> conv3_3_1x1_increase
I1214 15:37:37.962477  7500 net.cpp:150] Setting up conv3_3_1x1_increase
I1214 15:37:37.962496  7500 net.cpp:157] Top shape: 2 512 60 60 (3686400)
I1214 15:37:37.962505  7500 net.cpp:165] Memory required for data: 1426289200
I1214 15:37:37.962517  7500 layer_factory.hpp:77] Creating layer conv3_3_1x1_increase/bn
I1214 15:37:37.962534  7500 net.cpp:106] Creating Layer conv3_3_1x1_increase/bn
I1214 15:37:37.962544  7500 net.cpp:454] conv3_3_1x1_increase/bn <- conv3_3_1x1_increase
I1214 15:37:37.962558  7500 net.cpp:397] conv3_3_1x1_increase/bn -> conv3_3_1x1_increase (in-place)
I1214 15:37:37.962821  7500 net.cpp:150] Setting up conv3_3_1x1_increase/bn
I1214 15:37:37.962838  7500 net.cpp:157] Top shape: 2 512 60 60 (3686400)
I1214 15:37:37.962847  7500 net.cpp:165] Memory required for data: 1441034800
I1214 15:37:37.962864  7500 layer_factory.hpp:77] Creating layer conv3_3
I1214 15:37:37.962877  7500 net.cpp:106] Creating Layer conv3_3
I1214 15:37:37.962888  7500 net.cpp:454] conv3_3 <- conv3_2_conv3_2/relu_0_split_1
I1214 15:37:37.962898  7500 net.cpp:454] conv3_3 <- conv3_3_1x1_increase
I1214 15:37:37.962909  7500 net.cpp:411] conv3_3 -> conv3_3
I1214 15:37:37.962947  7500 net.cpp:150] Setting up conv3_3
I1214 15:37:37.962962  7500 net.cpp:157] Top shape: 2 512 60 60 (3686400)
I1214 15:37:37.962970  7500 net.cpp:165] Memory required for data: 1455780400
I1214 15:37:37.962980  7500 layer_factory.hpp:77] Creating layer conv3_3/relu
I1214 15:37:37.962991  7500 net.cpp:106] Creating Layer conv3_3/relu
I1214 15:37:37.963003  7500 net.cpp:454] conv3_3/relu <- conv3_3
I1214 15:37:37.963016  7500 net.cpp:397] conv3_3/relu -> conv3_3 (in-place)
I1214 15:37:37.963028  7500 net.cpp:150] Setting up conv3_3/relu
I1214 15:37:37.963040  7500 net.cpp:157] Top shape: 2 512 60 60 (3686400)
I1214 15:37:37.963048  7500 net.cpp:165] Memory required for data: 1470526000
I1214 15:37:37.963057  7500 layer_factory.hpp:77] Creating layer conv3_3_conv3_3/relu_0_split
I1214 15:37:37.963068  7500 net.cpp:106] Creating Layer conv3_3_conv3_3/relu_0_split
I1214 15:37:37.963078  7500 net.cpp:454] conv3_3_conv3_3/relu_0_split <- conv3_3
I1214 15:37:37.963091  7500 net.cpp:411] conv3_3_conv3_3/relu_0_split -> conv3_3_conv3_3/relu_0_split_0
I1214 15:37:37.963106  7500 net.cpp:411] conv3_3_conv3_3/relu_0_split -> conv3_3_conv3_3/relu_0_split_1
I1214 15:37:37.963157  7500 net.cpp:150] Setting up conv3_3_conv3_3/relu_0_split
I1214 15:37:37.963172  7500 net.cpp:157] Top shape: 2 512 60 60 (3686400)
I1214 15:37:37.963183  7500 net.cpp:157] Top shape: 2 512 60 60 (3686400)
I1214 15:37:37.963192  7500 net.cpp:165] Memory required for data: 1500017200
I1214 15:37:37.963213  7500 layer_factory.hpp:77] Creating layer conv3_4_1x1_reduce
I1214 15:37:37.963233  7500 net.cpp:106] Creating Layer conv3_4_1x1_reduce
I1214 15:37:37.963244  7500 net.cpp:454] conv3_4_1x1_reduce <- conv3_3_conv3_3/relu_0_split_0
I1214 15:37:37.963258  7500 net.cpp:411] conv3_4_1x1_reduce -> conv3_4_1x1_reduce
I1214 15:37:37.967893  7500 net.cpp:150] Setting up conv3_4_1x1_reduce
I1214 15:37:37.967914  7500 net.cpp:157] Top shape: 2 128 60 60 (921600)
I1214 15:37:37.967924  7500 net.cpp:165] Memory required for data: 1503703600
I1214 15:37:37.967936  7500 layer_factory.hpp:77] Creating layer conv3_4_1x1_reduce/bn
I1214 15:37:37.967955  7500 net.cpp:106] Creating Layer conv3_4_1x1_reduce/bn
I1214 15:37:37.967967  7500 net.cpp:454] conv3_4_1x1_reduce/bn <- conv3_4_1x1_reduce
I1214 15:37:37.967979  7500 net.cpp:397] conv3_4_1x1_reduce/bn -> conv3_4_1x1_reduce (in-place)
I1214 15:37:37.968250  7500 net.cpp:150] Setting up conv3_4_1x1_reduce/bn
I1214 15:37:37.968268  7500 net.cpp:157] Top shape: 2 128 60 60 (921600)
I1214 15:37:37.968277  7500 net.cpp:165] Memory required for data: 1507390000
I1214 15:37:37.968294  7500 layer_factory.hpp:77] Creating layer conv3_4_1x1_reduce/relu
I1214 15:37:37.968307  7500 net.cpp:106] Creating Layer conv3_4_1x1_reduce/relu
I1214 15:37:37.968317  7500 net.cpp:454] conv3_4_1x1_reduce/relu <- conv3_4_1x1_reduce
I1214 15:37:37.968330  7500 net.cpp:397] conv3_4_1x1_reduce/relu -> conv3_4_1x1_reduce (in-place)
I1214 15:37:37.968344  7500 net.cpp:150] Setting up conv3_4_1x1_reduce/relu
I1214 15:37:37.968356  7500 net.cpp:157] Top shape: 2 128 60 60 (921600)
I1214 15:37:37.968365  7500 net.cpp:165] Memory required for data: 1511076400
I1214 15:37:37.968374  7500 layer_factory.hpp:77] Creating layer conv3_4_3x3
I1214 15:37:37.968405  7500 net.cpp:106] Creating Layer conv3_4_3x3
I1214 15:37:37.968416  7500 net.cpp:454] conv3_4_3x3 <- conv3_4_1x1_reduce
I1214 15:37:37.968430  7500 net.cpp:411] conv3_4_3x3 -> conv3_4_3x3
I1214 15:37:37.977931  7500 net.cpp:150] Setting up conv3_4_3x3
I1214 15:37:37.977952  7500 net.cpp:157] Top shape: 2 128 60 60 (921600)
I1214 15:37:37.977962  7500 net.cpp:165] Memory required for data: 1514762800
I1214 15:37:37.977975  7500 layer_factory.hpp:77] Creating layer conv3_4_3x3/bn
I1214 15:37:37.977993  7500 net.cpp:106] Creating Layer conv3_4_3x3/bn
I1214 15:37:37.978003  7500 net.cpp:454] conv3_4_3x3/bn <- conv3_4_3x3
I1214 15:37:37.978016  7500 net.cpp:397] conv3_4_3x3/bn -> conv3_4_3x3 (in-place)
I1214 15:37:37.978286  7500 net.cpp:150] Setting up conv3_4_3x3/bn
I1214 15:37:37.978303  7500 net.cpp:157] Top shape: 2 128 60 60 (921600)
I1214 15:37:37.978312  7500 net.cpp:165] Memory required for data: 1518449200
I1214 15:37:37.978329  7500 layer_factory.hpp:77] Creating layer conv3_4_3x3/relu
I1214 15:37:37.978341  7500 net.cpp:106] Creating Layer conv3_4_3x3/relu
I1214 15:37:37.978350  7500 net.cpp:454] conv3_4_3x3/relu <- conv3_4_3x3
I1214 15:37:37.978364  7500 net.cpp:397] conv3_4_3x3/relu -> conv3_4_3x3 (in-place)
I1214 15:37:37.978379  7500 net.cpp:150] Setting up conv3_4_3x3/relu
I1214 15:37:37.978390  7500 net.cpp:157] Top shape: 2 128 60 60 (921600)
I1214 15:37:37.978399  7500 net.cpp:165] Memory required for data: 1522135600
I1214 15:37:37.978407  7500 layer_factory.hpp:77] Creating layer conv3_4_1x1_increase
I1214 15:37:37.978427  7500 net.cpp:106] Creating Layer conv3_4_1x1_increase
I1214 15:37:37.978438  7500 net.cpp:454] conv3_4_1x1_increase <- conv3_4_3x3
I1214 15:37:37.978451  7500 net.cpp:411] conv3_4_1x1_increase -> conv3_4_1x1_increase
I1214 15:37:37.982530  7500 net.cpp:150] Setting up conv3_4_1x1_increase
I1214 15:37:37.982550  7500 net.cpp:157] Top shape: 2 512 60 60 (3686400)
I1214 15:37:37.982559  7500 net.cpp:165] Memory required for data: 1536881200
I1214 15:37:37.982571  7500 layer_factory.hpp:77] Creating layer conv3_4_1x1_increase/bn
I1214 15:37:37.982584  7500 net.cpp:106] Creating Layer conv3_4_1x1_increase/bn
I1214 15:37:37.982594  7500 net.cpp:454] conv3_4_1x1_increase/bn <- conv3_4_1x1_increase
I1214 15:37:37.982615  7500 net.cpp:397] conv3_4_1x1_increase/bn -> conv3_4_1x1_increase (in-place)
I1214 15:37:37.982895  7500 net.cpp:150] Setting up conv3_4_1x1_increase/bn
I1214 15:37:37.982913  7500 net.cpp:157] Top shape: 2 512 60 60 (3686400)
I1214 15:37:37.982920  7500 net.cpp:165] Memory required for data: 1551626800
I1214 15:37:37.982952  7500 layer_factory.hpp:77] Creating layer conv3_4
I1214 15:37:37.982969  7500 net.cpp:106] Creating Layer conv3_4
I1214 15:37:37.982980  7500 net.cpp:454] conv3_4 <- conv3_3_conv3_3/relu_0_split_1
I1214 15:37:37.982991  7500 net.cpp:454] conv3_4 <- conv3_4_1x1_increase
I1214 15:37:37.983003  7500 net.cpp:411] conv3_4 -> conv3_4
I1214 15:37:37.983041  7500 net.cpp:150] Setting up conv3_4
I1214 15:37:37.983054  7500 net.cpp:157] Top shape: 2 512 60 60 (3686400)
I1214 15:37:37.983063  7500 net.cpp:165] Memory required for data: 1566372400
I1214 15:37:37.983072  7500 layer_factory.hpp:77] Creating layer conv3_4/relu
I1214 15:37:37.983083  7500 net.cpp:106] Creating Layer conv3_4/relu
I1214 15:37:37.983093  7500 net.cpp:454] conv3_4/relu <- conv3_4
I1214 15:37:37.983108  7500 net.cpp:397] conv3_4/relu -> conv3_4 (in-place)
I1214 15:37:37.983120  7500 net.cpp:150] Setting up conv3_4/relu
I1214 15:37:37.983132  7500 net.cpp:157] Top shape: 2 512 60 60 (3686400)
I1214 15:37:37.983141  7500 net.cpp:165] Memory required for data: 1581118000
I1214 15:37:37.983150  7500 layer_factory.hpp:77] Creating layer conv3_4_conv3_4/relu_0_split
I1214 15:37:37.983163  7500 net.cpp:106] Creating Layer conv3_4_conv3_4/relu_0_split
I1214 15:37:37.983173  7500 net.cpp:454] conv3_4_conv3_4/relu_0_split <- conv3_4
I1214 15:37:37.983186  7500 net.cpp:411] conv3_4_conv3_4/relu_0_split -> conv3_4_conv3_4/relu_0_split_0
I1214 15:37:37.983198  7500 net.cpp:411] conv3_4_conv3_4/relu_0_split -> conv3_4_conv3_4/relu_0_split_1
I1214 15:37:37.983247  7500 net.cpp:150] Setting up conv3_4_conv3_4/relu_0_split
I1214 15:37:37.983264  7500 net.cpp:157] Top shape: 2 512 60 60 (3686400)
I1214 15:37:37.983275  7500 net.cpp:157] Top shape: 2 512 60 60 (3686400)
I1214 15:37:37.983284  7500 net.cpp:165] Memory required for data: 1610609200
I1214 15:37:37.983294  7500 layer_factory.hpp:77] Creating layer conv4_1_1x1_reduce
I1214 15:37:37.983307  7500 net.cpp:106] Creating Layer conv4_1_1x1_reduce
I1214 15:37:37.983317  7500 net.cpp:454] conv4_1_1x1_reduce <- conv3_4_conv3_4/relu_0_split_0
I1214 15:37:37.983331  7500 net.cpp:411] conv4_1_1x1_reduce -> conv4_1_1x1_reduce
I1214 15:37:37.991291  7500 net.cpp:150] Setting up conv4_1_1x1_reduce
I1214 15:37:37.991309  7500 net.cpp:157] Top shape: 2 256 60 60 (1843200)
I1214 15:37:37.991318  7500 net.cpp:165] Memory required for data: 1617982000
I1214 15:37:37.991331  7500 layer_factory.hpp:77] Creating layer conv4_1_1x1_reduce/bn
I1214 15:37:37.991348  7500 net.cpp:106] Creating Layer conv4_1_1x1_reduce/bn
I1214 15:37:37.991358  7500 net.cpp:454] conv4_1_1x1_reduce/bn <- conv4_1_1x1_reduce
I1214 15:37:37.991370  7500 net.cpp:397] conv4_1_1x1_reduce/bn -> conv4_1_1x1_reduce (in-place)
I1214 15:37:37.991638  7500 net.cpp:150] Setting up conv4_1_1x1_reduce/bn
I1214 15:37:37.991654  7500 net.cpp:157] Top shape: 2 256 60 60 (1843200)
I1214 15:37:37.991663  7500 net.cpp:165] Memory required for data: 1625354800
I1214 15:37:37.991680  7500 layer_factory.hpp:77] Creating layer conv4_1_1x1_reduce/relu
I1214 15:37:37.991693  7500 net.cpp:106] Creating Layer conv4_1_1x1_reduce/relu
I1214 15:37:37.991703  7500 net.cpp:454] conv4_1_1x1_reduce/relu <- conv4_1_1x1_reduce
I1214 15:37:37.991714  7500 net.cpp:397] conv4_1_1x1_reduce/relu -> conv4_1_1x1_reduce (in-place)
I1214 15:37:37.991726  7500 net.cpp:150] Setting up conv4_1_1x1_reduce/relu
I1214 15:37:37.991737  7500 net.cpp:157] Top shape: 2 256 60 60 (1843200)
I1214 15:37:37.991746  7500 net.cpp:165] Memory required for data: 1632727600
I1214 15:37:37.991755  7500 layer_factory.hpp:77] Creating layer conv4_1_3x3
I1214 15:37:37.991772  7500 net.cpp:106] Creating Layer conv4_1_3x3
I1214 15:37:37.991782  7500 net.cpp:454] conv4_1_3x3 <- conv4_1_1x1_reduce
I1214 15:37:37.991809  7500 net.cpp:411] conv4_1_3x3 -> conv4_1_3x3
I1214 15:37:38.028379  7500 net.cpp:150] Setting up conv4_1_3x3
I1214 15:37:38.028401  7500 net.cpp:157] Top shape: 2 256 60 60 (1843200)
I1214 15:37:38.028410  7500 net.cpp:165] Memory required for data: 1640100400
I1214 15:37:38.028424  7500 layer_factory.hpp:77] Creating layer conv4_1_3x3/bn
I1214 15:37:38.028444  7500 net.cpp:106] Creating Layer conv4_1_3x3/bn
I1214 15:37:38.028455  7500 net.cpp:454] conv4_1_3x3/bn <- conv4_1_3x3
I1214 15:37:38.028468  7500 net.cpp:397] conv4_1_3x3/bn -> conv4_1_3x3 (in-place)
I1214 15:37:38.028738  7500 net.cpp:150] Setting up conv4_1_3x3/bn
I1214 15:37:38.028755  7500 net.cpp:157] Top shape: 2 256 60 60 (1843200)
I1214 15:37:38.028764  7500 net.cpp:165] Memory required for data: 1647473200
I1214 15:37:38.028781  7500 layer_factory.hpp:77] Creating layer conv4_1_3x3/relu
I1214 15:37:38.028795  7500 net.cpp:106] Creating Layer conv4_1_3x3/relu
I1214 15:37:38.028803  7500 net.cpp:454] conv4_1_3x3/relu <- conv4_1_3x3
I1214 15:37:38.028815  7500 net.cpp:397] conv4_1_3x3/relu -> conv4_1_3x3 (in-place)
I1214 15:37:38.028828  7500 net.cpp:150] Setting up conv4_1_3x3/relu
I1214 15:37:38.028841  7500 net.cpp:157] Top shape: 2 256 60 60 (1843200)
I1214 15:37:38.028849  7500 net.cpp:165] Memory required for data: 1654846000
I1214 15:37:38.028858  7500 layer_factory.hpp:77] Creating layer conv4_1_1x1_increase
I1214 15:37:38.028875  7500 net.cpp:106] Creating Layer conv4_1_1x1_increase
I1214 15:37:38.028885  7500 net.cpp:454] conv4_1_1x1_increase <- conv4_1_3x3
I1214 15:37:38.028900  7500 net.cpp:411] conv4_1_1x1_increase -> conv4_1_1x1_increase
I1214 15:37:38.044786  7500 net.cpp:150] Setting up conv4_1_1x1_increase
I1214 15:37:38.044808  7500 net.cpp:157] Top shape: 2 1024 60 60 (7372800)
I1214 15:37:38.044817  7500 net.cpp:165] Memory required for data: 1684337200
I1214 15:37:38.044831  7500 layer_factory.hpp:77] Creating layer conv4_1_1x1_increase/bn
I1214 15:37:38.044847  7500 net.cpp:106] Creating Layer conv4_1_1x1_increase/bn
I1214 15:37:38.044858  7500 net.cpp:454] conv4_1_1x1_increase/bn <- conv4_1_1x1_increase
I1214 15:37:38.044872  7500 net.cpp:397] conv4_1_1x1_increase/bn -> conv4_1_1x1_increase (in-place)
I1214 15:37:38.045148  7500 net.cpp:150] Setting up conv4_1_1x1_increase/bn
I1214 15:37:38.045166  7500 net.cpp:157] Top shape: 2 1024 60 60 (7372800)
I1214 15:37:38.045176  7500 net.cpp:165] Memory required for data: 1713828400
I1214 15:37:38.045192  7500 layer_factory.hpp:77] Creating layer conv4_1_1x1_proj
I1214 15:37:38.045207  7500 net.cpp:106] Creating Layer conv4_1_1x1_proj
I1214 15:37:38.045217  7500 net.cpp:454] conv4_1_1x1_proj <- conv3_4_conv3_4/relu_0_split_1
I1214 15:37:38.045233  7500 net.cpp:411] conv4_1_1x1_proj -> conv4_1_1x1_proj
I1214 15:37:38.077308  7500 net.cpp:150] Setting up conv4_1_1x1_proj
I1214 15:37:38.077330  7500 net.cpp:157] Top shape: 2 1024 60 60 (7372800)
I1214 15:37:38.077339  7500 net.cpp:165] Memory required for data: 1743319600
I1214 15:37:38.077352  7500 layer_factory.hpp:77] Creating layer conv4_1_1x1_proj/bn
I1214 15:37:38.077366  7500 net.cpp:106] Creating Layer conv4_1_1x1_proj/bn
I1214 15:37:38.077376  7500 net.cpp:454] conv4_1_1x1_proj/bn <- conv4_1_1x1_proj
I1214 15:37:38.077389  7500 net.cpp:397] conv4_1_1x1_proj/bn -> conv4_1_1x1_proj (in-place)
I1214 15:37:38.077661  7500 net.cpp:150] Setting up conv4_1_1x1_proj/bn
I1214 15:37:38.077677  7500 net.cpp:157] Top shape: 2 1024 60 60 (7372800)
I1214 15:37:38.077687  7500 net.cpp:165] Memory required for data: 1772810800
I1214 15:37:38.077703  7500 layer_factory.hpp:77] Creating layer conv4_1
I1214 15:37:38.077718  7500 net.cpp:106] Creating Layer conv4_1
I1214 15:37:38.077728  7500 net.cpp:454] conv4_1 <- conv4_1_1x1_proj
I1214 15:37:38.077738  7500 net.cpp:454] conv4_1 <- conv4_1_1x1_increase
I1214 15:37:38.077752  7500 net.cpp:411] conv4_1 -> conv4_1
I1214 15:37:38.077791  7500 net.cpp:150] Setting up conv4_1
I1214 15:37:38.077806  7500 net.cpp:157] Top shape: 2 1024 60 60 (7372800)
I1214 15:37:38.077823  7500 net.cpp:165] Memory required for data: 1802302000
I1214 15:37:38.077841  7500 layer_factory.hpp:77] Creating layer conv4_1/relu
I1214 15:37:38.077853  7500 net.cpp:106] Creating Layer conv4_1/relu
I1214 15:37:38.077862  7500 net.cpp:454] conv4_1/relu <- conv4_1
I1214 15:37:38.077875  7500 net.cpp:397] conv4_1/relu -> conv4_1 (in-place)
I1214 15:37:38.077889  7500 net.cpp:150] Setting up conv4_1/relu
I1214 15:37:38.077901  7500 net.cpp:157] Top shape: 2 1024 60 60 (7372800)
I1214 15:37:38.077910  7500 net.cpp:165] Memory required for data: 1831793200
I1214 15:37:38.077919  7500 layer_factory.hpp:77] Creating layer conv4_1_conv4_1/relu_0_split
I1214 15:37:38.077930  7500 net.cpp:106] Creating Layer conv4_1_conv4_1/relu_0_split
I1214 15:37:38.077939  7500 net.cpp:454] conv4_1_conv4_1/relu_0_split <- conv4_1
I1214 15:37:38.077953  7500 net.cpp:411] conv4_1_conv4_1/relu_0_split -> conv4_1_conv4_1/relu_0_split_0
I1214 15:37:38.077968  7500 net.cpp:411] conv4_1_conv4_1/relu_0_split -> conv4_1_conv4_1/relu_0_split_1
I1214 15:37:38.078021  7500 net.cpp:150] Setting up conv4_1_conv4_1/relu_0_split
I1214 15:37:38.078035  7500 net.cpp:157] Top shape: 2 1024 60 60 (7372800)
I1214 15:37:38.078047  7500 net.cpp:157] Top shape: 2 1024 60 60 (7372800)
I1214 15:37:38.078055  7500 net.cpp:165] Memory required for data: 1890775600
I1214 15:37:38.078064  7500 layer_factory.hpp:77] Creating layer conv4_2_1x1_reduce
I1214 15:37:38.078081  7500 net.cpp:106] Creating Layer conv4_2_1x1_reduce
I1214 15:37:38.078091  7500 net.cpp:454] conv4_2_1x1_reduce <- conv4_1_conv4_1/relu_0_split_0
I1214 15:37:38.078106  7500 net.cpp:411] conv4_2_1x1_reduce -> conv4_2_1x1_reduce
I1214 15:37:38.093984  7500 net.cpp:150] Setting up conv4_2_1x1_reduce
I1214 15:37:38.094005  7500 net.cpp:157] Top shape: 2 256 60 60 (1843200)
I1214 15:37:38.094014  7500 net.cpp:165] Memory required for data: 1898148400
I1214 15:37:38.094027  7500 layer_factory.hpp:77] Creating layer conv4_2_1x1_reduce/bn
I1214 15:37:38.094041  7500 net.cpp:106] Creating Layer conv4_2_1x1_reduce/bn
I1214 15:37:38.094053  7500 net.cpp:454] conv4_2_1x1_reduce/bn <- conv4_2_1x1_reduce
I1214 15:37:38.094068  7500 net.cpp:397] conv4_2_1x1_reduce/bn -> conv4_2_1x1_reduce (in-place)
I1214 15:37:38.094341  7500 net.cpp:150] Setting up conv4_2_1x1_reduce/bn
I1214 15:37:38.094357  7500 net.cpp:157] Top shape: 2 256 60 60 (1843200)
I1214 15:37:38.094365  7500 net.cpp:165] Memory required for data: 1905521200
I1214 15:37:38.094383  7500 layer_factory.hpp:77] Creating layer conv4_2_1x1_reduce/relu
I1214 15:37:38.094398  7500 net.cpp:106] Creating Layer conv4_2_1x1_reduce/relu
I1214 15:37:38.094408  7500 net.cpp:454] conv4_2_1x1_reduce/relu <- conv4_2_1x1_reduce
I1214 15:37:38.094419  7500 net.cpp:397] conv4_2_1x1_reduce/relu -> conv4_2_1x1_reduce (in-place)
I1214 15:37:38.094434  7500 net.cpp:150] Setting up conv4_2_1x1_reduce/relu
I1214 15:37:38.094445  7500 net.cpp:157] Top shape: 2 256 60 60 (1843200)
I1214 15:37:38.094454  7500 net.cpp:165] Memory required for data: 1912894000
I1214 15:37:38.094462  7500 layer_factory.hpp:77] Creating layer conv4_2_3x3
I1214 15:37:38.094476  7500 net.cpp:106] Creating Layer conv4_2_3x3
I1214 15:37:38.094485  7500 net.cpp:454] conv4_2_3x3 <- conv4_2_1x1_reduce
I1214 15:37:38.094501  7500 net.cpp:411] conv4_2_3x3 -> conv4_2_3x3
I1214 15:37:38.130548  7500 net.cpp:150] Setting up conv4_2_3x3
I1214 15:37:38.130568  7500 net.cpp:157] Top shape: 2 256 60 60 (1843200)
I1214 15:37:38.130578  7500 net.cpp:165] Memory required for data: 1920266800
I1214 15:37:38.130589  7500 layer_factory.hpp:77] Creating layer conv4_2_3x3/bn
I1214 15:37:38.130606  7500 net.cpp:106] Creating Layer conv4_2_3x3/bn
I1214 15:37:38.130616  7500 net.cpp:454] conv4_2_3x3/bn <- conv4_2_3x3
I1214 15:37:38.130630  7500 net.cpp:397] conv4_2_3x3/bn -> conv4_2_3x3 (in-place)
I1214 15:37:38.130902  7500 net.cpp:150] Setting up conv4_2_3x3/bn
I1214 15:37:38.130918  7500 net.cpp:157] Top shape: 2 256 60 60 (1843200)
I1214 15:37:38.130928  7500 net.cpp:165] Memory required for data: 1927639600
I1214 15:37:38.130949  7500 layer_factory.hpp:77] Creating layer conv4_2_3x3/relu
I1214 15:37:38.130970  7500 net.cpp:106] Creating Layer conv4_2_3x3/relu
I1214 15:37:38.130980  7500 net.cpp:454] conv4_2_3x3/relu <- conv4_2_3x3
I1214 15:37:38.130995  7500 net.cpp:397] conv4_2_3x3/relu -> conv4_2_3x3 (in-place)
I1214 15:37:38.131008  7500 net.cpp:150] Setting up conv4_2_3x3/relu
I1214 15:37:38.131021  7500 net.cpp:157] Top shape: 2 256 60 60 (1843200)
I1214 15:37:38.131029  7500 net.cpp:165] Memory required for data: 1935012400
I1214 15:37:38.131038  7500 layer_factory.hpp:77] Creating layer conv4_2_1x1_increase
I1214 15:37:38.131055  7500 net.cpp:106] Creating Layer conv4_2_1x1_increase
I1214 15:37:38.131067  7500 net.cpp:454] conv4_2_1x1_increase <- conv4_2_3x3
I1214 15:37:38.131078  7500 net.cpp:411] conv4_2_1x1_increase -> conv4_2_1x1_increase
I1214 15:37:38.147002  7500 net.cpp:150] Setting up conv4_2_1x1_increase
I1214 15:37:38.147024  7500 net.cpp:157] Top shape: 2 1024 60 60 (7372800)
I1214 15:37:38.147034  7500 net.cpp:165] Memory required for data: 1964503600
I1214 15:37:38.147047  7500 layer_factory.hpp:77] Creating layer conv4_2_1x1_increase/bn
I1214 15:37:38.147063  7500 net.cpp:106] Creating Layer conv4_2_1x1_increase/bn
I1214 15:37:38.147074  7500 net.cpp:454] conv4_2_1x1_increase/bn <- conv4_2_1x1_increase
I1214 15:37:38.147088  7500 net.cpp:397] conv4_2_1x1_increase/bn -> conv4_2_1x1_increase (in-place)
I1214 15:37:38.147361  7500 net.cpp:150] Setting up conv4_2_1x1_increase/bn
I1214 15:37:38.147379  7500 net.cpp:157] Top shape: 2 1024 60 60 (7372800)
I1214 15:37:38.147387  7500 net.cpp:165] Memory required for data: 1993994800
I1214 15:37:38.147404  7500 layer_factory.hpp:77] Creating layer conv4_2
I1214 15:37:38.147418  7500 net.cpp:106] Creating Layer conv4_2
I1214 15:37:38.147428  7500 net.cpp:454] conv4_2 <- conv4_1_conv4_1/relu_0_split_1
I1214 15:37:38.147439  7500 net.cpp:454] conv4_2 <- conv4_2_1x1_increase
I1214 15:37:38.147450  7500 net.cpp:411] conv4_2 -> conv4_2
I1214 15:37:38.147490  7500 net.cpp:150] Setting up conv4_2
I1214 15:37:38.147505  7500 net.cpp:157] Top shape: 2 1024 60 60 (7372800)
I1214 15:37:38.147513  7500 net.cpp:165] Memory required for data: 2023486000
I1214 15:37:38.147522  7500 layer_factory.hpp:77] Creating layer conv4_2/relu
I1214 15:37:38.147536  7500 net.cpp:106] Creating Layer conv4_2/relu
I1214 15:37:38.147547  7500 net.cpp:454] conv4_2/relu <- conv4_2
I1214 15:37:38.147557  7500 net.cpp:397] conv4_2/relu -> conv4_2 (in-place)
I1214 15:37:38.147570  7500 net.cpp:150] Setting up conv4_2/relu
I1214 15:37:38.147583  7500 net.cpp:157] Top shape: 2 1024 60 60 (7372800)
I1214 15:37:38.147591  7500 net.cpp:165] Memory required for data: 2052977200
I1214 15:37:38.147600  7500 layer_factory.hpp:77] Creating layer conv4_2_conv4_2/relu_0_split
I1214 15:37:38.147611  7500 net.cpp:106] Creating Layer conv4_2_conv4_2/relu_0_split
I1214 15:37:38.147621  7500 net.cpp:454] conv4_2_conv4_2/relu_0_split <- conv4_2
I1214 15:37:38.147635  7500 net.cpp:411] conv4_2_conv4_2/relu_0_split -> conv4_2_conv4_2/relu_0_split_0
I1214 15:37:38.147656  7500 net.cpp:411] conv4_2_conv4_2/relu_0_split -> conv4_2_conv4_2/relu_0_split_1
I1214 15:37:38.147709  7500 net.cpp:150] Setting up conv4_2_conv4_2/relu_0_split
I1214 15:37:38.147727  7500 net.cpp:157] Top shape: 2 1024 60 60 (7372800)
I1214 15:37:38.147739  7500 net.cpp:157] Top shape: 2 1024 60 60 (7372800)
I1214 15:37:38.147747  7500 net.cpp:165] Memory required for data: 2111959600
I1214 15:37:38.147756  7500 layer_factory.hpp:77] Creating layer conv4_3_1x1_reduce
I1214 15:37:38.147771  7500 net.cpp:106] Creating Layer conv4_3_1x1_reduce
I1214 15:37:38.147781  7500 net.cpp:454] conv4_3_1x1_reduce <- conv4_2_conv4_2/relu_0_split_0
I1214 15:37:38.147796  7500 net.cpp:411] conv4_3_1x1_reduce -> conv4_3_1x1_reduce
I1214 15:37:38.163671  7500 net.cpp:150] Setting up conv4_3_1x1_reduce
I1214 15:37:38.163691  7500 net.cpp:157] Top shape: 2 256 60 60 (1843200)
I1214 15:37:38.163702  7500 net.cpp:165] Memory required for data: 2119332400
I1214 15:37:38.163719  7500 layer_factory.hpp:77] Creating layer conv4_3_1x1_reduce/bn
I1214 15:37:38.163743  7500 net.cpp:106] Creating Layer conv4_3_1x1_reduce/bn
I1214 15:37:38.163753  7500 net.cpp:454] conv4_3_1x1_reduce/bn <- conv4_3_1x1_reduce
I1214 15:37:38.163769  7500 net.cpp:397] conv4_3_1x1_reduce/bn -> conv4_3_1x1_reduce (in-place)
I1214 15:37:38.164046  7500 net.cpp:150] Setting up conv4_3_1x1_reduce/bn
I1214 15:37:38.164062  7500 net.cpp:157] Top shape: 2 256 60 60 (1843200)
I1214 15:37:38.164072  7500 net.cpp:165] Memory required for data: 2126705200
I1214 15:37:38.164088  7500 layer_factory.hpp:77] Creating layer conv4_3_1x1_reduce/relu
I1214 15:37:38.164103  7500 net.cpp:106] Creating Layer conv4_3_1x1_reduce/relu
I1214 15:37:38.164113  7500 net.cpp:454] conv4_3_1x1_reduce/relu <- conv4_3_1x1_reduce
I1214 15:37:38.164125  7500 net.cpp:397] conv4_3_1x1_reduce/relu -> conv4_3_1x1_reduce (in-place)
I1214 15:37:38.164139  7500 net.cpp:150] Setting up conv4_3_1x1_reduce/relu
I1214 15:37:38.164156  7500 net.cpp:157] Top shape: 2 256 60 60 (1843200)
I1214 15:37:38.164167  7500 net.cpp:165] Memory required for data: 2134078000
I1214 15:37:38.164176  7500 layer_factory.hpp:77] Creating layer conv4_3_3x3
I1214 15:37:38.164191  7500 net.cpp:106] Creating Layer conv4_3_3x3
I1214 15:37:38.164199  7500 net.cpp:454] conv4_3_3x3 <- conv4_3_1x1_reduce
I1214 15:37:38.164216  7500 net.cpp:411] conv4_3_3x3 -> conv4_3_3x3
I1214 15:37:38.200258  7500 net.cpp:150] Setting up conv4_3_3x3
I1214 15:37:38.200279  7500 net.cpp:157] Top shape: 2 256 60 60 (1843200)
I1214 15:37:38.200289  7500 net.cpp:165] Memory required for data: 2141450800
I1214 15:37:38.200301  7500 layer_factory.hpp:77] Creating layer conv4_3_3x3/bn
I1214 15:37:38.200315  7500 net.cpp:106] Creating Layer conv4_3_3x3/bn
I1214 15:37:38.200326  7500 net.cpp:454] conv4_3_3x3/bn <- conv4_3_3x3
I1214 15:37:38.200341  7500 net.cpp:397] conv4_3_3x3/bn -> conv4_3_3x3 (in-place)
I1214 15:37:38.200618  7500 net.cpp:150] Setting up conv4_3_3x3/bn
I1214 15:37:38.200634  7500 net.cpp:157] Top shape: 2 256 60 60 (1843200)
I1214 15:37:38.200644  7500 net.cpp:165] Memory required for data: 2148823600
I1214 15:37:38.200660  7500 layer_factory.hpp:77] Creating layer conv4_3_3x3/relu
I1214 15:37:38.200672  7500 net.cpp:106] Creating Layer conv4_3_3x3/relu
I1214 15:37:38.200682  7500 net.cpp:454] conv4_3_3x3/relu <- conv4_3_3x3
I1214 15:37:38.200696  7500 net.cpp:397] conv4_3_3x3/relu -> conv4_3_3x3 (in-place)
I1214 15:37:38.200711  7500 net.cpp:150] Setting up conv4_3_3x3/relu
I1214 15:37:38.200722  7500 net.cpp:157] Top shape: 2 256 60 60 (1843200)
I1214 15:37:38.200731  7500 net.cpp:165] Memory required for data: 2156196400
I1214 15:37:38.200739  7500 layer_factory.hpp:77] Creating layer conv4_3_1x1_increase
I1214 15:37:38.200754  7500 net.cpp:106] Creating Layer conv4_3_1x1_increase
I1214 15:37:38.200763  7500 net.cpp:454] conv4_3_1x1_increase <- conv4_3_3x3
I1214 15:37:38.200776  7500 net.cpp:411] conv4_3_1x1_increase -> conv4_3_1x1_increase
I1214 15:37:38.216851  7500 net.cpp:150] Setting up conv4_3_1x1_increase
I1214 15:37:38.216872  7500 net.cpp:157] Top shape: 2 1024 60 60 (7372800)
I1214 15:37:38.216881  7500 net.cpp:165] Memory required for data: 2185687600
I1214 15:37:38.216893  7500 layer_factory.hpp:77] Creating layer conv4_3_1x1_increase/bn
I1214 15:37:38.216909  7500 net.cpp:106] Creating Layer conv4_3_1x1_increase/bn
I1214 15:37:38.216920  7500 net.cpp:454] conv4_3_1x1_increase/bn <- conv4_3_1x1_increase
I1214 15:37:38.216933  7500 net.cpp:397] conv4_3_1x1_increase/bn -> conv4_3_1x1_increase (in-place)
I1214 15:37:38.217221  7500 net.cpp:150] Setting up conv4_3_1x1_increase/bn
I1214 15:37:38.217237  7500 net.cpp:157] Top shape: 2 1024 60 60 (7372800)
I1214 15:37:38.217247  7500 net.cpp:165] Memory required for data: 2215178800
I1214 15:37:38.217263  7500 layer_factory.hpp:77] Creating layer conv4_3
I1214 15:37:38.217277  7500 net.cpp:106] Creating Layer conv4_3
I1214 15:37:38.217286  7500 net.cpp:454] conv4_3 <- conv4_2_conv4_2/relu_0_split_1
I1214 15:37:38.217298  7500 net.cpp:454] conv4_3 <- conv4_3_1x1_increase
I1214 15:37:38.217324  7500 net.cpp:411] conv4_3 -> conv4_3
I1214 15:37:38.217362  7500 net.cpp:150] Setting up conv4_3
I1214 15:37:38.217381  7500 net.cpp:157] Top shape: 2 1024 60 60 (7372800)
I1214 15:37:38.217389  7500 net.cpp:165] Memory required for data: 2244670000
I1214 15:37:38.217397  7500 layer_factory.hpp:77] Creating layer conv4_3/relu
I1214 15:37:38.217409  7500 net.cpp:106] Creating Layer conv4_3/relu
I1214 15:37:38.217418  7500 net.cpp:454] conv4_3/relu <- conv4_3
I1214 15:37:38.217429  7500 net.cpp:397] conv4_3/relu -> conv4_3 (in-place)
I1214 15:37:38.217442  7500 net.cpp:150] Setting up conv4_3/relu
I1214 15:37:38.217454  7500 net.cpp:157] Top shape: 2 1024 60 60 (7372800)
I1214 15:37:38.217463  7500 net.cpp:165] Memory required for data: 2274161200
I1214 15:37:38.217471  7500 layer_factory.hpp:77] Creating layer conv4_3_conv4_3/relu_0_split
I1214 15:37:38.217484  7500 net.cpp:106] Creating Layer conv4_3_conv4_3/relu_0_split
I1214 15:37:38.217494  7500 net.cpp:454] conv4_3_conv4_3/relu_0_split <- conv4_3
I1214 15:37:38.217509  7500 net.cpp:411] conv4_3_conv4_3/relu_0_split -> conv4_3_conv4_3/relu_0_split_0
I1214 15:37:38.217524  7500 net.cpp:411] conv4_3_conv4_3/relu_0_split -> conv4_3_conv4_3/relu_0_split_1
I1214 15:37:38.217577  7500 net.cpp:150] Setting up conv4_3_conv4_3/relu_0_split
I1214 15:37:38.217592  7500 net.cpp:157] Top shape: 2 1024 60 60 (7372800)
I1214 15:37:38.217602  7500 net.cpp:157] Top shape: 2 1024 60 60 (7372800)
I1214 15:37:38.217612  7500 net.cpp:165] Memory required for data: 2333143600
I1214 15:37:38.217620  7500 layer_factory.hpp:77] Creating layer conv4_4_1x1_reduce
I1214 15:37:38.217648  7500 net.cpp:106] Creating Layer conv4_4_1x1_reduce
I1214 15:37:38.217660  7500 net.cpp:454] conv4_4_1x1_reduce <- conv4_3_conv4_3/relu_0_split_0
I1214 15:37:38.217674  7500 net.cpp:411] conv4_4_1x1_reduce -> conv4_4_1x1_reduce
I1214 15:37:38.233630  7500 net.cpp:150] Setting up conv4_4_1x1_reduce
I1214 15:37:38.233652  7500 net.cpp:157] Top shape: 2 256 60 60 (1843200)
I1214 15:37:38.233661  7500 net.cpp:165] Memory required for data: 2340516400
I1214 15:37:38.233675  7500 layer_factory.hpp:77] Creating layer conv4_4_1x1_reduce/bn
I1214 15:37:38.233691  7500 net.cpp:106] Creating Layer conv4_4_1x1_reduce/bn
I1214 15:37:38.233702  7500 net.cpp:454] conv4_4_1x1_reduce/bn <- conv4_4_1x1_reduce
I1214 15:37:38.233714  7500 net.cpp:397] conv4_4_1x1_reduce/bn -> conv4_4_1x1_reduce (in-place)
I1214 15:37:38.233990  7500 net.cpp:150] Setting up conv4_4_1x1_reduce/bn
I1214 15:37:38.234006  7500 net.cpp:157] Top shape: 2 256 60 60 (1843200)
I1214 15:37:38.234016  7500 net.cpp:165] Memory required for data: 2347889200
I1214 15:37:38.234032  7500 layer_factory.hpp:77] Creating layer conv4_4_1x1_reduce/relu
I1214 15:37:38.234045  7500 net.cpp:106] Creating Layer conv4_4_1x1_reduce/relu
I1214 15:37:38.234055  7500 net.cpp:454] conv4_4_1x1_reduce/relu <- conv4_4_1x1_reduce
I1214 15:37:38.234066  7500 net.cpp:397] conv4_4_1x1_reduce/relu -> conv4_4_1x1_reduce (in-place)
I1214 15:37:38.234079  7500 net.cpp:150] Setting up conv4_4_1x1_reduce/relu
I1214 15:37:38.234091  7500 net.cpp:157] Top shape: 2 256 60 60 (1843200)
I1214 15:37:38.234099  7500 net.cpp:165] Memory required for data: 2355262000
I1214 15:37:38.234108  7500 layer_factory.hpp:77] Creating layer conv4_4_3x3
I1214 15:37:38.234124  7500 net.cpp:106] Creating Layer conv4_4_3x3
I1214 15:37:38.234134  7500 net.cpp:454] conv4_4_3x3 <- conv4_4_1x1_reduce
I1214 15:37:38.234149  7500 net.cpp:411] conv4_4_3x3 -> conv4_4_3x3
I1214 15:37:38.270103  7500 net.cpp:150] Setting up conv4_4_3x3
I1214 15:37:38.270125  7500 net.cpp:157] Top shape: 2 256 60 60 (1843200)
I1214 15:37:38.270135  7500 net.cpp:165] Memory required for data: 2362634800
I1214 15:37:38.270148  7500 layer_factory.hpp:77] Creating layer conv4_4_3x3/bn
I1214 15:37:38.270164  7500 net.cpp:106] Creating Layer conv4_4_3x3/bn
I1214 15:37:38.270175  7500 net.cpp:454] conv4_4_3x3/bn <- conv4_4_3x3
I1214 15:37:38.270189  7500 net.cpp:397] conv4_4_3x3/bn -> conv4_4_3x3 (in-place)
I1214 15:37:38.270481  7500 net.cpp:150] Setting up conv4_4_3x3/bn
I1214 15:37:38.270508  7500 net.cpp:157] Top shape: 2 256 60 60 (1843200)
I1214 15:37:38.270517  7500 net.cpp:165] Memory required for data: 2370007600
I1214 15:37:38.270534  7500 layer_factory.hpp:77] Creating layer conv4_4_3x3/relu
I1214 15:37:38.270546  7500 net.cpp:106] Creating Layer conv4_4_3x3/relu
I1214 15:37:38.270556  7500 net.cpp:454] conv4_4_3x3/relu <- conv4_4_3x3
I1214 15:37:38.270567  7500 net.cpp:397] conv4_4_3x3/relu -> conv4_4_3x3 (in-place)
I1214 15:37:38.270581  7500 net.cpp:150] Setting up conv4_4_3x3/relu
I1214 15:37:38.270592  7500 net.cpp:157] Top shape: 2 256 60 60 (1843200)
I1214 15:37:38.270601  7500 net.cpp:165] Memory required for data: 2377380400
I1214 15:37:38.270611  7500 layer_factory.hpp:77] Creating layer conv4_4_1x1_increase
I1214 15:37:38.270627  7500 net.cpp:106] Creating Layer conv4_4_1x1_increase
I1214 15:37:38.270637  7500 net.cpp:454] conv4_4_1x1_increase <- conv4_4_3x3
I1214 15:37:38.270653  7500 net.cpp:411] conv4_4_1x1_increase -> conv4_4_1x1_increase
I1214 15:37:38.286536  7500 net.cpp:150] Setting up conv4_4_1x1_increase
I1214 15:37:38.286557  7500 net.cpp:157] Top shape: 2 1024 60 60 (7372800)
I1214 15:37:38.286567  7500 net.cpp:165] Memory required for data: 2406871600
I1214 15:37:38.286579  7500 layer_factory.hpp:77] Creating layer conv4_4_1x1_increase/bn
I1214 15:37:38.286593  7500 net.cpp:106] Creating Layer conv4_4_1x1_increase/bn
I1214 15:37:38.286603  7500 net.cpp:454] conv4_4_1x1_increase/bn <- conv4_4_1x1_increase
I1214 15:37:38.286619  7500 net.cpp:397] conv4_4_1x1_increase/bn -> conv4_4_1x1_increase (in-place)
I1214 15:37:38.286905  7500 net.cpp:150] Setting up conv4_4_1x1_increase/bn
I1214 15:37:38.286921  7500 net.cpp:157] Top shape: 2 1024 60 60 (7372800)
I1214 15:37:38.286931  7500 net.cpp:165] Memory required for data: 2436362800
I1214 15:37:38.286947  7500 layer_factory.hpp:77] Creating layer conv4_4
I1214 15:37:38.286960  7500 net.cpp:106] Creating Layer conv4_4
I1214 15:37:38.286970  7500 net.cpp:454] conv4_4 <- conv4_3_conv4_3/relu_0_split_1
I1214 15:37:38.286981  7500 net.cpp:454] conv4_4 <- conv4_4_1x1_increase
I1214 15:37:38.286993  7500 net.cpp:411] conv4_4 -> conv4_4
I1214 15:37:38.287029  7500 net.cpp:150] Setting up conv4_4
I1214 15:37:38.287045  7500 net.cpp:157] Top shape: 2 1024 60 60 (7372800)
I1214 15:37:38.287052  7500 net.cpp:165] Memory required for data: 2465854000
I1214 15:37:38.287061  7500 layer_factory.hpp:77] Creating layer conv4_4/relu
I1214 15:37:38.287075  7500 net.cpp:106] Creating Layer conv4_4/relu
I1214 15:37:38.287086  7500 net.cpp:454] conv4_4/relu <- conv4_4
I1214 15:37:38.287099  7500 net.cpp:397] conv4_4/relu -> conv4_4 (in-place)
I1214 15:37:38.287113  7500 net.cpp:150] Setting up conv4_4/relu
I1214 15:37:38.287125  7500 net.cpp:157] Top shape: 2 1024 60 60 (7372800)
I1214 15:37:38.287133  7500 net.cpp:165] Memory required for data: 2495345200
I1214 15:37:38.287142  7500 layer_factory.hpp:77] Creating layer conv4_4_conv4_4/relu_0_split
I1214 15:37:38.287154  7500 net.cpp:106] Creating Layer conv4_4_conv4_4/relu_0_split
I1214 15:37:38.287163  7500 net.cpp:454] conv4_4_conv4_4/relu_0_split <- conv4_4
I1214 15:37:38.287175  7500 net.cpp:411] conv4_4_conv4_4/relu_0_split -> conv4_4_conv4_4/relu_0_split_0
I1214 15:37:38.287190  7500 net.cpp:411] conv4_4_conv4_4/relu_0_split -> conv4_4_conv4_4/relu_0_split_1
I1214 15:37:38.287245  7500 net.cpp:150] Setting up conv4_4_conv4_4/relu_0_split
I1214 15:37:38.287259  7500 net.cpp:157] Top shape: 2 1024 60 60 (7372800)
I1214 15:37:38.287271  7500 net.cpp:157] Top shape: 2 1024 60 60 (7372800)
I1214 15:37:38.287279  7500 net.cpp:165] Memory required for data: 2554327600
I1214 15:37:38.287288  7500 layer_factory.hpp:77] Creating layer conv4_5_1x1_reduce
I1214 15:37:38.287304  7500 net.cpp:106] Creating Layer conv4_5_1x1_reduce
I1214 15:37:38.287315  7500 net.cpp:454] conv4_5_1x1_reduce <- conv4_4_conv4_4/relu_0_split_0
I1214 15:37:38.287331  7500 net.cpp:411] conv4_5_1x1_reduce -> conv4_5_1x1_reduce
I1214 15:37:38.303369  7500 net.cpp:150] Setting up conv4_5_1x1_reduce
I1214 15:37:38.303398  7500 net.cpp:157] Top shape: 2 256 60 60 (1843200)
I1214 15:37:38.303407  7500 net.cpp:165] Memory required for data: 2561700400
I1214 15:37:38.303421  7500 layer_factory.hpp:77] Creating layer conv4_5_1x1_reduce/bn
I1214 15:37:38.303436  7500 net.cpp:106] Creating Layer conv4_5_1x1_reduce/bn
I1214 15:37:38.303447  7500 net.cpp:454] conv4_5_1x1_reduce/bn <- conv4_5_1x1_reduce
I1214 15:37:38.303460  7500 net.cpp:397] conv4_5_1x1_reduce/bn -> conv4_5_1x1_reduce (in-place)
I1214 15:37:38.303745  7500 net.cpp:150] Setting up conv4_5_1x1_reduce/bn
I1214 15:37:38.303766  7500 net.cpp:157] Top shape: 2 256 60 60 (1843200)
I1214 15:37:38.303776  7500 net.cpp:165] Memory required for data: 2569073200
I1214 15:37:38.303793  7500 layer_factory.hpp:77] Creating layer conv4_5_1x1_reduce/relu
I1214 15:37:38.303805  7500 net.cpp:106] Creating Layer conv4_5_1x1_reduce/relu
I1214 15:37:38.303814  7500 net.cpp:454] conv4_5_1x1_reduce/relu <- conv4_5_1x1_reduce
I1214 15:37:38.303827  7500 net.cpp:397] conv4_5_1x1_reduce/relu -> conv4_5_1x1_reduce (in-place)
I1214 15:37:38.303840  7500 net.cpp:150] Setting up conv4_5_1x1_reduce/relu
I1214 15:37:38.303851  7500 net.cpp:157] Top shape: 2 256 60 60 (1843200)
I1214 15:37:38.303860  7500 net.cpp:165] Memory required for data: 2576446000
I1214 15:37:38.303869  7500 layer_factory.hpp:77] Creating layer conv4_5_3x3
I1214 15:37:38.303887  7500 net.cpp:106] Creating Layer conv4_5_3x3
I1214 15:37:38.303899  7500 net.cpp:454] conv4_5_3x3 <- conv4_5_1x1_reduce
I1214 15:37:38.303911  7500 net.cpp:411] conv4_5_3x3 -> conv4_5_3x3
I1214 15:37:38.339854  7500 net.cpp:150] Setting up conv4_5_3x3
I1214 15:37:38.339875  7500 net.cpp:157] Top shape: 2 256 60 60 (1843200)
I1214 15:37:38.339884  7500 net.cpp:165] Memory required for data: 2583818800
I1214 15:37:38.339897  7500 layer_factory.hpp:77] Creating layer conv4_5_3x3/bn
I1214 15:37:38.339912  7500 net.cpp:106] Creating Layer conv4_5_3x3/bn
I1214 15:37:38.339922  7500 net.cpp:454] conv4_5_3x3/bn <- conv4_5_3x3
I1214 15:37:38.339937  7500 net.cpp:397] conv4_5_3x3/bn -> conv4_5_3x3 (in-place)
I1214 15:37:38.340229  7500 net.cpp:150] Setting up conv4_5_3x3/bn
I1214 15:37:38.340246  7500 net.cpp:157] Top shape: 2 256 60 60 (1843200)
I1214 15:37:38.340255  7500 net.cpp:165] Memory required for data: 2591191600
I1214 15:37:38.340273  7500 layer_factory.hpp:77] Creating layer conv4_5_3x3/relu
I1214 15:37:38.340287  7500 net.cpp:106] Creating Layer conv4_5_3x3/relu
I1214 15:37:38.340297  7500 net.cpp:454] conv4_5_3x3/relu <- conv4_5_3x3
I1214 15:37:38.340309  7500 net.cpp:397] conv4_5_3x3/relu -> conv4_5_3x3 (in-place)
I1214 15:37:38.340322  7500 net.cpp:150] Setting up conv4_5_3x3/relu
I1214 15:37:38.340334  7500 net.cpp:157] Top shape: 2 256 60 60 (1843200)
I1214 15:37:38.340343  7500 net.cpp:165] Memory required for data: 2598564400
I1214 15:37:38.340353  7500 layer_factory.hpp:77] Creating layer conv4_5_1x1_increase
I1214 15:37:38.340366  7500 net.cpp:106] Creating Layer conv4_5_1x1_increase
I1214 15:37:38.340376  7500 net.cpp:454] conv4_5_1x1_increase <- conv4_5_3x3
I1214 15:37:38.340390  7500 net.cpp:411] conv4_5_1x1_increase -> conv4_5_1x1_increase
I1214 15:37:38.356406  7500 net.cpp:150] Setting up conv4_5_1x1_increase
I1214 15:37:38.356427  7500 net.cpp:157] Top shape: 2 1024 60 60 (7372800)
I1214 15:37:38.356436  7500 net.cpp:165] Memory required for data: 2628055600
I1214 15:37:38.356449  7500 layer_factory.hpp:77] Creating layer conv4_5_1x1_increase/bn
I1214 15:37:38.356463  7500 net.cpp:106] Creating Layer conv4_5_1x1_increase/bn
I1214 15:37:38.356473  7500 net.cpp:454] conv4_5_1x1_increase/bn <- conv4_5_1x1_increase
I1214 15:37:38.356488  7500 net.cpp:397] conv4_5_1x1_increase/bn -> conv4_5_1x1_increase (in-place)
I1214 15:37:38.356778  7500 net.cpp:150] Setting up conv4_5_1x1_increase/bn
I1214 15:37:38.356794  7500 net.cpp:157] Top shape: 2 1024 60 60 (7372800)
I1214 15:37:38.356803  7500 net.cpp:165] Memory required for data: 2657546800
I1214 15:37:38.356820  7500 layer_factory.hpp:77] Creating layer conv4_5
I1214 15:37:38.356848  7500 net.cpp:106] Creating Layer conv4_5
I1214 15:37:38.356859  7500 net.cpp:454] conv4_5 <- conv4_4_conv4_4/relu_0_split_1
I1214 15:37:38.356870  7500 net.cpp:454] conv4_5 <- conv4_5_1x1_increase
I1214 15:37:38.356883  7500 net.cpp:411] conv4_5 -> conv4_5
I1214 15:37:38.356920  7500 net.cpp:150] Setting up conv4_5
I1214 15:37:38.356935  7500 net.cpp:157] Top shape: 2 1024 60 60 (7372800)
I1214 15:37:38.356942  7500 net.cpp:165] Memory required for data: 2687038000
I1214 15:37:38.356952  7500 layer_factory.hpp:77] Creating layer conv4_5/relu
I1214 15:37:38.356963  7500 net.cpp:106] Creating Layer conv4_5/relu
I1214 15:37:38.356973  7500 net.cpp:454] conv4_5/relu <- conv4_5
I1214 15:37:38.356986  7500 net.cpp:397] conv4_5/relu -> conv4_5 (in-place)
I1214 15:37:38.357000  7500 net.cpp:150] Setting up conv4_5/relu
I1214 15:37:38.357012  7500 net.cpp:157] Top shape: 2 1024 60 60 (7372800)
I1214 15:37:38.357020  7500 net.cpp:165] Memory required for data: 2716529200
I1214 15:37:38.357029  7500 layer_factory.hpp:77] Creating layer conv4_5_conv4_5/relu_0_split
I1214 15:37:38.357040  7500 net.cpp:106] Creating Layer conv4_5_conv4_5/relu_0_split
I1214 15:37:38.357053  7500 net.cpp:454] conv4_5_conv4_5/relu_0_split <- conv4_5
I1214 15:37:38.357065  7500 net.cpp:411] conv4_5_conv4_5/relu_0_split -> conv4_5_conv4_5/relu_0_split_0
I1214 15:37:38.357079  7500 net.cpp:411] conv4_5_conv4_5/relu_0_split -> conv4_5_conv4_5/relu_0_split_1
I1214 15:37:38.357131  7500 net.cpp:150] Setting up conv4_5_conv4_5/relu_0_split
I1214 15:37:38.357152  7500 net.cpp:157] Top shape: 2 1024 60 60 (7372800)
I1214 15:37:38.357164  7500 net.cpp:157] Top shape: 2 1024 60 60 (7372800)
I1214 15:37:38.357172  7500 net.cpp:165] Memory required for data: 2775511600
I1214 15:37:38.357182  7500 layer_factory.hpp:77] Creating layer conv4_6_1x1_reduce
I1214 15:37:38.357195  7500 net.cpp:106] Creating Layer conv4_6_1x1_reduce
I1214 15:37:38.357205  7500 net.cpp:454] conv4_6_1x1_reduce <- conv4_5_conv4_5/relu_0_split_0
I1214 15:37:38.357220  7500 net.cpp:411] conv4_6_1x1_reduce -> conv4_6_1x1_reduce
I1214 15:37:38.373333  7500 net.cpp:150] Setting up conv4_6_1x1_reduce
I1214 15:37:38.373354  7500 net.cpp:157] Top shape: 2 256 60 60 (1843200)
I1214 15:37:38.373363  7500 net.cpp:165] Memory required for data: 2782884400
I1214 15:37:38.373376  7500 layer_factory.hpp:77] Creating layer conv4_6_1x1_reduce/bn
I1214 15:37:38.373390  7500 net.cpp:106] Creating Layer conv4_6_1x1_reduce/bn
I1214 15:37:38.373400  7500 net.cpp:454] conv4_6_1x1_reduce/bn <- conv4_6_1x1_reduce
I1214 15:37:38.373415  7500 net.cpp:397] conv4_6_1x1_reduce/bn -> conv4_6_1x1_reduce (in-place)
I1214 15:37:38.373697  7500 net.cpp:150] Setting up conv4_6_1x1_reduce/bn
I1214 15:37:38.373713  7500 net.cpp:157] Top shape: 2 256 60 60 (1843200)
I1214 15:37:38.373721  7500 net.cpp:165] Memory required for data: 2790257200
I1214 15:37:38.373739  7500 layer_factory.hpp:77] Creating layer conv4_6_1x1_reduce/relu
I1214 15:37:38.373752  7500 net.cpp:106] Creating Layer conv4_6_1x1_reduce/relu
I1214 15:37:38.373764  7500 net.cpp:454] conv4_6_1x1_reduce/relu <- conv4_6_1x1_reduce
I1214 15:37:38.373775  7500 net.cpp:397] conv4_6_1x1_reduce/relu -> conv4_6_1x1_reduce (in-place)
I1214 15:37:38.373788  7500 net.cpp:150] Setting up conv4_6_1x1_reduce/relu
I1214 15:37:38.373800  7500 net.cpp:157] Top shape: 2 256 60 60 (1843200)
I1214 15:37:38.373808  7500 net.cpp:165] Memory required for data: 2797630000
I1214 15:37:38.373817  7500 layer_factory.hpp:77] Creating layer conv4_6_3x3
I1214 15:37:38.373831  7500 net.cpp:106] Creating Layer conv4_6_3x3
I1214 15:37:38.373842  7500 net.cpp:454] conv4_6_3x3 <- conv4_6_1x1_reduce
I1214 15:37:38.373857  7500 net.cpp:411] conv4_6_3x3 -> conv4_6_3x3
I1214 15:37:38.409893  7500 net.cpp:150] Setting up conv4_6_3x3
I1214 15:37:38.409914  7500 net.cpp:157] Top shape: 2 256 60 60 (1843200)
I1214 15:37:38.409924  7500 net.cpp:165] Memory required for data: 2805002800
I1214 15:37:38.409936  7500 layer_factory.hpp:77] Creating layer conv4_6_3x3/bn
I1214 15:37:38.409955  7500 net.cpp:106] Creating Layer conv4_6_3x3/bn
I1214 15:37:38.409975  7500 net.cpp:454] conv4_6_3x3/bn <- conv4_6_3x3
I1214 15:37:38.409989  7500 net.cpp:397] conv4_6_3x3/bn -> conv4_6_3x3 (in-place)
I1214 15:37:38.410276  7500 net.cpp:150] Setting up conv4_6_3x3/bn
I1214 15:37:38.410293  7500 net.cpp:157] Top shape: 2 256 60 60 (1843200)
I1214 15:37:38.410302  7500 net.cpp:165] Memory required for data: 2812375600
I1214 15:37:38.410320  7500 layer_factory.hpp:77] Creating layer conv4_6_3x3/relu
I1214 15:37:38.410331  7500 net.cpp:106] Creating Layer conv4_6_3x3/relu
I1214 15:37:38.410341  7500 net.cpp:454] conv4_6_3x3/relu <- conv4_6_3x3
I1214 15:37:38.410354  7500 net.cpp:397] conv4_6_3x3/relu -> conv4_6_3x3 (in-place)
I1214 15:37:38.410368  7500 net.cpp:150] Setting up conv4_6_3x3/relu
I1214 15:37:38.410380  7500 net.cpp:157] Top shape: 2 256 60 60 (1843200)
I1214 15:37:38.410389  7500 net.cpp:165] Memory required for data: 2819748400
I1214 15:37:38.410398  7500 layer_factory.hpp:77] Creating layer conv4_6_1x1_increase
I1214 15:37:38.410411  7500 net.cpp:106] Creating Layer conv4_6_1x1_increase
I1214 15:37:38.410421  7500 net.cpp:454] conv4_6_1x1_increase <- conv4_6_3x3
I1214 15:37:38.410434  7500 net.cpp:411] conv4_6_1x1_increase -> conv4_6_1x1_increase
I1214 15:37:38.426367  7500 net.cpp:150] Setting up conv4_6_1x1_increase
I1214 15:37:38.426388  7500 net.cpp:157] Top shape: 2 1024 60 60 (7372800)
I1214 15:37:38.426396  7500 net.cpp:165] Memory required for data: 2849239600
I1214 15:37:38.426409  7500 layer_factory.hpp:77] Creating layer conv4_6_1x1_increase/bn
I1214 15:37:38.426425  7500 net.cpp:106] Creating Layer conv4_6_1x1_increase/bn
I1214 15:37:38.426436  7500 net.cpp:454] conv4_6_1x1_increase/bn <- conv4_6_1x1_increase
I1214 15:37:38.426450  7500 net.cpp:397] conv4_6_1x1_increase/bn -> conv4_6_1x1_increase (in-place)
I1214 15:37:38.426739  7500 net.cpp:150] Setting up conv4_6_1x1_increase/bn
I1214 15:37:38.426756  7500 net.cpp:157] Top shape: 2 1024 60 60 (7372800)
I1214 15:37:38.426765  7500 net.cpp:165] Memory required for data: 2878730800
I1214 15:37:38.426782  7500 layer_factory.hpp:77] Creating layer conv4_6
I1214 15:37:38.426795  7500 net.cpp:106] Creating Layer conv4_6
I1214 15:37:38.426805  7500 net.cpp:454] conv4_6 <- conv4_5_conv4_5/relu_0_split_1
I1214 15:37:38.426816  7500 net.cpp:454] conv4_6 <- conv4_6_1x1_increase
I1214 15:37:38.426831  7500 net.cpp:411] conv4_6 -> conv4_6
I1214 15:37:38.426869  7500 net.cpp:150] Setting up conv4_6
I1214 15:37:38.426887  7500 net.cpp:157] Top shape: 2 1024 60 60 (7372800)
I1214 15:37:38.426895  7500 net.cpp:165] Memory required for data: 2908222000
I1214 15:37:38.426904  7500 layer_factory.hpp:77] Creating layer conv4_6/relu
I1214 15:37:38.426916  7500 net.cpp:106] Creating Layer conv4_6/relu
I1214 15:37:38.426926  7500 net.cpp:454] conv4_6/relu <- conv4_6
I1214 15:37:38.426937  7500 net.cpp:397] conv4_6/relu -> conv4_6 (in-place)
I1214 15:37:38.426950  7500 net.cpp:150] Setting up conv4_6/relu
I1214 15:37:38.426961  7500 net.cpp:157] Top shape: 2 1024 60 60 (7372800)
I1214 15:37:38.426970  7500 net.cpp:165] Memory required for data: 2937713200
I1214 15:37:38.426980  7500 layer_factory.hpp:77] Creating layer conv4_6_conv4_6/relu_0_split
I1214 15:37:38.426993  7500 net.cpp:106] Creating Layer conv4_6_conv4_6/relu_0_split
I1214 15:37:38.427004  7500 net.cpp:454] conv4_6_conv4_6/relu_0_split <- conv4_6
I1214 15:37:38.427016  7500 net.cpp:411] conv4_6_conv4_6/relu_0_split -> conv4_6_conv4_6/relu_0_split_0
I1214 15:37:38.427031  7500 net.cpp:411] conv4_6_conv4_6/relu_0_split -> conv4_6_conv4_6/relu_0_split_1
I1214 15:37:38.427086  7500 net.cpp:150] Setting up conv4_6_conv4_6/relu_0_split
I1214 15:37:38.427101  7500 net.cpp:157] Top shape: 2 1024 60 60 (7372800)
I1214 15:37:38.427112  7500 net.cpp:157] Top shape: 2 1024 60 60 (7372800)
I1214 15:37:38.427120  7500 net.cpp:165] Memory required for data: 2996695600
I1214 15:37:38.427130  7500 layer_factory.hpp:77] Creating layer conv4_7_1x1_reduce
I1214 15:37:38.427146  7500 net.cpp:106] Creating Layer conv4_7_1x1_reduce
I1214 15:37:38.427168  7500 net.cpp:454] conv4_7_1x1_reduce <- conv4_6_conv4_6/relu_0_split_0
I1214 15:37:38.427184  7500 net.cpp:411] conv4_7_1x1_reduce -> conv4_7_1x1_reduce
I1214 15:37:38.443344  7500 net.cpp:150] Setting up conv4_7_1x1_reduce
I1214 15:37:38.443367  7500 net.cpp:157] Top shape: 2 256 60 60 (1843200)
I1214 15:37:38.443375  7500 net.cpp:165] Memory required for data: 3004068400
I1214 15:37:38.443388  7500 layer_factory.hpp:77] Creating layer conv4_7_1x1_reduce/bn
I1214 15:37:38.443405  7500 net.cpp:106] Creating Layer conv4_7_1x1_reduce/bn
I1214 15:37:38.443416  7500 net.cpp:454] conv4_7_1x1_reduce/bn <- conv4_7_1x1_reduce
I1214 15:37:38.443429  7500 net.cpp:397] conv4_7_1x1_reduce/bn -> conv4_7_1x1_reduce (in-place)
I1214 15:37:38.443717  7500 net.cpp:150] Setting up conv4_7_1x1_reduce/bn
I1214 15:37:38.443734  7500 net.cpp:157] Top shape: 2 256 60 60 (1843200)
I1214 15:37:38.443743  7500 net.cpp:165] Memory required for data: 3011441200
I1214 15:37:38.443760  7500 layer_factory.hpp:77] Creating layer conv4_7_1x1_reduce/relu
I1214 15:37:38.443773  7500 net.cpp:106] Creating Layer conv4_7_1x1_reduce/relu
I1214 15:37:38.443781  7500 net.cpp:454] conv4_7_1x1_reduce/relu <- conv4_7_1x1_reduce
I1214 15:37:38.443795  7500 net.cpp:397] conv4_7_1x1_reduce/relu -> conv4_7_1x1_reduce (in-place)
I1214 15:37:38.443810  7500 net.cpp:150] Setting up conv4_7_1x1_reduce/relu
I1214 15:37:38.443822  7500 net.cpp:157] Top shape: 2 256 60 60 (1843200)
I1214 15:37:38.443830  7500 net.cpp:165] Memory required for data: 3018814000
I1214 15:37:38.443840  7500 layer_factory.hpp:77] Creating layer conv4_7_3x3
I1214 15:37:38.443856  7500 net.cpp:106] Creating Layer conv4_7_3x3
I1214 15:37:38.443866  7500 net.cpp:454] conv4_7_3x3 <- conv4_7_1x1_reduce
I1214 15:37:38.443879  7500 net.cpp:411] conv4_7_3x3 -> conv4_7_3x3
I1214 15:37:38.479672  7500 net.cpp:150] Setting up conv4_7_3x3
I1214 15:37:38.479694  7500 net.cpp:157] Top shape: 2 256 60 60 (1843200)
I1214 15:37:38.479703  7500 net.cpp:165] Memory required for data: 3026186800
I1214 15:37:38.479717  7500 layer_factory.hpp:77] Creating layer conv4_7_3x3/bn
I1214 15:37:38.479733  7500 net.cpp:106] Creating Layer conv4_7_3x3/bn
I1214 15:37:38.479744  7500 net.cpp:454] conv4_7_3x3/bn <- conv4_7_3x3
I1214 15:37:38.479758  7500 net.cpp:397] conv4_7_3x3/bn -> conv4_7_3x3 (in-place)
I1214 15:37:38.480049  7500 net.cpp:150] Setting up conv4_7_3x3/bn
I1214 15:37:38.480067  7500 net.cpp:157] Top shape: 2 256 60 60 (1843200)
I1214 15:37:38.480075  7500 net.cpp:165] Memory required for data: 3033559600
I1214 15:37:38.480093  7500 layer_factory.hpp:77] Creating layer conv4_7_3x3/relu
I1214 15:37:38.480104  7500 net.cpp:106] Creating Layer conv4_7_3x3/relu
I1214 15:37:38.480114  7500 net.cpp:454] conv4_7_3x3/relu <- conv4_7_3x3
I1214 15:37:38.480125  7500 net.cpp:397] conv4_7_3x3/relu -> conv4_7_3x3 (in-place)
I1214 15:37:38.480139  7500 net.cpp:150] Setting up conv4_7_3x3/relu
I1214 15:37:38.480156  7500 net.cpp:157] Top shape: 2 256 60 60 (1843200)
I1214 15:37:38.480166  7500 net.cpp:165] Memory required for data: 3040932400
I1214 15:37:38.480175  7500 layer_factory.hpp:77] Creating layer conv4_7_1x1_increase
I1214 15:37:38.480195  7500 net.cpp:106] Creating Layer conv4_7_1x1_increase
I1214 15:37:38.480206  7500 net.cpp:454] conv4_7_1x1_increase <- conv4_7_3x3
I1214 15:37:38.480221  7500 net.cpp:411] conv4_7_1x1_increase -> conv4_7_1x1_increase
I1214 15:37:38.496304  7500 net.cpp:150] Setting up conv4_7_1x1_increase
I1214 15:37:38.496325  7500 net.cpp:157] Top shape: 2 1024 60 60 (7372800)
I1214 15:37:38.496335  7500 net.cpp:165] Memory required for data: 3070423600
I1214 15:37:38.496346  7500 layer_factory.hpp:77] Creating layer conv4_7_1x1_increase/bn
I1214 15:37:38.496363  7500 net.cpp:106] Creating Layer conv4_7_1x1_increase/bn
I1214 15:37:38.496373  7500 net.cpp:454] conv4_7_1x1_increase/bn <- conv4_7_1x1_increase
I1214 15:37:38.496387  7500 net.cpp:397] conv4_7_1x1_increase/bn -> conv4_7_1x1_increase (in-place)
I1214 15:37:38.496691  7500 net.cpp:150] Setting up conv4_7_1x1_increase/bn
I1214 15:37:38.496716  7500 net.cpp:157] Top shape: 2 1024 60 60 (7372800)
I1214 15:37:38.496726  7500 net.cpp:165] Memory required for data: 3099914800
I1214 15:37:38.496742  7500 layer_factory.hpp:77] Creating layer conv4_7
I1214 15:37:38.496755  7500 net.cpp:106] Creating Layer conv4_7
I1214 15:37:38.496765  7500 net.cpp:454] conv4_7 <- conv4_6_conv4_6/relu_0_split_1
I1214 15:37:38.496776  7500 net.cpp:454] conv4_7 <- conv4_7_1x1_increase
I1214 15:37:38.496788  7500 net.cpp:411] conv4_7 -> conv4_7
I1214 15:37:38.496829  7500 net.cpp:150] Setting up conv4_7
I1214 15:37:38.496845  7500 net.cpp:157] Top shape: 2 1024 60 60 (7372800)
I1214 15:37:38.496852  7500 net.cpp:165] Memory required for data: 3129406000
I1214 15:37:38.496861  7500 layer_factory.hpp:77] Creating layer conv4_7/relu
I1214 15:37:38.496873  7500 net.cpp:106] Creating Layer conv4_7/relu
I1214 15:37:38.496882  7500 net.cpp:454] conv4_7/relu <- conv4_7
I1214 15:37:38.496896  7500 net.cpp:397] conv4_7/relu -> conv4_7 (in-place)
I1214 15:37:38.496911  7500 net.cpp:150] Setting up conv4_7/relu
I1214 15:37:38.496922  7500 net.cpp:157] Top shape: 2 1024 60 60 (7372800)
I1214 15:37:38.496930  7500 net.cpp:165] Memory required for data: 3158897200
I1214 15:37:38.496940  7500 layer_factory.hpp:77] Creating layer conv4_7_conv4_7/relu_0_split
I1214 15:37:38.496951  7500 net.cpp:106] Creating Layer conv4_7_conv4_7/relu_0_split
I1214 15:37:38.496960  7500 net.cpp:454] conv4_7_conv4_7/relu_0_split <- conv4_7
I1214 15:37:38.496973  7500 net.cpp:411] conv4_7_conv4_7/relu_0_split -> conv4_7_conv4_7/relu_0_split_0
I1214 15:37:38.496989  7500 net.cpp:411] conv4_7_conv4_7/relu_0_split -> conv4_7_conv4_7/relu_0_split_1
I1214 15:37:38.497045  7500 net.cpp:150] Setting up conv4_7_conv4_7/relu_0_split
I1214 15:37:38.497059  7500 net.cpp:157] Top shape: 2 1024 60 60 (7372800)
I1214 15:37:38.497071  7500 net.cpp:157] Top shape: 2 1024 60 60 (7372800)
I1214 15:37:38.497078  7500 net.cpp:165] Memory required for data: 3217879600
I1214 15:37:38.497087  7500 layer_factory.hpp:77] Creating layer conv4_8_1x1_reduce
I1214 15:37:38.497105  7500 net.cpp:106] Creating Layer conv4_8_1x1_reduce
I1214 15:37:38.497117  7500 net.cpp:454] conv4_8_1x1_reduce <- conv4_7_conv4_7/relu_0_split_0
I1214 15:37:38.497131  7500 net.cpp:411] conv4_8_1x1_reduce -> conv4_8_1x1_reduce
I1214 15:37:38.513041  7500 net.cpp:150] Setting up conv4_8_1x1_reduce
I1214 15:37:38.513062  7500 net.cpp:157] Top shape: 2 256 60 60 (1843200)
I1214 15:37:38.513070  7500 net.cpp:165] Memory required for data: 3225252400
I1214 15:37:38.513083  7500 layer_factory.hpp:77] Creating layer conv4_8_1x1_reduce/bn
I1214 15:37:38.513099  7500 net.cpp:106] Creating Layer conv4_8_1x1_reduce/bn
I1214 15:37:38.513110  7500 net.cpp:454] conv4_8_1x1_reduce/bn <- conv4_8_1x1_reduce
I1214 15:37:38.513123  7500 net.cpp:397] conv4_8_1x1_reduce/bn -> conv4_8_1x1_reduce (in-place)
I1214 15:37:38.513422  7500 net.cpp:150] Setting up conv4_8_1x1_reduce/bn
I1214 15:37:38.513438  7500 net.cpp:157] Top shape: 2 256 60 60 (1843200)
I1214 15:37:38.513447  7500 net.cpp:165] Memory required for data: 3232625200
I1214 15:37:38.513463  7500 layer_factory.hpp:77] Creating layer conv4_8_1x1_reduce/relu
I1214 15:37:38.513475  7500 net.cpp:106] Creating Layer conv4_8_1x1_reduce/relu
I1214 15:37:38.513485  7500 net.cpp:454] conv4_8_1x1_reduce/relu <- conv4_8_1x1_reduce
I1214 15:37:38.513496  7500 net.cpp:397] conv4_8_1x1_reduce/relu -> conv4_8_1x1_reduce (in-place)
I1214 15:37:38.513510  7500 net.cpp:150] Setting up conv4_8_1x1_reduce/relu
I1214 15:37:38.513521  7500 net.cpp:157] Top shape: 2 256 60 60 (1843200)
I1214 15:37:38.513530  7500 net.cpp:165] Memory required for data: 3239998000
I1214 15:37:38.513540  7500 layer_factory.hpp:77] Creating layer conv4_8_3x3
I1214 15:37:38.513556  7500 net.cpp:106] Creating Layer conv4_8_3x3
I1214 15:37:38.513566  7500 net.cpp:454] conv4_8_3x3 <- conv4_8_1x1_reduce
I1214 15:37:38.513581  7500 net.cpp:411] conv4_8_3x3 -> conv4_8_3x3
I1214 15:37:38.549367  7500 net.cpp:150] Setting up conv4_8_3x3
I1214 15:37:38.549393  7500 net.cpp:157] Top shape: 2 256 60 60 (1843200)
I1214 15:37:38.549412  7500 net.cpp:165] Memory required for data: 3247370800
I1214 15:37:38.549424  7500 layer_factory.hpp:77] Creating layer conv4_8_3x3/bn
I1214 15:37:38.549441  7500 net.cpp:106] Creating Layer conv4_8_3x3/bn
I1214 15:37:38.549453  7500 net.cpp:454] conv4_8_3x3/bn <- conv4_8_3x3
I1214 15:37:38.549465  7500 net.cpp:397] conv4_8_3x3/bn -> conv4_8_3x3 (in-place)
I1214 15:37:38.549763  7500 net.cpp:150] Setting up conv4_8_3x3/bn
I1214 15:37:38.549782  7500 net.cpp:157] Top shape: 2 256 60 60 (1843200)
I1214 15:37:38.549792  7500 net.cpp:165] Memory required for data: 3254743600
I1214 15:37:38.549809  7500 layer_factory.hpp:77] Creating layer conv4_8_3x3/relu
I1214 15:37:38.549821  7500 net.cpp:106] Creating Layer conv4_8_3x3/relu
I1214 15:37:38.549831  7500 net.cpp:454] conv4_8_3x3/relu <- conv4_8_3x3
I1214 15:37:38.549842  7500 net.cpp:397] conv4_8_3x3/relu -> conv4_8_3x3 (in-place)
I1214 15:37:38.549856  7500 net.cpp:150] Setting up conv4_8_3x3/relu
I1214 15:37:38.549867  7500 net.cpp:157] Top shape: 2 256 60 60 (1843200)
I1214 15:37:38.549876  7500 net.cpp:165] Memory required for data: 3262116400
I1214 15:37:38.549885  7500 layer_factory.hpp:77] Creating layer conv4_8_1x1_increase
I1214 15:37:38.549901  7500 net.cpp:106] Creating Layer conv4_8_1x1_increase
I1214 15:37:38.549912  7500 net.cpp:454] conv4_8_1x1_increase <- conv4_8_3x3
I1214 15:37:38.549926  7500 net.cpp:411] conv4_8_1x1_increase -> conv4_8_1x1_increase
I1214 15:37:38.566287  7500 net.cpp:150] Setting up conv4_8_1x1_increase
I1214 15:37:38.566309  7500 net.cpp:157] Top shape: 2 1024 60 60 (7372800)
I1214 15:37:38.566318  7500 net.cpp:165] Memory required for data: 3291607600
I1214 15:37:38.566330  7500 layer_factory.hpp:77] Creating layer conv4_8_1x1_increase/bn
I1214 15:37:38.566344  7500 net.cpp:106] Creating Layer conv4_8_1x1_increase/bn
I1214 15:37:38.566355  7500 net.cpp:454] conv4_8_1x1_increase/bn <- conv4_8_1x1_increase
I1214 15:37:38.566370  7500 net.cpp:397] conv4_8_1x1_increase/bn -> conv4_8_1x1_increase (in-place)
I1214 15:37:38.566670  7500 net.cpp:150] Setting up conv4_8_1x1_increase/bn
I1214 15:37:38.566689  7500 net.cpp:157] Top shape: 2 1024 60 60 (7372800)
I1214 15:37:38.566697  7500 net.cpp:165] Memory required for data: 3321098800
I1214 15:37:38.566715  7500 layer_factory.hpp:77] Creating layer conv4_8
I1214 15:37:38.566730  7500 net.cpp:106] Creating Layer conv4_8
I1214 15:37:38.566740  7500 net.cpp:454] conv4_8 <- conv4_7_conv4_7/relu_0_split_1
I1214 15:37:38.566751  7500 net.cpp:454] conv4_8 <- conv4_8_1x1_increase
I1214 15:37:38.566763  7500 net.cpp:411] conv4_8 -> conv4_8
I1214 15:37:38.566800  7500 net.cpp:150] Setting up conv4_8
I1214 15:37:38.566817  7500 net.cpp:157] Top shape: 2 1024 60 60 (7372800)
I1214 15:37:38.566825  7500 net.cpp:165] Memory required for data: 3350590000
I1214 15:37:38.566834  7500 layer_factory.hpp:77] Creating layer conv4_8/relu
I1214 15:37:38.566848  7500 net.cpp:106] Creating Layer conv4_8/relu
I1214 15:37:38.566859  7500 net.cpp:454] conv4_8/relu <- conv4_8
I1214 15:37:38.566870  7500 net.cpp:397] conv4_8/relu -> conv4_8 (in-place)
I1214 15:37:38.566884  7500 net.cpp:150] Setting up conv4_8/relu
I1214 15:37:38.566895  7500 net.cpp:157] Top shape: 2 1024 60 60 (7372800)
I1214 15:37:38.566903  7500 net.cpp:165] Memory required for data: 3380081200
I1214 15:37:38.566912  7500 layer_factory.hpp:77] Creating layer conv4_8_conv4_8/relu_0_split
I1214 15:37:38.566928  7500 net.cpp:106] Creating Layer conv4_8_conv4_8/relu_0_split
I1214 15:37:38.566939  7500 net.cpp:454] conv4_8_conv4_8/relu_0_split <- conv4_8
I1214 15:37:38.566951  7500 net.cpp:411] conv4_8_conv4_8/relu_0_split -> conv4_8_conv4_8/relu_0_split_0
I1214 15:37:38.566965  7500 net.cpp:411] conv4_8_conv4_8/relu_0_split -> conv4_8_conv4_8/relu_0_split_1
I1214 15:37:38.567023  7500 net.cpp:150] Setting up conv4_8_conv4_8/relu_0_split
I1214 15:37:38.567037  7500 net.cpp:157] Top shape: 2 1024 60 60 (7372800)
I1214 15:37:38.567049  7500 net.cpp:157] Top shape: 2 1024 60 60 (7372800)
I1214 15:37:38.567070  7500 net.cpp:165] Memory required for data: 3439063600
I1214 15:37:38.567080  7500 layer_factory.hpp:77] Creating layer conv4_9_1x1_reduce
I1214 15:37:38.567096  7500 net.cpp:106] Creating Layer conv4_9_1x1_reduce
I1214 15:37:38.567106  7500 net.cpp:454] conv4_9_1x1_reduce <- conv4_8_conv4_8/relu_0_split_0
I1214 15:37:38.567121  7500 net.cpp:411] conv4_9_1x1_reduce -> conv4_9_1x1_reduce
I1214 15:37:38.583149  7500 net.cpp:150] Setting up conv4_9_1x1_reduce
I1214 15:37:38.583170  7500 net.cpp:157] Top shape: 2 256 60 60 (1843200)
I1214 15:37:38.583180  7500 net.cpp:165] Memory required for data: 3446436400
I1214 15:37:38.583194  7500 layer_factory.hpp:77] Creating layer conv4_9_1x1_reduce/bn
I1214 15:37:38.583207  7500 net.cpp:106] Creating Layer conv4_9_1x1_reduce/bn
I1214 15:37:38.583217  7500 net.cpp:454] conv4_9_1x1_reduce/bn <- conv4_9_1x1_reduce
I1214 15:37:38.583235  7500 net.cpp:397] conv4_9_1x1_reduce/bn -> conv4_9_1x1_reduce (in-place)
I1214 15:37:38.583537  7500 net.cpp:150] Setting up conv4_9_1x1_reduce/bn
I1214 15:37:38.583555  7500 net.cpp:157] Top shape: 2 256 60 60 (1843200)
I1214 15:37:38.583564  7500 net.cpp:165] Memory required for data: 3453809200
I1214 15:37:38.583613  7500 layer_factory.hpp:77] Creating layer conv4_9_1x1_reduce/relu
I1214 15:37:38.583627  7500 net.cpp:106] Creating Layer conv4_9_1x1_reduce/relu
I1214 15:37:38.583637  7500 net.cpp:454] conv4_9_1x1_reduce/relu <- conv4_9_1x1_reduce
I1214 15:37:38.583649  7500 net.cpp:397] conv4_9_1x1_reduce/relu -> conv4_9_1x1_reduce (in-place)
I1214 15:37:38.583662  7500 net.cpp:150] Setting up conv4_9_1x1_reduce/relu
I1214 15:37:38.583674  7500 net.cpp:157] Top shape: 2 256 60 60 (1843200)
I1214 15:37:38.583683  7500 net.cpp:165] Memory required for data: 3461182000
I1214 15:37:38.583693  7500 layer_factory.hpp:77] Creating layer conv4_9_3x3
I1214 15:37:38.583709  7500 net.cpp:106] Creating Layer conv4_9_3x3
I1214 15:37:38.583720  7500 net.cpp:454] conv4_9_3x3 <- conv4_9_1x1_reduce
I1214 15:37:38.583734  7500 net.cpp:411] conv4_9_3x3 -> conv4_9_3x3
I1214 15:37:38.619681  7500 net.cpp:150] Setting up conv4_9_3x3
I1214 15:37:38.619702  7500 net.cpp:157] Top shape: 2 256 60 60 (1843200)
I1214 15:37:38.619711  7500 net.cpp:165] Memory required for data: 3468554800
I1214 15:37:38.619724  7500 layer_factory.hpp:77] Creating layer conv4_9_3x3/bn
I1214 15:37:38.619740  7500 net.cpp:106] Creating Layer conv4_9_3x3/bn
I1214 15:37:38.619751  7500 net.cpp:454] conv4_9_3x3/bn <- conv4_9_3x3
I1214 15:37:38.619765  7500 net.cpp:397] conv4_9_3x3/bn -> conv4_9_3x3 (in-place)
I1214 15:37:38.620062  7500 net.cpp:150] Setting up conv4_9_3x3/bn
I1214 15:37:38.620079  7500 net.cpp:157] Top shape: 2 256 60 60 (1843200)
I1214 15:37:38.620088  7500 net.cpp:165] Memory required for data: 3475927600
I1214 15:37:38.620105  7500 layer_factory.hpp:77] Creating layer conv4_9_3x3/relu
I1214 15:37:38.620116  7500 net.cpp:106] Creating Layer conv4_9_3x3/relu
I1214 15:37:38.620126  7500 net.cpp:454] conv4_9_3x3/relu <- conv4_9_3x3
I1214 15:37:38.620137  7500 net.cpp:397] conv4_9_3x3/relu -> conv4_9_3x3 (in-place)
I1214 15:37:38.620157  7500 net.cpp:150] Setting up conv4_9_3x3/relu
I1214 15:37:38.620170  7500 net.cpp:157] Top shape: 2 256 60 60 (1843200)
I1214 15:37:38.620179  7500 net.cpp:165] Memory required for data: 3483300400
I1214 15:37:38.620188  7500 layer_factory.hpp:77] Creating layer conv4_9_1x1_increase
I1214 15:37:38.620205  7500 net.cpp:106] Creating Layer conv4_9_1x1_increase
I1214 15:37:38.620215  7500 net.cpp:454] conv4_9_1x1_increase <- conv4_9_3x3
I1214 15:37:38.620235  7500 net.cpp:411] conv4_9_1x1_increase -> conv4_9_1x1_increase
I1214 15:37:38.636320  7500 net.cpp:150] Setting up conv4_9_1x1_increase
I1214 15:37:38.636342  7500 net.cpp:157] Top shape: 2 1024 60 60 (7372800)
I1214 15:37:38.636350  7500 net.cpp:165] Memory required for data: 3512791600
I1214 15:37:38.636363  7500 layer_factory.hpp:77] Creating layer conv4_9_1x1_increase/bn
I1214 15:37:38.636382  7500 net.cpp:106] Creating Layer conv4_9_1x1_increase/bn
I1214 15:37:38.636399  7500 net.cpp:454] conv4_9_1x1_increase/bn <- conv4_9_1x1_increase
I1214 15:37:38.636420  7500 net.cpp:397] conv4_9_1x1_increase/bn -> conv4_9_1x1_increase (in-place)
I1214 15:37:38.636719  7500 net.cpp:150] Setting up conv4_9_1x1_increase/bn
I1214 15:37:38.636736  7500 net.cpp:157] Top shape: 2 1024 60 60 (7372800)
I1214 15:37:38.636745  7500 net.cpp:165] Memory required for data: 3542282800
I1214 15:37:38.636762  7500 layer_factory.hpp:77] Creating layer conv4_9
I1214 15:37:38.636775  7500 net.cpp:106] Creating Layer conv4_9
I1214 15:37:38.636785  7500 net.cpp:454] conv4_9 <- conv4_8_conv4_8/relu_0_split_1
I1214 15:37:38.636795  7500 net.cpp:454] conv4_9 <- conv4_9_1x1_increase
I1214 15:37:38.636807  7500 net.cpp:411] conv4_9 -> conv4_9
I1214 15:37:38.636847  7500 net.cpp:150] Setting up conv4_9
I1214 15:37:38.636863  7500 net.cpp:157] Top shape: 2 1024 60 60 (7372800)
I1214 15:37:38.636871  7500 net.cpp:165] Memory required for data: 3571774000
I1214 15:37:38.636881  7500 layer_factory.hpp:77] Creating layer conv4_9/relu
I1214 15:37:38.636893  7500 net.cpp:106] Creating Layer conv4_9/relu
I1214 15:37:38.636903  7500 net.cpp:454] conv4_9/relu <- conv4_9
I1214 15:37:38.636915  7500 net.cpp:397] conv4_9/relu -> conv4_9 (in-place)
I1214 15:37:38.636929  7500 net.cpp:150] Setting up conv4_9/relu
I1214 15:37:38.636941  7500 net.cpp:157] Top shape: 2 1024 60 60 (7372800)
I1214 15:37:38.636950  7500 net.cpp:165] Memory required for data: 3601265200
I1214 15:37:38.636958  7500 layer_factory.hpp:77] Creating layer conv4_9_conv4_9/relu_0_split
I1214 15:37:38.636970  7500 net.cpp:106] Creating Layer conv4_9_conv4_9/relu_0_split
I1214 15:37:38.636979  7500 net.cpp:454] conv4_9_conv4_9/relu_0_split <- conv4_9
I1214 15:37:38.636993  7500 net.cpp:411] conv4_9_conv4_9/relu_0_split -> conv4_9_conv4_9/relu_0_split_0
I1214 15:37:38.637008  7500 net.cpp:411] conv4_9_conv4_9/relu_0_split -> conv4_9_conv4_9/relu_0_split_1
I1214 15:37:38.637065  7500 net.cpp:150] Setting up conv4_9_conv4_9/relu_0_split
I1214 15:37:38.637080  7500 net.cpp:157] Top shape: 2 1024 60 60 (7372800)
I1214 15:37:38.637091  7500 net.cpp:157] Top shape: 2 1024 60 60 (7372800)
I1214 15:37:38.637100  7500 net.cpp:165] Memory required for data: 3660247600
I1214 15:37:38.637109  7500 layer_factory.hpp:77] Creating layer conv4_10_1x1_reduce
I1214 15:37:38.637127  7500 net.cpp:106] Creating Layer conv4_10_1x1_reduce
I1214 15:37:38.637137  7500 net.cpp:454] conv4_10_1x1_reduce <- conv4_9_conv4_9/relu_0_split_0
I1214 15:37:38.637153  7500 net.cpp:411] conv4_10_1x1_reduce -> conv4_10_1x1_reduce
I1214 15:37:38.653168  7500 net.cpp:150] Setting up conv4_10_1x1_reduce
I1214 15:37:38.653190  7500 net.cpp:157] Top shape: 2 256 60 60 (1843200)
I1214 15:37:38.653199  7500 net.cpp:165] Memory required for data: 3667620400
I1214 15:37:38.653213  7500 layer_factory.hpp:77] Creating layer conv4_10_1x1_reduce/bn
I1214 15:37:38.653228  7500 net.cpp:106] Creating Layer conv4_10_1x1_reduce/bn
I1214 15:37:38.653239  7500 net.cpp:454] conv4_10_1x1_reduce/bn <- conv4_10_1x1_reduce
I1214 15:37:38.653252  7500 net.cpp:397] conv4_10_1x1_reduce/bn -> conv4_10_1x1_reduce (in-place)
I1214 15:37:38.653550  7500 net.cpp:150] Setting up conv4_10_1x1_reduce/bn
I1214 15:37:38.653568  7500 net.cpp:157] Top shape: 2 256 60 60 (1843200)
I1214 15:37:38.653576  7500 net.cpp:165] Memory required for data: 3674993200
I1214 15:37:38.653594  7500 layer_factory.hpp:77] Creating layer conv4_10_1x1_reduce/relu
I1214 15:37:38.653605  7500 net.cpp:106] Creating Layer conv4_10_1x1_reduce/relu
I1214 15:37:38.653615  7500 net.cpp:454] conv4_10_1x1_reduce/relu <- conv4_10_1x1_reduce
I1214 15:37:38.653627  7500 net.cpp:397] conv4_10_1x1_reduce/relu -> conv4_10_1x1_reduce (in-place)
I1214 15:37:38.653640  7500 net.cpp:150] Setting up conv4_10_1x1_reduce/relu
I1214 15:37:38.653651  7500 net.cpp:157] Top shape: 2 256 60 60 (1843200)
I1214 15:37:38.653661  7500 net.cpp:165] Memory required for data: 3682366000
I1214 15:37:38.653669  7500 layer_factory.hpp:77] Creating layer conv4_10_3x3
I1214 15:37:38.653692  7500 net.cpp:106] Creating Layer conv4_10_3x3
I1214 15:37:38.653709  7500 net.cpp:454] conv4_10_3x3 <- conv4_10_1x1_reduce
I1214 15:37:38.653725  7500 net.cpp:411] conv4_10_3x3 -> conv4_10_3x3
I1214 15:37:38.690255  7500 net.cpp:150] Setting up conv4_10_3x3
I1214 15:37:38.690276  7500 net.cpp:157] Top shape: 2 256 60 60 (1843200)
I1214 15:37:38.690286  7500 net.cpp:165] Memory required for data: 3689738800
I1214 15:37:38.690299  7500 layer_factory.hpp:77] Creating layer conv4_10_3x3/bn
I1214 15:37:38.690315  7500 net.cpp:106] Creating Layer conv4_10_3x3/bn
I1214 15:37:38.690326  7500 net.cpp:454] conv4_10_3x3/bn <- conv4_10_3x3
I1214 15:37:38.690338  7500 net.cpp:397] conv4_10_3x3/bn -> conv4_10_3x3 (in-place)
I1214 15:37:38.690645  7500 net.cpp:150] Setting up conv4_10_3x3/bn
I1214 15:37:38.690665  7500 net.cpp:157] Top shape: 2 256 60 60 (1843200)
I1214 15:37:38.690675  7500 net.cpp:165] Memory required for data: 3697111600
I1214 15:37:38.690691  7500 layer_factory.hpp:77] Creating layer conv4_10_3x3/relu
I1214 15:37:38.690703  7500 net.cpp:106] Creating Layer conv4_10_3x3/relu
I1214 15:37:38.690712  7500 net.cpp:454] conv4_10_3x3/relu <- conv4_10_3x3
I1214 15:37:38.690724  7500 net.cpp:397] conv4_10_3x3/relu -> conv4_10_3x3 (in-place)
I1214 15:37:38.690737  7500 net.cpp:150] Setting up conv4_10_3x3/relu
I1214 15:37:38.690749  7500 net.cpp:157] Top shape: 2 256 60 60 (1843200)
I1214 15:37:38.690757  7500 net.cpp:165] Memory required for data: 3704484400
I1214 15:37:38.690767  7500 layer_factory.hpp:77] Creating layer conv4_10_1x1_increase
I1214 15:37:38.690783  7500 net.cpp:106] Creating Layer conv4_10_1x1_increase
I1214 15:37:38.690793  7500 net.cpp:454] conv4_10_1x1_increase <- conv4_10_3x3
I1214 15:37:38.690806  7500 net.cpp:411] conv4_10_1x1_increase -> conv4_10_1x1_increase
I1214 15:37:38.706913  7500 net.cpp:150] Setting up conv4_10_1x1_increase
I1214 15:37:38.706935  7500 net.cpp:157] Top shape: 2 1024 60 60 (7372800)
I1214 15:37:38.706944  7500 net.cpp:165] Memory required for data: 3733975600
I1214 15:37:38.706956  7500 layer_factory.hpp:77] Creating layer conv4_10_1x1_increase/bn
I1214 15:37:38.706970  7500 net.cpp:106] Creating Layer conv4_10_1x1_increase/bn
I1214 15:37:38.706980  7500 net.cpp:454] conv4_10_1x1_increase/bn <- conv4_10_1x1_increase
I1214 15:37:38.706996  7500 net.cpp:397] conv4_10_1x1_increase/bn -> conv4_10_1x1_increase (in-place)
I1214 15:37:38.707305  7500 net.cpp:150] Setting up conv4_10_1x1_increase/bn
I1214 15:37:38.707322  7500 net.cpp:157] Top shape: 2 1024 60 60 (7372800)
I1214 15:37:38.707331  7500 net.cpp:165] Memory required for data: 3763466800
I1214 15:37:38.707348  7500 layer_factory.hpp:77] Creating layer conv4_10
I1214 15:37:38.707363  7500 net.cpp:106] Creating Layer conv4_10
I1214 15:37:38.707373  7500 net.cpp:454] conv4_10 <- conv4_9_conv4_9/relu_0_split_1
I1214 15:37:38.707384  7500 net.cpp:454] conv4_10 <- conv4_10_1x1_increase
I1214 15:37:38.707397  7500 net.cpp:411] conv4_10 -> conv4_10
I1214 15:37:38.707435  7500 net.cpp:150] Setting up conv4_10
I1214 15:37:38.707450  7500 net.cpp:157] Top shape: 2 1024 60 60 (7372800)
I1214 15:37:38.707459  7500 net.cpp:165] Memory required for data: 3792958000
I1214 15:37:38.707468  7500 layer_factory.hpp:77] Creating layer conv4_10/relu
I1214 15:37:38.707482  7500 net.cpp:106] Creating Layer conv4_10/relu
I1214 15:37:38.707492  7500 net.cpp:454] conv4_10/relu <- conv4_10
I1214 15:37:38.707504  7500 net.cpp:397] conv4_10/relu -> conv4_10 (in-place)
I1214 15:37:38.707517  7500 net.cpp:150] Setting up conv4_10/relu
I1214 15:37:38.707528  7500 net.cpp:157] Top shape: 2 1024 60 60 (7372800)
I1214 15:37:38.707537  7500 net.cpp:165] Memory required for data: 3822449200
I1214 15:37:38.707546  7500 layer_factory.hpp:77] Creating layer conv4_10_conv4_10/relu_0_split
I1214 15:37:38.707559  7500 net.cpp:106] Creating Layer conv4_10_conv4_10/relu_0_split
I1214 15:37:38.707569  7500 net.cpp:454] conv4_10_conv4_10/relu_0_split <- conv4_10
I1214 15:37:38.707581  7500 net.cpp:411] conv4_10_conv4_10/relu_0_split -> conv4_10_conv4_10/relu_0_split_0
I1214 15:37:38.707602  7500 net.cpp:411] conv4_10_conv4_10/relu_0_split -> conv4_10_conv4_10/relu_0_split_1
I1214 15:37:38.707669  7500 net.cpp:150] Setting up conv4_10_conv4_10/relu_0_split
I1214 15:37:38.707684  7500 net.cpp:157] Top shape: 2 1024 60 60 (7372800)
I1214 15:37:38.707695  7500 net.cpp:157] Top shape: 2 1024 60 60 (7372800)
I1214 15:37:38.707703  7500 net.cpp:165] Memory required for data: 3881431600
I1214 15:37:38.707712  7500 layer_factory.hpp:77] Creating layer conv4_11_1x1_reduce
I1214 15:37:38.707729  7500 net.cpp:106] Creating Layer conv4_11_1x1_reduce
I1214 15:37:38.707739  7500 net.cpp:454] conv4_11_1x1_reduce <- conv4_10_conv4_10/relu_0_split_0
I1214 15:37:38.707756  7500 net.cpp:411] conv4_11_1x1_reduce -> conv4_11_1x1_reduce
I1214 15:37:38.723666  7500 net.cpp:150] Setting up conv4_11_1x1_reduce
I1214 15:37:38.723687  7500 net.cpp:157] Top shape: 2 256 60 60 (1843200)
I1214 15:37:38.723696  7500 net.cpp:165] Memory required for data: 3888804400
I1214 15:37:38.723709  7500 layer_factory.hpp:77] Creating layer conv4_11_1x1_reduce/bn
I1214 15:37:38.723723  7500 net.cpp:106] Creating Layer conv4_11_1x1_reduce/bn
I1214 15:37:38.723733  7500 net.cpp:454] conv4_11_1x1_reduce/bn <- conv4_11_1x1_reduce
I1214 15:37:38.723748  7500 net.cpp:397] conv4_11_1x1_reduce/bn -> conv4_11_1x1_reduce (in-place)
I1214 15:37:38.724056  7500 net.cpp:150] Setting up conv4_11_1x1_reduce/bn
I1214 15:37:38.724073  7500 net.cpp:157] Top shape: 2 256 60 60 (1843200)
I1214 15:37:38.724082  7500 net.cpp:165] Memory required for data: 3896177200
I1214 15:37:38.724099  7500 layer_factory.hpp:77] Creating layer conv4_11_1x1_reduce/relu
I1214 15:37:38.724112  7500 net.cpp:106] Creating Layer conv4_11_1x1_reduce/relu
I1214 15:37:38.724122  7500 net.cpp:454] conv4_11_1x1_reduce/relu <- conv4_11_1x1_reduce
I1214 15:37:38.724133  7500 net.cpp:397] conv4_11_1x1_reduce/relu -> conv4_11_1x1_reduce (in-place)
I1214 15:37:38.724145  7500 net.cpp:150] Setting up conv4_11_1x1_reduce/relu
I1214 15:37:38.724164  7500 net.cpp:157] Top shape: 2 256 60 60 (1843200)
I1214 15:37:38.724174  7500 net.cpp:165] Memory required for data: 3903550000
I1214 15:37:38.724184  7500 layer_factory.hpp:77] Creating layer conv4_11_3x3
I1214 15:37:38.724197  7500 net.cpp:106] Creating Layer conv4_11_3x3
I1214 15:37:38.724207  7500 net.cpp:454] conv4_11_3x3 <- conv4_11_1x1_reduce
I1214 15:37:38.724225  7500 net.cpp:411] conv4_11_3x3 -> conv4_11_3x3
I1214 15:37:38.760380  7500 net.cpp:150] Setting up conv4_11_3x3
I1214 15:37:38.760402  7500 net.cpp:157] Top shape: 2 256 60 60 (1843200)
I1214 15:37:38.760411  7500 net.cpp:165] Memory required for data: 3910922800
I1214 15:37:38.760424  7500 layer_factory.hpp:77] Creating layer conv4_11_3x3/bn
I1214 15:37:38.760438  7500 net.cpp:106] Creating Layer conv4_11_3x3/bn
I1214 15:37:38.760448  7500 net.cpp:454] conv4_11_3x3/bn <- conv4_11_3x3
I1214 15:37:38.760464  7500 net.cpp:397] conv4_11_3x3/bn -> conv4_11_3x3 (in-place)
I1214 15:37:38.760762  7500 net.cpp:150] Setting up conv4_11_3x3/bn
I1214 15:37:38.760779  7500 net.cpp:157] Top shape: 2 256 60 60 (1843200)
I1214 15:37:38.760788  7500 net.cpp:165] Memory required for data: 3918295600
I1214 15:37:38.760804  7500 layer_factory.hpp:77] Creating layer conv4_11_3x3/relu
…
I1214 15:37:43.687929  7500 net.cpp:150] Setting up conv4_22_1x1_reduce
I1214 15:37:43.687950  7500 net.cpp:157] Top shape: 1 256 60 60 (921600)
I1214 15:37:43.687960  7500 net.cpp:165] Memory required for data: 3162704032
I1214 15:37:43.687973  7500 layer_factory.hpp:77] Creating layer conv4_22_1x1_reduce/bn
I1214 15:37:43.687989  7500 net.cpp:106] Creating Layer conv4_22_1x1_reduce/bn
I1214 15:37:43.688000  7500 net.cpp:454] conv4_22_1x1_reduce/bn <- conv4_22_1x1_reduce
I1214 15:37:43.688014  7500 net.cpp:397] conv4_22_1x1_reduce/bn -> conv4_22_1x1_reduce (in-place)
I1214 15:37:43.688289  7500 net.cpp:150] Setting up conv4_22_1x1_reduce/bn
I1214 15:37:43.688308  7500 net.cpp:157] Top shape: 1 256 60 60 (921600)
I1214 15:37:43.688318  7500 net.cpp:165] Memory required for data: 3166390432
I1214 15:37:43.688334  7500 layer_factory.hpp:77] Creating layer conv4_22_1x1_reduce/relu
I1214 15:37:43.688346  7500 net.cpp:106] Creating Layer conv4_22_1x1_reduce/relu
I1214 15:37:43.688355  7500 net.cpp:454] conv4_22_1x1_reduce/relu <- conv4_22_1x1_reduce
I1214 15:37:43.688370  7500 net.cpp:397] conv4_22_1x1_reduce/relu -> conv4_22_1x1_reduce (in-place)
I1214 15:37:43.688385  7500 net.cpp:150] Setting up conv4_22_1x1_reduce/relu
I1214 15:37:43.688396  7500 net.cpp:157] Top shape: 1 256 60 60 (921600)
I1214 15:37:43.688405  7500 net.cpp:165] Memory required for data: 3170076832
I1214 15:37:43.688413  7500 layer_factory.hpp:77] Creating layer conv4_22_3x3
I1214 15:37:43.688431  7500 net.cpp:106] Creating Layer conv4_22_3x3
I1214 15:37:43.688441  7500 net.cpp:454] conv4_22_3x3 <- conv4_22_1x1_reduce
I1214 15:37:43.688453  7500 net.cpp:411] conv4_22_3x3 -> conv4_22_3x3
I1214 15:37:43.724422  7500 net.cpp:150] Setting up conv4_22_3x3
I1214 15:37:43.724444  7500 net.cpp:157] Top shape: 1 256 60 60 (921600)
I1214 15:37:43.724453  7500 net.cpp:165] Memory required for data: 3173763232
I1214 15:37:43.724465  7500 layer_factory.hpp:77] Creating layer conv4_22_3x3/bn
I1214 15:37:43.724483  7500 net.cpp:106] Creating Layer conv4_22_3x3/bn
I1214 15:37:43.724493  7500 net.cpp:454] conv4_22_3x3/bn <- conv4_22_3x3
I1214 15:37:43.724506  7500 net.cpp:397] conv4_22_3x3/bn -> conv4_22_3x3 (in-place)
I1214 15:37:43.724779  7500 net.cpp:150] Setting up conv4_22_3x3/bn
I1214 15:37:43.724797  7500 net.cpp:157] Top shape: 1 256 60 60 (921600)
I1214 15:37:43.724805  7500 net.cpp:165] Memory required for data: 3177449632
I1214 15:37:43.724822  7500 layer_factory.hpp:77] Creating layer conv4_22_3x3/relu
I1214 15:37:43.724834  7500 net.cpp:106] Creating Layer conv4_22_3x3/relu
I1214 15:37:43.724843  7500 net.cpp:454] conv4_22_3x3/relu <- conv4_22_3x3
I1214 15:37:43.724855  7500 net.cpp:397] conv4_22_3x3/relu -> conv4_22_3x3 (in-place)
I1214 15:37:43.724869  7500 net.cpp:150] Setting up conv4_22_3x3/relu
I1214 15:37:43.724879  7500 net.cpp:157] Top shape: 1 256 60 60 (921600)
I1214 15:37:43.724889  7500 net.cpp:165] Memory required for data: 3181136032
I1214 15:37:43.724897  7500 layer_factory.hpp:77] Creating layer conv4_22_1x1_increase
I1214 15:37:43.724915  7500 net.cpp:106] Creating Layer conv4_22_1x1_increase
I1214 15:37:43.724925  7500 net.cpp:454] conv4_22_1x1_increase <- conv4_22_3x3
I1214 15:37:43.724939  7500 net.cpp:411] conv4_22_1x1_increase -> conv4_22_1x1_increase
I1214 15:37:43.741201  7500 net.cpp:150] Setting up conv4_22_1x1_increase
I1214 15:37:43.741222  7500 net.cpp:157] Top shape: 1 1024 60 60 (3686400)
I1214 15:37:43.741231  7500 net.cpp:165] Memory required for data: 3195881632
I1214 15:37:43.741245  7500 layer_factory.hpp:77] Creating layer conv4_22_1x1_increase/bn
I1214 15:37:43.741261  7500 net.cpp:106] Creating Layer conv4_22_1x1_increase/bn
I1214 15:37:43.741271  7500 net.cpp:454] conv4_22_1x1_increase/bn <- conv4_22_1x1_increase
I1214 15:37:43.741289  7500 net.cpp:397] conv4_22_1x1_increase/bn -> conv4_22_1x1_increase (in-place)
I1214 15:37:43.741648  7500 net.cpp:150] Setting up conv4_22_1x1_increase/bn
I1214 15:37:43.741667  7500 net.cpp:157] Top shape: 1 1024 60 60 (3686400)
I1214 15:37:43.741675  7500 net.cpp:165] Memory required for data: 3210627232
I1214 15:37:43.741693  7500 layer_factory.hpp:77] Creating layer conv4_22
I1214 15:37:43.741705  7500 net.cpp:106] Creating Layer conv4_22
I1214 15:37:43.741715  7500 net.cpp:454] conv4_22 <- conv4_21_conv4_21/relu_0_split_1
I1214 15:37:43.741726  7500 net.cpp:454] conv4_22 <- conv4_22_1x1_increase
I1214 15:37:43.741739  7500 net.cpp:411] conv4_22 -> conv4_22
I1214 15:37:43.741775  7500 net.cpp:150] Setting up conv4_22
I1214 15:37:43.741791  7500 net.cpp:157] Top shape: 1 1024 60 60 (3686400)
I1214 15:37:43.741798  7500 net.cpp:165] Memory required for data: 3225372832
I1214 15:37:43.741807  7500 layer_factory.hpp:77] Creating layer conv4_22/relu
I1214 15:37:43.741819  7500 net.cpp:106] Creating Layer conv4_22/relu
I1214 15:37:43.741828  7500 net.cpp:454] conv4_22/relu <- conv4_22
I1214 15:37:43.741842  7500 net.cpp:397] conv4_22/relu -> conv4_22 (in-place)
I1214 15:37:43.741855  7500 net.cpp:150] Setting up conv4_22/relu
I1214 15:37:43.741868  7500 net.cpp:157] Top shape: 1 1024 60 60 (3686400)
I1214 15:37:43.741876  7500 net.cpp:165] Memory required for data: 3240118432
I1214 15:37:43.741885  7500 layer_factory.hpp:77] Creating layer conv4_22_conv4_22/relu_0_split
I1214 15:37:43.741896  7500 net.cpp:106] Creating Layer conv4_22_conv4_22/relu_0_split
I1214 15:37:43.741905  7500 net.cpp:454] conv4_22_conv4_22/relu_0_split <- conv4_22
I1214 15:37:43.741920  7500 net.cpp:411] conv4_22_conv4_22/relu_0_split -> conv4_22_conv4_22/relu_0_split_0
I1214 15:37:43.741935  7500 net.cpp:411] conv4_22_conv4_22/relu_0_split -> conv4_22_conv4_22/relu_0_split_1
I1214 15:37:43.741988  7500 net.cpp:150] Setting up conv4_22_conv4_22/relu_0_split
I1214 15:37:43.742002  7500 net.cpp:157] Top shape: 1 1024 60 60 (3686400)
I1214 15:37:43.742013  7500 net.cpp:157] Top shape: 1 1024 60 60 (3686400)
I1214 15:37:43.742022  7500 net.cpp:165] Memory required for data: 3269609632
I1214 15:37:43.742032  7500 layer_factory.hpp:77] Creating layer conv4_23_1x1_reduce
I1214 15:37:43.742048  7500 net.cpp:106] Creating Layer conv4_23_1x1_reduce
I1214 15:37:43.742058  7500 net.cpp:454] conv4_23_1x1_reduce <- conv4_22_conv4_22/relu_0_split_0
I1214 15:37:43.742074  7500 net.cpp:411] conv4_23_1x1_reduce -> conv4_23_1x1_reduce
I1214 15:37:43.758262  7500 net.cpp:150] Setting up conv4_23_1x1_reduce
I1214 15:37:43.758283  7500 net.cpp:157] Top shape: 1 256 60 60 (921600)
I1214 15:37:43.758293  7500 net.cpp:165] Memory required for data: 3273296032
I1214 15:37:43.758306  7500 layer_factory.hpp:77] Creating layer conv4_23_1x1_reduce/bn
I1214 15:37:43.758323  7500 net.cpp:106] Creating Layer conv4_23_1x1_reduce/bn
I1214 15:37:43.758334  7500 net.cpp:454] conv4_23_1x1_reduce/bn <- conv4_23_1x1_reduce
I1214 15:37:43.758347  7500 net.cpp:397] conv4_23_1x1_reduce/bn -> conv4_23_1x1_reduce (in-place)
I1214 15:37:43.758622  7500 net.cpp:150] Setting up conv4_23_1x1_reduce/bn
I1214 15:37:43.758640  7500 net.cpp:157] Top shape: 1 256 60 60 (921600)
I1214 15:37:43.758648  7500 net.cpp:165] Memory required for data: 3276982432
I1214 15:37:43.758666  7500 layer_factory.hpp:77] Creating layer conv4_23_1x1_reduce/relu
I1214 15:37:43.758677  7500 net.cpp:106] Creating Layer conv4_23_1x1_reduce/relu
I1214 15:37:43.758687  7500 net.cpp:454] conv4_23_1x1_reduce/relu <- conv4_23_1x1_reduce
I1214 15:37:43.758699  7500 net.cpp:397] conv4_23_1x1_reduce/relu -> conv4_23_1x1_reduce (in-place)
I1214 15:37:43.758713  7500 net.cpp:150] Setting up conv4_23_1x1_reduce/relu
I1214 15:37:43.758724  7500 net.cpp:157] Top shape: 1 256 60 60 (921600)
I1214 15:37:43.758733  7500 net.cpp:165] Memory required for data: 3280668832
I1214 15:37:43.758743  7500 layer_factory.hpp:77] Creating layer conv4_23_3x3
I1214 15:37:43.758761  7500 net.cpp:106] Creating Layer conv4_23_3x3
I1214 15:37:43.758777  7500 net.cpp:454] conv4_23_3x3 <- conv4_23_1x1_reduce
I1214 15:37:43.758800  7500 net.cpp:411] conv4_23_3x3 -> conv4_23_3x3
I1214 15:37:43.795446  7500 net.cpp:150] Setting up conv4_23_3x3
I1214 15:37:43.795467  7500 net.cpp:157] Top shape: 1 256 60 60 (921600)
I1214 15:37:43.795476  7500 net.cpp:165] Memory required for data: 3284355232
I1214 15:37:43.795490  7500 layer_factory.hpp:77] Creating layer conv4_23_3x3/bn
I1214 15:37:43.795503  7500 net.cpp:106] Creating Layer conv4_23_3x3/bn
I1214 15:37:43.795513  7500 net.cpp:454] conv4_23_3x3/bn <- conv4_23_3x3
I1214 15:37:43.795529  7500 net.cpp:397] conv4_23_3x3/bn -> conv4_23_3x3 (in-place)
I1214 15:37:43.795810  7500 net.cpp:150] Setting up conv4_23_3x3/bn
I1214 15:37:43.795827  7500 net.cpp:157] Top shape: 1 256 60 60 (921600)
I1214 15:37:43.795836  7500 net.cpp:165] Memory required for data: 3288041632
I1214 15:37:43.795853  7500 layer_factory.hpp:77] Creating layer conv4_23_3x3/relu
I1214 15:37:43.795866  7500 net.cpp:106] Creating Layer conv4_23_3x3/relu
I1214 15:37:43.795876  7500 net.cpp:454] conv4_23_3x3/relu <- conv4_23_3x3
I1214 15:37:43.795887  7500 net.cpp:397] conv4_23_3x3/relu -> conv4_23_3x3 (in-place)
I1214 15:37:43.795900  7500 net.cpp:150] Setting up conv4_23_3x3/relu
I1214 15:37:43.795912  7500 net.cpp:157] Top shape: 1 256 60 60 (921600)
I1214 15:37:43.795920  7500 net.cpp:165] Memory required for data: 3291728032
I1214 15:37:43.795929  7500 layer_factory.hpp:77] Creating layer conv4_23_1x1_increase
I1214 15:37:43.795943  7500 net.cpp:106] Creating Layer conv4_23_1x1_increase
I1214 15:37:43.795953  7500 net.cpp:454] conv4_23_1x1_increase <- conv4_23_3x3
I1214 15:37:43.795969  7500 net.cpp:411] conv4_23_1x1_increase -> conv4_23_1x1_increase
I1214 15:37:43.812063  7500 net.cpp:150] Setting up conv4_23_1x1_increase
I1214 15:37:43.812084  7500 net.cpp:157] Top shape: 1 1024 60 60 (3686400)
I1214 15:37:43.812093  7500 net.cpp:165] Memory required for data: 3306473632
I1214 15:37:43.812105  7500 layer_factory.hpp:77] Creating layer conv4_23_1x1_increase/bn
I1214 15:37:43.812119  7500 net.cpp:106] Creating Layer conv4_23_1x1_increase/bn
I1214 15:37:43.812130  7500 net.cpp:454] conv4_23_1x1_increase/bn <- conv4_23_1x1_increase
I1214 15:37:43.812145  7500 net.cpp:397] conv4_23_1x1_increase/bn -> conv4_23_1x1_increase (in-place)
I1214 15:37:43.812507  7500 net.cpp:150] Setting up conv4_23_1x1_increase/bn
I1214 15:37:43.812525  7500 net.cpp:157] Top shape: 1 1024 60 60 (3686400)
I1214 15:37:43.812535  7500 net.cpp:165] Memory required for data: 3321219232
I1214 15:37:43.812551  7500 layer_factory.hpp:77] Creating layer conv4_23
I1214 15:37:43.812566  7500 net.cpp:106] Creating Layer conv4_23
I1214 15:37:43.812577  7500 net.cpp:454] conv4_23 <- conv4_22_conv4_22/relu_0_split_1
I1214 15:37:43.812587  7500 net.cpp:454] conv4_23 <- conv4_23_1x1_increase
I1214 15:37:43.812599  7500 net.cpp:411] conv4_23 -> conv4_23
I1214 15:37:43.812635  7500 net.cpp:150] Setting up conv4_23
I1214 15:37:43.812649  7500 net.cpp:157] Top shape: 1 1024 60 60 (3686400)
I1214 15:37:43.812659  7500 net.cpp:165] Memory required for data: 3335964832
I1214 15:37:43.812667  7500 layer_factory.hpp:77] Creating layer conv4_23/relu
I1214 15:37:43.812681  7500 net.cpp:106] Creating Layer conv4_23/relu
I1214 15:37:43.812691  7500 net.cpp:454] conv4_23/relu <- conv4_23
I1214 15:37:43.812702  7500 net.cpp:397] conv4_23/relu -> conv4_23 (in-place)
I1214 15:37:43.812716  7500 net.cpp:150] Setting up conv4_23/relu
I1214 15:37:43.812727  7500 net.cpp:157] Top shape: 1 1024 60 60 (3686400)
I1214 15:37:43.812736  7500 net.cpp:165] Memory required for data: 3350710432
I1214 15:37:43.812744  7500 layer_factory.hpp:77] Creating layer conv4_23_conv4_23/relu_0_split
I1214 15:37:43.812758  7500 net.cpp:106] Creating Layer conv4_23_conv4_23/relu_0_split
I1214 15:37:43.812768  7500 net.cpp:454] conv4_23_conv4_23/relu_0_split <- conv4_23
I1214 15:37:43.812780  7500 net.cpp:411] conv4_23_conv4_23/relu_0_split -> conv4_23_conv4_23/relu_0_split_0
I1214 15:37:43.812794  7500 net.cpp:411] conv4_23_conv4_23/relu_0_split -> conv4_23_conv4_23/relu_0_split_1
I1214 15:37:43.812865  7500 net.cpp:150] Setting up conv4_23_conv4_23/relu_0_split
I1214 15:37:43.812880  7500 net.cpp:157] Top shape: 1 1024 60 60 (3686400)
I1214 15:37:43.812891  7500 net.cpp:157] Top shape: 1 1024 60 60 (3686400)
I1214 15:37:43.812899  7500 net.cpp:165] Memory required for data: 3380201632
I1214 15:37:43.812908  7500 layer_factory.hpp:77] Creating layer conv5_1_1x1_reduce
I1214 15:37:43.812925  7500 net.cpp:106] Creating Layer conv5_1_1x1_reduce
I1214 15:37:43.812937  7500 net.cpp:454] conv5_1_1x1_reduce <- conv4_23_conv4_23/relu_0_split_0
I1214 15:37:43.812950  7500 net.cpp:411] conv5_1_1x1_reduce -> conv5_1_1x1_reduce
I1214 15:37:43.844645  7500 net.cpp:150] Setting up conv5_1_1x1_reduce
I1214 15:37:43.844668  7500 net.cpp:157] Top shape: 1 512 60 60 (1843200)
I1214 15:37:43.844683  7500 net.cpp:165] Memory required for data: 3387574432
I1214 15:37:43.844696  7500 layer_factory.hpp:77] Creating layer conv5_1_1x1_reduce/bn
I1214 15:37:43.844712  7500 net.cpp:106] Creating Layer conv5_1_1x1_reduce/bn
I1214 15:37:43.844723  7500 net.cpp:454] conv5_1_1x1_reduce/bn <- conv5_1_1x1_reduce
I1214 15:37:43.844739  7500 net.cpp:397] conv5_1_1x1_reduce/bn -> conv5_1_1x1_reduce (in-place)
I1214 15:37:43.845090  7500 net.cpp:150] Setting up conv5_1_1x1_reduce/bn
I1214 15:37:43.845108  7500 net.cpp:157] Top shape: 1 512 60 60 (1843200)
I1214 15:37:43.845118  7500 net.cpp:165] Memory required for data: 3394947232
I1214 15:37:43.845134  7500 layer_factory.hpp:77] Creating layer conv5_1_1x1_reduce/relu
I1214 15:37:43.845151  7500 net.cpp:106] Creating Layer conv5_1_1x1_reduce/relu
I1214 15:37:43.845161  7500 net.cpp:454] conv5_1_1x1_reduce/relu <- conv5_1_1x1_reduce
I1214 15:37:43.845173  7500 net.cpp:397] conv5_1_1x1_reduce/relu -> conv5_1_1x1_reduce (in-place)
I1214 15:37:43.845186  7500 net.cpp:150] Setting up conv5_1_1x1_reduce/relu
I1214 15:37:43.845198  7500 net.cpp:157] Top shape: 1 512 60 60 (1843200)
I1214 15:37:43.845207  7500 net.cpp:165] Memory required for data: 3402320032
I1214 15:37:43.845216  7500 layer_factory.hpp:77] Creating layer conv5_1_3x3
I1214 15:37:43.845230  7500 net.cpp:106] Creating Layer conv5_1_3x3
I1214 15:37:43.845240  7500 net.cpp:454] conv5_1_3x3 <- conv5_1_1x1_reduce
I1214 15:37:43.845255  7500 net.cpp:411] conv5_1_3x3 -> conv5_1_3x3
I1214 15:37:43.990517  7500 net.cpp:150] Setting up conv5_1_3x3
I1214 15:37:43.990545  7500 net.cpp:157] Top shape: 1 512 60 60 (1843200)
I1214 15:37:43.990555  7500 net.cpp:165] Memory required for data: 3409692832
I1214 15:37:43.990567  7500 layer_factory.hpp:77] Creating layer conv5_1_3x3/bn
I1214 15:37:43.990582  7500 net.cpp:106] Creating Layer conv5_1_3x3/bn
I1214 15:37:43.990593  7500 net.cpp:454] conv5_1_3x3/bn <- conv5_1_3x3
I1214 15:37:43.990609  7500 net.cpp:397] conv5_1_3x3/bn -> conv5_1_3x3 (in-place)
I1214 15:37:43.990967  7500 net.cpp:150] Setting up conv5_1_3x3/bn
I1214 15:37:43.990984  7500 net.cpp:157] Top shape: 1 512 60 60 (1843200)
I1214 15:37:43.990993  7500 net.cpp:165] Memory required for data: 3417065632
I1214 15:37:43.991010  7500 layer_factory.hpp:77] Creating layer conv5_1_3x3/relu
I1214 15:37:43.991025  7500 net.cpp:106] Creating Layer conv5_1_3x3/relu
I1214 15:37:43.991035  7500 net.cpp:454] conv5_1_3x3/relu <- conv5_1_3x3
I1214 15:37:43.991047  7500 net.cpp:397] conv5_1_3x3/relu -> conv5_1_3x3 (in-place)
I1214 15:37:43.991060  7500 net.cpp:150] Setting up conv5_1_3x3/relu
I1214 15:37:43.991072  7500 net.cpp:157] Top shape: 1 512 60 60 (1843200)
I1214 15:37:43.991081  7500 net.cpp:165] Memory required for data: 3424438432
I1214 15:37:43.991089  7500 layer_factory.hpp:77] Creating layer conv5_1_1x1_increase
I1214 15:37:43.991104  7500 net.cpp:106] Creating Layer conv5_1_1x1_increase
I1214 15:37:43.991114  7500 net.cpp:454] conv5_1_1x1_increase <- conv5_1_3x3
I1214 15:37:43.991129  7500 net.cpp:411] conv5_1_1x1_increase -> conv5_1_1x1_increase
I1214 15:37:44.055135  7500 net.cpp:150] Setting up conv5_1_1x1_increase
I1214 15:37:44.055158  7500 net.cpp:157] Top shape: 1 2048 60 60 (7372800)
I1214 15:37:44.055174  7500 net.cpp:165] Memory required for data: 3453929632
I1214 15:37:44.055197  7500 layer_factory.hpp:77] Creating layer conv5_1_1x1_increase/bn
I1214 15:37:44.055215  7500 net.cpp:106] Creating Layer conv5_1_1x1_increase/bn
I1214 15:37:44.055227  7500 net.cpp:454] conv5_1_1x1_increase/bn <- conv5_1_1x1_increase
I1214 15:37:44.055239  7500 net.cpp:397] conv5_1_1x1_increase/bn -> conv5_1_1x1_increase (in-place)
I1214 15:37:44.055537  7500 net.cpp:150] Setting up conv5_1_1x1_increase/bn
I1214 15:37:44.055554  7500 net.cpp:157] Top shape: 1 2048 60 60 (7372800)
I1214 15:37:44.055563  7500 net.cpp:165] Memory required for data: 3483420832
I1214 15:37:44.055580  7500 layer_factory.hpp:77] Creating layer conv5_1_1x1_proj
I1214 15:37:44.055598  7500 net.cpp:106] Creating Layer conv5_1_1x1_proj
I1214 15:37:44.055609  7500 net.cpp:454] conv5_1_1x1_proj <- conv4_23_conv4_23/relu_0_split_1
I1214 15:37:44.055625  7500 net.cpp:411] conv5_1_1x1_proj -> conv5_1_1x1_proj
I1214 15:37:44.184295  7500 net.cpp:150] Setting up conv5_1_1x1_proj
I1214 15:37:44.184324  7500 net.cpp:157] Top shape: 1 2048 60 60 (7372800)
I1214 15:37:44.184332  7500 net.cpp:165] Memory required for data: 3512912032
I1214 15:37:44.184345  7500 layer_factory.hpp:77] Creating layer conv5_1_1x1_proj/bn
I1214 15:37:44.184360  7500 net.cpp:106] Creating Layer conv5_1_1x1_proj/bn
I1214 15:37:44.184371  7500 net.cpp:454] conv5_1_1x1_proj/bn <- conv5_1_1x1_proj
I1214 15:37:44.184386  7500 net.cpp:397] conv5_1_1x1_proj/bn -> conv5_1_1x1_proj (in-place)
I1214 15:37:44.184696  7500 net.cpp:150] Setting up conv5_1_1x1_proj/bn
I1214 15:37:44.184713  7500 net.cpp:157] Top shape: 1 2048 60 60 (7372800)
I1214 15:37:44.184723  7500 net.cpp:165] Memory required for data: 3542403232
I1214 15:37:44.184741  7500 layer_factory.hpp:77] Creating layer conv5_1
I1214 15:37:44.184756  7500 net.cpp:106] Creating Layer conv5_1
I1214 15:37:44.184765  7500 net.cpp:454] conv5_1 <- conv5_1_1x1_proj
I1214 15:37:44.184777  7500 net.cpp:454] conv5_1 <- conv5_1_1x1_increase
I1214 15:37:44.184788  7500 net.cpp:411] conv5_1 -> conv5_1
I1214 15:37:44.184825  7500 net.cpp:150] Setting up conv5_1
I1214 15:37:44.184840  7500 net.cpp:157] Top shape: 1 2048 60 60 (7372800)
I1214 15:37:44.184849  7500 net.cpp:165] Memory required for data: 3571894432
I1214 15:37:44.184859  7500 layer_factory.hpp:77] Creating layer conv5_1/relu
I1214 15:37:44.184872  7500 net.cpp:106] Creating Layer conv5_1/relu
I1214 15:37:44.184882  7500 net.cpp:454] conv5_1/relu <- conv5_1
I1214 15:37:44.184895  7500 net.cpp:397] conv5_1/relu -> conv5_1 (in-place)
I1214 15:37:44.184909  7500 net.cpp:150] Setting up conv5_1/relu
I1214 15:37:44.184921  7500 net.cpp:157] Top shape: 1 2048 60 60 (7372800)
I1214 15:37:44.184931  7500 net.cpp:165] Memory required for data: 3601385632
I1214 15:37:44.184939  7500 layer_factory.hpp:77] Creating layer conv5_1_conv5_1/relu_0_split
I1214 15:37:44.184952  7500 net.cpp:106] Creating Layer conv5_1_conv5_1/relu_0_split
I1214 15:37:44.184962  7500 net.cpp:454] conv5_1_conv5_1/relu_0_split <- conv5_1
I1214 15:37:44.184973  7500 net.cpp:411] conv5_1_conv5_1/relu_0_split -> conv5_1_conv5_1/relu_0_split_0
I1214 15:37:44.184988  7500 net.cpp:411] conv5_1_conv5_1/relu_0_split -> conv5_1_conv5_1/relu_0_split_1
I1214 15:37:44.185045  7500 net.cpp:150] Setting up conv5_1_conv5_1/relu_0_split
I1214 15:37:44.185060  7500 net.cpp:157] Top shape: 1 2048 60 60 (7372800)
I1214 15:37:44.185071  7500 net.cpp:157] Top shape: 1 2048 60 60 (7372800)
I1214 15:37:44.185081  7500 net.cpp:165] Memory required for data: 3660368032
I1214 15:37:44.185091  7500 layer_factory.hpp:77] Creating layer conv5_2_1x1_reduce
I1214 15:37:44.185106  7500 net.cpp:106] Creating Layer conv5_2_1x1_reduce
I1214 15:37:44.185117  7500 net.cpp:454] conv5_2_1x1_reduce <- conv5_1_conv5_1/relu_0_split_0
I1214 15:37:44.185132  7500 net.cpp:411] conv5_2_1x1_reduce -> conv5_2_1x1_reduce
I1214 15:37:44.248981  7500 net.cpp:150] Setting up conv5_2_1x1_reduce
I1214 15:37:44.249003  7500 net.cpp:157] Top shape: 1 512 60 60 (1843200)
I1214 15:37:44.249018  7500 net.cpp:165] Memory required for data: 3667740832
I1214 15:37:44.249042  7500 layer_factory.hpp:77] Creating layer conv5_2_1x1_reduce/bn
I1214 15:37:44.249059  7500 net.cpp:106] Creating Layer conv5_2_1x1_reduce/bn
I1214 15:37:44.249070  7500 net.cpp:454] conv5_2_1x1_reduce/bn <- conv5_2_1x1_reduce
I1214 15:37:44.249083  7500 net.cpp:397] conv5_2_1x1_reduce/bn -> conv5_2_1x1_reduce (in-place)
I1214 15:37:44.249444  7500 net.cpp:150] Setting up conv5_2_1x1_reduce/bn
I1214 15:37:44.249460  7500 net.cpp:157] Top shape: 1 512 60 60 (1843200)
I1214 15:37:44.249469  7500 net.cpp:165] Memory required for data: 3675113632
I1214 15:37:44.249487  7500 layer_factory.hpp:77] Creating layer conv5_2_1x1_reduce/relu
I1214 15:37:44.249500  7500 net.cpp:106] Creating Layer conv5_2_1x1_reduce/relu
I1214 15:37:44.249510  7500 net.cpp:454] conv5_2_1x1_reduce/relu <- conv5_2_1x1_reduce
I1214 15:37:44.249521  7500 net.cpp:397] conv5_2_1x1_reduce/relu -> conv5_2_1x1_reduce (in-place)
I1214 15:37:44.249533  7500 net.cpp:150] Setting up conv5_2_1x1_reduce/relu
I1214 15:37:44.249546  7500 net.cpp:157] Top shape: 1 512 60 60 (1843200)
I1214 15:37:44.249553  7500 net.cpp:165] Memory required for data: 3682486432
I1214 15:37:44.249563  7500 layer_factory.hpp:77] Creating layer conv5_2_3x3
I1214 15:37:44.249579  7500 net.cpp:106] Creating Layer conv5_2_3x3
I1214 15:37:44.249590  7500 net.cpp:454] conv5_2_3x3 <- conv5_2_1x1_reduce
I1214 15:37:44.249603  7500 net.cpp:411] conv5_2_3x3 -> conv5_2_3x3
I1214 15:37:44.394443  7500 net.cpp:150] Setting up conv5_2_3x3
I1214 15:37:44.394470  7500 net.cpp:157] Top shape: 1 512 60 60 (1843200)
I1214 15:37:44.394479  7500 net.cpp:165] Memory required for data: 3689859232
I1214 15:37:44.394493  7500 layer_factory.hpp:77] Creating layer conv5_2_3x3/bn
I1214 15:37:44.394510  7500 net.cpp:106] Creating Layer conv5_2_3x3/bn
I1214 15:37:44.394520  7500 net.cpp:454] conv5_2_3x3/bn <- conv5_2_3x3
I1214 15:37:44.394536  7500 net.cpp:397] conv5_2_3x3/bn -> conv5_2_3x3 (in-place)
I1214 15:37:44.394901  7500 net.cpp:150] Setting up conv5_2_3x3/bn
I1214 15:37:44.394918  7500 net.cpp:157] Top shape: 1 512 60 60 (1843200)
I1214 15:37:44.394927  7500 net.cpp:165] Memory required for data: 3697232032
I1214 15:37:44.394945  7500 layer_factory.hpp:77] Creating layer conv5_2_3x3/relu
I1214 15:37:44.394960  7500 net.cpp:106] Creating Layer conv5_2_3x3/relu
I1214 15:37:44.394970  7500 net.cpp:454] conv5_2_3x3/relu <- conv5_2_3x3
I1214 15:37:44.394982  7500 net.cpp:397] conv5_2_3x3/relu -> conv5_2_3x3 (in-place)
I1214 15:37:44.394996  7500 net.cpp:150] Setting up conv5_2_3x3/relu
I1214 15:37:44.395009  7500 net.cpp:157] Top shape: 1 512 60 60 (1843200)
I1214 15:37:44.395016  7500 net.cpp:165] Memory required for data: 3704604832
I1214 15:37:44.395026  7500 layer_factory.hpp:77] Creating layer conv5_2_1x1_increase
I1214 15:37:44.395040  7500 net.cpp:106] Creating Layer conv5_2_1x1_increase
I1214 15:37:44.395051  7500 net.cpp:454] conv5_2_1x1_increase <- conv5_2_3x3
I1214 15:37:44.395066  7500 net.cpp:411] conv5_2_1x1_increase -> conv5_2_1x1_increase
I1214 15:37:44.458770  7500 net.cpp:150] Setting up conv5_2_1x1_increase
I1214 15:37:44.458792  7500 net.cpp:157] Top shape: 1 2048 60 60 (7372800)
I1214 15:37:44.458802  7500 net.cpp:165] Memory required for data: 3734096032
I1214 15:37:44.458814  7500 layer_factory.hpp:77] Creating layer conv5_2_1x1_increase/bn
I1214 15:37:44.458828  7500 net.cpp:106] Creating Layer conv5_2_1x1_increase/bn
I1214 15:37:44.458839  7500 net.cpp:454] conv5_2_1x1_increase/bn <- conv5_2_1x1_increase
I1214 15:37:44.458854  7500 net.cpp:397] conv5_2_1x1_increase/bn -> conv5_2_1x1_increase (in-place)
I1214 15:37:44.459161  7500 net.cpp:150] Setting up conv5_2_1x1_increase/bn
I1214 15:37:44.459177  7500 net.cpp:157] Top shape: 1 2048 60 60 (7372800)
I1214 15:37:44.459187  7500 net.cpp:165] Memory required for data: 3763587232
I1214 15:37:44.459267  7500 layer_factory.hpp:77] Creating layer conv5_2
I1214 15:37:44.459286  7500 net.cpp:106] Creating Layer conv5_2
I1214 15:37:44.459303  7500 net.cpp:454] conv5_2 <- conv5_1_conv5_1/relu_0_split_1
I1214 15:37:44.459324  7500 net.cpp:454] conv5_2 <- conv5_2_1x1_increase
I1214 15:37:44.459337  7500 net.cpp:411] conv5_2 -> conv5_2
I1214 15:37:44.459378  7500 net.cpp:150] Setting up conv5_2
I1214 15:37:44.459393  7500 net.cpp:157] Top shape: 1 2048 60 60 (7372800)
I1214 15:37:44.459401  7500 net.cpp:165] Memory required for data: 3793078432
I1214 15:37:44.459410  7500 layer_factory.hpp:77] Creating layer conv5_2/relu
I1214 15:37:44.459425  7500 net.cpp:106] Creating Layer conv5_2/relu
I1214 15:37:44.459435  7500 net.cpp:454] conv5_2/relu <- conv5_2
I1214 15:37:44.459447  7500 net.cpp:397] conv5_2/relu -> conv5_2 (in-place)
I1214 15:37:44.459460  7500 net.cpp:150] Setting up conv5_2/relu
I1214 15:37:44.459472  7500 net.cpp:157] Top shape: 1 2048 60 60 (7372800)
I1214 15:37:44.459481  7500 net.cpp:165] Memory required for data: 3822569632
I1214 15:37:44.459489  7500 layer_factory.hpp:77] Creating layer conv5_2_conv5_2/relu_0_split
I1214 15:37:44.459501  7500 net.cpp:106] Creating Layer conv5_2_conv5_2/relu_0_split
I1214 15:37:44.459513  7500 net.cpp:454] conv5_2_conv5_2/relu_0_split <- conv5_2
I1214 15:37:44.459525  7500 net.cpp:411] conv5_2_conv5_2/relu_0_split -> conv5_2_conv5_2/relu_0_split_0
I1214 15:37:44.459539  7500 net.cpp:411] conv5_2_conv5_2/relu_0_split -> conv5_2_conv5_2/relu_0_split_1
I1214 15:37:44.459591  7500 net.cpp:150] Setting up conv5_2_conv5_2/relu_0_split
I1214 15:37:44.459612  7500 net.cpp:157] Top shape: 1 2048 60 60 (7372800)
I1214 15:37:44.459624  7500 net.cpp:157] Top shape: 1 2048 60 60 (7372800)
I1214 15:37:44.459631  7500 net.cpp:165] Memory required for data: 3881552032
I1214 15:37:44.459640  7500 layer_factory.hpp:77] Creating layer conv5_3_1x1_reduce
I1214 15:37:44.459656  7500 net.cpp:106] Creating Layer conv5_3_1x1_reduce
I1214 15:37:44.459666  7500 net.cpp:454] conv5_3_1x1_reduce <- conv5_2_conv5_2/relu_0_split_0
I1214 15:37:44.459681  7500 net.cpp:411] conv5_3_1x1_reduce -> conv5_3_1x1_reduce
I1214 15:37:44.524385  7500 net.cpp:150] Setting up conv5_3_1x1_reduce
I1214 15:37:44.524407  7500 net.cpp:157] Top shape: 1 512 60 60 (1843200)
I1214 15:37:44.524416  7500 net.cpp:165] Memory required for data: 3888924832
I1214 15:37:44.524430  7500 layer_factory.hpp:77] Creating layer conv5_3_1x1_reduce/bn
I1214 15:37:44.524443  7500 net.cpp:106] Creating Layer conv5_3_1x1_reduce/bn
I1214 15:37:44.524454  7500 net.cpp:454] conv5_3_1x1_reduce/bn <- conv5_3_1x1_reduce
I1214 15:37:44.524471  7500 net.cpp:397] conv5_3_1x1_reduce/bn -> conv5_3_1x1_reduce (in-place)
I1214 15:37:44.524822  7500 net.cpp:150] Setting up conv5_3_1x1_reduce/bn
I1214 15:37:44.524840  7500 net.cpp:157] Top shape: 1 512 60 60 (1843200)
I1214 15:37:44.524849  7500 net.cpp:165] Memory required for data: 3896297632
I1214 15:37:44.524866  7500 layer_factory.hpp:77] Creating layer conv5_3_1x1_reduce/relu
I1214 15:37:44.524881  7500 net.cpp:106] Creating Layer conv5_3_1x1_reduce/relu
I1214 15:37:44.524891  7500 net.cpp:454] conv5_3_1x1_reduce/relu <- conv5_3_1x1_reduce
I1214 15:37:44.524904  7500 net.cpp:397] conv5_3_1x1_reduce/relu -> conv5_3_1x1_reduce (in-place)
I1214 15:37:44.524916  7500 net.cpp:150] Setting up conv5_3_1x1_reduce/relu
I1214 15:37:44.524929  7500 net.cpp:157] Top shape: 1 512 60 60 (1843200)
I1214 15:37:44.524937  7500 net.cpp:165] Memory required for data: 3903670432
I1214 15:37:44.524945  7500 layer_factory.hpp:77] Creating layer conv5_3_3x3
I1214 15:37:44.524960  7500 net.cpp:106] Creating Layer conv5_3_3x3
I1214 15:37:44.524969  7500 net.cpp:454] conv5_3_3x3 <- conv5_3_1x1_reduce
I1214 15:37:44.524984  7500 net.cpp:411] conv5_3_3x3 -> conv5_3_3x3
I1214 15:37:44.669396  7500 net.cpp:150] Setting up conv5_3_3x3
I1214 15:37:44.669421  7500 net.cpp:157] Top shape: 1 512 60 60 (1843200)
I1214 15:37:44.669431  7500 net.cpp:165] Memory required for data: 3911043232
I1214 15:37:44.669445  7500 layer_factory.hpp:77] Creating layer conv5_3_3x3/bn
I1214 15:37:44.669461  7500 net.cpp:106] Creating Layer conv5_3_3x3/bn
I1214 15:37:44.669471  7500 net.cpp:454] conv5_3_3x3/bn <- conv5_3_3x3
I1214 15:37:44.669493  7500 net.cpp:397] conv5_3_3x3/bn -> conv5_3_3x3 (in-place)
I1214 15:37:44.669868  7500 net.cpp:150] Setting up conv5_3_3x3/bn
I1214 15:37:44.669886  7500 net.cpp:157] Top shape: 1 512 60 60 (1843200)
I1214 15:37:44.669895  7500 net.cpp:165] Memory required for data: 3918416032
I1214 15:37:44.669912  7500 layer_factory.hpp:77] Creating layer conv5_3_3x3/relu
I1214 15:37:44.669924  7500 net.cpp:106] Creating Layer conv5_3_3x3/relu
I1214 15:37:44.669934  7500 net.cpp:454] conv5_3_3x3/relu <- conv5_3_3x3
I1214 15:37:44.669948  7500 net.cpp:397] conv5_3_3x3/relu -> conv5_3_3x3 (in-place)
I1214 15:37:44.669962  7500 net.cpp:150] Setting up conv5_3_3x3/relu
I1214 15:37:44.669975  7500 net.cpp:157] Top shape: 1 512 60 60 (1843200)
I1214 15:37:44.669982  7500 net.cpp:165] Memory required for data: 3925788832
I1214 15:37:44.669991  7500 layer_factory.hpp:77] Creating layer conv5_3_1x1_increase
I1214 15:37:44.670006  7500 net.cpp:106] Creating Layer conv5_3_1x1_increase
I1214 15:37:44.670016  7500 net.cpp:454] conv5_3_1x1_increase <- conv5_3_3x3
I1214 15:37:44.670028  7500 net.cpp:411] conv5_3_1x1_increase -> conv5_3_1x1_increase
I1214 15:37:44.733553  7500 net.cpp:150] Setting up conv5_3_1x1_increase
I1214 15:37:44.733575  7500 net.cpp:157] Top shape: 1 2048 60 60 (7372800)
I1214 15:37:44.733585  7500 net.cpp:165] Memory required for data: 3955280032
I1214 15:37:44.733597  7500 layer_factory.hpp:77] Creating layer conv5_3_1x1_increase/bn
I1214 15:37:44.733615  7500 net.cpp:106] Creating Layer conv5_3_1x1_increase/bn
I1214 15:37:44.733626  7500 net.cpp:454] conv5_3_1x1_increase/bn <- conv5_3_1x1_increase
I1214 15:37:44.733639  7500 net.cpp:397] conv5_3_1x1_increase/bn -> conv5_3_1x1_increase (in-place)
I1214 15:37:44.733958  7500 net.cpp:150] Setting up conv5_3_1x1_increase/bn
I1214 15:37:44.733975  7500 net.cpp:157] Top shape: 1 2048 60 60 (7372800)
I1214 15:37:44.733984  7500 net.cpp:165] Memory required for data: 3984771232
I1214 15:37:44.734001  7500 layer_factory.hpp:77] Creating layer conv5_3
I1214 15:37:44.734015  7500 net.cpp:106] Creating Layer conv5_3
I1214 15:37:44.734025  7500 net.cpp:454] conv5_3 <- conv5_2_conv5_2/relu_0_split_1
I1214 15:37:44.734036  7500 net.cpp:454] conv5_3 <- conv5_3_1x1_increase
I1214 15:37:44.734051  7500 net.cpp:411] conv5_3 -> conv5_3
I1214 15:37:44.734089  7500 net.cpp:150] Setting up conv5_3
I1214 15:37:44.734107  7500 net.cpp:157] Top shape: 1 2048 60 60 (7372800)
I1214 15:37:44.734115  7500 net.cpp:165] Memory required for data: 4014262432
I1214 15:37:44.734124  7500 layer_factory.hpp:77] Creating layer conv5_3/relu
I1214 15:37:44.734136  7500 net.cpp:106] Creating Layer conv5_3/relu
I1214 15:37:44.734146  7500 net.cpp:454] conv5_3/relu <- conv5_3
I1214 15:37:44.734158  7500 net.cpp:397] conv5_3/relu -> conv5_3 (in-place)
I1214 15:37:44.734170  7500 net.cpp:150] Setting up conv5_3/relu
I1214 15:37:44.734181  7500 net.cpp:157] Top shape: 1 2048 60 60 (7372800)
I1214 15:37:44.734190  7500 net.cpp:165] Memory required for data: 4043753632
I1214 15:37:44.734200  7500 layer_factory.hpp:77] Creating layer conv5_3_conv5_3/relu_0_split
I1214 15:37:44.734215  7500 net.cpp:106] Creating Layer conv5_3_conv5_3/relu_0_split
I1214 15:37:44.734225  7500 net.cpp:454] conv5_3_conv5_3/relu_0_split <- conv5_3
I1214 15:37:44.734241  7500 net.cpp:411] conv5_3_conv5_3/relu_0_split -> conv5_3_conv5_3/relu_0_split_0
I1214 15:37:44.734256  7500 net.cpp:411] conv5_3_conv5_3/relu_0_split -> conv5_3_conv5_3/relu_0_split_1
I1214 15:37:44.734269  7500 net.cpp:411] conv5_3_conv5_3/relu_0_split -> conv5_3_conv5_3/relu_0_split_2
I1214 15:37:44.734283  7500 net.cpp:411] conv5_3_conv5_3/relu_0_split -> conv5_3_conv5_3/relu_0_split_3
I1214 15:37:44.734297  7500 net.cpp:411] conv5_3_conv5_3/relu_0_split -> conv5_3_conv5_3/relu_0_split_4
I1214 15:37:44.734397  7500 net.cpp:150] Setting up conv5_3_conv5_3/relu_0_split
I1214 15:37:44.734412  7500 net.cpp:157] Top shape: 1 2048 60 60 (7372800)
I1214 15:37:44.734423  7500 net.cpp:157] Top shape: 1 2048 60 60 (7372800)
I1214 15:37:44.734441  7500 net.cpp:157] Top shape: 1 2048 60 60 (7372800)
I1214 15:37:44.734460  7500 net.cpp:157] Top shape: 1 2048 60 60 (7372800)
I1214 15:37:44.734472  7500 net.cpp:157] Top shape: 1 2048 60 60 (7372800)
I1214 15:37:44.734479  7500 net.cpp:165] Memory required for data: 4191209632
I1214 15:37:44.734489  7500 layer_factory.hpp:77] Creating layer conv5_3_pool1
I1214 15:37:44.734504  7500 net.cpp:106] Creating Layer conv5_3_pool1
I1214 15:37:44.734515  7500 net.cpp:454] conv5_3_pool1 <- conv5_3_conv5_3/relu_0_split_0
I1214 15:37:44.734529  7500 net.cpp:411] conv5_3_pool1 -> conv5_3_pool1
I1214 15:37:44.734570  7500 net.cpp:150] Setting up conv5_3_pool1
I1214 15:37:44.734586  7500 net.cpp:157] Top shape: 1 2048 1 1 (2048)
I1214 15:37:44.734594  7500 net.cpp:165] Memory required for data: 4191217824
I1214 15:37:44.734603  7500 layer_factory.hpp:77] Creating layer conv5_3_pool1_conv
I1214 15:37:44.734621  7500 net.cpp:106] Creating Layer conv5_3_pool1_conv
I1214 15:37:44.734630  7500 net.cpp:454] conv5_3_pool1_conv <- conv5_3_pool1
I1214 15:37:44.734647  7500 net.cpp:411] conv5_3_pool1_conv -> conv5_3_pool1_conv
I1214 15:37:44.797930  7500 net.cpp:150] Setting up conv5_3_pool1_conv
I1214 15:37:44.797951  7500 net.cpp:157] Top shape: 1 512 1 1 (512)
I1214 15:37:44.797960  7500 net.cpp:165] Memory required for data: 4191219872
I1214 15:37:44.797973  7500 layer_factory.hpp:77] Creating layer conv5_3_pool1_conv/bn
I1214 15:37:44.797991  7500 net.cpp:106] Creating Layer conv5_3_pool1_conv/bn
I1214 15:37:44.798002  7500 net.cpp:454] conv5_3_pool1_conv/bn <- conv5_3_pool1_conv
I1214 15:37:44.798015  7500 net.cpp:397] conv5_3_pool1_conv/bn -> conv5_3_pool1_conv (in-place)
I1214 15:37:44.798367  7500 net.cpp:150] Setting up conv5_3_pool1_conv/bn
I1214 15:37:44.798383  7500 net.cpp:157] Top shape: 1 512 1 1 (512)
I1214 15:37:44.798393  7500 net.cpp:165] Memory required for data: 4191221920
I1214 15:37:44.798409  7500 layer_factory.hpp:77] Creating layer conv5_3_pool1_conv/relu
I1214 15:37:44.798421  7500 net.cpp:106] Creating Layer conv5_3_pool1_conv/relu
I1214 15:37:44.798430  7500 net.cpp:454] conv5_3_pool1_conv/relu <- conv5_3_pool1_conv
I1214 15:37:44.798442  7500 net.cpp:397] conv5_3_pool1_conv/relu -> conv5_3_pool1_conv (in-place)
I1214 15:37:44.798455  7500 net.cpp:150] Setting up conv5_3_pool1_conv/relu
I1214 15:37:44.798467  7500 net.cpp:157] Top shape: 1 512 1 1 (512)
I1214 15:37:44.798476  7500 net.cpp:165] Memory required for data: 4191223968
I1214 15:37:44.798485  7500 layer_factory.hpp:77] Creating layer conv5_3_pool1_interp
I1214 15:37:44.798498  7500 net.cpp:106] Creating Layer conv5_3_pool1_interp
I1214 15:37:44.798507  7500 net.cpp:454] conv5_3_pool1_interp <- conv5_3_pool1_conv
I1214 15:37:44.798521  7500 net.cpp:411] conv5_3_pool1_interp -> conv5_3_pool1_interp
I1214 15:37:44.798562  7500 net.cpp:150] Setting up conv5_3_pool1_interp
I1214 15:37:44.798578  7500 net.cpp:157] Top shape: 1 512 60 60 (1843200)
I1214 15:37:44.798588  7500 net.cpp:165] Memory required for data: 4198596768
I1214 15:37:44.798598  7500 layer_factory.hpp:77] Creating layer conv5_3_pool2
I1214 15:37:44.798609  7500 net.cpp:106] Creating Layer conv5_3_pool2
I1214 15:37:44.798619  7500 net.cpp:454] conv5_3_pool2 <- conv5_3_conv5_3/relu_0_split_1
I1214 15:37:44.798635  7500 net.cpp:411] conv5_3_pool2 -> conv5_3_pool2
I1214 15:37:44.798672  7500 net.cpp:150] Setting up conv5_3_pool2
I1214 15:37:44.798687  7500 net.cpp:157] Top shape: 1 2048 2 2 (8192)
I1214 15:37:44.798696  7500 net.cpp:165] Memory required for data: 4198629536
I1214 15:37:44.798705  7500 layer_factory.hpp:77] Creating layer conv5_3_pool2_conv
I1214 15:37:44.798722  7500 net.cpp:106] Creating Layer conv5_3_pool2_conv
I1214 15:37:44.798733  7500 net.cpp:454] conv5_3_pool2_conv <- conv5_3_pool2
I1214 15:37:44.798748  7500 net.cpp:411] conv5_3_pool2_conv -> conv5_3_pool2_conv
I1214 15:37:44.863515  7500 net.cpp:150] Setting up conv5_3_pool2_conv
I1214 15:37:44.863538  7500 net.cpp:157] Top shape: 1 512 2 2 (2048)
I1214 15:37:44.863548  7500 net.cpp:165] Memory required for data: 4198637728
I1214 15:37:44.863565  7500 layer_factory.hpp:77] Creating layer conv5_3_pool2_conv/bn
I1214 15:37:44.863590  7500 net.cpp:106] Creating Layer conv5_3_pool2_conv/bn
I1214 15:37:44.863600  7500 net.cpp:454] conv5_3_pool2_conv/bn <- conv5_3_pool2_conv
I1214 15:37:44.863616  7500 net.cpp:397] conv5_3_pool2_conv/bn -> conv5_3_pool2_conv (in-place)
I1214 15:37:44.863966  7500 net.cpp:150] Setting up conv5_3_pool2_conv/bn
I1214 15:37:44.863984  7500 net.cpp:157] Top shape: 1 512 2 2 (2048)
I1214 15:37:44.863993  7500 net.cpp:165] Memory required for data: 4198645920
I1214 15:37:44.864011  7500 layer_factory.hpp:77] Creating layer conv5_3_pool2_conv/relu
I1214 15:37:44.864024  7500 net.cpp:106] Creating Layer conv5_3_pool2_conv/relu
I1214 15:37:44.864035  7500 net.cpp:454] conv5_3_pool2_conv/relu <- conv5_3_pool2_conv
I1214 15:37:44.864048  7500 net.cpp:397] conv5_3_pool2_conv/relu -> conv5_3_pool2_conv (in-place)
I1214 15:37:44.864061  7500 net.cpp:150] Setting up conv5_3_pool2_conv/relu
I1214 15:37:44.864073  7500 net.cpp:157] Top shape: 1 512 2 2 (2048)
I1214 15:37:44.864081  7500 net.cpp:165] Memory required for data: 4198654112
I1214 15:37:44.864090  7500 layer_factory.hpp:77] Creating layer conv5_3_pool2_interp
I1214 15:37:44.864102  7500 net.cpp:106] Creating Layer conv5_3_pool2_interp
I1214 15:37:44.864112  7500 net.cpp:454] conv5_3_pool2_interp <- conv5_3_pool2_conv
I1214 15:37:44.864123  7500 net.cpp:411] conv5_3_pool2_interp -> conv5_3_pool2_interp
I1214 15:37:44.864166  7500 net.cpp:150] Setting up conv5_3_pool2_interp
I1214 15:37:44.864182  7500 net.cpp:157] Top shape: 1 512 60 60 (1843200)
I1214 15:37:44.864192  7500 net.cpp:165] Memory required for data: 4206026912
I1214 15:37:44.864200  7500 layer_factory.hpp:77] Creating layer conv5_3_pool3
I1214 15:37:44.864214  7500 net.cpp:106] Creating Layer conv5_3_pool3
I1214 15:37:44.864224  7500 net.cpp:454] conv5_3_pool3 <- conv5_3_conv5_3/relu_0_split_2
I1214 15:37:44.864239  7500 net.cpp:411] conv5_3_pool3 -> conv5_3_pool3
I1214 15:37:44.864279  7500 net.cpp:150] Setting up conv5_3_pool3
I1214 15:37:44.864294  7500 net.cpp:157] Top shape: 1 2048 3 3 (18432)
I1214 15:37:44.864302  7500 net.cpp:165] Memory required for data: 4206100640
I1214 15:37:44.864311  7500 layer_factory.hpp:77] Creating layer conv5_3_pool3_conv
I1214 15:37:44.864329  7500 net.cpp:106] Creating Layer conv5_3_pool3_conv
I1214 15:37:44.864341  7500 net.cpp:454] conv5_3_pool3_conv <- conv5_3_pool3
I1214 15:37:44.864353  7500 net.cpp:411] conv5_3_pool3_conv -> conv5_3_pool3_conv
I1214 15:37:44.928550  7500 net.cpp:150] Setting up conv5_3_pool3_conv
I1214 15:37:44.928571  7500 net.cpp:157] Top shape: 1 512 3 3 (4608)
I1214 15:37:44.928581  7500 net.cpp:165] Memory required for data: 4206119072
I1214 15:37:44.928593  7500 layer_factory.hpp:77] Creating layer conv5_3_pool3_conv/bn
I1214 15:37:44.928611  7500 net.cpp:106] Creating Layer conv5_3_pool3_conv/bn
I1214 15:37:44.928622  7500 net.cpp:454] conv5_3_pool3_conv/bn <- conv5_3_pool3_conv
I1214 15:37:44.928635  7500 net.cpp:397] conv5_3_pool3_conv/bn -> conv5_3_pool3_conv (in-place)
I1214 15:37:44.928993  7500 net.cpp:150] Setting up conv5_3_pool3_conv/bn
I1214 15:37:44.929011  7500 net.cpp:157] Top shape: 1 512 3 3 (4608)
I1214 15:37:44.929020  7500 net.cpp:165] Memory required for data: 4206137504
I1214 15:37:44.929038  7500 layer_factory.hpp:77] Creating layer conv5_3_pool3_conv/relu
I1214 15:37:44.929049  7500 net.cpp:106] Creating Layer conv5_3_pool3_conv/relu
I1214 15:37:44.929059  7500 net.cpp:454] conv5_3_pool3_conv/relu <- conv5_3_pool3_conv
I1214 15:37:44.929070  7500 net.cpp:397] conv5_3_pool3_conv/relu -> conv5_3_pool3_conv (in-place)
I1214 15:37:44.929083  7500 net.cpp:150] Setting up conv5_3_pool3_conv/relu
I1214 15:37:44.929095  7500 net.cpp:157] Top shape: 1 512 3 3 (4608)
I1214 15:37:44.929105  7500 net.cpp:165] Memory required for data: 4206155936
I1214 15:37:44.929113  7500 layer_factory.hpp:77] Creating layer conv5_3_pool3_interp
I1214 15:37:44.929129  7500 net.cpp:106] Creating Layer conv5_3_pool3_interp
I1214 15:37:44.929146  7500 net.cpp:454] conv5_3_pool3_interp <- conv5_3_pool3_conv
I1214 15:37:44.929167  7500 net.cpp:411] conv5_3_pool3_interp -> conv5_3_pool3_interp
I1214 15:37:44.929208  7500 net.cpp:150] Setting up conv5_3_pool3_interp
I1214 15:37:44.929222  7500 net.cpp:157] Top shape: 1 512 60 60 (1843200)
I1214 15:37:44.929230  7500 net.cpp:165] Memory required for data: 4213528736
I1214 15:37:44.929239  7500 layer_factory.hpp:77] Creating layer conv5_3_pool6
I1214 15:37:44.929251  7500 net.cpp:106] Creating Layer conv5_3_pool6
I1214 15:37:44.929260  7500 net.cpp:454] conv5_3_pool6 <- conv5_3_conv5_3/relu_0_split_3
I1214 15:37:44.929275  7500 net.cpp:411] conv5_3_pool6 -> conv5_3_pool6
I1214 15:37:44.929316  7500 net.cpp:150] Setting up conv5_3_pool6
I1214 15:37:44.929332  7500 net.cpp:157] Top shape: 1 2048 6 6 (73728)
I1214 15:37:44.929340  7500 net.cpp:165] Memory required for data: 4213823648
I1214 15:37:44.929348  7500 layer_factory.hpp:77] Creating layer conv5_3_pool6_conv
I1214 15:37:44.929365  7500 net.cpp:106] Creating Layer conv5_3_pool6_conv
I1214 15:37:44.929376  7500 net.cpp:454] conv5_3_pool6_conv <- conv5_3_pool6
I1214 15:37:44.929392  7500 net.cpp:411] conv5_3_pool6_conv -> conv5_3_pool6_conv
I1214 15:37:44.992719  7500 net.cpp:150] Setting up conv5_3_pool6_conv
I1214 15:37:44.992741  7500 net.cpp:157] Top shape: 1 512 6 6 (18432)
I1214 15:37:44.992750  7500 net.cpp:165] Memory required for data: 4213897376
I1214 15:37:44.992763  7500 layer_factory.hpp:77] Creating layer conv5_3_pool6_conv/bn
I1214 15:37:44.992777  7500 net.cpp:106] Creating Layer conv5_3_pool6_conv/bn
I1214 15:37:44.992789  7500 net.cpp:454] conv5_3_pool6_conv/bn <- conv5_3_pool6_conv
I1214 15:37:44.992804  7500 net.cpp:397] conv5_3_pool6_conv/bn -> conv5_3_pool6_conv (in-place)
I1214 15:37:44.993163  7500 net.cpp:150] Setting up conv5_3_pool6_conv/bn
I1214 15:37:44.993181  7500 net.cpp:157] Top shape: 1 512 6 6 (18432)
I1214 15:37:44.993191  7500 net.cpp:165] Memory required for data: 4213971104
I1214 15:37:44.993207  7500 layer_factory.hpp:77] Creating layer conv5_3_pool6_conv/relu
I1214 15:37:44.993219  7500 net.cpp:106] Creating Layer conv5_3_pool6_conv/relu
I1214 15:37:44.993229  7500 net.cpp:454] conv5_3_pool6_conv/relu <- conv5_3_pool6_conv
I1214 15:37:44.993242  7500 net.cpp:397] conv5_3_pool6_conv/relu -> conv5_3_pool6_conv (in-place)
I1214 15:37:44.993254  7500 net.cpp:150] Setting up conv5_3_pool6_conv/relu
I1214 15:37:44.993266  7500 net.cpp:157] Top shape: 1 512 6 6 (18432)
I1214 15:37:44.993274  7500 net.cpp:165] Memory required for data: 4214044832
I1214 15:37:44.993283  7500 layer_factory.hpp:77] Creating layer conv5_3_pool6_interp
I1214 15:37:44.993294  7500 net.cpp:106] Creating Layer conv5_3_pool6_interp
I1214 15:37:44.993304  7500 net.cpp:454] conv5_3_pool6_interp <- conv5_3_pool6_conv
I1214 15:37:44.993316  7500 net.cpp:411] conv5_3_pool6_interp -> conv5_3_pool6_interp
I1214 15:37:44.993355  7500 net.cpp:150] Setting up conv5_3_pool6_interp
I1214 15:37:44.993371  7500 net.cpp:157] Top shape: 1 512 60 60 (1843200)
I1214 15:37:44.993378  7500 net.cpp:165] Memory required for data: 4221417632
I1214 15:37:44.993387  7500 layer_factory.hpp:77] Creating layer conv5_3_concat
I1214 15:37:44.993402  7500 net.cpp:106] Creating Layer conv5_3_concat
I1214 15:37:44.993413  7500 net.cpp:454] conv5_3_concat <- conv5_3_conv5_3/relu_0_split_4
I1214 15:37:44.993425  7500 net.cpp:454] conv5_3_concat <- conv5_3_pool6_interp
I1214 15:37:44.993437  7500 net.cpp:454] conv5_3_concat <- conv5_3_pool3_interp
I1214 15:37:44.993446  7500 net.cpp:454] conv5_3_concat <- conv5_3_pool2_interp
I1214 15:37:44.993456  7500 net.cpp:454] conv5_3_concat <- conv5_3_pool1_interp
I1214 15:37:44.993468  7500 net.cpp:411] conv5_3_concat -> conv5_3_concat
I1214 15:37:44.993510  7500 net.cpp:150] Setting up conv5_3_concat
I1214 15:37:44.993525  7500 net.cpp:157] Top shape: 1 4096 60 60 (14745600)
I1214 15:37:44.993535  7500 net.cpp:165] Memory required for data: 4280400032
I1214 15:37:44.993542  7500 layer_factory.hpp:77] Creating layer conv5_4
I1214 15:37:44.993564  7500 net.cpp:106] Creating Layer conv5_4
I1214 15:37:44.993582  7500 net.cpp:454] conv5_4 <- conv5_3_concat
I1214 15:37:44.993600  7500 net.cpp:411] conv5_4 -> conv5_4
I1214 15:37:46.137882  7500 net.cpp:150] Setting up conv5_4
I1214 15:37:46.137938  7500 net.cpp:157] Top shape: 1 512 60 60 (1843200)
I1214 15:37:46.137948  7500 net.cpp:165] Memory required for data: 4287772832
I1214 15:37:46.137969  7500 layer_factory.hpp:77] Creating layer conv5_4/bn
I1214 15:37:46.137996  7500 net.cpp:106] Creating Layer conv5_4/bn
I1214 15:37:46.138011  7500 net.cpp:454] conv5_4/bn <- conv5_4
I1214 15:37:46.138029  7500 net.cpp:397] conv5_4/bn -> conv5_4 (in-place)
I1214 15:37:46.138461  7500 net.cpp:150] Setting up conv5_4/bn
I1214 15:37:46.138479  7500 net.cpp:157] Top shape: 1 512 60 60 (1843200)
I1214 15:37:46.138489  7500 net.cpp:165] Memory required for data: 4295145632
I1214 15:37:46.138505  7500 layer_factory.hpp:77] Creating layer conv5_4/relu
I1214 15:37:46.138519  7500 net.cpp:106] Creating Layer conv5_4/relu
I1214 15:37:46.138528  7500 net.cpp:454] conv5_4/relu <- conv5_4
I1214 15:37:46.138540  7500 net.cpp:397] conv5_4/relu -> conv5_4 (in-place)
I1214 15:37:46.138555  7500 net.cpp:150] Setting up conv5_4/relu
I1214 15:37:46.138566  7500 net.cpp:157] Top shape: 1 512 60 60 (1843200)
I1214 15:37:46.138576  7500 net.cpp:165] Memory required for data: 4302518432
I1214 15:37:46.138584  7500 layer_factory.hpp:77] Creating layer conv5_4/dropout
I1214 15:37:46.138600  7500 net.cpp:106] Creating Layer conv5_4/dropout
I1214 15:37:46.138612  7500 net.cpp:454] conv5_4/dropout <- conv5_4
I1214 15:37:46.138622  7500 net.cpp:397] conv5_4/dropout -> conv5_4 (in-place)
I1214 15:37:46.138664  7500 net.cpp:150] Setting up conv5_4/dropout
I1214 15:37:46.138679  7500 net.cpp:157] Top shape: 1 512 60 60 (1843200)
I1214 15:37:46.138687  7500 net.cpp:165] Memory required for data: 4309891232
I1214 15:37:46.138696  7500 layer_factory.hpp:77] Creating layer conv6_nyuv2
I1214 15:37:46.138717  7500 net.cpp:106] Creating Layer conv6_nyuv2
I1214 15:37:46.138728  7500 net.cpp:454] conv6_nyuv2 <- conv5_4
I1214 15:37:46.138744  7500 net.cpp:411] conv6_nyuv2 -> conv6_nyuv2
I1214 15:37:46.140308  7500 net.cpp:150] Setting up conv6_nyuv2
I1214 15:37:46.140327  7500 net.cpp:157] Top shape: 1 40 60 60 (144000)
I1214 15:37:46.140336  7500 net.cpp:165] Memory required for data: 4310467232
I1214 15:37:46.140350  7500 layer_factory.hpp:77] Creating layer conv6_interp
I1214 15:37:46.140367  7500 net.cpp:106] Creating Layer conv6_interp
I1214 15:37:46.140378  7500 net.cpp:454] conv6_interp <- conv6_nyuv2
I1214 15:37:46.140393  7500 net.cpp:411] conv6_interp -> conv6_interp
I1214 15:37:46.140434  7500 net.cpp:150] Setting up conv6_interp
I1214 15:37:46.140450  7500 net.cpp:157] Top shape: 1 40 473 473 (8949160)
I1214 15:37:46.140458  7500 net.cpp:165] Memory required for data: 4346263872
I1214 15:37:46.140467  7500 layer_factory.hpp:77] Creating layer conv6_interp_conv6_interp_0_split
I1214 15:37:46.140482  7500 net.cpp:106] Creating Layer conv6_interp_conv6_interp_0_split
I1214 15:37:46.140492  7500 net.cpp:454] conv6_interp_conv6_interp_0_split <- conv6_interp
I1214 15:37:46.140504  7500 net.cpp:411] conv6_interp_conv6_interp_0_split -> conv6_interp_conv6_interp_0_split_0
I1214 15:37:46.140518  7500 net.cpp:411] conv6_interp_conv6_interp_0_split -> conv6_interp_conv6_interp_0_split_1
I1214 15:37:46.140575  7500 net.cpp:150] Setting up conv6_interp_conv6_interp_0_split
I1214 15:37:46.140590  7500 net.cpp:157] Top shape: 1 40 473 473 (8949160)
I1214 15:37:46.140601  7500 net.cpp:157] Top shape: 1 40 473 473 (8949160)
I1214 15:37:46.140609  7500 net.cpp:165] Memory required for data: 4417857152
I1214 15:37:46.140619  7500 layer_factory.hpp:77] Creating layer loss
I1214 15:37:46.140635  7500 net.cpp:106] Creating Layer loss
I1214 15:37:46.140645  7500 net.cpp:454] loss <- conv6_interp_conv6_interp_0_split_0
I1214 15:37:46.140655  7500 net.cpp:454] loss <- label_data_1_split_0
I1214 15:37:46.140668  7500 net.cpp:411] loss -> (automatic)
I1214 15:37:46.140692  7500 layer_factory.hpp:77] Creating layer loss
I1214 15:37:46.168020  7500 net.cpp:150] Setting up loss
I1214 15:37:46.168082  7500 net.cpp:157] Top shape: (1)
I1214 15:37:46.168092  7500 net.cpp:160]     with loss weight 1
I1214 15:37:46.168114  7500 net.cpp:165] Memory required for data: 4417857156
I1214 15:37:46.168128  7500 layer_factory.hpp:77] Creating layer accuracy
I1214 15:37:46.168174  7500 net.cpp:106] Creating Layer accuracy
I1214 15:37:46.168190  7500 net.cpp:454] accuracy <- conv6_interp_conv6_interp_0_split_1
I1214 15:37:46.168206  7500 net.cpp:454] accuracy <- label_data_1_split_1
I1214 15:37:46.168222  7500 net.cpp:411] accuracy -> accuracy
I1214 15:37:46.168303  7500 net.cpp:150] Setting up accuracy
I1214 15:37:46.168318  7500 net.cpp:157] Top shape: 1 1 1 3 (3)
I1214 15:37:46.168328  7500 net.cpp:165] Memory required for data: 4417857168
I1214 15:37:46.168337  7500 net.cpp:228] accuracy does not need backward computation.
I1214 15:37:46.168347  7500 net.cpp:226] loss needs backward computation.
I1214 15:37:46.168357  7500 net.cpp:226] conv6_interp_conv6_interp_0_split needs backward computation.
I1214 15:37:46.168367  7500 net.cpp:226] conv6_interp needs backward computation.
…
