…
I1213 17:23:06.138977 25184 net.cpp:322] The NetState phase (0) differed from the phase (1) specified by a rule in layer accuracy
I1213 17:23:06.139524 25184 net.cpp:49] Initializing net from parameters: 
name: "${NET_ID}"
state {
  phase: TRAIN
}
layer {
  name: "data"
  type: "ImageSegData"
  top: "data"
  top: "label"
  include {
    phase: TRAIN
  }
  transform_param {
    mirror: true
    crop_size: 321
    mean_value: 104.008
    mean_value: 116.669
    mean_value: 122.675
  }
  image_data_param {
    source: "./NYUv2_40cls/train.deeplablist"
    batch_size: 10
    shuffle: true
    root_folder: "./NYUv2_40cls/"
    label_type: PIXEL
  }
}
layer {
  name: "data_conv"
  type: "Convolution"
  bottom: "data"
  top: "data_conv"
  convolution_param {
    num_output: 128
    pad: 1
    kernel_size: 3
    stride: 8
    weight_filler {
      type: "gaussian"
      std: 0.001
    }
    bias_filler {
      type: "constant"
      value: 0
    }
  }
}
layer {
  name: "relu_data_conv"
  type: "ReLU"
  bottom: "data_conv"
  top: "data_conv"
}
layer {
  name: "drop_data_conv"
  type: "Dropout"
  bottom: "data_conv"
  top: "data_conv"
  dropout_param {
    dropout_ratio: 0.5
  }
}
layer {
  name: "data_fc"
  type: "Convolution"
  bottom: "data_conv"
  top: "data_fc"
  convolution_param {
    num_output: 128
    kernel_size: 1
    stride: 1
    weight_filler {
      type: "gaussian"
      std: 0.001
    }
    bias_filler {
      type: "constant"
      value: 0
    }
  }
}
layer {
  name: "relu_data_fc"
  type: "ReLU"
  bottom: "data_fc"
  top: "data_fc"
}
layer {
  name: "drop_data_fc"
  type: "Dropout"
  bottom: "data_fc"
  top: "data_fc"
  dropout_param {
    dropout_ratio: 0.5
  }
}
layer {
  name: "data_ms_nyuv2_40cls"
  type: "Convolution"
  bottom: "data_fc"
  top: "data_ms"
  convolution_param {
    num_output: 40
    kernel_size: 1
    weight_filler {
      type: "gaussian"
      std: 0.01
    }
    bias_filler {
      type: "constant"
      value: 0
    }
  }
}
layer {
  name: "conv1_1"
  type: "Convolution"
  bottom: "data"
  top: "conv1_1"
  convolution_param {
    num_output: 64
    pad: 1
    kernel_size: 3
  }
}
layer {
  name: "relu1_1"
  type: "ReLU"
  bottom: "conv1_1"
  top: "conv1_1"
}
layer {
  name: "conv1_2"
  type: "Convolution"
  bottom: "conv1_1"
  top: "conv1_2"
  convolution_param {
    num_output: 64
    pad: 1
    kernel_size: 3
  }
}
layer {
  name: "relu1_2"
  type: "ReLU"
  bottom: "conv1_2"
  top: "conv1_2"
}
layer {
  name: "pool1"
  type: "Pooling"
  bottom: "conv1_2"
  top: "pool1"
  pooling_param {
    pool: MAX
    kernel_size: 3
    stride: 2
    pad: 1
  }
}
layer {
  name: "pool1_conv"
  type: "Convolution"
  bottom: "pool1"
  top: "pool1_conv"
  convolution_param {
    num_output: 128
    pad: 1
    kernel_size: 3
    stride: 4
    weight_filler {
      type: "gaussian"
      std: 0.001
    }
    bias_filler {
      type: "constant"
      value: 0
    }
  }
}
layer {
  name: "relu_pool1_conv"
  type: "ReLU"
  bottom: "pool1_conv"
  top: "pool1_conv"
}
layer {
  name: "drop_pool1_conv"
  type: "Dropout"
  bottom: "pool1_conv"
  top: "pool1_conv"
  dropout_param {
    dropout_ratio: 0.5
  }
}
layer {
  name: "pool1_fc"
  type: "Convolution"
  bottom: "pool1_conv"
  top: "pool1_fc"
  convolution_param {
    num_output: 128
    kernel_size: 1
    weight_filler {
      type: "gaussian"
      std: 0.001
    }
    bias_filler {
      type: "constant"
      value: 0
    }
  }
}
layer {
  name: "relu_pool1_fc"
  type: "ReLU"
  bottom: "pool1_fc"
  top: "pool1_fc"
}
layer {
  name: "drop_pool1_fc"
  type: "Dropout"
  bottom: "pool1_fc"
  top: "pool1_fc"
  dropout_param {
    dropout_ratio: 0.5
  }
}
layer {
  name: "pool1_ms_nyuv2_40cls"
  type: "Convolution"
  bottom: "pool1_fc"
  top: "pool1_ms"
  convolution_param {
    num_output: 40
    kernel_size: 1
    weight_filler {
      type: "gaussian"
      std: 0.01
    }
    bias_filler {
      type: "constant"
      value: 0
    }
  }
}
layer {
  name: "conv2_1"
  type: "Convolution"
  bottom: "pool1"
  top: "conv2_1"
  convolution_param {
    num_output: 128
    pad: 1
    kernel_size: 3
  }
}
layer {
  name: "relu2_1"
  type: "ReLU"
  bottom: "conv2_1"
  top: "conv2_1"
}
layer {
  name: "conv2_2"
  type: "Convolution"
  bottom: "conv2_1"
  top: "conv2_2"
  convolution_param {
    num_output: 128
    pad: 1
    kernel_size: 3
  }
}
layer {
  name: "relu2_2"
  type: "ReLU"
  bottom: "conv2_2"
  top: "conv2_2"
}
layer {
  name: "pool2"
  type: "Pooling"
  bottom: "conv2_2"
  top: "pool2"
  pooling_param {
    pool: MAX
    kernel_size: 3
    stride: 2
    pad: 1
  }
}
layer {
  name: "pool2_conv"
  type: "Convolution"
  bottom: "pool2"
  top: "pool2_conv"
  convolution_param {
    num_output: 128
    pad: 1
    kernel_size: 3
    stride: 2
    weight_filler {
      type: "gaussian"
      std: 0.001
    }
    bias_filler {
      type: "constant"
      value: 0
    }
  }
}
layer {
  name: "relu_pool2_conv"
  type: "ReLU"
  bottom: "pool2_conv"
  top: "pool2_conv"
}
layer {
  name: "drop_pool2_conv"
  type: "Dropout"
  bottom: "pool2_conv"
  top: "pool2_conv"
  dropout_param {
    dropout_ratio: 0.5
  }
}
layer {
  name: "pool2_fc"
  type: "Convolution"
  bottom: "pool2_conv"
  top: "pool2_fc"
  convolution_param {
    num_output: 128
    kernel_size: 1
    weight_filler {
      type: "gaussian"
      std: 0.001
    }
    bias_filler {
      type: "constant"
      value: 0
    }
  }
}
layer {
  name: "relu_pool2_fc"
  type: "ReLU"
  bottom: "pool2_fc"
  top: "pool2_fc"
}
layer {
  name: "drop_pool2_fc"
  type: "Dropout"
  bottom: "pool2_fc"
  top: "pool2_fc"
  dropout_param {
    dropout_ratio: 0.5
  }
}
layer {
  name: "pool2_ms_nyuv2_40cls"
  type: "Convolution"
  bottom: "pool2_fc"
  top: "pool2_ms"
  convolution_param {
    num_output: 40
    kernel_size: 1
    weight_filler {
      type: "gaussian"
      std: 0.01
    }
    bias_filler {
      type: "constant"
      value: 0
    }
  }
}
layer {
  name: "conv3_1"
  type: "Convolution"
  bottom: "pool2"
  top: "conv3_1"
  convolution_param {
    num_output: 256
    pad: 1
    kernel_size: 3
  }
}
layer {
  name: "relu3_1"
  type: "ReLU"
  bottom: "conv3_1"
  top: "conv3_1"
}
layer {
  name: "conv3_2"
  type: "Convolution"
  bottom: "conv3_1"
  top: "conv3_2"
  convolution_param {
    num_output: 256
    pad: 1
    kernel_size: 3
  }
}
layer {
  name: "relu3_2"
  type: "ReLU"
  bottom: "conv3_2"
  top: "conv3_2"
}
layer {
  name: "conv3_3"
  type: "Convolution"
  bottom: "conv3_2"
  top: "conv3_3"
  convolution_param {
    num_output: 256
    pad: 1
    kernel_size: 3
  }
}
layer {
  name: "relu3_3"
  type: "ReLU"
  bottom: "conv3_3"
  top: "conv3_3"
}
layer {
  name: "pool3"
  type: "Pooling"
  bottom: "conv3_3"
  top: "pool3"
  pooling_param {
    pool: MAX
    kernel_size: 3
    stride: 2
    pad: 1
  }
}
layer {
  name: "pool3_conv"
  type: "Convolution"
  bottom: "pool3"
  top: "pool3_conv"
  convolution_param {
    num_output: 128
    pad: 1
    kernel_size: 3
    stride: 1
    weight_filler {
      type: "gaussian"
      std: 0.001
    }
    bias_filler {
      type: "constant"
      value: 0
    }
  }
}
layer {
  name: "relu_pool3_conv"
  type: "ReLU"
  bottom: "pool3_conv"
  top: "pool3_conv"
}
layer {
  name: "drop_pool3_conv"
  type: "Dropout"
  bottom: "pool3_conv"
  top: "pool3_conv"
  dropout_param {
    dropout_ratio: 0.5
  }
}
layer {
  name: "pool3_fc"
  type: "Convolution"
  bottom: "pool3_conv"
  top: "pool3_fc"
  convolution_param {
    num_output: 128
    kernel_size: 1
    stride: 1
    weight_filler {
      type: "gaussian"
      std: 0.001
    }
    bias_filler {
      type: "constant"
      value: 0
    }
  }
}
layer {
  name: "relu_pool3_fc"
  type: "ReLU"
  bottom: "pool3_fc"
  top: "pool3_fc"
}
layer {
  name: "drop_pool3_fc"
  type: "Dropout"
  bottom: "pool3_fc"
  top: "pool3_fc"
  dropout_param {
    dropout_ratio: 0.5
  }
}
layer {
  name: "pool3_ms_nyuv2_40cls"
  type: "Convolution"
  bottom: "pool3_fc"
  top: "pool3_ms"
  convolution_param {
    num_output: 40
    kernel_size: 1
  }
}
layer {
  name: "conv4_1"
  type: "Convolution"
  bottom: "pool3"
  top: "conv4_1"
  convolution_param {
    num_output: 512
    pad: 1
    kernel_size: 3
  }
}
layer {
  name: "relu4_1"
  type: "ReLU"
  bottom: "conv4_1"
  top: "conv4_1"
}
layer {
  name: "conv4_2"
  type: "Convolution"
  bottom: "conv4_1"
  top: "conv4_2"
  convolution_param {
    num_output: 512
    pad: 1
    kernel_size: 3
  }
}
layer {
  name: "relu4_2"
  type: "ReLU"
  bottom: "conv4_2"
  top: "conv4_2"
}
layer {
  name: "conv4_3"
  type: "Convolution"
  bottom: "conv4_2"
  top: "conv4_3"
  convolution_param {
    num_output: 512
    pad: 1
    kernel_size: 3
  }
}
layer {
  name: "relu4_3"
  type: "ReLU"
  bottom: "conv4_3"
  top: "conv4_3"
}
layer {
  name: "pool4"
  type: "Pooling"
  bottom: "conv4_3"
  top: "pool4"
  pooling_param {
    pool: MAX
    kernel_size: 3
    stride: 1
    pad: 1
  }
}
layer {
  name: "pool4_conv"
  type: "Convolution"
  bottom: "pool4"
  top: "pool4_conv"
  convolution_param {
    num_output: 128
    pad: 1
    kernel_size: 3
    stride: 1
    weight_filler {
      type: "gaussian"
      std: 0.001
    }
    bias_filler {
      type: "constant"
      value: 0
    }
  }
}
layer {
  name: "relu_pool4_conv"
  type: "ReLU"
  bottom: "pool4_conv"
  top: "pool4_conv"
}
layer {
  name: "drop_pool4_conv"
  type: "Dropout"
  bottom: "pool4_conv"
  top: "pool4_conv"
  dropout_param {
    dropout_ratio: 0.5
  }
}
layer {
  name: "pool4_fc"
  type: "Convolution"
  bottom: "pool4_conv"
  top: "pool4_fc"
  convolution_param {
    num_output: 128
    kernel_size: 1
    stride: 1
    weight_filler {
      type: "gaussian"
      std: 0.005
    }
    bias_filler {
      type: "constant"
      value: 0
    }
  }
}
layer {
  name: "relu_pool4_fc"
  type: "ReLU"
  bottom: "pool4_fc"
  top: "pool4_fc"
}
layer {
  name: "drop_pool4_fc"
  type: "Dropout"
  bottom: "pool4_fc"
  top: "pool4_fc"
  dropout_param {
    dropout_ratio: 0.5
  }
}
layer {
  name: "pool4_ms_nyuv2_40cls"
  type: "Convolution"
  bottom: "pool4_fc"
  top: "pool4_ms"
  convolution_param {
    num_output: 40
    kernel_size: 1
    weight_filler {
      type: "gaussian"
      std: 0.01
    }
    bias_filler {
      type: "constant"
      value: 0
    }
  }
}
layer {
  name: "conv5_1"
  type: "Convolution"
  bottom: "pool4"
  top: "conv5_1"
  convolution_param {
    num_output: 512
    pad: 2
    kernel_size: 3
    dilation: 2
  }
}
layer {
  name: "relu5_1"
  type: "ReLU"
  bottom: "conv5_1"
  top: "conv5_1"
}
layer {
  name: "conv5_2"
  type: "Convolution"
  bottom: "conv5_1"
  top: "conv5_2"
  convolution_param {
    num_output: 512
    pad: 2
    kernel_size: 3
    dilation: 2
  }
}
layer {
  name: "relu5_2"
  type: "ReLU"
  bottom: "conv5_2"
  top: "conv5_2"
}
layer {
  name: "conv5_3"
  type: "Convolution"
  bottom: "conv5_2"
  top: "conv5_3"
  convolution_param {
    num_output: 512
    pad: 2
    kernel_size: 3
    dilation: 2
  }
}
layer {
  name: "relu5_3"
  type: "ReLU"
  bottom: "conv5_3"
  top: "conv5_3"
}
layer {
  name: "pool5"
  type: "Pooling"
  bottom: "conv5_3"
  top: "pool5"
  pooling_param {
    pool: MAX
    kernel_size: 3
    stride: 1
    pad: 1
  }
}
layer {
  name: "pool5a"
  type: "Pooling"
  bottom: "pool5"
  top: "pool5a"
  pooling_param {
    pool: AVE
    kernel_size: 3
    stride: 1
    pad: 1
  }
}
layer {
  name: "fc6"
  type: "Convolution"
  bottom: "pool5a"
  top: "fc6"
  convolution_param {
    num_output: 1024
    pad: 12
    kernel_size: 3
    dilation: 12
  }
}
layer {
  name: "relu6"
  type: "ReLU"
  bottom: "fc6"
  top: "fc6"
}
layer {
  name: "drop6"
  type: "Dropout"
  bottom: "fc6"
  top: "fc6"
  dropout_param {
    dropout_ratio: 0.5
  }
}
layer {
  name: "fc7"
  type: "Convolution"
  bottom: "fc6"
  top: "fc7"
  convolution_param {
    num_output: 1024
    kernel_size: 1
  }
}
layer {
  name: "relu7"
  type: "ReLU"
  bottom: "fc7"
  top: "fc7"
}
layer {
  name: "drop7"
  type: "Dropout"
  bottom: "fc7"
  top: "fc7"
  dropout_param {
    dropout_ratio: 0.5
  }
}
layer {
  name: "fc8_nyuv2_40cls"
  type: "Convolution"
  bottom: "fc7"
  top: "fc8_nyuv2_40cls"
  param {
    lr_mult: 0
    decay_mult: 0
  }
  param {
    lr_mult: 1
    decay_mult: 0
  }
  convolution_param {
    num_output: 40
    kernel_size: 1
    weight_filler {
      type: "gaussian"
      std: 0.01
    }
    bias_filler {
      type: "constant"
      value: 0
    }
  }
}
layer {
  name: "fc_fusion"
  type: "Eltwise"
  bottom: "data_ms"
  bottom: "pool1_ms"
  bottom: "pool2_ms"
  bottom: "pool3_ms"
  bottom: "pool4_ms"
  bottom: "fc8_nyuv2_40cls"
  top: "fc_fusion"
  eltwise_param {
    operation: SUM
  }
}
layer {
  name: "fusion_interp"
  type: "Interp"
  bottom: "fc_fusion"
  top: "fusion_interp"
  interp_param {
    zoom_factor: 8
  }
}
layer {
  name: "loss"
  type: "SoftmaxWithLoss"
  bottom: "fusion_interp"
  bottom: "label"
  loss_param {
    ignore_label: 255
  }
}
I1213 17:23:06.139974 25184 layer_factory.hpp:77] Creating layer data
I1213 17:23:06.140035 25184 net.cpp:106] Creating Layer data
I1213 17:23:06.140055 25184 net.cpp:411] data -> data
I1213 17:23:06.140101 25184 net.cpp:411] data -> label
I1213 17:23:06.140126 25184 net.cpp:411] data -> (automatic)
I1213 17:23:06.140702 25184 image_seg_data_layer.cpp:46] Opening file ./NYUv2_40cls/train.deeplablist
I1213 17:23:06.147003 25184 image_seg_data_layer.cpp:63] Shuffling data
I1213 17:23:06.147202 25184 image_seg_data_layer.cpp:68] A total of 4247 images.
I1213 17:23:06.168026 25184 image_seg_data_layer.cpp:137] output data size: 10,3,321,321
I1213 17:23:06.168046 25184 image_seg_data_layer.cpp:141] output label size: 10,1,321,321
I1213 17:23:06.168056 25184 image_seg_data_layer.cpp:145] output data_dim size: 10,1,1,2
I1213 17:23:06.233320 25184 net.cpp:150] Setting up data
I1213 17:23:06.233386 25184 net.cpp:157] Top shape: 10 3 321 321 (3091230)
I1213 17:23:06.233418 25184 net.cpp:157] Top shape: 10 1 321 321 (1030410)
I1213 17:23:06.233433 25184 net.cpp:157] Top shape: 10 1 1 2 (20)
I1213 17:23:06.233443 25184 net.cpp:165] Memory required for data: 16486640
I1213 17:23:06.233458 25184 layer_factory.hpp:77] Creating layer data_data_0_split
I1213 17:23:06.233479 25184 net.cpp:106] Creating Layer data_data_0_split
I1213 17:23:06.233491 25184 net.cpp:454] data_data_0_split <- data
I1213 17:23:06.233525 25184 net.cpp:411] data_data_0_split -> data_data_0_split_0
I1213 17:23:06.233546 25184 net.cpp:411] data_data_0_split -> data_data_0_split_1
I1213 17:23:06.233611 25184 net.cpp:150] Setting up data_data_0_split
I1213 17:23:06.233628 25184 net.cpp:157] Top shape: 10 3 321 321 (3091230)
I1213 17:23:06.233639 25184 net.cpp:157] Top shape: 10 3 321 321 (3091230)
I1213 17:23:06.233647 25184 net.cpp:165] Memory required for data: 41216480
I1213 17:23:06.233657 25184 layer_factory.hpp:77] Creating layer data_conv
I1213 17:23:06.233687 25184 net.cpp:106] Creating Layer data_conv
I1213 17:23:06.233698 25184 net.cpp:454] data_conv <- data_data_0_split_0
I1213 17:23:06.233713 25184 net.cpp:411] data_conv -> data_conv
I1213 17:23:06.237283 25184 net.cpp:150] Setting up data_conv
I1213 17:23:06.237305 25184 net.cpp:157] Top shape: 10 128 41 41 (2151680)
I1213 17:23:06.237315 25184 net.cpp:165] Memory required for data: 49823200
I1213 17:23:06.237351 25184 layer_factory.hpp:77] Creating layer relu_data_conv
I1213 17:23:06.237367 25184 net.cpp:106] Creating Layer relu_data_conv
I1213 17:23:06.237380 25184 net.cpp:454] relu_data_conv <- data_conv
I1213 17:23:06.237392 25184 net.cpp:397] relu_data_conv -> data_conv (in-place)
I1213 17:23:06.237421 25184 net.cpp:150] Setting up relu_data_conv
I1213 17:23:06.237447 25184 net.cpp:157] Top shape: 10 128 41 41 (2151680)
I1213 17:23:06.237455 25184 net.cpp:165] Memory required for data: 58429920
I1213 17:23:06.237465 25184 layer_factory.hpp:77] Creating layer drop_data_conv
I1213 17:23:06.237481 25184 net.cpp:106] Creating Layer drop_data_conv
I1213 17:23:06.237491 25184 net.cpp:454] drop_data_conv <- data_conv
I1213 17:23:06.237506 25184 net.cpp:397] drop_data_conv -> data_conv (in-place)
I1213 17:23:06.237550 25184 net.cpp:150] Setting up drop_data_conv
I1213 17:23:06.237565 25184 net.cpp:157] Top shape: 10 128 41 41 (2151680)
I1213 17:23:06.237577 25184 net.cpp:165] Memory required for data: 67036640
I1213 17:23:06.237587 25184 layer_factory.hpp:77] Creating layer data_fc
I1213 17:23:06.237602 25184 net.cpp:106] Creating Layer data_fc
I1213 17:23:06.237612 25184 net.cpp:454] data_fc <- data_conv
I1213 17:23:06.237627 25184 net.cpp:411] data_fc -> data_fc
I1213 17:23:06.239490 25184 net.cpp:150] Setting up data_fc
I1213 17:23:06.239509 25184 net.cpp:157] Top shape: 10 128 41 41 (2151680)
I1213 17:23:06.239519 25184 net.cpp:165] Memory required for data: 75643360
I1213 17:23:06.239536 25184 layer_factory.hpp:77] Creating layer relu_data_fc
I1213 17:23:06.239550 25184 net.cpp:106] Creating Layer relu_data_fc
I1213 17:23:06.239560 25184 net.cpp:454] relu_data_fc <- data_fc
I1213 17:23:06.239574 25184 net.cpp:397] relu_data_fc -> data_fc (in-place)
I1213 17:23:06.239589 25184 net.cpp:150] Setting up relu_data_fc
I1213 17:23:06.239601 25184 net.cpp:157] Top shape: 10 128 41 41 (2151680)
I1213 17:23:06.239610 25184 net.cpp:165] Memory required for data: 84250080
I1213 17:23:06.239619 25184 layer_factory.hpp:77] Creating layer drop_data_fc
I1213 17:23:06.239631 25184 net.cpp:106] Creating Layer drop_data_fc
I1213 17:23:06.239640 25184 net.cpp:454] drop_data_fc <- data_fc
I1213 17:23:06.239652 25184 net.cpp:397] drop_data_fc -> data_fc (in-place)
I1213 17:23:06.239689 25184 net.cpp:150] Setting up drop_data_fc
I1213 17:23:06.239703 25184 net.cpp:157] Top shape: 10 128 41 41 (2151680)
I1213 17:23:06.239712 25184 net.cpp:165] Memory required for data: 92856800
I1213 17:23:06.239722 25184 layer_factory.hpp:77] Creating layer data_ms_nyuv2_40cls
I1213 17:23:06.239740 25184 net.cpp:106] Creating Layer data_ms_nyuv2_40cls
I1213 17:23:06.239750 25184 net.cpp:454] data_ms_nyuv2_40cls <- data_fc
I1213 17:23:06.239765 25184 net.cpp:411] data_ms_nyuv2_40cls -> data_ms
I1213 17:23:06.240368 25184 net.cpp:150] Setting up data_ms_nyuv2_40cls
I1213 17:23:06.240388 25184 net.cpp:157] Top shape: 10 40 41 41 (672400)
I1213 17:23:06.240397 25184 net.cpp:165] Memory required for data: 95546400
I1213 17:23:06.240414 25184 layer_factory.hpp:77] Creating layer conv1_1
I1213 17:23:06.240443 25184 net.cpp:106] Creating Layer conv1_1
I1213 17:23:06.240456 25184 net.cpp:454] conv1_1 <- data_data_0_split_1
I1213 17:23:06.240471 25184 net.cpp:411] conv1_1 -> conv1_1
I1213 17:23:06.241464 25184 net.cpp:150] Setting up conv1_1
I1213 17:23:06.241485 25184 net.cpp:157] Top shape: 10 64 321 321 (65946240)
I1213 17:23:06.241495 25184 net.cpp:165] Memory required for data: 359331360
I1213 17:23:06.241509 25184 layer_factory.hpp:77] Creating layer relu1_1
I1213 17:23:06.241524 25184 net.cpp:106] Creating Layer relu1_1
I1213 17:23:06.241535 25184 net.cpp:454] relu1_1 <- conv1_1
I1213 17:23:06.241546 25184 net.cpp:397] relu1_1 -> conv1_1 (in-place)
I1213 17:23:06.241560 25184 net.cpp:150] Setting up relu1_1
I1213 17:23:06.241571 25184 net.cpp:157] Top shape: 10 64 321 321 (65946240)
I1213 17:23:06.241580 25184 net.cpp:165] Memory required for data: 623116320
I1213 17:23:06.241590 25184 layer_factory.hpp:77] Creating layer conv1_2
I1213 17:23:06.241607 25184 net.cpp:106] Creating Layer conv1_2
I1213 17:23:06.241618 25184 net.cpp:454] conv1_2 <- conv1_1
I1213 17:23:06.241633 25184 net.cpp:411] conv1_2 -> conv1_2
I1213 17:23:06.242635 25184 net.cpp:150] Setting up conv1_2
I1213 17:23:06.242656 25184 net.cpp:157] Top shape: 10 64 321 321 (65946240)
I1213 17:23:06.242671 25184 net.cpp:165] Memory required for data: 886901280
I1213 17:23:06.242697 25184 layer_factory.hpp:77] Creating layer relu1_2
I1213 17:23:06.242709 25184 net.cpp:106] Creating Layer relu1_2
I1213 17:23:06.242719 25184 net.cpp:454] relu1_2 <- conv1_2
I1213 17:23:06.242736 25184 net.cpp:397] relu1_2 -> conv1_2 (in-place)
I1213 17:23:06.242753 25184 net.cpp:150] Setting up relu1_2
I1213 17:23:06.242764 25184 net.cpp:157] Top shape: 10 64 321 321 (65946240)
I1213 17:23:06.242774 25184 net.cpp:165] Memory required for data: 1150686240
I1213 17:23:06.242782 25184 layer_factory.hpp:77] Creating layer pool1
I1213 17:23:06.242795 25184 net.cpp:106] Creating Layer pool1
I1213 17:23:06.242805 25184 net.cpp:454] pool1 <- conv1_2
I1213 17:23:06.242818 25184 net.cpp:411] pool1 -> pool1
I1213 17:23:06.242889 25184 net.cpp:150] Setting up pool1
I1213 17:23:06.242907 25184 net.cpp:157] Top shape: 10 64 161 161 (16589440)
I1213 17:23:06.242915 25184 net.cpp:165] Memory required for data: 1217044000
I1213 17:23:06.242924 25184 layer_factory.hpp:77] Creating layer pool1_pool1_0_split
I1213 17:23:06.242938 25184 net.cpp:106] Creating Layer pool1_pool1_0_split
I1213 17:23:06.242949 25184 net.cpp:454] pool1_pool1_0_split <- pool1
I1213 17:23:06.242960 25184 net.cpp:411] pool1_pool1_0_split -> pool1_pool1_0_split_0
I1213 17:23:06.242974 25184 net.cpp:411] pool1_pool1_0_split -> pool1_pool1_0_split_1
I1213 17:23:06.243026 25184 net.cpp:150] Setting up pool1_pool1_0_split
I1213 17:23:06.243042 25184 net.cpp:157] Top shape: 10 64 161 161 (16589440)
I1213 17:23:06.243053 25184 net.cpp:157] Top shape: 10 64 161 161 (16589440)
I1213 17:23:06.243062 25184 net.cpp:165] Memory required for data: 1349759520
I1213 17:23:06.243070 25184 layer_factory.hpp:77] Creating layer pool1_conv
I1213 17:23:06.243090 25184 net.cpp:106] Creating Layer pool1_conv
I1213 17:23:06.243101 25184 net.cpp:454] pool1_conv <- pool1_pool1_0_split_0
I1213 17:23:06.243116 25184 net.cpp:411] pool1_conv -> pool1_conv
I1213 17:23:06.248281 25184 net.cpp:150] Setting up pool1_conv
I1213 17:23:06.248302 25184 net.cpp:157] Top shape: 10 128 41 41 (2151680)
I1213 17:23:06.248312 25184 net.cpp:165] Memory required for data: 1358366240
I1213 17:23:06.248327 25184 layer_factory.hpp:77] Creating layer relu_pool1_conv
I1213 17:23:06.248343 25184 net.cpp:106] Creating Layer relu_pool1_conv
I1213 17:23:06.248354 25184 net.cpp:454] relu_pool1_conv <- pool1_conv
I1213 17:23:06.248366 25184 net.cpp:397] relu_pool1_conv -> pool1_conv (in-place)
I1213 17:23:06.248380 25184 net.cpp:150] Setting up relu_pool1_conv
I1213 17:23:06.248392 25184 net.cpp:157] Top shape: 10 128 41 41 (2151680)
I1213 17:23:06.248400 25184 net.cpp:165] Memory required for data: 1366972960
I1213 17:23:06.248410 25184 layer_factory.hpp:77] Creating layer drop_pool1_conv
I1213 17:23:06.248427 25184 net.cpp:106] Creating Layer drop_pool1_conv
I1213 17:23:06.248438 25184 net.cpp:454] drop_pool1_conv <- pool1_conv
I1213 17:23:06.248450 25184 net.cpp:397] drop_pool1_conv -> pool1_conv (in-place)
I1213 17:23:06.248489 25184 net.cpp:150] Setting up drop_pool1_conv
I1213 17:23:06.248505 25184 net.cpp:157] Top shape: 10 128 41 41 (2151680)
I1213 17:23:06.248514 25184 net.cpp:165] Memory required for data: 1375579680
I1213 17:23:06.248523 25184 layer_factory.hpp:77] Creating layer pool1_fc
I1213 17:23:06.248543 25184 net.cpp:106] Creating Layer pool1_fc
I1213 17:23:06.248555 25184 net.cpp:454] pool1_fc <- pool1_conv
I1213 17:23:06.248570 25184 net.cpp:411] pool1_fc -> pool1_fc
I1213 17:23:06.249796 25184 net.cpp:150] Setting up pool1_fc
I1213 17:23:06.249814 25184 net.cpp:157] Top shape: 10 128 41 41 (2151680)
I1213 17:23:06.249824 25184 net.cpp:165] Memory required for data: 1384186400
I1213 17:23:06.249837 25184 layer_factory.hpp:77] Creating layer relu_pool1_fc
I1213 17:23:06.249855 25184 net.cpp:106] Creating Layer relu_pool1_fc
I1213 17:23:06.249866 25184 net.cpp:454] relu_pool1_fc <- pool1_fc
I1213 17:23:06.249878 25184 net.cpp:397] relu_pool1_fc -> pool1_fc (in-place)
I1213 17:23:06.249892 25184 net.cpp:150] Setting up relu_pool1_fc
I1213 17:23:06.249909 25184 net.cpp:157] Top shape: 10 128 41 41 (2151680)
I1213 17:23:06.249927 25184 net.cpp:165] Memory required for data: 1392793120
I1213 17:23:06.249936 25184 layer_factory.hpp:77] Creating layer drop_pool1_fc
I1213 17:23:06.249950 25184 net.cpp:106] Creating Layer drop_pool1_fc
I1213 17:23:06.249960 25184 net.cpp:454] drop_pool1_fc <- pool1_fc
I1213 17:23:06.249971 25184 net.cpp:397] drop_pool1_fc -> pool1_fc (in-place)
I1213 17:23:06.250005 25184 net.cpp:150] Setting up drop_pool1_fc
I1213 17:23:06.250020 25184 net.cpp:157] Top shape: 10 128 41 41 (2151680)
I1213 17:23:06.250030 25184 net.cpp:165] Memory required for data: 1401399840
I1213 17:23:06.250038 25184 layer_factory.hpp:77] Creating layer pool1_ms_nyuv2_40cls
I1213 17:23:06.250062 25184 net.cpp:106] Creating Layer pool1_ms_nyuv2_40cls
I1213 17:23:06.250073 25184 net.cpp:454] pool1_ms_nyuv2_40cls <- pool1_fc
I1213 17:23:06.250087 25184 net.cpp:411] pool1_ms_nyuv2_40cls -> pool1_ms
I1213 17:23:06.250661 25184 net.cpp:150] Setting up pool1_ms_nyuv2_40cls
I1213 17:23:06.250679 25184 net.cpp:157] Top shape: 10 40 41 41 (672400)
I1213 17:23:06.250687 25184 net.cpp:165] Memory required for data: 1404089440
I1213 17:23:06.250701 25184 layer_factory.hpp:77] Creating layer conv2_1
I1213 17:23:06.250717 25184 net.cpp:106] Creating Layer conv2_1
I1213 17:23:06.250727 25184 net.cpp:454] conv2_1 <- pool1_pool1_0_split_1
I1213 17:23:06.250746 25184 net.cpp:411] conv2_1 -> conv2_1
I1213 17:23:06.251099 25184 net.cpp:150] Setting up conv2_1
I1213 17:23:06.251117 25184 net.cpp:157] Top shape: 10 128 161 161 (33178880)
I1213 17:23:06.251127 25184 net.cpp:165] Memory required for data: 1536804960
I1213 17:23:06.251143 25184 layer_factory.hpp:77] Creating layer relu2_1
I1213 17:23:06.251157 25184 net.cpp:106] Creating Layer relu2_1
I1213 17:23:06.251165 25184 net.cpp:454] relu2_1 <- conv2_1
I1213 17:23:06.251183 25184 net.cpp:397] relu2_1 -> conv2_1 (in-place)
I1213 17:23:06.251197 25184 net.cpp:150] Setting up relu2_1
I1213 17:23:06.251209 25184 net.cpp:157] Top shape: 10 128 161 161 (33178880)
I1213 17:23:06.251217 25184 net.cpp:165] Memory required for data: 1669520480
I1213 17:23:06.251226 25184 layer_factory.hpp:77] Creating layer conv2_2
I1213 17:23:06.251238 25184 net.cpp:106] Creating Layer conv2_2
I1213 17:23:06.251247 25184 net.cpp:454] conv2_2 <- conv2_1
I1213 17:23:06.251262 25184 net.cpp:411] conv2_2 -> conv2_2
I1213 17:23:06.252336 25184 net.cpp:150] Setting up conv2_2
I1213 17:23:06.252357 25184 net.cpp:157] Top shape: 10 128 161 161 (33178880)
I1213 17:23:06.252367 25184 net.cpp:165] Memory required for data: 1802236000
I1213 17:23:06.252382 25184 layer_factory.hpp:77] Creating layer relu2_2
I1213 17:23:06.252393 25184 net.cpp:106] Creating Layer relu2_2
I1213 17:23:06.252403 25184 net.cpp:454] relu2_2 <- conv2_2
I1213 17:23:06.252414 25184 net.cpp:397] relu2_2 -> conv2_2 (in-place)
I1213 17:23:06.252429 25184 net.cpp:150] Setting up relu2_2
I1213 17:23:06.252439 25184 net.cpp:157] Top shape: 10 128 161 161 (33178880)
I1213 17:23:06.252449 25184 net.cpp:165] Memory required for data: 1934951520
I1213 17:23:06.252457 25184 layer_factory.hpp:77] Creating layer pool2
I1213 17:23:06.252475 25184 net.cpp:106] Creating Layer pool2
I1213 17:23:06.252486 25184 net.cpp:454] pool2 <- conv2_2
I1213 17:23:06.252501 25184 net.cpp:411] pool2 -> pool2
I1213 17:23:06.252557 25184 net.cpp:150] Setting up pool2
I1213 17:23:06.252573 25184 net.cpp:157] Top shape: 10 128 81 81 (8398080)
I1213 17:23:06.252581 25184 net.cpp:165] Memory required for data: 1968543840
I1213 17:23:06.252591 25184 layer_factory.hpp:77] Creating layer pool2_pool2_0_split
I1213 17:23:06.252604 25184 net.cpp:106] Creating Layer pool2_pool2_0_split
I1213 17:23:06.252614 25184 net.cpp:454] pool2_pool2_0_split <- pool2
I1213 17:23:06.252626 25184 net.cpp:411] pool2_pool2_0_split -> pool2_pool2_0_split_0
I1213 17:23:06.252640 25184 net.cpp:411] pool2_pool2_0_split -> pool2_pool2_0_split_1
I1213 17:23:06.252693 25184 net.cpp:150] Setting up pool2_pool2_0_split
I1213 17:23:06.252714 25184 net.cpp:157] Top shape: 10 128 81 81 (8398080)
I1213 17:23:06.252734 25184 net.cpp:157] Top shape: 10 128 81 81 (8398080)
I1213 17:23:06.252743 25184 net.cpp:165] Memory required for data: 2035728480
I1213 17:23:06.252753 25184 layer_factory.hpp:77] Creating layer pool2_conv
I1213 17:23:06.252771 25184 net.cpp:106] Creating Layer pool2_conv
I1213 17:23:06.252784 25184 net.cpp:454] pool2_conv <- pool2_pool2_0_split_0
I1213 17:23:06.252799 25184 net.cpp:411] pool2_conv -> pool2_conv
I1213 17:23:06.262230 25184 net.cpp:150] Setting up pool2_conv
I1213 17:23:06.262259 25184 net.cpp:157] Top shape: 10 128 41 41 (2151680)
I1213 17:23:06.262267 25184 net.cpp:165] Memory required for data: 2044335200
I1213 17:23:06.262282 25184 layer_factory.hpp:77] Creating layer relu_pool2_conv
I1213 17:23:06.262308 25184 net.cpp:106] Creating Layer relu_pool2_conv
I1213 17:23:06.262320 25184 net.cpp:454] relu_pool2_conv <- pool2_conv
I1213 17:23:06.262332 25184 net.cpp:397] relu_pool2_conv -> pool2_conv (in-place)
I1213 17:23:06.262347 25184 net.cpp:150] Setting up relu_pool2_conv
I1213 17:23:06.262359 25184 net.cpp:157] Top shape: 10 128 41 41 (2151680)
I1213 17:23:06.262367 25184 net.cpp:165] Memory required for data: 2052941920
I1213 17:23:06.262382 25184 layer_factory.hpp:77] Creating layer drop_pool2_conv
I1213 17:23:06.262393 25184 net.cpp:106] Creating Layer drop_pool2_conv
I1213 17:23:06.262403 25184 net.cpp:454] drop_pool2_conv <- pool2_conv
I1213 17:23:06.262420 25184 net.cpp:397] drop_pool2_conv -> pool2_conv (in-place)
I1213 17:23:06.262459 25184 net.cpp:150] Setting up drop_pool2_conv
I1213 17:23:06.262476 25184 net.cpp:157] Top shape: 10 128 41 41 (2151680)
I1213 17:23:06.262485 25184 net.cpp:165] Memory required for data: 2061548640
I1213 17:23:06.262495 25184 layer_factory.hpp:77] Creating layer pool2_fc
I1213 17:23:06.262509 25184 net.cpp:106] Creating Layer pool2_fc
I1213 17:23:06.262519 25184 net.cpp:454] pool2_fc <- pool2_conv
I1213 17:23:06.262537 25184 net.cpp:411] pool2_fc -> pool2_fc
I1213 17:23:06.263818 25184 net.cpp:150] Setting up pool2_fc
I1213 17:23:06.263835 25184 net.cpp:157] Top shape: 10 128 41 41 (2151680)
I1213 17:23:06.263844 25184 net.cpp:165] Memory required for data: 2070155360
I1213 17:23:06.263859 25184 layer_factory.hpp:77] Creating layer relu_pool2_fc
I1213 17:23:06.263878 25184 net.cpp:106] Creating Layer relu_pool2_fc
I1213 17:23:06.263890 25184 net.cpp:454] relu_pool2_fc <- pool2_fc
I1213 17:23:06.263902 25184 net.cpp:397] relu_pool2_fc -> pool2_fc (in-place)
I1213 17:23:06.263916 25184 net.cpp:150] Setting up relu_pool2_fc
I1213 17:23:06.263927 25184 net.cpp:157] Top shape: 10 128 41 41 (2151680)
I1213 17:23:06.263936 25184 net.cpp:165] Memory required for data: 2078762080
I1213 17:23:06.263944 25184 layer_factory.hpp:77] Creating layer drop_pool2_fc
I1213 17:23:06.263957 25184 net.cpp:106] Creating Layer drop_pool2_fc
I1213 17:23:06.263965 25184 net.cpp:454] drop_pool2_fc <- pool2_fc
I1213 17:23:06.263978 25184 net.cpp:397] drop_pool2_fc -> pool2_fc (in-place)
I1213 17:23:06.264014 25184 net.cpp:150] Setting up drop_pool2_fc
I1213 17:23:06.264029 25184 net.cpp:157] Top shape: 10 128 41 41 (2151680)
I1213 17:23:06.264037 25184 net.cpp:165] Memory required for data: 2087368800
I1213 17:23:06.264045 25184 layer_factory.hpp:77] Creating layer pool2_ms_nyuv2_40cls
I1213 17:23:06.264068 25184 net.cpp:106] Creating Layer pool2_ms_nyuv2_40cls
I1213 17:23:06.264086 25184 net.cpp:454] pool2_ms_nyuv2_40cls <- pool2_fc
I1213 17:23:06.264098 25184 net.cpp:411] pool2_ms_nyuv2_40cls -> pool2_ms
I1213 17:23:06.264688 25184 net.cpp:150] Setting up pool2_ms_nyuv2_40cls
I1213 17:23:06.264706 25184 net.cpp:157] Top shape: 10 40 41 41 (672400)
I1213 17:23:06.264715 25184 net.cpp:165] Memory required for data: 2090058400
I1213 17:23:06.264729 25184 layer_factory.hpp:77] Creating layer conv3_1
I1213 17:23:06.264744 25184 net.cpp:106] Creating Layer conv3_1
I1213 17:23:06.264755 25184 net.cpp:454] conv3_1 <- pool2_pool2_0_split_1
I1213 17:23:06.264772 25184 net.cpp:411] conv3_1 -> conv3_1
I1213 17:23:06.265844 25184 net.cpp:150] Setting up conv3_1
I1213 17:23:06.265873 25184 net.cpp:157] Top shape: 10 256 81 81 (16796160)
I1213 17:23:06.265883 25184 net.cpp:165] Memory required for data: 2157243040
I1213 17:23:06.265897 25184 layer_factory.hpp:77] Creating layer relu3_1
I1213 17:23:06.265909 25184 net.cpp:106] Creating Layer relu3_1
I1213 17:23:06.265919 25184 net.cpp:454] relu3_1 <- conv3_1
I1213 17:23:06.265935 25184 net.cpp:397] relu3_1 -> conv3_1 (in-place)
I1213 17:23:06.265951 25184 net.cpp:150] Setting up relu3_1
I1213 17:23:06.265964 25184 net.cpp:157] Top shape: 10 256 81 81 (16796160)
I1213 17:23:06.265972 25184 net.cpp:165] Memory required for data: 2224427680
I1213 17:23:06.265981 25184 layer_factory.hpp:77] Creating layer conv3_2
I1213 17:23:06.265996 25184 net.cpp:106] Creating Layer conv3_2
I1213 17:23:06.266006 25184 net.cpp:454] conv3_2 <- conv3_1
I1213 17:23:06.266018 25184 net.cpp:411] conv3_2 -> conv3_2
I1213 17:23:06.267895 25184 net.cpp:150] Setting up conv3_2
I1213 17:23:06.267918 25184 net.cpp:157] Top shape: 10 256 81 81 (16796160)
I1213 17:23:06.267928 25184 net.cpp:165] Memory required for data: 2291612320
I1213 17:23:06.267943 25184 layer_factory.hpp:77] Creating layer relu3_2
I1213 17:23:06.267956 25184 net.cpp:106] Creating Layer relu3_2
I1213 17:23:06.267966 25184 net.cpp:454] relu3_2 <- conv3_2
I1213 17:23:06.267977 25184 net.cpp:397] relu3_2 -> conv3_2 (in-place)
I1213 17:23:06.267992 25184 net.cpp:150] Setting up relu3_2
I1213 17:23:06.268003 25184 net.cpp:157] Top shape: 10 256 81 81 (16796160)
I1213 17:23:06.268012 25184 net.cpp:165] Memory required for data: 2358796960
I1213 17:23:06.268021 25184 layer_factory.hpp:77] Creating layer conv3_3
I1213 17:23:06.268039 25184 net.cpp:106] Creating Layer conv3_3
I1213 17:23:06.268050 25184 net.cpp:454] conv3_3 <- conv3_2
I1213 17:23:06.268065 25184 net.cpp:411] conv3_3 -> conv3_3
I1213 17:23:06.270228 25184 net.cpp:150] Setting up conv3_3
I1213 17:23:06.270251 25184 net.cpp:157] Top shape: 10 256 81 81 (16796160)
I1213 17:23:06.270261 25184 net.cpp:165] Memory required for data: 2425981600
I1213 17:23:06.270275 25184 layer_factory.hpp:77] Creating layer relu3_3
I1213 17:23:06.270287 25184 net.cpp:106] Creating Layer relu3_3
I1213 17:23:06.270298 25184 net.cpp:454] relu3_3 <- conv3_3
I1213 17:23:06.270311 25184 net.cpp:397] relu3_3 -> conv3_3 (in-place)
I1213 17:23:06.270326 25184 net.cpp:150] Setting up relu3_3
I1213 17:23:06.270337 25184 net.cpp:157] Top shape: 10 256 81 81 (16796160)
I1213 17:23:06.270346 25184 net.cpp:165] Memory required for data: 2493166240
I1213 17:23:06.270355 25184 layer_factory.hpp:77] Creating layer pool3
I1213 17:23:06.270367 25184 net.cpp:106] Creating Layer pool3
I1213 17:23:06.270376 25184 net.cpp:454] pool3 <- conv3_3
I1213 17:23:06.270393 25184 net.cpp:411] pool3 -> pool3
I1213 17:23:06.270450 25184 net.cpp:150] Setting up pool3
I1213 17:23:06.270465 25184 net.cpp:157] Top shape: 10 256 41 41 (4303360)
I1213 17:23:06.270474 25184 net.cpp:165] Memory required for data: 2510379680
I1213 17:23:06.270483 25184 layer_factory.hpp:77] Creating layer pool3_pool3_0_split
I1213 17:23:06.270501 25184 net.cpp:106] Creating Layer pool3_pool3_0_split
I1213 17:23:06.270512 25184 net.cpp:454] pool3_pool3_0_split <- pool3
I1213 17:23:06.270526 25184 net.cpp:411] pool3_pool3_0_split -> pool3_pool3_0_split_0
I1213 17:23:06.270540 25184 net.cpp:411] pool3_pool3_0_split -> pool3_pool3_0_split_1
I1213 17:23:06.270592 25184 net.cpp:150] Setting up pool3_pool3_0_split
I1213 17:23:06.270608 25184 net.cpp:157] Top shape: 10 256 41 41 (4303360)
I1213 17:23:06.270619 25184 net.cpp:157] Top shape: 10 256 41 41 (4303360)
I1213 17:23:06.270628 25184 net.cpp:165] Memory required for data: 2544806560
I1213 17:23:06.270637 25184 layer_factory.hpp:77] Creating layer pool3_conv
I1213 17:23:06.270654 25184 net.cpp:106] Creating Layer pool3_conv
I1213 17:23:06.270665 25184 net.cpp:454] pool3_conv <- pool3_pool3_0_split_0
I1213 17:23:06.270684 25184 net.cpp:411] pool3_conv -> pool3_conv
I1213 17:23:06.288720 25184 net.cpp:150] Setting up pool3_conv
I1213 17:23:06.288775 25184 net.cpp:157] Top shape: 10 128 41 41 (2151680)
I1213 17:23:06.288799 25184 net.cpp:165] Memory required for data: 2553413280
I1213 17:23:06.288830 25184 layer_factory.hpp:77] Creating layer relu_pool3_conv
I1213 17:23:06.288848 25184 net.cpp:106] Creating Layer relu_pool3_conv
I1213 17:23:06.288859 25184 net.cpp:454] relu_pool3_conv <- pool3_conv
I1213 17:23:06.288872 25184 net.cpp:397] relu_pool3_conv -> pool3_conv (in-place)
I1213 17:23:06.288888 25184 net.cpp:150] Setting up relu_pool3_conv
I1213 17:23:06.288899 25184 net.cpp:157] Top shape: 10 128 41 41 (2151680)
I1213 17:23:06.288908 25184 net.cpp:165] Memory required for data: 2562020000
I1213 17:23:06.288916 25184 layer_factory.hpp:77] Creating layer drop_pool3_conv
I1213 17:23:06.288929 25184 net.cpp:106] Creating Layer drop_pool3_conv
I1213 17:23:06.288938 25184 net.cpp:454] drop_pool3_conv <- pool3_conv
I1213 17:23:06.288954 25184 net.cpp:397] drop_pool3_conv -> pool3_conv (in-place)
I1213 17:23:06.288993 25184 net.cpp:150] Setting up drop_pool3_conv
I1213 17:23:06.289008 25184 net.cpp:157] Top shape: 10 128 41 41 (2151680)
I1213 17:23:06.289021 25184 net.cpp:165] Memory required for data: 2570626720
I1213 17:23:06.289029 25184 layer_factory.hpp:77] Creating layer pool3_fc
I1213 17:23:06.289044 25184 net.cpp:106] Creating Layer pool3_fc
I1213 17:23:06.289054 25184 net.cpp:454] pool3_fc <- pool3_conv
I1213 17:23:06.289077 25184 net.cpp:411] pool3_fc -> pool3_fc
I1213 17:23:06.290380 25184 net.cpp:150] Setting up pool3_fc
I1213 17:23:06.290397 25184 net.cpp:157] Top shape: 10 128 41 41 (2151680)
I1213 17:23:06.290406 25184 net.cpp:165] Memory required for data: 2579233440
I1213 17:23:06.290421 25184 layer_factory.hpp:77] Creating layer relu_pool3_fc
I1213 17:23:06.290433 25184 net.cpp:106] Creating Layer relu_pool3_fc
I1213 17:23:06.290442 25184 net.cpp:454] relu_pool3_fc <- pool3_fc
I1213 17:23:06.291162 25184 net.cpp:397] relu_pool3_fc -> pool3_fc (in-place)
I1213 17:23:06.291179 25184 net.cpp:150] Setting up relu_pool3_fc
I1213 17:23:06.291193 25184 net.cpp:157] Top shape: 10 128 41 41 (2151680)
I1213 17:23:06.291203 25184 net.cpp:165] Memory required for data: 2587840160
I1213 17:23:06.291211 25184 layer_factory.hpp:77] Creating layer drop_pool3_fc
I1213 17:23:06.291224 25184 net.cpp:106] Creating Layer drop_pool3_fc
I1213 17:23:06.291237 25184 net.cpp:454] drop_pool3_fc <- pool3_fc
I1213 17:23:06.291249 25184 net.cpp:397] drop_pool3_fc -> pool3_fc (in-place)
I1213 17:23:06.291285 25184 net.cpp:150] Setting up drop_pool3_fc
I1213 17:23:06.291299 25184 net.cpp:157] Top shape: 10 128 41 41 (2151680)
I1213 17:23:06.291308 25184 net.cpp:165] Memory required for data: 2596446880
I1213 17:23:06.291317 25184 layer_factory.hpp:77] Creating layer pool3_ms_nyuv2_40cls
I1213 17:23:06.291337 25184 net.cpp:106] Creating Layer pool3_ms_nyuv2_40cls
I1213 17:23:06.291349 25184 net.cpp:454] pool3_ms_nyuv2_40cls <- pool3_fc
I1213 17:23:06.291363 25184 net.cpp:411] pool3_ms_nyuv2_40cls -> pool3_ms
I1213 17:23:06.291658 25184 net.cpp:150] Setting up pool3_ms_nyuv2_40cls
I1213 17:23:06.291676 25184 net.cpp:157] Top shape: 10 40 41 41 (672400)
I1213 17:23:06.291685 25184 net.cpp:165] Memory required for data: 2599136480
I1213 17:23:06.291699 25184 layer_factory.hpp:77] Creating layer conv4_1
I1213 17:23:06.291714 25184 net.cpp:106] Creating Layer conv4_1
I1213 17:23:06.291725 25184 net.cpp:454] conv4_1 <- pool3_pool3_0_split_1
I1213 17:23:06.291743 25184 net.cpp:411] conv4_1 -> conv4_1
I1213 17:23:06.295639 25184 net.cpp:150] Setting up conv4_1
I1213 17:23:06.295661 25184 net.cpp:157] Top shape: 10 512 41 41 (8606720)
I1213 17:23:06.295670 25184 net.cpp:165] Memory required for data: 2633563360
I1213 17:23:06.295686 25184 layer_factory.hpp:77] Creating layer relu4_1
I1213 17:23:06.295698 25184 net.cpp:106] Creating Layer relu4_1
I1213 17:23:06.295708 25184 net.cpp:454] relu4_1 <- conv4_1
I1213 17:23:06.295722 25184 net.cpp:397] relu4_1 -> conv4_1 (in-place)
I1213 17:23:06.295737 25184 net.cpp:150] Setting up relu4_1
I1213 17:23:06.295749 25184 net.cpp:157] Top shape: 10 512 41 41 (8606720)
I1213 17:23:06.295769 25184 net.cpp:165] Memory required for data: 2667990240
I1213 17:23:06.295779 25184 layer_factory.hpp:77] Creating layer conv4_2
I1213 17:23:06.295792 25184 net.cpp:106] Creating Layer conv4_2
I1213 17:23:06.295802 25184 net.cpp:454] conv4_2 <- conv4_1
I1213 17:23:06.295819 25184 net.cpp:411] conv4_2 -> conv4_2
I1213 17:23:06.302707 25184 net.cpp:150] Setting up conv4_2
I1213 17:23:06.302754 25184 net.cpp:157] Top shape: 10 512 41 41 (8606720)
I1213 17:23:06.302764 25184 net.cpp:165] Memory required for data: 2702417120
I1213 17:23:06.302781 25184 layer_factory.hpp:77] Creating layer relu4_2
I1213 17:23:06.302801 25184 net.cpp:106] Creating Layer relu4_2
I1213 17:23:06.302814 25184 net.cpp:454] relu4_2 <- conv4_2
I1213 17:23:06.302830 25184 net.cpp:397] relu4_2 -> conv4_2 (in-place)
I1213 17:23:06.302848 25184 net.cpp:150] Setting up relu4_2
I1213 17:23:06.302860 25184 net.cpp:157] Top shape: 10 512 41 41 (8606720)
I1213 17:23:06.302868 25184 net.cpp:165] Memory required for data: 2736844000
I1213 17:23:06.302877 25184 layer_factory.hpp:77] Creating layer conv4_3
I1213 17:23:06.302891 25184 net.cpp:106] Creating Layer conv4_3
I1213 17:23:06.302903 25184 net.cpp:454] conv4_3 <- conv4_2
I1213 17:23:06.302929 25184 net.cpp:411] conv4_3 -> conv4_3
I1213 17:23:06.310365 25184 net.cpp:150] Setting up conv4_3
I1213 17:23:06.310391 25184 net.cpp:157] Top shape: 10 512 41 41 (8606720)
I1213 17:23:06.310401 25184 net.cpp:165] Memory required for data: 2771270880
I1213 17:23:06.310415 25184 layer_factory.hpp:77] Creating layer relu4_3
I1213 17:23:06.310430 25184 net.cpp:106] Creating Layer relu4_3
I1213 17:23:06.310438 25184 net.cpp:454] relu4_3 <- conv4_3
I1213 17:23:06.310456 25184 net.cpp:397] relu4_3 -> conv4_3 (in-place)
I1213 17:23:06.310472 25184 net.cpp:150] Setting up relu4_3
I1213 17:23:06.310484 25184 net.cpp:157] Top shape: 10 512 41 41 (8606720)
I1213 17:23:06.310492 25184 net.cpp:165] Memory required for data: 2805697760
I1213 17:23:06.310501 25184 layer_factory.hpp:77] Creating layer pool4
I1213 17:23:06.310518 25184 net.cpp:106] Creating Layer pool4
I1213 17:23:06.310528 25184 net.cpp:454] pool4 <- conv4_3
I1213 17:23:06.310539 25184 net.cpp:411] pool4 -> pool4
I1213 17:23:06.310597 25184 net.cpp:150] Setting up pool4
I1213 17:23:06.310616 25184 net.cpp:157] Top shape: 10 512 41 41 (8606720)
I1213 17:23:06.310626 25184 net.cpp:165] Memory required for data: 2840124640
I1213 17:23:06.310636 25184 layer_factory.hpp:77] Creating layer pool4_pool4_0_split
I1213 17:23:06.310647 25184 net.cpp:106] Creating Layer pool4_pool4_0_split
I1213 17:23:06.310657 25184 net.cpp:454] pool4_pool4_0_split <- pool4
I1213 17:23:06.310669 25184 net.cpp:411] pool4_pool4_0_split -> pool4_pool4_0_split_0
I1213 17:23:06.310688 25184 net.cpp:411] pool4_pool4_0_split -> pool4_pool4_0_split_1
I1213 17:23:06.310740 25184 net.cpp:150] Setting up pool4_pool4_0_split
I1213 17:23:06.310755 25184 net.cpp:157] Top shape: 10 512 41 41 (8606720)
I1213 17:23:06.310766 25184 net.cpp:157] Top shape: 10 512 41 41 (8606720)
I1213 17:23:06.310775 25184 net.cpp:165] Memory required for data: 2908978400
I1213 17:23:06.310784 25184 layer_factory.hpp:77] Creating layer pool4_conv
I1213 17:23:06.310806 25184 net.cpp:106] Creating Layer pool4_conv
I1213 17:23:06.310817 25184 net.cpp:454] pool4_conv <- pool4_pool4_0_split_0
I1213 17:23:06.310832 25184 net.cpp:411] pool4_conv -> pool4_conv
I1213 17:23:06.346765 25184 net.cpp:150] Setting up pool4_conv
I1213 17:23:06.346814 25184 net.cpp:157] Top shape: 10 128 41 41 (2151680)
I1213 17:23:06.346824 25184 net.cpp:165] Memory required for data: 2917585120
I1213 17:23:06.346843 25184 layer_factory.hpp:77] Creating layer relu_pool4_conv
I1213 17:23:06.346861 25184 net.cpp:106] Creating Layer relu_pool4_conv
I1213 17:23:06.346874 25184 net.cpp:454] relu_pool4_conv <- pool4_conv
I1213 17:23:06.346889 25184 net.cpp:397] relu_pool4_conv -> pool4_conv (in-place)
I1213 17:23:06.346906 25184 net.cpp:150] Setting up relu_pool4_conv
I1213 17:23:06.346918 25184 net.cpp:157] Top shape: 10 128 41 41 (2151680)
I1213 17:23:06.346951 25184 net.cpp:165] Memory required for data: 2926191840
I1213 17:23:06.346961 25184 layer_factory.hpp:77] Creating layer drop_pool4_conv
I1213 17:23:06.346974 25184 net.cpp:106] Creating Layer drop_pool4_conv
I1213 17:23:06.346983 25184 net.cpp:454] drop_pool4_conv <- pool4_conv
I1213 17:23:06.347000 25184 net.cpp:397] drop_pool4_conv -> pool4_conv (in-place)
I1213 17:23:06.347039 25184 net.cpp:150] Setting up drop_pool4_conv
I1213 17:23:06.347057 25184 net.cpp:157] Top shape: 10 128 41 41 (2151680)
I1213 17:23:06.347067 25184 net.cpp:165] Memory required for data: 2934798560
I1213 17:23:06.347075 25184 layer_factory.hpp:77] Creating layer pool4_fc
I1213 17:23:06.347097 25184 net.cpp:106] Creating Layer pool4_fc
I1213 17:23:06.347110 25184 net.cpp:454] pool4_fc <- pool4_conv
I1213 17:23:06.347122 25184 net.cpp:411] pool4_fc -> pool4_fc
I1213 17:23:06.348390 25184 net.cpp:150] Setting up pool4_fc
I1213 17:23:06.348409 25184 net.cpp:157] Top shape: 10 128 41 41 (2151680)
I1213 17:23:06.348418 25184 net.cpp:165] Memory required for data: 2943405280
I1213 17:23:06.348433 25184 layer_factory.hpp:77] Creating layer relu_pool4_fc
I1213 17:23:06.348444 25184 net.cpp:106] Creating Layer relu_pool4_fc
I1213 17:23:06.348454 25184 net.cpp:454] relu_pool4_fc <- pool4_fc
I1213 17:23:06.348470 25184 net.cpp:397] relu_pool4_fc -> pool4_fc (in-place)
I1213 17:23:06.348485 25184 net.cpp:150] Setting up relu_pool4_fc
I1213 17:23:06.348498 25184 net.cpp:157] Top shape: 10 128 41 41 (2151680)
I1213 17:23:06.348506 25184 net.cpp:165] Memory required for data: 2952012000
I1213 17:23:06.348515 25184 layer_factory.hpp:77] Creating layer drop_pool4_fc
I1213 17:23:06.348527 25184 net.cpp:106] Creating Layer drop_pool4_fc
I1213 17:23:06.348537 25184 net.cpp:454] drop_pool4_fc <- pool4_fc
I1213 17:23:06.348551 25184 net.cpp:397] drop_pool4_fc -> pool4_fc (in-place)
I1213 17:23:06.348587 25184 net.cpp:150] Setting up drop_pool4_fc
I1213 17:23:06.348600 25184 net.cpp:157] Top shape: 10 128 41 41 (2151680)
I1213 17:23:06.348609 25184 net.cpp:165] Memory required for data: 2960618720
I1213 17:23:06.348618 25184 layer_factory.hpp:77] Creating layer pool4_ms_nyuv2_40cls
I1213 17:23:06.348649 25184 net.cpp:106] Creating Layer pool4_ms_nyuv2_40cls
I1213 17:23:06.348660 25184 net.cpp:454] pool4_ms_nyuv2_40cls <- pool4_fc
I1213 17:23:06.348678 25184 net.cpp:411] pool4_ms_nyuv2_40cls -> pool4_ms
I1213 17:23:06.349280 25184 net.cpp:150] Setting up pool4_ms_nyuv2_40cls
I1213 17:23:06.349298 25184 net.cpp:157] Top shape: 10 40 41 41 (672400)
I1213 17:23:06.349306 25184 net.cpp:165] Memory required for data: 2963308320
I1213 17:23:06.349321 25184 layer_factory.hpp:77] Creating layer conv5_1
I1213 17:23:06.349335 25184 net.cpp:106] Creating Layer conv5_1
I1213 17:23:06.349345 25184 net.cpp:454] conv5_1 <- pool4_pool4_0_split_1
I1213 17:23:06.349364 25184 net.cpp:411] conv5_1 -> conv5_1
I1213 17:23:06.356818 25184 net.cpp:150] Setting up conv5_1
I1213 17:23:06.356844 25184 net.cpp:157] Top shape: 10 512 41 41 (8606720)
I1213 17:23:06.356853 25184 net.cpp:165] Memory required for data: 2997735200
I1213 17:23:06.356869 25184 layer_factory.hpp:77] Creating layer relu5_1
I1213 17:23:06.356887 25184 net.cpp:106] Creating Layer relu5_1
I1213 17:23:06.356899 25184 net.cpp:454] relu5_1 <- conv5_1
I1213 17:23:06.356911 25184 net.cpp:397] relu5_1 -> conv5_1 (in-place)
I1213 17:23:06.356925 25184 net.cpp:150] Setting up relu5_1
I1213 17:23:06.356937 25184 net.cpp:157] Top shape: 10 512 41 41 (8606720)
I1213 17:23:06.356946 25184 net.cpp:165] Memory required for data: 3032162080
I1213 17:23:06.356956 25184 layer_factory.hpp:77] Creating layer conv5_2
I1213 17:23:06.356971 25184 net.cpp:106] Creating Layer conv5_2
I1213 17:23:06.356981 25184 net.cpp:454] conv5_2 <- conv5_1
I1213 17:23:06.356998 25184 net.cpp:411] conv5_2 -> conv5_2
I1213 17:23:06.364652 25184 net.cpp:150] Setting up conv5_2
I1213 17:23:06.364702 25184 net.cpp:157] Top shape: 10 512 41 41 (8606720)
I1213 17:23:06.364712 25184 net.cpp:165] Memory required for data: 3066588960
I1213 17:23:06.364742 25184 layer_factory.hpp:77] Creating layer relu5_2
I1213 17:23:06.364773 25184 net.cpp:106] Creating Layer relu5_2
I1213 17:23:06.364785 25184 net.cpp:454] relu5_2 <- conv5_2
I1213 17:23:06.364805 25184 net.cpp:397] relu5_2 -> conv5_2 (in-place)
I1213 17:23:06.364825 25184 net.cpp:150] Setting up relu5_2
I1213 17:23:06.364837 25184 net.cpp:157] Top shape: 10 512 41 41 (8606720)
I1213 17:23:06.364845 25184 net.cpp:165] Memory required for data: 3101015840
I1213 17:23:06.364855 25184 layer_factory.hpp:77] Creating layer conv5_3
I1213 17:23:06.364873 25184 net.cpp:106] Creating Layer conv5_3
I1213 17:23:06.364883 25184 net.cpp:454] conv5_3 <- conv5_2
I1213 17:23:06.364895 25184 net.cpp:411] conv5_3 -> conv5_3
I1213 17:23:06.372684 25184 net.cpp:150] Setting up conv5_3
I1213 17:23:06.372717 25184 net.cpp:157] Top shape: 10 512 41 41 (8606720)
I1213 17:23:06.372726 25184 net.cpp:165] Memory required for data: 3135442720
I1213 17:23:06.372743 25184 layer_factory.hpp:77] Creating layer relu5_3
I1213 17:23:06.372757 25184 net.cpp:106] Creating Layer relu5_3
I1213 17:23:06.372768 25184 net.cpp:454] relu5_3 <- conv5_3
I1213 17:23:06.372781 25184 net.cpp:397] relu5_3 -> conv5_3 (in-place)
I1213 17:23:06.372797 25184 net.cpp:150] Setting up relu5_3
I1213 17:23:06.372807 25184 net.cpp:157] Top shape: 10 512 41 41 (8606720)
I1213 17:23:06.372817 25184 net.cpp:165] Memory required for data: 3169869600
I1213 17:23:06.372825 25184 layer_factory.hpp:77] Creating layer pool5
I1213 17:23:06.372844 25184 net.cpp:106] Creating Layer pool5
I1213 17:23:06.372855 25184 net.cpp:454] pool5 <- conv5_3
I1213 17:23:06.372869 25184 net.cpp:411] pool5 -> pool5
I1213 17:23:06.372933 25184 net.cpp:150] Setting up pool5
I1213 17:23:06.372949 25184 net.cpp:157] Top shape: 10 512 41 41 (8606720)
I1213 17:23:06.372958 25184 net.cpp:165] Memory required for data: 3204296480
I1213 17:23:06.372967 25184 layer_factory.hpp:77] Creating layer pool5a
I1213 17:23:06.372982 25184 net.cpp:106] Creating Layer pool5a
I1213 17:23:06.372992 25184 net.cpp:454] pool5a <- pool5
I1213 17:23:06.373004 25184 net.cpp:411] pool5a -> pool5a
I1213 17:23:06.373045 25184 net.cpp:150] Setting up pool5a
I1213 17:23:06.373060 25184 net.cpp:157] Top shape: 10 512 41 41 (8606720)
I1213 17:23:06.373070 25184 net.cpp:165] Memory required for data: 3238723360
I1213 17:23:06.373078 25184 layer_factory.hpp:77] Creating layer fc6
I1213 17:23:06.373095 25184 net.cpp:106] Creating Layer fc6
I1213 17:23:06.373106 25184 net.cpp:454] fc6 <- pool5a
I1213 17:23:06.373118 25184 net.cpp:411] fc6 -> fc6
I1213 17:23:06.387819 25184 net.cpp:150] Setting up fc6
I1213 17:23:06.387869 25184 net.cpp:157] Top shape: 10 1024 41 41 (17213440)
I1213 17:23:06.387879 25184 net.cpp:165] Memory required for data: 3307577120
I1213 17:23:06.387898 25184 layer_factory.hpp:77] Creating layer relu6
I1213 17:23:06.387917 25184 net.cpp:106] Creating Layer relu6
I1213 17:23:06.387928 25184 net.cpp:454] relu6 <- fc6
I1213 17:23:06.387941 25184 net.cpp:397] relu6 -> fc6 (in-place)
I1213 17:23:06.387959 25184 net.cpp:150] Setting up relu6
I1213 17:23:06.387971 25184 net.cpp:157] Top shape: 10 1024 41 41 (17213440)
I1213 17:23:06.387980 25184 net.cpp:165] Memory required for data: 3376430880
I1213 17:23:06.387989 25184 layer_factory.hpp:77] Creating layer drop6
I1213 17:23:06.388008 25184 net.cpp:106] Creating Layer drop6
I1213 17:23:06.388020 25184 net.cpp:454] drop6 <- fc6
I1213 17:23:06.388037 25184 net.cpp:397] drop6 -> fc6 (in-place)
I1213 17:23:06.388075 25184 net.cpp:150] Setting up drop6
I1213 17:23:06.388092 25184 net.cpp:157] Top shape: 10 1024 41 41 (17213440)
I1213 17:23:06.388100 25184 net.cpp:165] Memory required for data: 3445284640
I1213 17:23:06.388109 25184 layer_factory.hpp:77] Creating layer fc7
I1213 17:23:06.388130 25184 net.cpp:106] Creating Layer fc7
I1213 17:23:06.388141 25184 net.cpp:454] fc7 <- fc6
I1213 17:23:06.388166 25184 net.cpp:411] fc7 -> fc7
I1213 17:23:06.391795 25184 net.cpp:150] Setting up fc7
I1213 17:23:06.391815 25184 net.cpp:157] Top shape: 10 1024 41 41 (17213440)
I1213 17:23:06.391834 25184 net.cpp:165] Memory required for data: 3514138400
I1213 17:23:06.391861 25184 layer_factory.hpp:77] Creating layer relu7
I1213 17:23:06.391875 25184 net.cpp:106] Creating Layer relu7
I1213 17:23:06.391883 25184 net.cpp:454] relu7 <- fc7
I1213 17:23:06.391898 25184 net.cpp:397] relu7 -> fc7 (in-place)
I1213 17:23:06.391912 25184 net.cpp:150] Setting up relu7
I1213 17:23:06.391923 25184 net.cpp:157] Top shape: 10 1024 41 41 (17213440)
I1213 17:23:06.391932 25184 net.cpp:165] Memory required for data: 3582992160
I1213 17:23:06.391942 25184 layer_factory.hpp:77] Creating layer drop7
I1213 17:23:06.391953 25184 net.cpp:106] Creating Layer drop7
I1213 17:23:06.391963 25184 net.cpp:454] drop7 <- fc7
I1213 17:23:06.391978 25184 net.cpp:397] drop7 -> fc7 (in-place)
I1213 17:23:06.392016 25184 net.cpp:150] Setting up drop7
I1213 17:23:06.392031 25184 net.cpp:157] Top shape: 10 1024 41 41 (17213440)
I1213 17:23:06.392040 25184 net.cpp:165] Memory required for data: 3651845920
I1213 17:23:06.392050 25184 layer_factory.hpp:77] Creating layer fc8_nyuv2_40cls
I1213 17:23:06.392067 25184 net.cpp:106] Creating Layer fc8_nyuv2_40cls
I1213 17:23:06.392077 25184 net.cpp:454] fc8_nyuv2_40cls <- fc7
I1213 17:23:06.392096 25184 net.cpp:411] fc8_nyuv2_40cls -> fc8_nyuv2_40cls
I1213 17:23:06.394812 25184 net.cpp:150] Setting up fc8_nyuv2_40cls
I1213 17:23:06.394831 25184 net.cpp:157] Top shape: 10 40 41 41 (672400)
I1213 17:23:06.394841 25184 net.cpp:165] Memory required for data: 3654535520
I1213 17:23:06.394855 25184 layer_factory.hpp:77] Creating layer fc_fusion
I1213 17:23:06.394881 25184 net.cpp:106] Creating Layer fc_fusion
I1213 17:23:06.394892 25184 net.cpp:454] fc_fusion <- data_ms
I1213 17:23:06.394904 25184 net.cpp:454] fc_fusion <- pool1_ms
I1213 17:23:06.394915 25184 net.cpp:454] fc_fusion <- pool2_ms
I1213 17:23:06.394927 25184 net.cpp:454] fc_fusion <- pool3_ms
I1213 17:23:06.394937 25184 net.cpp:454] fc_fusion <- pool4_ms
I1213 17:23:06.394947 25184 net.cpp:454] fc_fusion <- fc8_nyuv2_40cls
I1213 17:23:06.394958 25184 net.cpp:411] fc_fusion -> fc_fusion
I1213 17:23:06.395016 25184 net.cpp:150] Setting up fc_fusion
I1213 17:23:06.395032 25184 net.cpp:157] Top shape: 10 40 41 41 (672400)
I1213 17:23:06.395041 25184 net.cpp:165] Memory required for data: 3657225120
I1213 17:23:06.395051 25184 layer_factory.hpp:77] Creating layer fusion_interp
I1213 17:23:06.395066 25184 net.cpp:106] Creating Layer fusion_interp
I1213 17:23:06.395076 25184 net.cpp:454] fusion_interp <- fc_fusion
I1213 17:23:06.395092 25184 net.cpp:411] fusion_interp -> fusion_interp
I1213 17:23:06.395143 25184 net.cpp:150] Setting up fusion_interp
I1213 17:23:06.395157 25184 net.cpp:157] Top shape: 10 40 321 321 (41216400)
I1213 17:23:06.395166 25184 net.cpp:165] Memory required for data: 3822090720
I1213 17:23:06.395175 25184 layer_factory.hpp:77] Creating layer loss
I1213 17:23:06.395190 25184 net.cpp:106] Creating Layer loss
I1213 17:23:06.395200 25184 net.cpp:454] loss <- fusion_interp
I1213 17:23:06.395211 25184 net.cpp:454] loss <- label
I1213 17:23:06.395232 25184 net.cpp:411] loss -> (automatic)
…
I1213 17:23:06.527899 25184 net.cpp:322] The NetState phase (1) differed from the phase (0) specified by a rule in layer data
I1213 17:23:06.528527 25184 net.cpp:49] Initializing net from parameters: 
name: "${NET_ID}"
state {
  phase: TEST
}
layer {
  name: "data"
  type: "ImageSegData"
  top: "data"
  top: "label"
  include {
    phase: TEST
  }
  transform_param {
    mirror: true
    crop_size: 321
    mean_value: 104.008
    mean_value: 116.669
    mean_value: 122.675
  }
  image_data_param {
    source: "./NYUv2_40cls/train.deeplablist"
    batch_size: 10
    shuffle: true
    root_folder: "./NYUv2_40cls/"
    label_type: PIXEL
  }
}
layer {
  name: "data_conv"
  type: "Convolution"
  bottom: "data"
  top: "data_conv"
  convolution_param {
    num_output: 128
    pad: 1
    kernel_size: 3
    stride: 8
    weight_filler {
      type: "gaussian"
      std: 0.001
    }
    bias_filler {
      type: "constant"
      value: 0
    }
  }
}
layer {
  name: "relu_data_conv"
  type: "ReLU"
  bottom: "data_conv"
  top: "data_conv"
}
layer {
  name: "drop_data_conv"
  type: "Dropout"
  bottom: "data_conv"
  top: "data_conv"
  dropout_param {
    dropout_ratio: 0.5
  }
}
layer {
  name: "data_fc"
  type: "Convolution"
  bottom: "data_conv"
  top: "data_fc"
  convolution_param {
    num_output: 128
    kernel_size: 1
    stride: 1
    weight_filler {
      type: "gaussian"
      std: 0.001
    }
    bias_filler {
      type: "constant"
      value: 0
    }
  }
}
layer {
  name: "relu_data_fc"
  type: "ReLU"
  bottom: "data_fc"
  top: "data_fc"
}
layer {
  name: "drop_data_fc"
  type: "Dropout"
  bottom: "data_fc"
  top: "data_fc"
  dropout_param {
    dropout_ratio: 0.5
  }
}
layer {
  name: "data_ms_nyuv2_40cls"
  type: "Convolution"
  bottom: "data_fc"
  top: "data_ms"
  convolution_param {
    num_output: 40
    kernel_size: 1
    weight_filler {
      type: "gaussian"
      std: 0.01
    }
    bias_filler {
      type: "constant"
      value: 0
    }
  }
}
layer {
  name: "conv1_1"
  type: "Convolution"
  bottom: "data"
  top: "conv1_1"
  convolution_param {
    num_output: 64
    pad: 1
    kernel_size: 3
  }
}
layer {
  name: "relu1_1"
  type: "ReLU"
  bottom: "conv1_1"
  top: "conv1_1"
}
layer {
  name: "conv1_2"
  type: "Convolution"
  bottom: "conv1_1"
  top: "conv1_2"
  convolution_param {
    num_output: 64
    pad: 1
    kernel_size: 3
  }
}
layer {
  name: "relu1_2"
  type: "ReLU"
  bottom: "conv1_2"
  top: "conv1_2"
}
layer {
  name: "pool1"
  type: "Pooling"
  bottom: "conv1_2"
  top: "pool1"
  pooling_param {
    pool: MAX
    kernel_size: 3
    stride: 2
    pad: 1
  }
}
layer {
  name: "pool1_conv"
  type: "Convolution"
  bottom: "pool1"
  top: "pool1_conv"
  convolution_param {
    num_output: 128
    pad: 1
    kernel_size: 3
    stride: 4
    weight_filler {
      type: "gaussian"
      std: 0.001
    }
    bias_filler {
      type: "constant"
      value: 0
    }
  }
}
layer {
  name: "relu_pool1_conv"
  type: "ReLU"
  bottom: "pool1_conv"
  top: "pool1_conv"
}
layer {
  name: "drop_pool1_conv"
  type: "Dropout"
  bottom: "pool1_conv"
  top: "pool1_conv"
  dropout_param {
    dropout_ratio: 0.5
  }
}
layer {
  name: "pool1_fc"
  type: "Convolution"
  bottom: "pool1_conv"
  top: "pool1_fc"
  convolution_param {
    num_output: 128
    kernel_size: 1
    weight_filler {
      type: "gaussian"
      std: 0.001
    }
    bias_filler {
      type: "constant"
      value: 0
    }
  }
}
layer {
  name: "relu_pool1_fc"
  type: "ReLU"
  bottom: "pool1_fc"
  top: "pool1_fc"
}
layer {
  name: "drop_pool1_fc"
  type: "Dropout"
  bottom: "pool1_fc"
  top: "pool1_fc"
  dropout_param {
    dropout_ratio: 0.5
  }
}
layer {
  name: "pool1_ms_nyuv2_40cls"
  type: "Convolution"
  bottom: "pool1_fc"
  top: "pool1_ms"
  convolution_param {
    num_output: 40
    kernel_size: 1
    weight_filler {
      type: "gaussian"
      std: 0.01
    }
    bias_filler {
      type: "constant"
      value: 0
    }
  }
}
layer {
  name: "conv2_1"
  type: "Convolution"
  bottom: "pool1"
  top: "conv2_1"
  convolution_param {
    num_output: 128
    pad: 1
    kernel_size: 3
  }
}
layer {
  name: "relu2_1"
  type: "ReLU"
  bottom: "conv2_1"
  top: "conv2_1"
}
layer {
  name: "conv2_2"
  type: "Convolution"
  bottom: "conv2_1"
  top: "conv2_2"
  convolution_param {
    num_output: 128
    pad: 1
    kernel_size: 3
  }
}
layer {
  name: "relu2_2"
  type: "ReLU"
  bottom: "conv2_2"
  top: "conv2_2"
}
layer {
  name: "pool2"
  type: "Pooling"
  bottom: "conv2_2"
  top: "pool2"
  pooling_param {
    pool: MAX
    kernel_size: 3
    stride: 2
    pad: 1
  }
}
layer {
  name: "pool2_conv"
  type: "Convolution"
  bottom: "pool2"
  top: "pool2_conv"
  convolution_param {
    num_output: 128
    pad: 1
    kernel_size: 3
    stride: 2
    weight_filler {
      type: "gaussian"
      std: 0.001
    }
    bias_filler {
      type: "constant"
      value: 0
    }
  }
}
layer {
  name: "relu_pool2_conv"
  type: "ReLU"
  bottom: "pool2_conv"
  top: "pool2_conv"
}
layer {
  name: "drop_pool2_conv"
  type: "Dropout"
  bottom: "pool2_conv"
  top: "pool2_conv"
  dropout_param {
    dropout_ratio: 0.5
  }
}
layer {
  name: "pool2_fc"
  type: "Convolution"
  bottom: "pool2_conv"
  top: "pool2_fc"
  convolution_param {
    num_output: 128
    kernel_size: 1
    weight_filler {
      type: "gaussian"
      std: 0.001
    }
    bias_filler {
      type: "constant"
      value: 0
    }
  }
}
layer {
  name: "relu_pool2_fc"
  type: "ReLU"
  bottom: "pool2_fc"
  top: "pool2_fc"
}
layer {
  name: "drop_pool2_fc"
  type: "Dropout"
  bottom: "pool2_fc"
  top: "pool2_fc"
  dropout_param {
    dropout_ratio: 0.5
  }
}
layer {
  name: "pool2_ms_nyuv2_40cls"
  type: "Convolution"
  bottom: "pool2_fc"
  top: "pool2_ms"
  convolution_param {
    num_output: 40
    kernel_size: 1
    weight_filler {
      type: "gaussian"
      std: 0.01
    }
    bias_filler {
      type: "constant"
      value: 0
    }
  }
}
layer {
  name: "conv3_1"
  type: "Convolution"
  bottom: "pool2"
  top: "conv3_1"
  convolution_param {
    num_output: 256
    pad: 1
    kernel_size: 3
  }
}
layer {
  name: "relu3_1"
  type: "ReLU"
  bottom: "conv3_1"
  top: "conv3_1"
}
layer {
  name: "conv3_2"
  type: "Convolution"
  bottom: "conv3_1"
  top: "conv3_2"
  convolution_param {
    num_output: 256
    pad: 1
    kernel_size: 3
  }
}
layer {
  name: "relu3_2"
  type: "ReLU"
  bottom: "conv3_2"
  top: "conv3_2"
}
layer {
  name: "conv3_3"
  type: "Convolution"
  bottom: "conv3_2"
  top: "conv3_3"
  convolution_param {
    num_output: 256
    pad: 1
    kernel_size: 3
  }
}
layer {
  name: "relu3_3"
  type: "ReLU"
  bottom: "conv3_3"
  top: "conv3_3"
}
layer {
  name: "pool3"
  type: "Pooling"
  bottom: "conv3_3"
  top: "pool3"
  pooling_param {
    pool: MAX
    kernel_size: 3
    stride: 2
    pad: 1
  }
}
layer {
  name: "pool3_conv"
  type: "Convolution"
  bottom: "pool3"
  top: "pool3_conv"
  convolution_param {
    num_output: 128
    pad: 1
    kernel_size: 3
    stride: 1
    weight_filler {
      type: "gaussian"
      std: 0.001
    }
    bias_filler {
      type: "constant"
      value: 0
    }
  }
}
layer {
  name: "relu_pool3_conv"
  type: "ReLU"
  bottom: "pool3_conv"
  top: "pool3_conv"
}
layer {
  name: "drop_pool3_conv"
  type: "Dropout"
  bottom: "pool3_conv"
  top: "pool3_conv"
  dropout_param {
    dropout_ratio: 0.5
  }
}
layer {
  name: "pool3_fc"
  type: "Convolution"
  bottom: "pool3_conv"
  top: "pool3_fc"
  convolution_param {
    num_output: 128
    kernel_size: 1
    stride: 1
    weight_filler {
      type: "gaussian"
      std: 0.001
    }
    bias_filler {
      type: "constant"
      value: 0
    }
  }
}
layer {
  name: "relu_pool3_fc"
  type: "ReLU"
  bottom: "pool3_fc"
  top: "pool3_fc"
}
layer {
  name: "drop_pool3_fc"
  type: "Dropout"
  bottom: "pool3_fc"
  top: "pool3_fc"
  dropout_param {
    dropout_ratio: 0.5
  }
}
layer {
  name: "pool3_ms_nyuv2_40cls"
  type: "Convolution"
  bottom: "pool3_fc"
  top: "pool3_ms"
  convolution_param {
    num_output: 40
    kernel_size: 1
  }
}
layer {
  name: "conv4_1"
  type: "Convolution"
  bottom: "pool3"
  top: "conv4_1"
  convolution_param {
    num_output: 512
    pad: 1
    kernel_size: 3
  }
}
layer {
  name: "relu4_1"
  type: "ReLU"
  bottom: "conv4_1"
  top: "conv4_1"
}
layer {
  name: "conv4_2"
  type: "Convolution"
  bottom: "conv4_1"
  top: "conv4_2"
  convolution_param {
    num_output: 512
    pad: 1
    kernel_size: 3
  }
}
layer {
  name: "relu4_2"
  type: "ReLU"
  bottom: "conv4_2"
  top: "conv4_2"
}
layer {
  name: "conv4_3"
  type: "Convolution"
  bottom: "conv4_2"
  top: "conv4_3"
  convolution_param {
    num_output: 512
    pad: 1
    kernel_size: 3
  }
}
layer {
  name: "relu4_3"
  type: "ReLU"
  bottom: "conv4_3"
  top: "conv4_3"
}
layer {
  name: "pool4"
  type: "Pooling"
  bottom: "conv4_3"
  top: "pool4"
  pooling_param {
    pool: MAX
    kernel_size: 3
    stride: 1
    pad: 1
  }
}
layer {
  name: "pool4_conv"
  type: "Convolution"
  bottom: "pool4"
  top: "pool4_conv"
  convolution_param {
    num_output: 128
    pad: 1
    kernel_size: 3
    stride: 1
    weight_filler {
      type: "gaussian"
      std: 0.001
    }
    bias_filler {
      type: "constant"
      value: 0
    }
  }
}
layer {
  name: "relu_pool4_conv"
  type: "ReLU"
  bottom: "pool4_conv"
  top: "pool4_conv"
}
layer {
  name: "drop_pool4_conv"
  type: "Dropout"
  bottom: "pool4_conv"
  top: "pool4_conv"
  dropout_param {
    dropout_ratio: 0.5
  }
}
layer {
  name: "pool4_fc"
  type: "Convolution"
  bottom: "pool4_conv"
  top: "pool4_fc"
  convolution_param {
    num_output: 128
    kernel_size: 1
    stride: 1
    weight_filler {
      type: "gaussian"
      std: 0.005
    }
    bias_filler {
      type: "constant"
      value: 0
    }
  }
}
layer {
  name: "relu_pool4_fc"
  type: "ReLU"
  bottom: "pool4_fc"
  top: "pool4_fc"
}
layer {
  name: "drop_pool4_fc"
  type: "Dropout"
  bottom: "pool4_fc"
  top: "pool4_fc"
  dropout_param {
    dropout_ratio: 0.5
  }
}
layer {
  name: "pool4_ms_nyuv2_40cls"
  type: "Convolution"
  bottom: "pool4_fc"
  top: "pool4_ms"
  convolution_param {
    num_output: 40
    kernel_size: 1
    weight_filler {
      type: "gaussian"
      std: 0.01
    }
    bias_filler {
      type: "constant"
      value: 0
    }
  }
}
layer {
  name: "conv5_1"
  type: "Convolution"
  bottom: "pool4"
  top: "conv5_1"
  convolution_param {
    num_output: 512
    pad: 2
    kernel_size: 3
    dilation: 2
  }
}
layer {
  name: "relu5_1"
  type: "ReLU"
  bottom: "conv5_1"
  top: "conv5_1"
}
layer {
  name: "conv5_2"
  type: "Convolution"
  bottom: "conv5_1"
  top: "conv5_2"
  convolution_param {
    num_output: 512
    pad: 2
    kernel_size: 3
    dilation: 2
  }
}
layer {
  name: "relu5_2"
  type: "ReLU"
  bottom: "conv5_2"
  top: "conv5_2"
}
layer {
  name: "conv5_3"
  type: "Convolution"
  bottom: "conv5_2"
  top: "conv5_3"
  convolution_param {
    num_output: 512
    pad: 2
    kernel_size: 3
    dilation: 2
  }
}
layer {
  name: "relu5_3"
  type: "ReLU"
  bottom: "conv5_3"
  top: "conv5_3"
}
layer {
  name: "pool5"
  type: "Pooling"
  bottom: "conv5_3"
  top: "pool5"
  pooling_param {
    pool: MAX
    kernel_size: 3
    stride: 1
    pad: 1
  }
}
layer {
  name: "pool5a"
  type: "Pooling"
  bottom: "pool5"
  top: "pool5a"
  pooling_param {
    pool: AVE
    kernel_size: 3
    stride: 1
    pad: 1
  }
}
layer {
  name: "fc6"
  type: "Convolution"
  bottom: "pool5a"
  top: "fc6"
  convolution_param {
    num_output: 1024
    pad: 12
    kernel_size: 3
    dilation: 12
  }
}
layer {
  name: "relu6"
  type: "ReLU"
  bottom: "fc6"
  top: "fc6"
}
layer {
  name: "drop6"
  type: "Dropout"
  bottom: "fc6"
  top: "fc6"
  dropout_param {
    dropout_ratio: 0.5
  }
}
layer {
  name: "fc7"
  type: "Convolution"
  bottom: "fc6"
  top: "fc7"
  convolution_param {
    num_output: 1024
    kernel_size: 1
  }
}
layer {
  name: "relu7"
  type: "ReLU"
  bottom: "fc7"
  top: "fc7"
}
layer {
  name: "drop7"
  type: "Dropout"
  bottom: "fc7"
  top: "fc7"
  dropout_param {
    dropout_ratio: 0.5
  }
}
layer {
  name: "fc8_nyuv2_40cls"
  type: "Convolution"
  bottom: "fc7"
  top: "fc8_nyuv2_40cls"
  param {
    lr_mult: 0
    decay_mult: 0
  }
  param {
    lr_mult: 1
    decay_mult: 0
  }
  convolution_param {
    num_output: 40
    kernel_size: 1
    weight_filler {
      type: "gaussian"
      std: 0.01
    }
    bias_filler {
      type: "constant"
      value: 0
    }
  }
}
layer {
  name: "fc_fusion"
  type: "Eltwise"
  bottom: "data_ms"
  bottom: "pool1_ms"
  bottom: "pool2_ms"
  bottom: "pool3_ms"
  bottom: "pool4_ms"
  bottom: "fc8_nyuv2_40cls"
  top: "fc_fusion"
  eltwise_param {
    operation: SUM
  }
}
layer {
  name: "fusion_interp"
  type: "Interp"
  bottom: "fc_fusion"
  top: "fusion_interp"
  interp_param {
    zoom_factor: 8
  }
}
layer {
  name: "loss"
  type: "SoftmaxWithLoss"
  bottom: "fusion_interp"
  bottom: "label"
  loss_param {
    ignore_label: 255
  }
}
layer {
  name: "accuracy"
  type: "SegAccuracy"
  bottom: "fusion_interp"
  bottom: "label"
  top: "accuracy"
  include {
    phase: TEST
  }
  seg_accuracy_param {
    ignore_label: 255
  }
}
I1213 17:23:06.528980 25184 layer_factory.hpp:77] Creating layer data
I1213 17:23:06.529011 25184 net.cpp:106] Creating Layer data
I1213 17:23:06.529026 25184 net.cpp:411] data -> data
I1213 17:23:06.529044 25184 net.cpp:411] data -> label
I1213 17:23:06.529062 25184 net.cpp:411] data -> (automatic)
I1213 17:23:06.529083 25184 image_seg_data_layer.cpp:46] Opening file ./NYUv2_40cls/train.deeplablist
I1213 17:23:06.535912 25184 image_seg_data_layer.cpp:63] Shuffling data
I1213 17:23:06.536108 25184 image_seg_data_layer.cpp:68] A total of 4247 images.
I1213 17:23:06.541954 25184 image_seg_data_layer.cpp:137] output data size: 10,3,321,321
I1213 17:23:06.541977 25184 image_seg_data_layer.cpp:141] output label size: 10,1,321,321
I1213 17:23:06.541987 25184 image_seg_data_layer.cpp:145] output data_dim size: 10,1,1,2
I1213 17:23:06.606734 25184 net.cpp:150] Setting up data
I1213 17:23:06.606791 25184 net.cpp:157] Top shape: 10 3 321 321 (3091230)
I1213 17:23:06.606803 25184 net.cpp:157] Top shape: 10 1 321 321 (1030410)
I1213 17:23:06.606824 25184 net.cpp:157] Top shape: 10 1 1 2 (20)
I1213 17:23:06.606848 25184 net.cpp:165] Memory required for data: 16486640
I1213 17:23:06.606863 25184 layer_factory.hpp:77] Creating layer data_data_0_split
I1213 17:23:06.606884 25184 net.cpp:106] Creating Layer data_data_0_split
I1213 17:23:06.606894 25184 net.cpp:454] data_data_0_split <- data
I1213 17:23:06.606911 25184 net.cpp:411] data_data_0_split -> data_data_0_split_0
I1213 17:23:06.606930 25184 net.cpp:411] data_data_0_split -> data_data_0_split_1
I1213 17:23:06.607017 25184 net.cpp:150] Setting up data_data_0_split
I1213 17:23:06.607033 25184 net.cpp:157] Top shape: 10 3 321 321 (3091230)
I1213 17:23:06.607045 25184 net.cpp:157] Top shape: 10 3 321 321 (3091230)
I1213 17:23:06.607054 25184 net.cpp:165] Memory required for data: 41216480
I1213 17:23:06.607064 25184 layer_factory.hpp:77] Creating layer label_data_1_split
I1213 17:23:06.607076 25184 net.cpp:106] Creating Layer label_data_1_split
I1213 17:23:06.607085 25184 net.cpp:454] label_data_1_split <- label
I1213 17:23:06.607097 25184 net.cpp:411] label_data_1_split -> label_data_1_split_0
I1213 17:23:06.607111 25184 net.cpp:411] label_data_1_split -> label_data_1_split_1
I1213 17:23:06.607164 25184 net.cpp:150] Setting up label_data_1_split
I1213 17:23:06.607179 25184 net.cpp:157] Top shape: 10 1 321 321 (1030410)
I1213 17:23:06.607190 25184 net.cpp:157] Top shape: 10 1 321 321 (1030410)
I1213 17:23:06.607199 25184 net.cpp:165] Memory required for data: 49459760
I1213 17:23:06.607208 25184 layer_factory.hpp:77] Creating layer data_conv
I1213 17:23:06.607228 25184 net.cpp:106] Creating Layer data_conv
I1213 17:23:06.607237 25184 net.cpp:454] data_conv <- data_data_0_split_0
I1213 17:23:06.607251 25184 net.cpp:411] data_conv -> data_conv
I1213 17:23:06.607798 25184 net.cpp:150] Setting up data_conv
I1213 17:23:06.607815 25184 net.cpp:157] Top shape: 10 128 41 41 (2151680)
I1213 17:23:06.607825 25184 net.cpp:165] Memory required for data: 58066480
I1213 17:23:06.607873 25184 layer_factory.hpp:77] Creating layer relu_data_conv
I1213 17:23:06.607892 25184 net.cpp:106] Creating Layer relu_data_conv
I1213 17:23:06.607902 25184 net.cpp:454] relu_data_conv <- data_conv
I1213 17:23:06.607933 25184 net.cpp:397] relu_data_conv -> data_conv (in-place)
I1213 17:23:06.607949 25184 net.cpp:150] Setting up relu_data_conv
I1213 17:23:06.607961 25184 net.cpp:157] Top shape: 10 128 41 41 (2151680)
I1213 17:23:06.607985 25184 net.cpp:165] Memory required for data: 66673200
I1213 17:23:06.607993 25184 layer_factory.hpp:77] Creating layer drop_data_conv
I1213 17:23:06.608007 25184 net.cpp:106] Creating Layer drop_data_conv
I1213 17:23:06.608016 25184 net.cpp:454] drop_data_conv <- data_conv
I1213 17:23:06.608029 25184 net.cpp:397] drop_data_conv -> data_conv (in-place)
I1213 17:23:06.610918 25184 net.cpp:150] Setting up drop_data_conv
I1213 17:23:06.610945 25184 net.cpp:157] Top shape: 10 128 41 41 (2151680)
I1213 17:23:06.610954 25184 net.cpp:165] Memory required for data: 75279920
I1213 17:23:06.610965 25184 layer_factory.hpp:77] Creating layer data_fc
I1213 17:23:06.610981 25184 net.cpp:106] Creating Layer data_fc
I1213 17:23:06.610991 25184 net.cpp:454] data_fc <- data_conv
I1213 17:23:06.611006 25184 net.cpp:411] data_fc -> data_fc
I1213 17:23:06.614790 25184 net.cpp:150] Setting up data_fc
I1213 17:23:06.614811 25184 net.cpp:157] Top shape: 10 128 41 41 (2151680)
I1213 17:23:06.614820 25184 net.cpp:165] Memory required for data: 83886640
I1213 17:23:06.614837 25184 layer_factory.hpp:77] Creating layer relu_data_fc
I1213 17:23:06.614850 25184 net.cpp:106] Creating Layer relu_data_fc
I1213 17:23:06.614858 25184 net.cpp:454] relu_data_fc <- data_fc
I1213 17:23:06.614872 25184 net.cpp:397] relu_data_fc -> data_fc (in-place)
I1213 17:23:06.614887 25184 net.cpp:150] Setting up relu_data_fc
I1213 17:23:06.614898 25184 net.cpp:157] Top shape: 10 128 41 41 (2151680)
I1213 17:23:06.614907 25184 net.cpp:165] Memory required for data: 92493360
I1213 17:23:06.614917 25184 layer_factory.hpp:77] Creating layer drop_data_fc
I1213 17:23:06.614935 25184 net.cpp:106] Creating Layer drop_data_fc
I1213 17:23:06.614954 25184 net.cpp:454] drop_data_fc <- data_fc
I1213 17:23:06.614969 25184 net.cpp:397] drop_data_fc -> data_fc (in-place)
I1213 17:23:06.615007 25184 net.cpp:150] Setting up drop_data_fc
I1213 17:23:06.615022 25184 net.cpp:157] Top shape: 10 128 41 41 (2151680)
I1213 17:23:06.615031 25184 net.cpp:165] Memory required for data: 101100080
I1213 17:23:06.615041 25184 layer_factory.hpp:77] Creating layer data_ms_nyuv2_40cls
I1213 17:23:06.615057 25184 net.cpp:106] Creating Layer data_ms_nyuv2_40cls
I1213 17:23:06.615068 25184 net.cpp:454] data_ms_nyuv2_40cls <- data_fc
I1213 17:23:06.615083 25184 net.cpp:411] data_ms_nyuv2_40cls -> data_ms
I1213 17:23:06.615712 25184 net.cpp:150] Setting up data_ms_nyuv2_40cls
I1213 17:23:06.615730 25184 net.cpp:157] Top shape: 10 40 41 41 (672400)
I1213 17:23:06.615738 25184 net.cpp:165] Memory required for data: 103789680
I1213 17:23:06.615754 25184 layer_factory.hpp:77] Creating layer conv1_1
I1213 17:23:06.615770 25184 net.cpp:106] Creating Layer conv1_1
I1213 17:23:06.615780 25184 net.cpp:454] conv1_1 <- data_data_0_split_1
I1213 17:23:06.615792 25184 net.cpp:411] conv1_1 -> conv1_1
I1213 17:23:06.616369 25184 net.cpp:150] Setting up conv1_1
I1213 17:23:06.616389 25184 net.cpp:157] Top shape: 10 64 321 321 (65946240)
I1213 17:23:06.616397 25184 net.cpp:165] Memory required for data: 367574640
I1213 17:23:06.616412 25184 layer_factory.hpp:77] Creating layer relu1_1
I1213 17:23:06.616427 25184 net.cpp:106] Creating Layer relu1_1
I1213 17:23:06.616437 25184 net.cpp:454] relu1_1 <- conv1_1
I1213 17:23:06.616449 25184 net.cpp:397] relu1_1 -> conv1_1 (in-place)
I1213 17:23:06.616463 25184 net.cpp:150] Setting up relu1_1
I1213 17:23:06.616475 25184 net.cpp:157] Top shape: 10 64 321 321 (65946240)
I1213 17:23:06.616483 25184 net.cpp:165] Memory required for data: 631359600
I1213 17:23:06.616492 25184 layer_factory.hpp:77] Creating layer conv1_2
I1213 17:23:06.616505 25184 net.cpp:106] Creating Layer conv1_2
I1213 17:23:06.616515 25184 net.cpp:454] conv1_2 <- conv1_1
I1213 17:23:06.616530 25184 net.cpp:411] conv1_2 -> conv1_2
I1213 17:23:06.616997 25184 net.cpp:150] Setting up conv1_2
I1213 17:23:06.617015 25184 net.cpp:157] Top shape: 10 64 321 321 (65946240)
I1213 17:23:06.617024 25184 net.cpp:165] Memory required for data: 895144560
I1213 17:23:06.617040 25184 layer_factory.hpp:77] Creating layer relu1_2
I1213 17:23:06.617058 25184 net.cpp:106] Creating Layer relu1_2
I1213 17:23:06.617069 25184 net.cpp:454] relu1_2 <- conv1_2
I1213 17:23:06.617081 25184 net.cpp:397] relu1_2 -> conv1_2 (in-place)
I1213 17:23:06.617097 25184 net.cpp:150] Setting up relu1_2
I1213 17:23:06.617110 25184 net.cpp:157] Top shape: 10 64 321 321 (65946240)
I1213 17:23:06.617117 25184 net.cpp:165] Memory required for data: 1158929520
I1213 17:23:06.617126 25184 layer_factory.hpp:77] Creating layer pool1
I1213 17:23:06.617139 25184 net.cpp:106] Creating Layer pool1
I1213 17:23:06.617148 25184 net.cpp:454] pool1 <- conv1_2
I1213 17:23:06.617161 25184 net.cpp:411] pool1 -> pool1
I1213 17:23:06.617225 25184 net.cpp:150] Setting up pool1
I1213 17:23:06.617241 25184 net.cpp:157] Top shape: 10 64 161 161 (16589440)
I1213 17:23:06.617250 25184 net.cpp:165] Memory required for data: 1225287280
I1213 17:23:06.617259 25184 layer_factory.hpp:77] Creating layer pool1_pool1_0_split
I1213 17:23:06.617270 25184 net.cpp:106] Creating Layer pool1_pool1_0_split
I1213 17:23:06.617280 25184 net.cpp:454] pool1_pool1_0_split <- pool1
I1213 17:23:06.617295 25184 net.cpp:411] pool1_pool1_0_split -> pool1_pool1_0_split_0
I1213 17:23:06.617308 25184 net.cpp:411] pool1_pool1_0_split -> pool1_pool1_0_split_1
I1213 17:23:06.617364 25184 net.cpp:150] Setting up pool1_pool1_0_split
I1213 17:23:06.617379 25184 net.cpp:157] Top shape: 10 64 161 161 (16589440)
I1213 17:23:06.617390 25184 net.cpp:157] Top shape: 10 64 161 161 (16589440)
I1213 17:23:06.617398 25184 net.cpp:165] Memory required for data: 1358002800
I1213 17:23:06.617408 25184 layer_factory.hpp:77] Creating layer pool1_conv
I1213 17:23:06.617435 25184 net.cpp:106] Creating Layer pool1_conv
I1213 17:23:06.617455 25184 net.cpp:454] pool1_conv <- pool1_pool1_0_split_0
I1213 17:23:06.617471 25184 net.cpp:411] pool1_conv -> pool1_conv
I1213 17:23:06.622031 25184 net.cpp:150] Setting up pool1_conv
I1213 17:23:06.622051 25184 net.cpp:157] Top shape: 10 128 41 41 (2151680)
I1213 17:23:06.622061 25184 net.cpp:165] Memory required for data: 1366609520
I1213 17:23:06.622074 25184 layer_factory.hpp:77] Creating layer relu_pool1_conv
I1213 17:23:06.622087 25184 net.cpp:106] Creating Layer relu_pool1_conv
I1213 17:23:06.622095 25184 net.cpp:454] relu_pool1_conv <- pool1_conv
I1213 17:23:06.622107 25184 net.cpp:397] relu_pool1_conv -> pool1_conv (in-place)
I1213 17:23:06.622122 25184 net.cpp:150] Setting up relu_pool1_conv
I1213 17:23:06.622133 25184 net.cpp:157] Top shape: 10 128 41 41 (2151680)
I1213 17:23:06.622141 25184 net.cpp:165] Memory required for data: 1375216240
I1213 17:23:06.622150 25184 layer_factory.hpp:77] Creating layer drop_pool1_conv
I1213 17:23:06.622164 25184 net.cpp:106] Creating Layer drop_pool1_conv
I1213 17:23:06.622175 25184 net.cpp:454] drop_pool1_conv <- pool1_conv
I1213 17:23:06.622186 25184 net.cpp:397] drop_pool1_conv -> pool1_conv (in-place)
I1213 17:23:06.622227 25184 net.cpp:150] Setting up drop_pool1_conv
I1213 17:23:06.622242 25184 net.cpp:157] Top shape: 10 128 41 41 (2151680)
I1213 17:23:06.622251 25184 net.cpp:165] Memory required for data: 1383822960
I1213 17:23:06.622261 25184 layer_factory.hpp:77] Creating layer pool1_fc
I1213 17:23:06.622277 25184 net.cpp:106] Creating Layer pool1_fc
I1213 17:23:06.622287 25184 net.cpp:454] pool1_fc <- pool1_conv
I1213 17:23:06.622303 25184 net.cpp:411] pool1_fc -> pool1_fc
I1213 17:23:06.623625 25184 net.cpp:150] Setting up pool1_fc
I1213 17:23:06.623643 25184 net.cpp:157] Top shape: 10 128 41 41 (2151680)
I1213 17:23:06.623652 25184 net.cpp:165] Memory required for data: 1392429680
I1213 17:23:06.623667 25184 layer_factory.hpp:77] Creating layer relu_pool1_fc
I1213 17:23:06.623683 25184 net.cpp:106] Creating Layer relu_pool1_fc
I1213 17:23:06.623694 25184 net.cpp:454] relu_pool1_fc <- pool1_fc
I1213 17:23:06.623708 25184 net.cpp:397] relu_pool1_fc -> pool1_fc (in-place)
I1213 17:23:06.623723 25184 net.cpp:150] Setting up relu_pool1_fc
I1213 17:23:06.623734 25184 net.cpp:157] Top shape: 10 128 41 41 (2151680)
I1213 17:23:06.623744 25184 net.cpp:165] Memory required for data: 1401036400
I1213 17:23:06.623752 25184 layer_factory.hpp:77] Creating layer drop_pool1_fc
I1213 17:23:06.623764 25184 net.cpp:106] Creating Layer drop_pool1_fc
I1213 17:23:06.623774 25184 net.cpp:454] drop_pool1_fc <- pool1_fc
I1213 17:23:06.623785 25184 net.cpp:397] drop_pool1_fc -> pool1_fc (in-place)
I1213 17:23:06.623828 25184 net.cpp:150] Setting up drop_pool1_fc
I1213 17:23:06.623844 25184 net.cpp:157] Top shape: 10 128 41 41 (2151680)
I1213 17:23:06.623853 25184 net.cpp:165] Memory required for data: 1409643120
I1213 17:23:06.623862 25184 layer_factory.hpp:77] Creating layer pool1_ms_nyuv2_40cls
I1213 17:23:06.623879 25184 net.cpp:106] Creating Layer pool1_ms_nyuv2_40cls
I1213 17:23:06.623889 25184 net.cpp:454] pool1_ms_nyuv2_40cls <- pool1_fc
I1213 17:23:06.623908 25184 net.cpp:411] pool1_ms_nyuv2_40cls -> pool1_ms
I1213 17:23:06.624549 25184 net.cpp:150] Setting up pool1_ms_nyuv2_40cls
I1213 17:23:06.624568 25184 net.cpp:157] Top shape: 10 40 41 41 (672400)
I1213 17:23:06.624577 25184 net.cpp:165] Memory required for data: 1412332720
I1213 17:23:06.624591 25184 layer_factory.hpp:77] Creating layer conv2_1
I1213 17:23:06.624604 25184 net.cpp:106] Creating Layer conv2_1
I1213 17:23:06.624614 25184 net.cpp:454] conv2_1 <- pool1_pool1_0_split_1
I1213 17:23:06.624632 25184 net.cpp:411] conv2_1 -> conv2_1
I1213 17:23:06.625826 25184 net.cpp:150] Setting up conv2_1
I1213 17:23:06.625847 25184 net.cpp:157] Top shape: 10 128 161 161 (33178880)
I1213 17:23:06.625857 25184 net.cpp:165] Memory required for data: 1545048240
I1213 17:23:06.625881 25184 layer_factory.hpp:77] Creating layer relu2_1
I1213 17:23:06.625900 25184 net.cpp:106] Creating Layer relu2_1
I1213 17:23:06.625919 25184 net.cpp:454] relu2_1 <- conv2_1
I1213 17:23:06.625934 25184 net.cpp:397] relu2_1 -> conv2_1 (in-place)
I1213 17:23:06.625949 25184 net.cpp:150] Setting up relu2_1
I1213 17:23:06.625962 25184 net.cpp:157] Top shape: 10 128 161 161 (33178880)
I1213 17:23:06.625970 25184 net.cpp:165] Memory required for data: 1677763760
I1213 17:23:06.625979 25184 layer_factory.hpp:77] Creating layer conv2_2
I1213 17:23:06.625991 25184 net.cpp:106] Creating Layer conv2_2
I1213 17:23:06.626001 25184 net.cpp:454] conv2_2 <- conv2_1
I1213 17:23:06.626019 25184 net.cpp:411] conv2_2 -> conv2_2
I1213 17:23:06.626518 25184 net.cpp:150] Setting up conv2_2
I1213 17:23:06.626536 25184 net.cpp:157] Top shape: 10 128 161 161 (33178880)
I1213 17:23:06.626545 25184 net.cpp:165] Memory required for data: 1810479280
I1213 17:23:06.626559 25184 layer_factory.hpp:77] Creating layer relu2_2
I1213 17:23:06.626570 25184 net.cpp:106] Creating Layer relu2_2
I1213 17:23:06.626580 25184 net.cpp:454] relu2_2 <- conv2_2
I1213 17:23:06.626596 25184 net.cpp:397] relu2_2 -> conv2_2 (in-place)
I1213 17:23:06.626611 25184 net.cpp:150] Setting up relu2_2
I1213 17:23:06.626623 25184 net.cpp:157] Top shape: 10 128 161 161 (33178880)
I1213 17:23:06.626632 25184 net.cpp:165] Memory required for data: 1943194800
I1213 17:23:06.626641 25184 layer_factory.hpp:77] Creating layer pool2
I1213 17:23:06.626653 25184 net.cpp:106] Creating Layer pool2
I1213 17:23:06.626662 25184 net.cpp:454] pool2 <- conv2_2
I1213 17:23:06.626677 25184 net.cpp:411] pool2 -> pool2
I1213 17:23:06.626742 25184 net.cpp:150] Setting up pool2
I1213 17:23:06.626760 25184 net.cpp:157] Top shape: 10 128 81 81 (8398080)
I1213 17:23:06.626768 25184 net.cpp:165] Memory required for data: 1976787120
I1213 17:23:06.626777 25184 layer_factory.hpp:77] Creating layer pool2_pool2_0_split
I1213 17:23:06.626791 25184 net.cpp:106] Creating Layer pool2_pool2_0_split
I1213 17:23:06.626801 25184 net.cpp:454] pool2_pool2_0_split <- pool2
I1213 17:23:06.626812 25184 net.cpp:411] pool2_pool2_0_split -> pool2_pool2_0_split_0
I1213 17:23:06.626826 25184 net.cpp:411] pool2_pool2_0_split -> pool2_pool2_0_split_1
I1213 17:23:06.626884 25184 net.cpp:150] Setting up pool2_pool2_0_split
I1213 17:23:06.626899 25184 net.cpp:157] Top shape: 10 128 81 81 (8398080)
I1213 17:23:06.626910 25184 net.cpp:157] Top shape: 10 128 81 81 (8398080)
I1213 17:23:06.626919 25184 net.cpp:165] Memory required for data: 2043971760
I1213 17:23:06.626929 25184 layer_factory.hpp:77] Creating layer pool2_conv
I1213 17:23:06.626947 25184 net.cpp:106] Creating Layer pool2_conv
I1213 17:23:06.626960 25184 net.cpp:454] pool2_conv <- pool2_pool2_0_split_0
I1213 17:23:06.626974 25184 net.cpp:411] pool2_conv -> pool2_conv
I1213 17:23:06.636431 25184 net.cpp:150] Setting up pool2_conv
I1213 17:23:06.636453 25184 net.cpp:157] Top shape: 10 128 41 41 (2151680)
I1213 17:23:06.636463 25184 net.cpp:165] Memory required for data: 2052578480
I1213 17:23:06.636478 25184 layer_factory.hpp:77] Creating layer relu_pool2_conv
I1213 17:23:06.636493 25184 net.cpp:106] Creating Layer relu_pool2_conv
I1213 17:23:06.636503 25184 net.cpp:454] relu_pool2_conv <- pool2_conv
I1213 17:23:06.636517 25184 net.cpp:397] relu_pool2_conv -> pool2_conv (in-place)
I1213 17:23:06.636530 25184 net.cpp:150] Setting up relu_pool2_conv
I1213 17:23:06.636543 25184 net.cpp:157] Top shape: 10 128 41 41 (2151680)
I1213 17:23:06.636550 25184 net.cpp:165] Memory required for data: 2061185200
I1213 17:23:06.636559 25184 layer_factory.hpp:77] Creating layer drop_pool2_conv
I1213 17:23:06.636571 25184 net.cpp:106] Creating Layer drop_pool2_conv
I1213 17:23:06.636581 25184 net.cpp:454] drop_pool2_conv <- pool2_conv
I1213 17:23:06.636597 25184 net.cpp:397] drop_pool2_conv -> pool2_conv (in-place)
I1213 17:23:06.636641 25184 net.cpp:150] Setting up drop_pool2_conv
I1213 17:23:06.636656 25184 net.cpp:157] Top shape: 10 128 41 41 (2151680)
I1213 17:23:06.636664 25184 net.cpp:165] Memory required for data: 2069791920
I1213 17:23:06.636678 25184 layer_factory.hpp:77] Creating layer pool2_fc
I1213 17:23:06.636709 25184 net.cpp:106] Creating Layer pool2_fc
I1213 17:23:06.636721 25184 net.cpp:454] pool2_fc <- pool2_conv
I1213 17:23:06.636737 25184 net.cpp:411] pool2_fc -> pool2_fc
I1213 17:23:06.638056 25184 net.cpp:150] Setting up pool2_fc
I1213 17:23:06.638073 25184 net.cpp:157] Top shape: 10 128 41 41 (2151680)
I1213 17:23:06.638082 25184 net.cpp:165] Memory required for data: 2078398640
I1213 17:23:06.638098 25184 layer_factory.hpp:77] Creating layer relu_pool2_fc
I1213 17:23:06.638114 25184 net.cpp:106] Creating Layer relu_pool2_fc
I1213 17:23:06.638125 25184 net.cpp:454] relu_pool2_fc <- pool2_fc
I1213 17:23:06.638137 25184 net.cpp:397] relu_pool2_fc -> pool2_fc (in-place)
I1213 17:23:06.638151 25184 net.cpp:150] Setting up relu_pool2_fc
I1213 17:23:06.638164 25184 net.cpp:157] Top shape: 10 128 41 41 (2151680)
I1213 17:23:06.638171 25184 net.cpp:165] Memory required for data: 2087005360
I1213 17:23:06.638180 25184 layer_factory.hpp:77] Creating layer drop_pool2_fc
I1213 17:23:06.638193 25184 net.cpp:106] Creating Layer drop_pool2_fc
I1213 17:23:06.638205 25184 net.cpp:454] drop_pool2_fc <- pool2_fc
I1213 17:23:06.638216 25184 net.cpp:397] drop_pool2_fc -> pool2_fc (in-place)
I1213 17:23:06.638253 25184 net.cpp:150] Setting up drop_pool2_fc
I1213 17:23:06.638269 25184 net.cpp:157] Top shape: 10 128 41 41 (2151680)
I1213 17:23:06.638278 25184 net.cpp:165] Memory required for data: 2095612080
I1213 17:23:06.638286 25184 layer_factory.hpp:77] Creating layer pool2_ms_nyuv2_40cls
I1213 17:23:06.638311 25184 net.cpp:106] Creating Layer pool2_ms_nyuv2_40cls
I1213 17:23:06.638322 25184 net.cpp:454] pool2_ms_nyuv2_40cls <- pool2_fc
I1213 17:23:06.638335 25184 net.cpp:411] pool2_ms_nyuv2_40cls -> pool2_ms
I1213 17:23:06.638972 25184 net.cpp:150] Setting up pool2_ms_nyuv2_40cls
I1213 17:23:06.638989 25184 net.cpp:157] Top shape: 10 40 41 41 (672400)
I1213 17:23:06.638999 25184 net.cpp:165] Memory required for data: 2098301680
I1213 17:23:06.639014 25184 layer_factory.hpp:77] Creating layer conv3_1
I1213 17:23:06.639027 25184 net.cpp:106] Creating Layer conv3_1
I1213 17:23:06.639037 25184 net.cpp:454] conv3_1 <- pool2_pool2_0_split_1
I1213 17:23:06.639055 25184 net.cpp:411] conv3_1 -> conv3_1
I1213 17:23:06.640158 25184 net.cpp:150] Setting up conv3_1
I1213 17:23:06.640179 25184 net.cpp:157] Top shape: 10 256 81 81 (16796160)
I1213 17:23:06.640188 25184 net.cpp:165] Memory required for data: 2165486320
I1213 17:23:06.640203 25184 layer_factory.hpp:77] Creating layer relu3_1
I1213 17:23:06.640215 25184 net.cpp:106] Creating Layer relu3_1
I1213 17:23:06.640225 25184 net.cpp:454] relu3_1 <- conv3_1
I1213 17:23:06.640242 25184 net.cpp:397] relu3_1 -> conv3_1 (in-place)
I1213 17:23:06.640259 25184 net.cpp:150] Setting up relu3_1
I1213 17:23:06.640269 25184 net.cpp:157] Top shape: 10 256 81 81 (16796160)
I1213 17:23:06.640278 25184 net.cpp:165] Memory required for data: 2232670960
I1213 17:23:06.640287 25184 layer_factory.hpp:77] Creating layer conv3_2
I1213 17:23:06.640301 25184 net.cpp:106] Creating Layer conv3_2
I1213 17:23:06.640312 25184 net.cpp:454] conv3_2 <- conv3_1
I1213 17:23:06.640324 25184 net.cpp:411] conv3_2 -> conv3_2
I1213 17:23:06.642518 25184 net.cpp:150] Setting up conv3_2
I1213 17:23:06.642537 25184 net.cpp:157] Top shape: 10 256 81 81 (16796160)
I1213 17:23:06.642547 25184 net.cpp:165] Memory required for data: 2299855600
I1213 17:23:06.642562 25184 layer_factory.hpp:77] Creating layer relu3_2
I1213 17:23:06.642575 25184 net.cpp:106] Creating Layer relu3_2
I1213 17:23:06.642585 25184 net.cpp:454] relu3_2 <- conv3_2
I1213 17:23:06.642596 25184 net.cpp:397] relu3_2 -> conv3_2 (in-place)
I1213 17:23:06.642609 25184 net.cpp:150] Setting up relu3_2
I1213 17:23:06.642621 25184 net.cpp:157] Top shape: 10 256 81 81 (16796160)
I1213 17:23:06.642630 25184 net.cpp:165] Memory required for data: 2367040240
I1213 17:23:06.642639 25184 layer_factory.hpp:77] Creating layer conv3_3
I1213 17:23:06.642657 25184 net.cpp:106] Creating Layer conv3_3
I1213 17:23:06.642674 25184 net.cpp:454] conv3_3 <- conv3_2
I1213 17:23:06.642699 25184 net.cpp:411] conv3_3 -> conv3_3
I1213 17:23:06.644709 25184 net.cpp:150] Setting up conv3_3
I1213 17:23:06.644729 25184 net.cpp:157] Top shape: 10 256 81 81 (16796160)
I1213 17:23:06.644739 25184 net.cpp:165] Memory required for data: 2434224880
I1213 17:23:06.644753 25184 layer_factory.hpp:77] Creating layer relu3_3
I1213 17:23:06.644767 25184 net.cpp:106] Creating Layer relu3_3
I1213 17:23:06.644778 25184 net.cpp:454] relu3_3 <- conv3_3
I1213 17:23:06.644789 25184 net.cpp:397] relu3_3 -> conv3_3 (in-place)
I1213 17:23:06.644804 25184 net.cpp:150] Setting up relu3_3
I1213 17:23:06.644815 25184 net.cpp:157] Top shape: 10 256 81 81 (16796160)
I1213 17:23:06.644824 25184 net.cpp:165] Memory required for data: 2501409520
I1213 17:23:06.644834 25184 layer_factory.hpp:77] Creating layer pool3
I1213 17:23:06.644845 25184 net.cpp:106] Creating Layer pool3
I1213 17:23:06.644855 25184 net.cpp:454] pool3 <- conv3_3
I1213 17:23:06.644871 25184 net.cpp:411] pool3 -> pool3
I1213 17:23:06.644933 25184 net.cpp:150] Setting up pool3
I1213 17:23:06.644948 25184 net.cpp:157] Top shape: 10 256 41 41 (4303360)
I1213 17:23:06.644958 25184 net.cpp:165] Memory required for data: 2518622960
I1213 17:23:06.644968 25184 layer_factory.hpp:77] Creating layer pool3_pool3_0_split
I1213 17:23:06.644984 25184 net.cpp:106] Creating Layer pool3_pool3_0_split
I1213 17:23:06.644995 25184 net.cpp:454] pool3_pool3_0_split <- pool3
I1213 17:23:06.645009 25184 net.cpp:411] pool3_pool3_0_split -> pool3_pool3_0_split_0
I1213 17:23:06.645023 25184 net.cpp:411] pool3_pool3_0_split -> pool3_pool3_0_split_1
I1213 17:23:06.645081 25184 net.cpp:150] Setting up pool3_pool3_0_split
I1213 17:23:06.645097 25184 net.cpp:157] Top shape: 10 256 41 41 (4303360)
I1213 17:23:06.645108 25184 net.cpp:157] Top shape: 10 256 41 41 (4303360)
I1213 17:23:06.645117 25184 net.cpp:165] Memory required for data: 2553049840
I1213 17:23:06.645126 25184 layer_factory.hpp:77] Creating layer pool3_conv
I1213 17:23:06.645143 25184 net.cpp:106] Creating Layer pool3_conv
I1213 17:23:06.645154 25184 net.cpp:454] pool3_conv <- pool3_pool3_0_split_0
I1213 17:23:06.645172 25184 net.cpp:411] pool3_conv -> pool3_conv
I1213 17:23:06.663259 25184 net.cpp:150] Setting up pool3_conv
I1213 17:23:06.663291 25184 net.cpp:157] Top shape: 10 128 41 41 (2151680)
I1213 17:23:06.663302 25184 net.cpp:165] Memory required for data: 2561656560
I1213 17:23:06.663326 25184 layer_factory.hpp:77] Creating layer relu_pool3_conv
I1213 17:23:06.663339 25184 net.cpp:106] Creating Layer relu_pool3_conv
I1213 17:23:06.663349 25184 net.cpp:454] relu_pool3_conv <- pool3_conv
I1213 17:23:06.663367 25184 net.cpp:397] relu_pool3_conv -> pool3_conv (in-place)
I1213 17:23:06.663383 25184 net.cpp:150] Setting up relu_pool3_conv
I1213 17:23:06.663395 25184 net.cpp:157] Top shape: 10 128 41 41 (2151680)
I1213 17:23:06.663403 25184 net.cpp:165] Memory required for data: 2570263280
I1213 17:23:06.663413 25184 layer_factory.hpp:77] Creating layer drop_pool3_conv
I1213 17:23:06.663424 25184 net.cpp:106] Creating Layer drop_pool3_conv
I1213 17:23:06.663434 25184 net.cpp:454] drop_pool3_conv <- pool3_conv
I1213 17:23:06.663446 25184 net.cpp:397] drop_pool3_conv -> pool3_conv (in-place)
I1213 17:23:06.663488 25184 net.cpp:150] Setting up drop_pool3_conv
I1213 17:23:06.663504 25184 net.cpp:157] Top shape: 10 128 41 41 (2151680)
I1213 17:23:06.663513 25184 net.cpp:165] Memory required for data: 2578870000
I1213 17:23:06.663522 25184 layer_factory.hpp:77] Creating layer pool3_fc
I1213 17:23:06.663543 25184 net.cpp:106] Creating Layer pool3_fc
I1213 17:23:06.663554 25184 net.cpp:454] pool3_fc <- pool3_conv
I1213 17:23:06.663570 25184 net.cpp:411] pool3_fc -> pool3_fc
I1213 17:23:06.664876 25184 net.cpp:150] Setting up pool3_fc
I1213 17:23:06.664896 25184 net.cpp:157] Top shape: 10 128 41 41 (2151680)
I1213 17:23:06.664906 25184 net.cpp:165] Memory required for data: 2587476720
I1213 17:23:06.664919 25184 layer_factory.hpp:77] Creating layer relu_pool3_fc
I1213 17:23:06.664942 25184 net.cpp:106] Creating Layer relu_pool3_fc
I1213 17:23:06.664963 25184 net.cpp:454] relu_pool3_fc <- pool3_fc
I1213 17:23:06.664978 25184 net.cpp:397] relu_pool3_fc -> pool3_fc (in-place)
I1213 17:23:06.664994 25184 net.cpp:150] Setting up relu_pool3_fc
I1213 17:23:06.665005 25184 net.cpp:157] Top shape: 10 128 41 41 (2151680)
I1213 17:23:06.665014 25184 net.cpp:165] Memory required for data: 2596083440
I1213 17:23:06.665024 25184 layer_factory.hpp:77] Creating layer drop_pool3_fc
I1213 17:23:06.665035 25184 net.cpp:106] Creating Layer drop_pool3_fc
I1213 17:23:06.665043 25184 net.cpp:454] drop_pool3_fc <- pool3_fc
I1213 17:23:06.665055 25184 net.cpp:397] drop_pool3_fc -> pool3_fc (in-place)
I1213 17:23:06.665101 25184 net.cpp:150] Setting up drop_pool3_fc
I1213 17:23:06.665117 25184 net.cpp:157] Top shape: 10 128 41 41 (2151680)
I1213 17:23:06.665125 25184 net.cpp:165] Memory required for data: 2604690160
I1213 17:23:06.665134 25184 layer_factory.hpp:77] Creating layer pool3_ms_nyuv2_40cls
I1213 17:23:06.665149 25184 net.cpp:106] Creating Layer pool3_ms_nyuv2_40cls
I1213 17:23:06.665160 25184 net.cpp:454] pool3_ms_nyuv2_40cls <- pool3_fc
I1213 17:23:06.665172 25184 net.cpp:411] pool3_ms_nyuv2_40cls -> pool3_ms
I1213 17:23:06.665511 25184 net.cpp:150] Setting up pool3_ms_nyuv2_40cls
I1213 17:23:06.665531 25184 net.cpp:157] Top shape: 10 40 41 41 (672400)
I1213 17:23:06.665540 25184 net.cpp:165] Memory required for data: 2607379760
I1213 17:23:06.665555 25184 layer_factory.hpp:77] Creating layer conv4_1
I1213 17:23:06.665567 25184 net.cpp:106] Creating Layer conv4_1
I1213 17:23:06.665577 25184 net.cpp:454] conv4_1 <- pool3_pool3_0_split_1
I1213 17:23:06.665596 25184 net.cpp:411] conv4_1 -> conv4_1
I1213 17:23:06.668958 25184 net.cpp:150] Setting up conv4_1
I1213 17:23:06.668980 25184 net.cpp:157] Top shape: 10 512 41 41 (8606720)
I1213 17:23:06.668990 25184 net.cpp:165] Memory required for data: 2641806640
I1213 17:23:06.669005 25184 layer_factory.hpp:77] Creating layer relu4_1
I1213 17:23:06.669028 25184 net.cpp:106] Creating Layer relu4_1
I1213 17:23:06.669041 25184 net.cpp:454] relu4_1 <- conv4_1
I1213 17:23:06.669054 25184 net.cpp:397] relu4_1 -> conv4_1 (in-place)
I1213 17:23:06.669069 25184 net.cpp:150] Setting up relu4_1
I1213 17:23:06.669080 25184 net.cpp:157] Top shape: 10 512 41 41 (8606720)
I1213 17:23:06.669090 25184 net.cpp:165] Memory required for data: 2676233520
I1213 17:23:06.669098 25184 layer_factory.hpp:77] Creating layer conv4_2
I1213 17:23:06.669113 25184 net.cpp:106] Creating Layer conv4_2
I1213 17:23:06.669123 25184 net.cpp:454] conv4_2 <- conv4_1
I1213 17:23:06.669137 25184 net.cpp:411] conv4_2 -> conv4_2
I1213 17:23:06.676084 25184 net.cpp:150] Setting up conv4_2
I1213 17:23:06.676110 25184 net.cpp:157] Top shape: 10 512 41 41 (8606720)
I1213 17:23:06.676118 25184 net.cpp:165] Memory required for data: 2710660400
I1213 17:23:06.676134 25184 layer_factory.hpp:77] Creating layer relu4_2
I1213 17:23:06.676146 25184 net.cpp:106] Creating Layer relu4_2
I1213 17:23:06.676165 25184 net.cpp:454] relu4_2 <- conv4_2
I1213 17:23:06.676184 25184 net.cpp:397] relu4_2 -> conv4_2 (in-place)
I1213 17:23:06.676201 25184 net.cpp:150] Setting up relu4_2
I1213 17:23:06.676213 25184 net.cpp:157] Top shape: 10 512 41 41 (8606720)
I1213 17:23:06.676223 25184 net.cpp:165] Memory required for data: 2745087280
I1213 17:23:06.676231 25184 layer_factory.hpp:77] Creating layer conv4_3
I1213 17:23:06.676246 25184 net.cpp:106] Creating Layer conv4_3
I1213 17:23:06.676257 25184 net.cpp:454] conv4_3 <- conv4_2
I1213 17:23:06.676270 25184 net.cpp:411] conv4_3 -> conv4_3
I1213 17:23:06.683403 25184 net.cpp:150] Setting up conv4_3
I1213 17:23:06.683437 25184 net.cpp:157] Top shape: 10 512 41 41 (8606720)
I1213 17:23:06.683447 25184 net.cpp:165] Memory required for data: 2779514160
I1213 17:23:06.683465 25184 layer_factory.hpp:77] Creating layer relu4_3
I1213 17:23:06.683481 25184 net.cpp:106] Creating Layer relu4_3
I1213 17:23:06.683493 25184 net.cpp:454] relu4_3 <- conv4_3
I1213 17:23:06.683506 25184 net.cpp:397] relu4_3 -> conv4_3 (in-place)
I1213 17:23:06.683544 25184 net.cpp:150] Setting up relu4_3
I1213 17:23:06.683557 25184 net.cpp:157] Top shape: 10 512 41 41 (8606720)
I1213 17:23:06.683565 25184 net.cpp:165] Memory required for data: 2813941040
I1213 17:23:06.683575 25184 layer_factory.hpp:77] Creating layer pool4
I1213 17:23:06.683603 25184 net.cpp:106] Creating Layer pool4
I1213 17:23:06.683615 25184 net.cpp:454] pool4 <- conv4_3
I1213 17:23:06.683629 25184 net.cpp:411] pool4 -> pool4
I1213 17:23:06.683703 25184 net.cpp:150] Setting up pool4
I1213 17:23:06.683720 25184 net.cpp:157] Top shape: 10 512 41 41 (8606720)
I1213 17:23:06.683729 25184 net.cpp:165] Memory required for data: 2848367920
I1213 17:23:06.683738 25184 layer_factory.hpp:77] Creating layer pool4_pool4_0_split
I1213 17:23:06.683754 25184 net.cpp:106] Creating Layer pool4_pool4_0_split
I1213 17:23:06.683764 25184 net.cpp:454] pool4_pool4_0_split <- pool4
I1213 17:23:06.683779 25184 net.cpp:411] pool4_pool4_0_split -> pool4_pool4_0_split_0
I1213 17:23:06.683794 25184 net.cpp:411] pool4_pool4_0_split -> pool4_pool4_0_split_1
I1213 17:23:06.683857 25184 net.cpp:150] Setting up pool4_pool4_0_split
I1213 17:23:06.683876 25184 net.cpp:157] Top shape: 10 512 41 41 (8606720)
I1213 17:23:06.683887 25184 net.cpp:157] Top shape: 10 512 41 41 (8606720)
I1213 17:23:06.683895 25184 net.cpp:165] Memory required for data: 2917221680
I1213 17:23:06.683905 25184 layer_factory.hpp:77] Creating layer pool4_conv
I1213 17:23:06.683921 25184 net.cpp:106] Creating Layer pool4_conv
I1213 17:23:06.683931 25184 net.cpp:454] pool4_conv <- pool4_pool4_0_split_0
I1213 17:23:06.683954 25184 net.cpp:411] pool4_conv -> pool4_conv
I1213 17:23:06.719779 25184 net.cpp:150] Setting up pool4_conv
I1213 17:23:06.719813 25184 net.cpp:157] Top shape: 10 128 41 41 (2151680)
I1213 17:23:06.719823 25184 net.cpp:165] Memory required for data: 2925828400
I1213 17:23:06.719841 25184 layer_factory.hpp:77] Creating layer relu_pool4_conv
I1213 17:23:06.719861 25184 net.cpp:106] Creating Layer relu_pool4_conv
I1213 17:23:06.719874 25184 net.cpp:454] relu_pool4_conv <- pool4_conv
I1213 17:23:06.719887 25184 net.cpp:397] relu_pool4_conv -> pool4_conv (in-place)
I1213 17:23:06.719903 25184 net.cpp:150] Setting up relu_pool4_conv
I1213 17:23:06.719915 25184 net.cpp:157] Top shape: 10 128 41 41 (2151680)
I1213 17:23:06.719924 25184 net.cpp:165] Memory required for data: 2934435120
I1213 17:23:06.719934 25184 layer_factory.hpp:77] Creating layer drop_pool4_conv
I1213 17:23:06.719950 25184 net.cpp:106] Creating Layer drop_pool4_conv
I1213 17:23:06.719960 25184 net.cpp:454] drop_pool4_conv <- pool4_conv
I1213 17:23:06.719972 25184 net.cpp:397] drop_pool4_conv -> pool4_conv (in-place)
I1213 17:23:06.720021 25184 net.cpp:150] Setting up drop_pool4_conv
I1213 17:23:06.720037 25184 net.cpp:157] Top shape: 10 128 41 41 (2151680)
I1213 17:23:06.720046 25184 net.cpp:165] Memory required for data: 2943041840
I1213 17:23:06.720055 25184 layer_factory.hpp:77] Creating layer pool4_fc
I1213 17:23:06.720073 25184 net.cpp:106] Creating Layer pool4_fc
I1213 17:23:06.720084 25184 net.cpp:454] pool4_fc <- pool4_conv
I1213 17:23:06.720098 25184 net.cpp:411] pool4_fc -> pool4_fc
I1213 17:23:06.721395 25184 net.cpp:150] Setting up pool4_fc
I1213 17:23:06.721415 25184 net.cpp:157] Top shape: 10 128 41 41 (2151680)
I1213 17:23:06.721423 25184 net.cpp:165] Memory required for data: 2951648560
I1213 17:23:06.721437 25184 layer_factory.hpp:77] Creating layer relu_pool4_fc
I1213 17:23:06.721452 25184 net.cpp:106] Creating Layer relu_pool4_fc
I1213 17:23:06.721463 25184 net.cpp:454] relu_pool4_fc <- pool4_fc
I1213 17:23:06.721475 25184 net.cpp:397] relu_pool4_fc -> pool4_fc (in-place)
I1213 17:23:06.721489 25184 net.cpp:150] Setting up relu_pool4_fc
I1213 17:23:06.721501 25184 net.cpp:157] Top shape: 10 128 41 41 (2151680)
I1213 17:23:06.721509 25184 net.cpp:165] Memory required for data: 2960255280
I1213 17:23:06.721519 25184 layer_factory.hpp:77] Creating layer drop_pool4_fc
I1213 17:23:06.721555 25184 net.cpp:106] Creating Layer drop_pool4_fc
I1213 17:23:06.721578 25184 net.cpp:454] drop_pool4_fc <- pool4_fc
I1213 17:23:06.721604 25184 net.cpp:397] drop_pool4_fc -> pool4_fc (in-place)
I1213 17:23:06.721647 25184 net.cpp:150] Setting up drop_pool4_fc
I1213 17:23:06.721662 25184 net.cpp:157] Top shape: 10 128 41 41 (2151680)
I1213 17:23:06.721673 25184 net.cpp:165] Memory required for data: 2968862000
I1213 17:23:06.721683 25184 layer_factory.hpp:77] Creating layer pool4_ms_nyuv2_40cls
I1213 17:23:06.721707 25184 net.cpp:106] Creating Layer pool4_ms_nyuv2_40cls
I1213 17:23:06.721719 25184 net.cpp:454] pool4_ms_nyuv2_40cls <- pool4_fc
I1213 17:23:06.721735 25184 net.cpp:411] pool4_ms_nyuv2_40cls -> pool4_ms
I1213 17:23:06.722383 25184 net.cpp:150] Setting up pool4_ms_nyuv2_40cls
I1213 17:23:06.722400 25184 net.cpp:157] Top shape: 10 40 41 41 (672400)
I1213 17:23:06.722409 25184 net.cpp:165] Memory required for data: 2971551600
I1213 17:23:06.722424 25184 layer_factory.hpp:77] Creating layer conv5_1
I1213 17:23:06.722439 25184 net.cpp:106] Creating Layer conv5_1
I1213 17:23:06.722450 25184 net.cpp:454] conv5_1 <- pool4_pool4_0_split_1
I1213 17:23:06.722462 25184 net.cpp:411] conv5_1 -> conv5_1
I1213 17:23:06.729624 25184 net.cpp:150] Setting up conv5_1
I1213 17:23:06.729655 25184 net.cpp:157] Top shape: 10 512 41 41 (8606720)
I1213 17:23:06.729663 25184 net.cpp:165] Memory required for data: 3005978480
I1213 17:23:06.729679 25184 layer_factory.hpp:77] Creating layer relu5_1
I1213 17:23:06.729691 25184 net.cpp:106] Creating Layer relu5_1
I1213 17:23:06.729702 25184 net.cpp:454] relu5_1 <- conv5_1
I1213 17:23:06.729720 25184 net.cpp:397] relu5_1 -> conv5_1 (in-place)
I1213 17:23:06.729737 25184 net.cpp:150] Setting up relu5_1
I1213 17:23:06.729749 25184 net.cpp:157] Top shape: 10 512 41 41 (8606720)
I1213 17:23:06.729758 25184 net.cpp:165] Memory required for data: 3040405360
I1213 17:23:06.729768 25184 layer_factory.hpp:77] Creating layer conv5_2
I1213 17:23:06.729780 25184 net.cpp:106] Creating Layer conv5_2
I1213 17:23:06.729794 25184 net.cpp:454] conv5_2 <- conv5_1
I1213 17:23:06.729806 25184 net.cpp:411] conv5_2 -> conv5_2
I1213 17:23:06.737095 25184 net.cpp:150] Setting up conv5_2
I1213 17:23:06.737138 25184 net.cpp:157] Top shape: 10 512 41 41 (8606720)
I1213 17:23:06.737146 25184 net.cpp:165] Memory required for data: 3074832240
I1213 17:23:06.737164 25184 layer_factory.hpp:77] Creating layer relu5_2
I1213 17:23:06.737184 25184 net.cpp:106] Creating Layer relu5_2
I1213 17:23:06.737195 25184 net.cpp:454] relu5_2 <- conv5_2
I1213 17:23:06.737210 25184 net.cpp:397] relu5_2 -> conv5_2 (in-place)
I1213 17:23:06.737226 25184 net.cpp:150] Setting up relu5_2
I1213 17:23:06.737237 25184 net.cpp:157] Top shape: 10 512 41 41 (8606720)
I1213 17:23:06.737246 25184 net.cpp:165] Memory required for data: 3109259120
I1213 17:23:06.737256 25184 layer_factory.hpp:77] Creating layer conv5_3
I1213 17:23:06.737282 25184 net.cpp:106] Creating Layer conv5_3
I1213 17:23:06.737294 25184 net.cpp:454] conv5_3 <- conv5_2
I1213 17:23:06.737310 25184 net.cpp:411] conv5_3 -> conv5_3
I1213 17:23:06.744948 25184 net.cpp:150] Setting up conv5_3
I1213 17:23:06.744978 25184 net.cpp:157] Top shape: 10 512 41 41 (8606720)
I1213 17:23:06.744988 25184 net.cpp:165] Memory required for data: 3143686000
I1213 17:23:06.745003 25184 layer_factory.hpp:77] Creating layer relu5_3
I1213 17:23:06.745026 25184 net.cpp:106] Creating Layer relu5_3
I1213 17:23:06.745038 25184 net.cpp:454] relu5_3 <- conv5_3
I1213 17:23:06.745054 25184 net.cpp:397] relu5_3 -> conv5_3 (in-place)
I1213 17:23:06.745069 25184 net.cpp:150] Setting up relu5_3
I1213 17:23:06.745081 25184 net.cpp:157] Top shape: 10 512 41 41 (8606720)
I1213 17:23:06.745090 25184 net.cpp:165] Memory required for data: 3178112880
I1213 17:23:06.745100 25184 layer_factory.hpp:77] Creating layer pool5
I1213 17:23:06.745112 25184 net.cpp:106] Creating Layer pool5
I1213 17:23:06.745121 25184 net.cpp:454] pool5 <- conv5_3
I1213 17:23:06.745143 25184 net.cpp:411] pool5 -> pool5
I1213 17:23:06.745210 25184 net.cpp:150] Setting up pool5
I1213 17:23:06.745236 25184 net.cpp:157] Top shape: 10 512 41 41 (8606720)
I1213 17:23:06.745260 25184 net.cpp:165] Memory required for data: 3212539760
I1213 17:23:06.745270 25184 layer_factory.hpp:77] Creating layer pool5a
I1213 17:23:06.745293 25184 net.cpp:106] Creating Layer pool5a
I1213 17:23:06.745306 25184 net.cpp:454] pool5a <- pool5
I1213 17:23:06.745319 25184 net.cpp:411] pool5a -> pool5a
I1213 17:23:06.745363 25184 net.cpp:150] Setting up pool5a
I1213 17:23:06.745380 25184 net.cpp:157] Top shape: 10 512 41 41 (8606720)
I1213 17:23:06.745388 25184 net.cpp:165] Memory required for data: 3246966640
I1213 17:23:06.745398 25184 layer_factory.hpp:77] Creating layer fc6
I1213 17:23:06.745420 25184 net.cpp:106] Creating Layer fc6
I1213 17:23:06.745432 25184 net.cpp:454] fc6 <- pool5a
I1213 17:23:06.745447 25184 net.cpp:411] fc6 -> fc6
I1213 17:23:06.759423 25184 net.cpp:150] Setting up fc6
I1213 17:23:06.759474 25184 net.cpp:157] Top shape: 10 1024 41 41 (17213440)
I1213 17:23:06.759483 25184 net.cpp:165] Memory required for data: 3315820400
I1213 17:23:06.759502 25184 layer_factory.hpp:77] Creating layer relu6
I1213 17:23:06.759521 25184 net.cpp:106] Creating Layer relu6
I1213 17:23:06.759531 25184 net.cpp:454] relu6 <- fc6
I1213 17:23:06.759548 25184 net.cpp:397] relu6 -> fc6 (in-place)
I1213 17:23:06.759568 25184 net.cpp:150] Setting up relu6
I1213 17:23:06.759580 25184 net.cpp:157] Top shape: 10 1024 41 41 (17213440)
I1213 17:23:06.759589 25184 net.cpp:165] Memory required for data: 3384674160
I1213 17:23:06.759598 25184 layer_factory.hpp:77] Creating layer drop6
I1213 17:23:06.759611 25184 net.cpp:106] Creating Layer drop6
I1213 17:23:06.759621 25184 net.cpp:454] drop6 <- fc6
I1213 17:23:06.759639 25184 net.cpp:397] drop6 -> fc6 (in-place)
I1213 17:23:06.759681 25184 net.cpp:150] Setting up drop6
I1213 17:23:06.759697 25184 net.cpp:157] Top shape: 10 1024 41 41 (17213440)
I1213 17:23:06.759706 25184 net.cpp:165] Memory required for data: 3453527920
I1213 17:23:06.759716 25184 layer_factory.hpp:77] Creating layer fc7
I1213 17:23:06.759733 25184 net.cpp:106] Creating Layer fc7
I1213 17:23:06.759744 25184 net.cpp:454] fc7 <- fc6
I1213 17:23:06.759763 25184 net.cpp:411] fc7 -> fc7
I1213 17:23:06.763231 25184 net.cpp:150] Setting up fc7
I1213 17:23:06.763252 25184 net.cpp:157] Top shape: 10 1024 41 41 (17213440)
I1213 17:23:06.763262 25184 net.cpp:165] Memory required for data: 3522381680
I1213 17:23:06.763276 25184 layer_factory.hpp:77] Creating layer relu7
I1213 17:23:06.763289 25184 net.cpp:106] Creating Layer relu7
I1213 17:23:06.763298 25184 net.cpp:454] relu7 <- fc7
I1213 17:23:06.763316 25184 net.cpp:397] relu7 -> fc7 (in-place)
I1213 17:23:06.763332 25184 net.cpp:150] Setting up relu7
I1213 17:23:06.763345 25184 net.cpp:157] Top shape: 10 1024 41 41 (17213440)
I1213 17:23:06.763352 25184 net.cpp:165] Memory required for data: 3591235440
I1213 17:23:06.763362 25184 layer_factory.hpp:77] Creating layer drop7
I1213 17:23:06.763376 25184 net.cpp:106] Creating Layer drop7
I1213 17:23:06.763387 25184 net.cpp:454] drop7 <- fc7
I1213 17:23:06.763399 25184 net.cpp:397] drop7 -> fc7 (in-place)
I1213 17:23:06.763438 25184 net.cpp:150] Setting up drop7
I1213 17:23:06.763454 25184 net.cpp:157] Top shape: 10 1024 41 41 (17213440)
I1213 17:23:06.763463 25184 net.cpp:165] Memory required for data: 3660089200
I1213 17:23:06.763473 25184 layer_factory.hpp:77] Creating layer fc8_nyuv2_40cls
I1213 17:23:06.763495 25184 net.cpp:106] Creating Layer fc8_nyuv2_40cls
I1213 17:23:06.763507 25184 net.cpp:454] fc8_nyuv2_40cls <- fc7
I1213 17:23:06.763520 25184 net.cpp:411] fc8_nyuv2_40cls -> fc8_nyuv2_40cls
I1213 17:23:06.766379 25184 net.cpp:150] Setting up fc8_nyuv2_40cls
I1213 17:23:06.766402 25184 net.cpp:157] Top shape: 10 40 41 41 (672400)
I1213 17:23:06.766412 25184 net.cpp:165] Memory required for data: 3662778800
I1213 17:23:06.766425 25184 layer_factory.hpp:77] Creating layer fc_fusion
I1213 17:23:06.766443 25184 net.cpp:106] Creating Layer fc_fusion
I1213 17:23:06.766453 25184 net.cpp:454] fc_fusion <- data_ms
I1213 17:23:06.766463 25184 net.cpp:454] fc_fusion <- pool1_ms
I1213 17:23:06.766496 25184 net.cpp:454] fc_fusion <- pool2_ms
I1213 17:23:06.766507 25184 net.cpp:454] fc_fusion <- pool3_ms
I1213 17:23:06.766518 25184 net.cpp:454] fc_fusion <- pool4_ms
I1213 17:23:06.766528 25184 net.cpp:454] fc_fusion <- fc8_nyuv2_40cls
I1213 17:23:06.766556 25184 net.cpp:411] fc_fusion -> fc_fusion
I1213 17:23:06.766602 25184 net.cpp:150] Setting up fc_fusion
I1213 17:23:06.766618 25184 net.cpp:157] Top shape: 10 40 41 41 (672400)
I1213 17:23:06.766628 25184 net.cpp:165] Memory required for data: 3665468400
I1213 17:23:06.766638 25184 layer_factory.hpp:77] Creating layer fusion_interp
I1213 17:23:06.766654 25184 net.cpp:106] Creating Layer fusion_interp
I1213 17:23:06.766664 25184 net.cpp:454] fusion_interp <- fc_fusion
I1213 17:23:06.766675 25184 net.cpp:411] fusion_interp -> fusion_interp
I1213 17:23:06.766731 25184 net.cpp:150] Setting up fusion_interp
I1213 17:23:06.766747 25184 net.cpp:157] Top shape: 10 40 321 321 (41216400)
I1213 17:23:06.766757 25184 net.cpp:165] Memory required for data: 3830334000
I1213 17:23:06.766765 25184 layer_factory.hpp:77] Creating layer fusion_interp_fusion_interp_0_split
I1213 17:23:06.766777 25184 net.cpp:106] Creating Layer fusion_interp_fusion_interp_0_split
I1213 17:23:06.766793 25184 net.cpp:454] fusion_interp_fusion_interp_0_split <- fusion_interp
I1213 17:23:06.766805 25184 net.cpp:411] fusion_interp_fusion_interp_0_split -> fusion_interp_fusion_interp_0_split_0
I1213 17:23:06.766819 25184 net.cpp:411] fusion_interp_fusion_interp_0_split -> fusion_interp_fusion_interp_0_split_1
I1213 17:23:06.766890 25184 net.cpp:150] Setting up fusion_interp_fusion_interp_0_split
I1213 17:23:06.766906 25184 net.cpp:157] Top shape: 10 40 321 321 (41216400)
I1213 17:23:06.766917 25184 net.cpp:157] Top shape: 10 40 321 321 (41216400)
I1213 17:23:06.766927 25184 net.cpp:165] Memory required for data: 4160065200
I1213 17:23:06.766935 25184 layer_factory.hpp:77] Creating layer loss
I1213 17:23:06.766947 25184 net.cpp:106] Creating Layer loss
I1213 17:23:06.766957 25184 net.cpp:454] loss <- fusion_interp_fusion_interp_0_split_0
I1213 17:23:06.766968 25184 net.cpp:454] loss <- label_data_1_split_0
I1213 17:23:06.766993 25184 net.cpp:411] loss -> (automatic)
I1213 17:23:06.767010 25184 layer_factory.hpp:77] Creating layer loss
I1213 17:23:06.894690 25184 net.cpp:150] Setting up loss
I1213 17:23:06.894755 25184 net.cpp:157] Top shape: (1)
I1213 17:23:06.894765 25184 net.cpp:160]     with loss weight 1
I1213 17:23:06.894788 25184 net.cpp:165] Memory required for data: 4160065204
I1213 17:23:06.894800 25184 layer_factory.hpp:77] Creating layer accuracy
I1213 17:23:06.894831 25184 net.cpp:106] Creating Layer accuracy
I1213 17:23:06.894845 25184 net.cpp:454] accuracy <- fusion_interp_fusion_interp_0_split_1
I1213 17:23:06.894860 25184 net.cpp:454] accuracy <- label_data_1_split_1
I1213 17:23:06.894875 25184 net.cpp:411] accuracy -> accuracy
I1213 17:23:06.894959 25184 net.cpp:150] Setting up accuracy
I1213 17:23:06.894976 25184 net.cpp:157] Top shape: 1 1 1 3 (3)
I1213 17:23:06.894985 25184 net.cpp:165] Memory required for data: 4160065216
I1213 17:23:06.894995 25184 net.cpp:228] accuracy does not need backward computation.
I1213 17:23:06.895006 25184 net.cpp:226] loss needs backward computation.
I1213 17:23:06.895016 25184 net.cpp:226] fusion_interp_fusion_interp_0_split needs backward computation.
I1213 17:23:06.895026 25184 net.cpp:226] fusion_interp needs backward computation.
…
